theta_run_birds/exp_files15_tight_prune/conv_autoencoder.pth (torch, 997865 bytes, 19 tensors)

module.conv1.weight f4 [16, 1, 3, 3]
00000000: 0361 79be 130b 23be 9116 79be 64c5 913d
00000010: 792b 4f3e 5d0b 093d 3dc7 f93a e4ba 2a3e
00000020: c40c 7dbc 343c 9bbe 3852 fcbc dd07 d0bd
00000030: 8c9c 04bc f759 4abe d1ca b8bd de26 2dbe
00000040: a416 48be 483b 5e3e 8e9e 513e af1d 043e
00000050: 86fd 8e3e ea20 5e3d 5b91 803e 130b 143e
00000060: 759d 21be c171 b33d 6ee6 1e3e d0de 413d
00000070: 04ba 4a3e 3a00 3fbe f653 3e3e 67f4 d83d
00000080: 6320 20be fb35 9b3d 3b2f 04be e0d4 373e
00000090: e099 d83c 45ce 1dbe 1a1a f9bd 5881 88bd
000000a0: 10f7 323e cc97 45bd c259 fb3c 50f4 77be
000000b0: bdc2 d2bd 4ffc 7abe 0b30 ef3d c108 083e
000000c0: ee29 d6bd 096d b2bd be6f 01bd 4d0f 313e
000000d0: 2b12 03bd 5de2 39be 4fc6 e6bd 35de 0c3e
000000e0: a68c 483d 0227 163e 51d5 a33d 3bd0 563e
000000f0: 244f 9ebe 466a 02be b3c7 59be 163c ac3d
00000100: 3dce cc3d e796 b6bd 78b2 cbbc 29d4 753e
00000110: bf20 b2bd 56ba 103e f0db 983d c273 093e
00000120: 516b 23be 0e38 5abe 2be2 553e ca18 6a3e
00000130: 1bc0 2e3e 05ce 3d3d 51b1 b8b8 b220 2f3e
00000140: ea0d 293e f5f2 84be 49f6 21be a94a 0dbe
00000150: ec14 60bd 2af9 63bc 36e3 80bb 3847 10be
00000160: 25a8 463e 88eb ce3d 558e 37be 5320 633e
00000170: aebb 75be b48b 533e e05f 82be 76d9 cb3d
00000180: e48b d1bc d287 17be 9148 6f3d 5a9c 0c3c
00000190: cc74 54be 310d 883d 1115 9abe be24 653e
000001a0: c4ca fbbd e95d 2e3e 3e0e 07be 5e26 f0bd
000001b0: 7af7 833e 0397 63be ee99 8d3e 15f5 ecbd
000001c0: 7c97 85be 09b8 b2bc ba18 f83d b61b 433e
000001d0: 9aa2 69be 201a 7bbe f2dd 34be 8fd0 0a3e
000001e0: 1279 a2be 46b0 973c c7ac b5bd 67bb 923e
000001f0: a7ea 833e db7c 133e 4673 2cb7 2d7f 5a3e
00000200: 49f2 d2bd 4e23 073e f8d7 a2bd 2c82 a8bd
00000210: af08 b73d 1d27 d3bd 2585 57be 24df 293c
00000220: 757b 5b3e a256 3dbe 7cb9 493e df1d 933d
00000230: 4890 513e 423a 3bbe d26a f53d 5e6c c43d
-0.24353413 -0.15922193 -0.24325015 0.071177274 0.20231427 0.033458102 0.001905657 0.16672856
-0.015444938 -0.3031937 -0.030800924 -0.1015775 -0.008093964 -0.19760881 -0.09023059 -0.16909358
-0.19539887 0.21702302 0.2047064 0.12901948 0.27927798 0.054230608 0.25110897 0.1445735
-0.15782721 0.08761931 0.1551759 0.04733163 0.19797522 -0.1865243 0.18586716 0.10593491
-0.15637355 0.07578655 -0.12908642 0.17952299 0.02644056 -0.15410717 -0.121631816 -0.06665295
0.1747706 -0.048240468 0.030682448 -0.24214292 -0.1029105 -0.2451031 0.11679085 0.1328459
-0.10457216 -0.08712203 -0.031600706 0.17290993 -0.03199975 -0.18152757 -0.11268293 0.1375664
0.048962258 0.14663318 0.07999671 0.20977871 -0.30919755 -0.12735853 -0.21267585 0.08409898
0.10000274 -0.08915501 -0.024865374 0.24006714 -0.08697652 0.14133582 0.07463825 0.13423064
-0.15958907 -0.21310446 0.20887057 0.22861019 0.1706547 0.046339054 -8.8068315e-05 0.17102316
0.16509214 -0.25966612 -0.15816607 -0.13798012 -0.054707453 -0.013914386 -0.0039333357 -0.14089668
0.1940008 0.10103518 -0.17925389 0.221803 -0.23997375 0.20658761 -0.25463772 0.09953587
-0.0255794 -0.14797905 0.058418814 0.008582199 -0.2074768 0.06643141 -0.30094197 0.22377297
-0.12294534 0.17028011 -0.13189027 -0.11726068 0.25774747 -0.22225575 0.27656502 -0.11570183
-0.26092136 -0.02181627 0.12114091 0.1905354 -0.22815934 -0.24521685 -0.1766279 0.13556121
-0.31732994 0.01851667 -0.08870845 0.28658602 0.25764963 0.14403097 -1.0278838e-05 0.21337576
-0.103001185 0.13197061 -0.07951349 -0.08227953 0.08937203 -0.10310195 -0.21046884 0.010368142
0.21433814 -0.18490079 0.19699663 0.07183432 0.20465195 -0.18283942 0.11983265 0.09590982

module.conv1.bias f4 [16]
00000000: dd49 72be 4af1 f13d d08a 18bd a541 93bd
00000010: ab04 7f3e fe97 563d c6bb 91bd 6002 3bbc
00000020: 28bb 823e 9d24 143e be30 24bd e35f f4bd
00000030: e095 e1bd 18bc bcbe c021 0a3e 177b b33e
-0.23660989 0.118136 -0.037241757 -0.07190255 0.24904124 0.052391045 -0.07115893 -0.01141414
0.25533414 0.14467092 -0.040085547 -0.119323514 -0.110149145 -0.36862254 0.13489437 0.35054848

module.conv2.weight f4 [32, 16, 3, 3]
00000000: 1873 a03d 5e4c 76bd 403d 40bc 75e8 bcbd
00000010: 6ff8 4cbd 981a 85bd 2c87 833d a95a 673d
00000020: c844 adbc 3596 843d 0807 cdbb 750d 8ebc
00000030: 7c08 63bd 7538 13be 6947 3a3d 4521 fb3c
00000040: 8f76 953d b891 6d3d 8b0e 263d 6ba5 32bd
00000050: 9871 44bd 6ce3 53bd 7903 553d 6fca 65bd
00000060: 16b5 aabd 16f2 933c cf8a 80bd a1e6 4dbd
00000070: c007 943d ac67 5f3c b0fe 553d 5d2f 93bd
00000080: 1a7f c53b 5e33 8ebd 6110 093d 1d46 16bd
00000090: 24b5 8abd f675 3a3c 8c90 e1bd 653a 85ba
000000a0: c8c2 c3bd 686e a8bd b3e4 013e 0df5 083a
000000b0: 1b3e 22bd 1fbd 07bd d08a 3f3d 05c7 7bbb
000000c0: 617d a23d 3f06 3bbd 122f 9a3d bb5d a53d
000000d0: 709c ee3d 2439 a73d 56fd aa3d ca76 8e3b
000000e0: 2d10 c13a f5a4 96bc 7f70 583c ff9a c13d
000000f0: 1ce7 523c d36b 1dbd cc58 14bd f7c3 933c
00000100: fe02 63bd 7241 ad3a 588c 323b 241b 153a
00000110: 5460 88bb 3354 c5bd b486 913d 4be9 54bd
00000120: 6699 b73c 99bb 853d 7287 833c bf14 05bd
00000130: 1cb9 78bc 7efb d8bc b582 9dbd 78f2 31bc
00000140: 966f 59bd 0357 683d f361 44bb 724e 06bd
00000150: 05ec dabc 8a29 fb3b 42ca 4c3d 027a 993d
00000160: 26a1 28bd cf49 0cbc 4498 53bd f17f bbbc
00000170: 6376 0d3d 0502 b73b 5fcb 32bc a4df 9dbc
00000180: 542d 923d 42ad b83c 1382 163c 96ce 9c3b
00000190: feda 96bd f49d b6bd 882b 6c3d 38d6 0abd
000001a0: 887d 303d 2123 383d 400e 88bb 3b00 943d
000001b0: 884d f73c 341d acbc 099e e73c ca34 fbbc
000001c0: e810 63bd 0d64 663c 8602 4dbc 471f 23bd
000001d0: d210 94bd fe14 193c c817 50bd aae5 88bc
000001e0: 9ee8 363d cca9 ca3c 292b 3dbd fe59 57bd
000001f0: 6e79 253b 0818 a83d e714 f9bc 0123 72bd
00000200: 0990 b4bd ea3c 193d 25d8 553d 5cdf 883c
00000210: 7323 24bc d594 d43c 7858 d83d 69fa e73c
00000220: 97d1 8cbc 9c4c 663d b2ce b9bb 5d13 56bb
00000230: 0fcd 983c e899 36bd 1d97 69bd 2bbf a73d
00000240: 72a4 02bd ca08 533d ec61 91bd 9018 febb
00000250: 0ccf 303d b34f d0bc 6ccb 0c3d d561 a0bc
00000260: c5c9 3bbd 6610 45bd 32ca 9c3d 012c 103b
00000270: 0e44 003c b218 0fbd 534f 9d3d ab66 00bd
00000280: 24a7 4c3a 2a68 ab3d 1586 553d 93f2 3ebd
00000290: 73d0 b63c 0cba 6b3d 7796 6a3d 828b 2a3d
000002a0: 0cd7 16bd dd9a a03d 6bdb 523d 7e32 6dbd
000002b0: c317 073d 307e dabb 974f b6bc cf41 173d
000002c0: 480a 943d 7dd0 633d 5bb6 8e3c 5171 b9ba
000002d0: 7f91 313d 2a89 dabd 39a1 b5bc fa54 53bd
000002e0: b76a 7fbd 5876 8bbd b09c b9bc 5b33 65bd
000002f0: e7c8 503d d1a1 003d 0398 473c 848e e5bb
00000300: a542 33bd 2b1e 04bc f17a 863c e846 073d
00000310: 6a36 073c 3ec4 063d d617 1cbd 21cd afbc
00000320: e698 afbc 8132 d3ba 6d9c 23bd fc58 153b
00000330: acc1 533d 3661 893c 718e 303c 497f 843d
00000340: ba03 323c 623b d13c 97cb 2f3d 72e6 07bd
00000350: 86f6 1c3d 90e0 8fbc c7c3 a63d a7d4 733d
00000360: 267b d0bc 796d aa3a 3747 233d f7ce b1b9
00000370: cbf3 debc 0cf8 8c3d 3193 603d 4b6d c3bc
00000380: 899f 853d 7f9b 71bd cfc6 88bd 717a 4cbd
00000390: 88ec 81bd 22a7 68bd 094a 28bd a78d 8b3c
000003a0: 6bdf 90bc c375 523c 644d 623c 907e 8e3d
000003b0: 2545 1d3d 4ef8 2bbd 33e6 01bd 7192 9bbc
000003c0: c730 d6bc 58cb a53a 5628 d43b 5b24 5abd
000003d0: 4782 df3c 1822 b7bb 9dc9 6d3d 603f 30bb
000003e0: 02de 55bd 1ead 373c 05af 6dbd 47cc 853c
000003f0: d506 4f3d 7b0b 2abd 1650 873c 5a20 763d
0.078344524 -0.060131423 -0.011733353 -0.09224025 -0.050041612 -0.06499213 0.06422266 0.056482945
-0.021150962 0.06473962 -0.0062569417 -0.017340401 -0.055428013 -0.14377005 0.04547826 0.030655513
0.07298004 0.058000296 0.040541213 -0.043614786 -0.047959894 -0.05173056 0.052005265 -0.05610126
-0.08335321 0.018059772 -0.06276476 -0.050268773 0.07228041 0.013635557 0.052244842 -0.07186768
0.0060271146 -0.06943391 0.033462886 -0.03668796 -0.06772831 0.011380663 -0.11013898 -0.0010164498
-0.09558636 -0.08224183 0.12684898 0.00052245037 -0.03961001 -0.033139344 0.04676324 -0.0038418185
0.079340704 -0.045660254 0.07528509 0.08074518 0.11650932 0.081651956 0.08349101 0.004347657
0.0014729552 -0.018389205 0.013210415 0.09453391 0.012872484 -0.038432907 -0.036217496 0.01803778
-0.055422775 0.0013218357 0.0027244296 0.0005687943 -0.004161874 -0.096352 0.07105771 -0.051980298
0.022412013 0.06529922 0.016055796 -0.03249049 -0.015180852 -0.026487108 -0.07690946 -0.010861032
-0.053084932 0.056723606 -0.002996561 -0.032789655 -0.026723871 0.007664864 0.049997576 0.07493974
-0.041169308 -0.008562519 -0.051658884 -0.022888156 0.03453673 0.0055849575 -0.010912745 -0.01927168
0.07137552 0.022543553 0.009186286 0.004785369 -0.07365988 -0.08916846 0.057658702 -0.0338957
0.043088466 0.044955377 -0.0041520894 0.072266065 0.030188337 -0.021010019 0.0282736 -0.03066482
-0.055436045 0.01406194 -0.012512809 -0.03982475 -0.07229771 0.009343384 -0.05080393 -0.016711075
0.044655435 0.024739169 -0.04618374 -0.052576058 0.002524938 0.082077086 -0.030405475 -0.059115414
-0.08816535 0.037411608 0.052208085 0.016708069 -0.010018217 0.025949875 0.10563749 0.028317647
-0.017189784 0.056225404 -0.005670392 -0.003266535 0.018652467 -0.04458037 -0.05702888 0.08190759
-0.03189511 0.051522054 -0.07098755 -0.007754393 0.043166205 -0.025428629 0.034373686 -0.0195779
-0.04584672 -0.048111342 0.07655753 0.0021998885 0.0078287255 -0.03493566 0.076811455 -0.03134791
0.00078068883 0.08369477 0.052129824 -0.046618056 0.022316193 0.057550475 0.0572724 0.04163695
-0.03682618 0.07842038 0.051478785 -0.05790948 0.032981645 -0.0066678748 -0.022254748 0.036927994
0.072285235 0.05561875 0.017420938 -0.0014148151 0.043351647 -0.10670693 -0.022171604 -0.05159471
-0.06235763 -0.06809682 -0.022657722 -0.05595718 0.050972845 0.03140432 0.0121822385 -0.0070055146
-0.04376473 -0.008063833 0.016416045 0.033026606 0.008252719 0.032901995 -0.03810867 -0.021460118
-0.021435212 -0.0016113074 -0.0399441 0.0022788635 0.05169837 0.016769987 0.010776148 0.0646959
0.010865146 0.025541011 0.042918768 -0.033178754 0.03832104 -0.017563134 0.0814281 0.059528973
-0.025449347 0.0013002596 0.039862838 -0.00033914272 -0.027215859 0.06883249 0.054827873 -0.023855826
0.065245695 -0.058986183 -0.06678545 -0.049921457 -0.06343943 -0.056800015 -0.04108623 0.017035319
-0.017684659 0.012845459 0.013812397 0.06957734 0.03839602 -0.04198485 -0.031713676 -0.018990727
-0.026146306 0.0012649102 0.006474535 -0.053257328 0.0272838 -0.005588781 0.0580536 -0.0026893243
-0.052213676 0.011210708 -0.05802824 0.016332759 0.050543625 -0.041514855 0.01651768 0.060089447

module.conv2.bias f4 [32]
00000000: f4f6 853c b125 e6bd 2a70 f13d 3a9f 093e
00000010: 529a b0bd 29ff 63bc 0710 ffbd 62bf 1bbe
00000020: 0463 133d 9358 b43d 3afd f63d 499e e03d
00000030: 56aa 09be fa50 103e 3c77 d43c 0a9b 33bc
00000040: 46bd febc 0006 c13c a0d3 0d3e 5072 23be
00000050: de00 00be 20df 863d bc3d 8cbd e6d2 79bd
00000060: 7b1d d6bd 1f61 afbc 5b1b 263e bb16 49bd
00000070: dad8 ad3d 58cd a43d 9bbd 7e3d 1a11 2dbe
0.016353108 -0.11237658 0.11788972 0.13439646 -0.08623184 -0.013915815 -0.12454229 -0.15209725
0.0359831 0.08805957 0.12060018 0.109676905 -0.13443884 0.1409339 0.025935762 -0.010962257
-0.031096112 0.023562431 0.1385026 -0.15961576 -0.12500331 0.065855265 -0.068477124 -0.060992144
-0.10454842 -0.021408616 0.16221373 -0.049093943 0.08488627 0.08046979 0.06219254 -0.16901055

module.conv3.weight f4 [64, 32, 3, 3]
00000000: 05b7 813d c80f 85bd e2db 4fbd 8a15 273b
00000010: bcce 553c 7ff4 1c3d 9722 50bc 5aa1 1bbd
00000020: a988 3fbd bbe5 0c3d 6de6 cebc a2b1 5e3d
00000030: 5127 05bc 4716 09bd 4c7a 723a a3ee 1abd
00000040: 1d48 d8bc 5ef2 1e3d 0e94 d7bc 826d 0b3c
00000050: 83a5 13bc a553 9bbc 8b50 32bd aee9 2fbc
00000060: 28ef 9f3c d835 0e3d 8533 a7bc a780 16bd
00000070: 8043 1dbd c8c5 53bd c2ab 363d f9d0 d8bb
00000080: b84a 813d 5060 0f3d 3196 24bc 2d4c fbbb
00000090: 3b4f 523b 5d66 5bbd 86ea 3bbd f55b 1fbd
000000a0: 4f72 19bd 3581 243c a73a 233d d281 f3bc
000000b0: 64f2 833b be37 b83c 3723 7e3d 1f78 6abd
000000c0: ef34 aa3c 5fb1 fa3c 8e28 3f3d eabc 903d
000000d0: b128 603d dc4d c33c b963 083d 100a a0bc
000000e0: 4cb8 36bd 459c f4bb 8bd1 543b 709e 78bd
000000f0: f37f 283b e265 643a fcf5 8fba e88f 843c
00000100: 0276 5b3d b391 753d b1bf a63c bd1f 2abd
00000110: 5dd3 173c f53b 42bc 035c 723b 446f 403c
00000120: 35cc 1bbc 1c04 393d 19d1 eebc 1094 963c
00000130: 33cf ca3d 552b c6bc eca6 2b3d 730d 4f3d
00000140: a13b 963c 1f67 e6bc 9190 c03c 78e3 1a3d
00000150: b544 133d f428 123d ca81 a2bd 42cb 8a3d
00000160: 252a fe3a 138a 743b f03b 5fbd 3055 013b
00000170: 5ec7 68bc d60e b63b 3baa 53bb 5782 a4bc
00000180: 8208 373b 98d2 153d 48ce 8e3c 64e8 013d
00000190: 7861 1c3d 43af 6fbc 806a 0f3d 4844 bf3c
000001a0: 26e9 cd3c 2ff1 e03c 82ca c9ba 2fed 073d
000001b0: 527f 153d 565d 023d b02d a3bc 79fe a23c
000001c0: f18d 8cbc fc46 9c3b 5d71 4fbd 8437 e83c
000001d0: 158d c43c 9fc7 d1bc 247b 5bbc 537d 9e3d
000001e0: 8c5b 7d3d b81a 65bc 97f7 403d 5996 36bd
000001f0: ef68 95bb 0778 07bb 2e11 39bc 3350 7d3d
00000200: bb88 6cbc c9be d2bb daa7 e93c aa28 a3bc
00000210: 7d82 4abc 6bf0 343d a095 bdbb 1c56 5a3c
00000220: 7be3 163d f31f 1d3d 478b 3a3d 1d04 9d3d
00000230: 85c0 bebc 4c6f 6fbd d283 c2ba 9248 dfbc
00000240: 8c81 c4bc 89a9 f7bb 0263 f93c e9ba 1ebc
00000250: dbbb 18bc f8f9 bfbc 442f e83c 21a3 d93b
00000260: 0551 9bbc a441 80bd 0190 4f3d 647a 62bc
00000270: 4a84 073d 7730 063d cdf9 153a c5e6 40bc
00000280: f9eb e03c 0ea7 8d3b cd47 0a3c 115c f53c
00000290: 3093 b5bb 38f6 1f3d dcbb 16bc 875e 463d
000002a0: a855 f53c 1945 833d f221 49bc c0e9 e2bc
000002b0: 7ade dfbc 7f5f 3fbc e099 8dbc 3de0 753b
000002c0: f7cf 1bbc 4d6e f03a a24b 1ebd bfe4 eb3c
000002d0: 41ca e7bc 6c1b 59bb 35f6 83bd cc90 483d
000002e0: 662b 88bc 387b 8c3d 11d7 7b3d acf9 18bc
000002f0: 6b8c f1bb 72b3 babc 4cb6 06bd 512f 393d
00000300: 1a7c feba 7fc7 493d 90c8 5b3d 0be0 1cbd
00000310: 3630 5b3d 1b6f 5bbc c3c1 6ebc 215f 193d
00000320: 3700 913c 9aed b43c 09a8 043b 1ebf 3d3c
00000330: ab4b 223d 198c a13b f338 fa3c 16a3 f53c
00000340: 022c febc b23e 5d3d a97f 2ebd 993d a43c
00000350: 5505 c73b cc0e 8e3c 2f72 9bbb 5ce4 1fbc
00000360: dfaa a9bb 3d58 123d 1769 e7bc 4c22 103d
00000370: 7627 0a3d b7e6 483b d2bb b53b c357 49bc
00000380: 73bc 0abc 4198 6b3d 7c4d 103d e4be 333d
00000390: a85c 863b 08aa 343d 9aad 803c f246 c13c
000003a0: 8b93 da3c e527 023d 88aa 06bd 7e5a 0ebd
000003b0: 5fb1 e6bc 71df 453d b27c 653c 137d 863c
000003c0: e108 02bc 6323 02bc 2bdf 9e3b 058c 8e3c
000003d0: 2cfa b63b 1abb e63c aa8d 49bd 2a41 c3bc
000003e0: a10d 3cbd ef1e 153d 6023 f53c 6cce 373d
000003f0: e2de e5bc 65e1 81bd 873c 213c 9c2a 73bc
0.06333736 -0.06497151 -0.050746806 0.0025495016 0.013049778 0.038319107 -0.012703559 -0.037995674
-0.04676119 0.034398776 -0.02525636 0.054368623 -0.00812705 -0.03346851 0.0009249791 -0.037825238
-0.026401574 0.038805358 -0.026315715 0.008509995 -0.009011629 -0.018960783 -0.043533843 -0.010736866
0.019523218 0.03471932 -0.020410309 -0.036743786 -0.03839445 -0.05170229 0.044597395 -0.0066167084
0.063130796 0.03500396 -0.010045574 -0.007668993 0.0032090682 -0.053564418 -0.045877956 -0.038906056
-0.03746253 0.010040571 0.039850857 -0.02972499 0.004026698 0.022487517 0.062045302 -0.057243463
0.020777194 0.030602155 0.046669535 0.070672825 0.054726306 0.023840837 0.033298228 -0.019536048
-0.044609353 -0.007464918 0.003247353 -0.060697973 0.002571103 0.00087126915 -0.0010983343 0.016181901
0.053579338 0.059953403 0.020355077 -0.041534174 0.0092667015 -0.011855115 0.0036981113 0.011745278
-0.009509136 0.045169935 -0.02915244 0.018381149 0.09902801 -0.024190584 0.041907236 0.050549936
0.01833898 -0.028125344 0.023506435 0.037814587 0.035954196 0.035683587 -0.079349115 0.067770496
0.0019391222 0.0037313744 -0.05450052 0.0019734614 -0.014207689 0.005555968 -0.003229751 -0.020081682
0.0027928655 0.03657779 0.017432347 0.031715766 0.03817889 -0.014629188 0.035013676 0.023347989
0.025135588 0.027458755 -0.0015395435 0.03318518 0.036498375 0.031827293 -0.019919246 0.019896733
-0.017157527 0.004769204 -0.05064522 0.028346784 0.023993054 -0.025607882 -0.013396058 0.077387474
0.061854884 -0.013983421 0.04711112 -0.044576976 -0.004559628 -0.0020670907 -0.0112956 0.061844062
-0.014436896 -0.006431435 0.02852242 -0.019916851 -0.012360212 0.044174593 -0.005785659 0.013326194
0.036838036 0.038360547 0.04554298 0.076668 -0.02328516 -0.05845575 -0.0014840311 -0.027256284
-0.023987554 -0.007558052 0.030442718 -0.009688118 -0.009322132 -0.023434624 0.02834285 0.006641761
-0.018959532 -0.0626252 0.050674442 -0.0138231255 0.033085145 0.032761063 0.0005721122 -0.01177377
0.02745627 0.004322893 0.00843997 0.029951127 -0.0055412278 0.039053172 -0.009200063 0.048429992
0.02994807 0.06409664 -0.01227616 -0.027699351 -0.027327765 -0.011680483 -0.017285287 0.003751769
-0.009510032 0.0018343419 -0.038646348 0.028795598 -0.028294684 -0.0033127917 -0.06443445 0.048966214
-0.016622256 0.068594396 0.0614844 -0.00933687 -0.0073714755 -0.022790644 -0.032888696 0.04521114
-0.0019415647 0.04926252 0.05365807 -0.0382996 0.053512774 -0.013393189 -0.014572564 0.037444238
0.017700298 0.022085954 0.0020241758 0.01158121 0.039622944 0.004930031 0.030544734 0.029984992
-0.031026844 0.05401487 -0.042602215 0.020048903 0.0060736337 0.01734104 -0.0047438364 -0.009759035
-0.00517784 0.03572868 -0.028248353 0.035188958 0.03372904 0.0030655095 0.0055460716 -0.01228899
-0.008467781 0.057518248 0.035230145 0.04388322 0.004100401 0.044107467 0.01570778 0.0235934
0.026681682 0.031776328 -0.032877475 -0.03475427 -0.028160749 0.048308793 0.01400678 0.016417062
-0.007936687 -0.007943007 0.004848381 0.01740075 0.005584022 0.028165389 -0.049207367 -0.023834784
-0.045911435 0.036406454 0.029924095 0.044874594 -0.02806038 -0.06341819 0.009841091 -0.014841702

module.conv3.bias f4 [64]
00000000: fc68 8ebd 3262 013e 3f92 e0bd aec9 0cbe
00000010: 93fc 0cbe 70f4 b0bc 992e f2bd f877 8dbd
00000020: 193f df3d 13e0 df3d 4736 fe3d 8be2 fdbd
00000030: 1ea2 d6bd ed38 c1bd 26df f1bd 1541 f13d
00000040: 6568 2b3a 682b 3cbe 1f10 aa3d fb4a b13d
00000050: b0ef 0e3e 2158 b13d beac 01be 5bff 0a3e
00000060: d678 0c3e c351 68bd 0862 063e 61fb 50be
00000070: 6a0f fb3d 7e07 f7bd 269f 14be a147 28be
00000080: ff54 f73d a1dc cbbc c4a3 ed3d 30c1 aa3d
00000090: 7684 dabd 8d61 c6bd a5da ee3d aeaa 01be
000000a0: 7922 57bd 5efd f23d e946 01be 963b 18bd
000000b0: 6857 0f3e a657 f83d c749 053b 357e ef3d
000000c0: cfef d93d 78ac c3bd 17b6 04be afa8 853b
000000d0: 8428 9dbd 9ef7 203d f990 20be 1db6 f03d
000000e0: 22b0 a93d 2388 0dbe a7ac 033e 10ab 10be
000000f0: 740d 033e deb6 c1bd 1e45 35bd 4fb2 15be
-0.06953618 0.12635115 -0.10965394 -0.1374881 -0.13768224 -0.021600932 -0.11825294 -0.06907648
0.10900707 0.10931411 0.12412696 -0.12396725 -0.1048014 -0.09434686 -0.1181014 0.117799915
0.00065386883 -0.18375933 0.08303856 0.086568795 0.13958621 0.086593874 -0.12663552 0.13573973
0.1371797 -0.0567186 0.13123333 -0.20408393 0.122587994 -0.12061976 -0.14513835 -0.16433574
0.120767586 -0.024885477 0.116035014 0.08337629 -0.10669796 -0.09686575 0.11662797 -0.12662765
-0.05252311 0.11864732 -0.12624706 -0.0371662 0.13998187 0.121260926 0.0020338164 0.11693994
0.10641443 -0.0955438 -0.12960087 0.0040789465 -0.07673743 0.039298646 -0.15680303 0.11753485
0.08285548 -0.13821463 0.1285883 -0.14127755 0.127981 -0.09458707 -0.04425537 -0.146188

module.conv4.weight f4 [128, 64, 3, 3]
00000000: 50b2 213b 1f2d c8bb f623 e13a 699b 81bc
00000010: e139 a63c 7d0b 383d e18c ed3c 31d3 c7bc
00000020: bc0b 163d c407 bd3c bb4e 303a 7b89 8ebc
00000030: 6950 933c db38 143c ab96 5a3c 5963 263d
00000040: 23f1 a23b 4c1e 98bb 31cf abbc 0de8 093c
00000050: 777a 1e3c b2fa 8d39 441f b63c eed6 793c
00000060: abfa d03b f041 95ba eb98 dabc 8b23 ffbb
00000070: cfe4 a33c f161 f63b 93fe 873c 2770 1bbd
00000080: efc8 e1bc cf60 30bc 7521 4e3b 4c71 623b
00000090: 6951 e23c 6c22 0eb9 e53e 5ebb bcd4 04bd
000000a0: 9faa 8fbc fffa bebb 7070 aa3c bf46 09bd
000000b0: 0ba8 5a3c 0f11 6538 58b2 b8bb 5c56 00bc
000000c0: 50ed d33c 2520 86ba cfeb 2fbb 08d7 48bc
000000d0: d32f 40bd 1f7a dd3c 927e ecbc 6503 a03c
000000e0: 1d58 cf3c 5212 013d 657a 67bc 7563 a0bc
000000f0: 7a49 b73c 6b4d b73c 9f20 903b 08a5 343c
00000100: 70be 4fbc 0807 c5bc 5285 33bb 8928 cdbc
00000110: 5f6c 0ebc 58f7 ff3c 3a45 f03c 6db2 ef3c
00000120: 4048 ba3c a186 beba 0e71 6e3c 84b6 4bbc
00000130: 0d81 7a3c 9c97 31bc 836c 613b 6418 893c
00000140: ee88 09bd 0182 fdbc b6bc 1f3c 01bb 70bc
00000150: d5a6 863b f5d1 aa3c 2d4e 843c 8b89 50bc
00000160: bb0d 353d 423a 603d b6c0 563c b1d4 cebb
00000170: 5348 f4bb 5b74 de3c fe94 1dbd dbda 3339
00000180: 1a0d 1fbc 0d2f e5bb 457b 75bb da43 ae3a
00000190: 5116 123d d21f 91bc 6a8f 893a 6b17 86bc
000001a0: 4f08 a73c e4f7 e33b 5f75 e3bc da5a 52bd
000001b0: 09ef da3b ac93 b83c 623d 38bc af57 f1bc
000001c0: 8358 ccbc f500 e73c 1c02 6a3c c192 b53c
000001d0: 8fac 26bc 5759 cc3c 0033 2e3c df1d b13c
000001e0: 1617 e13c 5a92 e03b f8f3 f8bc 2898 ff39
000001f0: 7a9f 8cbc da92 4bbb 6d28 8b3b 1490 8d3c
00000200: 30a1 39bc e898 f4bc 1e76 6abc b138 c6bc
00000210: fe9e 6f3c 59c7 72bc 8e14 9c39 b976 adbc
00000220: 42b7 9ebc f0c0 76bc 882e 223c 6599 3c3d
00000230: f10e 493a 6651 44bc 1534 523c b022 7cbc
00000240: 11f9 dabc 658c 61bd 4bd9 f63c aef3 e8bb
00000250: 0b40 afbc 2e72 90bc 83f5 2f3d 60af ae3c
00000260: 1f64 8ebc b5c4 eabb b0a0 5f3c 248c 203b
00000270: ddfe d53c 0a2e a7bc 2c6f b9bb f685 233c
00000280: b8a2 cc3c b491 653b 1506 c03c 78d1 46bd
00000290: e6bd cd3c 07c5 f93c 3d75 6c3b 80f4 a6bc
000002a0: 9c13 0cbd 4e84 173d 3e65 4b3c d4a6 e73c
000002b0: e58a 1fbc 5ad8 373d 4b87 0a3c 48b0 a23b
000002c0: bdb5 46bd bdde f4b8 50cc 3d3b 186c 463d
000002d0: c77e b63c 0b11 9b3b 3829 373d 0437 f13c
000002e0: 4df6 cfbb c1b5 263c 5c2a d63c 9fd4 9bbc
000002f0: 5fb5 c9bc 7c39 51bc a89a 623c 57e9 f03c
00000300: 8dd9 d33c 5abe b23c 2994 593a 1ae9 d7bc
00000310: e4ed ca3c 68aa 24bb c9fc bbbb ac3a 61bc
00000320: fab1 51bb ecd4 063c 843d 953b f41f e4bb
00000330: f9ba 7bbb f1c9 9a3b 7ccb 13bd d5fc bc3a
00000340: bdc5 94bb 4e3a 7c3c d247 323d 5519 d53c
00000350: 24c7 143d 51fc 393d 5a9d 243d 7827 d33c
00000360: 033f 873c f513 843c 0ba5 35bb 7104 92bd
00000370: 5e75 9bbc 7283 6439 6749 38bd f096 19bd
00000380: 6adb 14bd 2ef5 913b dd16 233c cf81 cb3c
00000390: 8947 fabc f8e1 123d 6efd d03c e334 95bb
000003a0: f74d 193d 1005 1f3c 1ad2 7c3c a710 abbc
000003b0: 7139 8d3c b711 0bbd d352 583b 39ac e0bc
000003c0: e199 ec3a b974 d23b edbe abbc 8ef4 043c
000003d0: 7b55 9e3c 6d94 f2bb 4916 eabc 5edc 1d3c
000003e0: ef9f 57bc 0bd4 f8bc c473 ebbb 9a13 f7bc
000003f0: aaaa 193d f166 323b d429 e5bc 8482 7a3b
0.0024672933 -0.0061088945 0.0017176855 -0.015821176 0.02029127 0.04493283 0.02899784 -0.024392696
0.036632285 0.023074992 0.0006725599 -0.01739954 0.017982678 0.0090467585 0.013341586 0.04062209
0.0049725934 -0.0046422835 -0.02097282 0.008417142 0.009672753 0.00027080398 0.022231705 0.015248997
0.006377538 -0.0011387449 -0.026684245 -0.0077862195 0.020006565 0.0075189997 0.016600883 -0.037948754
-0.027561633 -0.0107652685 0.0031453047 0.0034552393 0.02762671 -0.00013554998 -0.0033912 -0.03242944
-0.017537413 -0.005828261 0.020805568 -0.033514734 0.013345729 5.461374e-05 -0.0056364946 -0.00783309
0.025869995 -0.0010232968 -0.0026843434 -0.012258299 -0.04692061 0.027035771 -0.028868947 0.019532869
0.02531057 0.031511612 -0.014128302 -0.019578675 0.022373904 0.022375783 0.00439842 0.011025675
-0.012679681 -0.024051204 -0.0027392698 -0.025043743 -0.00869283 0.031245872 0.029329885 0.029259885
0.02273953 -0.0014535972 0.0145533215 -0.012433652 0.015289557 -0.010839369 0.0034396953 0.016735263
-0.033577852 -0.03094578 0.009749582 -0.014693023 0.0041092434 0.020852068 0.016150558 -0.012728105
0.044202548 0.05474306 0.013107469 -0.006311976 -0.007454911 0.027155092 -0.03847217 0.000171523
-0.0097077135 -0.0069941343 -0.0037457508 0.0013295368 0.035665814 -0.017715368 0.0010495011 -0.016368588
0.020389704 0.006957041 -0.027765928 -0.051356174 0.0066813272 0.022531353 -0.011245104 -0.029460756
-0.02494455 0.028198699 0.0142827295 0.022164704 -0.010172977 0.024944944 0.010632277 0.021620689
0.027476829 0.006853384 -0.03038977 0.00048750755 -0.017165888 -0.0031062872 0.0042467625 0.017280616
-0.011329934 -0.029858068 -0.014310388 -0.024196954 0.014625309 -0.014818036 0.00029769953 -0.021174775
-0.019374494 -0.015060648 0.009898789 0.046044726 0.0007669768 -0.0119822975 0.0128298 -0.0153891295
-0.026730092 -0.05506553 0.03013291 -0.007109127 -0.021392843 -0.01763257 0.042958748 0.02132386
-0.017381726 -0.0071645626 0.013649151 0.0024497593 0.026122505 -0.020407695 -0.0056590047 0.009980669
0.024979934 0.0035029473 0.0234404 -0.04853961 0.025114965 0.030489458 0.0036080622 -0.020380259
-0.03419839 0.03699141 0.012414275 0.028277792 -0.009737705 0.044884063 0.008455108 0.004964862
-0.048513163 -0.00011676315 0.002896089 0.04844293 0.022277249 0.0047322563 0.044717044 0.029445179
-0.0063465 0.010175169 0.026143245 -0.019022284 -0.024622617 -0.012770053 0.013830818 0.02940814
0.025860572 0.021819282 0.00082999707 -0.026356269 0.024771638 -0.0025125984 -0.0057369214 -0.013746899
-0.0031996951 0.0082294755 0.0045544524 -0.006961817 -0.0038411005 0.0047237803 -0.03608273 0.0014418612
-0.004540174 0.01539476 0.043525524 0.026013056 0.036322728 0.045406643 0.040189125 0.025775656
0.016509539 0.016122798 -0.0027716781 -0.071297534 -0.018976863 0.00021792742 -0.044991877 -0.03749746
-0.036342062 0.0044542765 0.0099541815 0.024842171 -0.030551689 0.03586003 0.02551147 -0.0045534237
0.03742787 0.009705797 0.0154309515 -0.020881964 0.017239304 -0.03395244 0.0033008351 -0.027425872
0.001805123 0.006422606 -0.020965064 0.008114947 0.01932787 -0.0074029476 -0.02857508 0.009635059
-0.01316069 -0.030374547 -0.007185431 -0.030160714 0.037516274 0.0027222002 -0.027974047 0.0038224766

module.conv4.bias f4 [128]
00000000: fc5f 183e f93c dd3d 8f8c b8bd e89c edbd
00000010: 74be b33d f28b cabd 26a8 a83d 08ad 843c
00000020: 54cd cebc 196a ca3d a2ae c23d 4842 60bd
00000030: fe48 5abd 4ac2 dabd cf30 f5bd 8df9 89bd
00000040: a82f a7bd 80e2 d5bd 5e80 67bc 4516 b0bd
00000050: 194a cc3d 0231 bdbd 552f ccbd 9b94 cb3d
00000060: d328 b73d 277d 02be 8359 e2bd 42fc cd3d
00000070: 230a c73d e9bf debd dd51 73bd 085a 2bbd
00000080: c761 a8bd 0bf5 fd3d 39de cc3d ffce da3d
00000090: 09be a6bd 772e bebd ef8a cabd ca93 e2bc
000000a0: dfea 993d 1348 6bbd f4c9 bbbd dfd8 c43d
000000b0: 631e 8e3d d9f0 353d d463 b83d e9db c73d
000000c0: 3df5 b23d 2728 00be 9862 b53d 91cd ac3d
000000d0: a1ad ec3d 0c86 c7bd 0c9a ba3d d9a1 9ebd
000000e0: 685b cebd 073e 6f3d a733 b03d 69a5 dabd
000000f0: 7df4 e2bd 3c94 dd3d 2bba 94bd b694 c9bd
00000100: 3dfb 623d 81ee 50bd 3cd2 ce3d fc13 b63d
00000110: 75df fb3d ca8f 18bd 723d d6bd 1819 ba3d
00000120: 06fd 8a3d 40ba ffbd e0b5 b43d b006 cb3d
00000130: 5e23 c4bd 893d df3d 5606 35bd 1089 bfbd
00000140: 9c45 01be aa35 f0bd 6a95 a93d 94f9 cfbd
00000150: 7be8 873d 2a17 463d ea72 e8bd c68c febc
00000160: a81d 5a3d 08fe 64bb f44d c7bd 7647 e9bd
00000170: 4f0e bb3d ceb6 b6bd d4eb 5fbd a098 d4bd
00000180: 72d3 ed3d f7b5 9abd fa15 983d ba24 c4bd
00000190: 3381 e63d f8fb b5bd 989d e33d 19c3 dbbd
000001a0: 248b 78ba f759 cabd 8e19 c63d 31c6 65bd
000001b0: d92c d2bd 2ed2 cfbd ef0c d93d 9318 b63d
000001c0: 964b f5bd a7a5 ddbd ae8d a5bd 758d d8bd
000001d0: fb43 ccbd 9c6b dd3d 23c5 d23d 0192 aa3d
000001e0: b67e d23d 7354 e9bd 8e4f e73d 59ef 1f3d
000001f0: 6729 df3d d57b d1bc c77c fbbd 8735 ddbd
0.14880365 0.10802645 -0.090111844 -0.11602193 0.087765604 -0.09889974 0.08235197 0.016195789
-0.025244392 0.09883518 0.09505965 -0.05475071 -0.053292267 -0.10681589 -0.119722 -0.06737051
-0.081633866 -0.10443592 -0.014129726 -0.085979976 0.099750705 -0.09237863 -0.09969965 0.099404536
0.089433335 -0.12743054 -0.11052229 0.1005788 0.0971873 -0.10876448 -0.059404243 -0.041833907
-0.082217745 0.12400254 0.10003323 0.106840126 -0.08141715 -0.09286206 -0.09889781 -0.027658362
0.07515501 -0.057441782 -0.09169379 0.096116774 0.069393896 0.044419143 0.09003416 0.097587414
0.08738182 -0.12515317 0.08856696 0.08437646 0.115565546 -0.09742364 0.09111413 -0.07745714
-0.10076028 0.058408763 0.08603602 -0.10676081 -0.11081789 0.10819289 -0.07262071 -0.098428175
0.05541538 -0.051008705 0.10098693 0.088905305 0.122984804 -0.037246503 -0.104609385 0.090868175
0.06786542 -0.12486696 0.088237524 0.09913385 -0.09577058 0.10900409 -0.044195496 -0.093523145
-0.1262421 -0.117289856 0.082804516 -0.10155025 0.06636139 0.048361935 -0.11350043 -0.031072985
0.05325094 -0.0034941453 -0.09731665 -0.11390583 0.091335885 -0.08921586 -0.054668263 -0.103806734
0.116125956 -0.07554238 0.07426067 -0.095773175 0.112551115 -0.0888595 0.11114043 -0.10730571
-0.0009481183 -0.09880441 0.09672843 -0.056097213 -0.1026246 -0.101475105 0.1059817 0.08891406
-0.119773075 -0.10822611 -0.08083664 -0.10573856 -0.09973904 0.108115405 0.10291507 0.08328629
0.102780744 -0.113930605 0.11294471 0.03904662 0.10896569 -0.025571743 -0.12279659 -0.10801225

module.conv1T.weight f4 [128, 64, 3, 3]
00000000: 6806 8f3e fc53 8e3d c5e3 0a3e 774d 043e
00000010: e8fa 163e 408f c83e 88af a93e ea63 32be
00000020: 003b f6bb ca5d d53c b1f2 613c 504e 203e
00000030: bd7c 0c3d 5175 93be 9edf 213f 8b59 9c3e
00000040: a194 c53c 96bc 823e 5ff8 a43e 2e9e 803e
00000050: ee73 d43e e0a0 a0ba a6df 143e 308f 853e
00000060: a169 6a3e 63f3 813e 5d31 8abd 8a84 0f3e
00000070: e28f 9f3e 2403 883d b727 a53e d4a6 a6bd
00000080: 79ab 833e ce03 eb3d f3a6 2d3e b729 bc3b
00000090: 1133 793d a7c8 7a3e b1b0 803e f51c a5be
000000a0: 0bbe 8abe d5b7 e0bd 7b37 efbe bf86 76be
000000b0: a22e 11be d9b2 3ebe 6ced 0cbe d484 01be
000000c0: 4ae8 80bd 1c01 8b3d 0f15 3fbd 2b68 2b3e
000000d0: acba 023e a91d a53d b3a6 2dbe 8258 1b3e
000000e0: 9d6f 34be 554e 733e 264a 08bd 3b2b cabd
000000f0: 1d20 2dbd 4c69 e0bd 65c7 ff3c a546 32be
00000100: 14aa 25bf b112 0cbf 2ed5 2cbe 413f 36be
00000110: 1f7b ebbd 3e80 aabe 8367 f8be 2b06 88be
00000120: 9399 873e 37b3 4abd 4782 57bc 94f9 ad3d
00000130: 1f8d fd3c 7565 70bd f4ca e3bc 0b40 a9bd
00000140: c07b 48be ea16 c33e beb2 9e3e 65b2 813e
00000150: 2ff1 4b3e 5287 113e a330 833e 8127 3b3e
00000160: 20d0 353e 3465 cf3d c8af ef3d 10d6 d43d
00000170: 66fd 0b3e 88a0 ff3d 3f1d 05be 446c 3fbe
00000180: 0eda 04be fc16 f6bd 0619 8c3b 91ac 8e3e
00000190: adea 863e 4b7c b13e 16f2 363d 518d 0b3d
000001a0: b9cc 9d3e 0d83 833e 102a 5b3e ada5 2b3e
000001b0: d42d 483d 5f9b 823e 8f06 46bd cd5c 5dbe
000001c0: 22d5 78bc f722 cc3c 92fe 643e abdd 033d
000001d0: bf78 6bbe 72cf 473e 21da cc3e a4ca 7d3e
000001e0: ba66 133e 5add 113e e75b fc3d 448e 943e
000001f0: 2170 8a3d 2ff6 a13e 6890 b83d e33d 953e
00000200: 486f 31be 0d9d 4fbd 1fc8 be3c 5b27 06bd
00000210: d20b 70bb f89a 24bd 2a9f e0bd 13ca 62bd
00000220: 77b9 55bd da6a c8be 2348 583d 3ca9 163e
00000230: 8a01 c73c c1fa 36bd 9b59 51be 7550 3cbd
00000240: 38d4 8f3e 93ad 263d 17b1 983e 95d9 a5ba
00000250: f862 313e a2a8 72be 5f5e c1bd f7bc 773d
00000260: 4331 af3d 7454 1f3e 3e55 a53d ad0e d1bd
00000270: c093 1d3e 024a df3c e6a0 abbd 0242 723d
00000280: 5993 85bd 58de 84bd 3455 233f 92a4 9bbe
00000290: 31da cb3e 32f3 733d f90b 16be 2f9e 433e
000002a0: 5a75 09bd 702c 013d 3d37 113e 8acf cb3e
000002b0: 0316 703d 2c71 983e bd2c 81be 7a50 51be
000002c0: f077 60be 6887 6fbe 935c 12bd a68d 16be
000002d0: 36f8 623e b45c 5abd ac5d 87bd f92c b33d
000002e0: f9ca d4bd 3801 5f3d f38a bdbb f160 1cbe
000002f0: 8ec3 ffbd 6e00 00be 6617 103d 2dc3 113e
00000300: 2195 27bd 9064 2cbe c6c5 9fbe f13c 3dbd
00000310: 94b4 0a3d deb5 61bd ef27 e83c 1fb9 9ebd
00000320: dbfc 1f3c 3501 183e 823a 843d 204b a9bd
00000330: 761e bd3a 5b62 2fbd 5f8e 60be 1d2d 793d
00000340: 9a62 623d 826e a73e b4e4 823e 4c92 9d3c
00000350: 6efc 013e 43d8 463d 624d 8a3d 61a7 27bd
00000360: 496d 9dbd 5f44 57be 7d9c aabd e7be 63bd
00000370: 07ce f23b 8b6e ea3e 6a1e 773e e88f f03c
00000380: b90d 113f cfbe 5a3e 9613 953e 1354 18be
00000390: 4163 033e 0a71 ccbd a011 9a3e 678b 313e
000003a0: d84c e5bc cf88 c03e fade 113e e8cb c43d
000003b0: 1b44 613e cad6 a5bd 0d92 25be 6fd2 f6bd
000003c0: ca16 a93d 2b54 13be 4e2d f0bd 6df8 e33d
000003d0: a46c 863e b4a9 7ebd 97e5 25bd 8934 043d
000003e0: f23e 6ebd bf28 a9bc ec62 af3d 40a0 76bd
000003f0: d2b3 83bd e6ac 77be 6965 fcbc cda9 41be
0.27934575 0.069496125 0.1356345 0.12920175 0.1474415 0.3917179 0.33141732 -0.17420927
-0.0075143576 0.026045699 0.013790772 0.15654874 0.034298647 -0.28800443 0.6323184 0.30537066
0.024118723 0.25534505 0.32220742 0.25120682 0.41494697 -0.0012254976 0.1453844 0.26085806
0.22891857 0.25381002 -0.067476965 0.14015403 0.3116446 0.06641224 0.32256863 -0.08137289
0.2571676 0.11475335 0.16958217 0.0057422775 0.060839716 0.24490605 0.25134805 -0.32248655
-0.27098116 -0.10972563 -0.46722016 -0.24074839 -0.14177945 -0.18622912 -0.13762444 -0.12648326
-0.062943056 0.06787321 -0.046650942 0.16738956 0.12766522 0.08062298 -0.16958122 0.15170482
-0.17620702 0.2376035 -0.03327384 -0.09871527 -0.042266954 -0.10957584 0.031223008 -0.17409761
-0.64712644 -0.5471602 -0.16878197 -0.17797567 -0.11498093 -0.33300966 -0.48516473 -0.26567206
0.26484355 -0.04948732 -0.013153619 0.08494869 0.03095108 -0.058690507 -0.027806737 -0.08264168
-0.19578457 0.3810342 0.30995744 0.25331417 0.19916223 0.14211777 0.25623044 0.18276788
0.17755175 0.10126725 0.117034495 0.10392392 0.13670883 0.12481791 -0.12999438 -0.18693644
-0.12973806 -0.12016103 0.004275444 0.27866033 0.26350918 0.3466514 0.044664465 0.034070317
0.30820253 0.2568592 0.21402764 0.16762419 0.04887183 0.25509164 -0.0483461 -0.21617432
-0.015187534 0.024919016 0.22362736 0.03219382 -0.2299528 0.19512728 0.4001017 0.24784333
0.14394656 0.14244595 0.123222165 0.2901479 0.06759668 0.31633136 0.09011918 0.29148778
-0.17327607 -0.050686885 0.023288785 -0.032752376 -0.003662814 -0.040186852 -0.10967858 -0.055368494
-0.052178826 -0.3914402 0.05280317 0.14712995 0.024292726 -0.04467273 -0.20444338 -0.045975167
0.28091598 0.040692877 0.2982261 -0.0012653345 0.1732291 -0.23697141 -0.09441828 0.060482945
0.08554318 0.1555956 0.08072899 -0.10207877 0.15388393 0.02725697 -0.08380298 0.05914498
-0.06522245 -0.06487721 0.63801885 -0.30398995 0.39814904 0.0595581 -0.14653005 0.19103311
-0.03355918 0.03153652 0.14181228 0.39806777 0.058614742 0.29773843 -0.25229445 -0.20440856
-0.21920753 -0.23391497 -0.035732817 -0.14702472 0.22164997 -0.053311065 -0.06609663 0.08748812
-0.103902765 0.05444452 -0.0057843863 -0.15271355 -0.12488471 -0.12500164 0.035178564 0.1423461
-0.040913705 -0.16835237 -0.31205577 -0.046200696 0.03386362 -0.055105083 0.028339354 -0.07750153
0.009764875 0.1484421 0.06456472 -0.08266282 0.0014428634 -0.04281841 -0.2192931 0.06083404
0.055269815 0.32701498 0.25565112 0.019234799 0.1269395 0.048546087 0.06753041 -0.04093111
-0.0768686 -0.21022175 -0.08330629 -0.05560198 0.0074098143 0.45787463 0.24132696 0.029365495
0.56661564 0.2136185 0.29116505 -0.14875822 0.12830831 -0.09982498 0.30091572 0.17338334
-0.027990744 0.37604377 0.14245215 0.096092045 0.21998636 -0.080976084 -0.16168995 -0.12051856
0.082563 -0.14387576 -0.11727391 0.11131368 0.2625476 -0.06217356 -0.040502157 0.032276664
-0.058165498 -0.020649312 0.0856379 -0.06021142 -0.064307824 -0.2418705 -0.030810075 -0.1891243

module.conv1T.bias f4 [64]
00000000: 6a07 c4bd 258d c5bc 6bb9 ecbc 7e5d 07bd
00000010: edf9 9b3c 5f71 4fbc cc65 2e3c a203 afbc
00000020: af09 bf3c b94e 80bd 145b 933c 9596 2ebd
00000030: de3b 343c 273c eebc 8f52 33bc 92ff dabb
00000040: e4f1 19bd e4ae 3bbc de2f dcbb 7704 a5bc
00000050: 7465 f2bc 9a9e 4d3c 9eb4 c5bc c77a 903b
00000060: 0167 84be 1678 7bbd 8b90 cabc eb85 5dbd
00000070: 4423 bbbc de81 24bd d0c1 6fbe a039 453c
00000080: b064 93bd 10b9 2abd 56d8 d93c 21e5 debc
00000090: 3e9d babc fbb2 45bc 9689 99bc abeb 3b3c
000000a0: 242a e9bc 8913 1abd c909 9a3c 46a3 8dbc
000000b0: f4ff 7e3d 7549 babd 6f76 13bd a41b 12bd
000000c0: c86e 34bd 4933 da3a 388b 81bd aba0 08bd
000000d0: cd87 7e3b a17f 27bd 4f72 1f3c eb16 c9bc
000000e0: 29e4 71bc 59de c5bc 37d1 18bd e1aa 293c
000000f0: 9b3a 24bd 781b d3bd 849a b4bd a062 55bd
-0.095717266 -0.024115155 -0.028897008 -0.033048145 0.019040072 -0.012661307 0.010644387 -0.021364037
0.023320047 -0.06265015 0.017987765 -0.042624075 0.011000602 -0.029081417 -0.0109449765 -0.0066832984
-0.0375842 -0.011455271 -0.0067195734 -0.02014373 -0.029589392 0.012550021 -0.024133977 0.0044091674
-0.25859836 -0.06139382 -0.024727127 -0.054082792 -0.022843964 -0.040162914 -0.23413777 0.012037665
-0.07196939 -0.041680396 0.026592415 -0.027208867 -0.022780057 -0.012066598 -0.018742364 0.011469762
-0.028462477 -0.037616286 0.018803494 -0.017289769 0.062255815 -0.09096042 -0.03600162 -0.03567089
-0.04405096 0.0016647364 -0.06325382 -0.03335635 0.0038838268 -0.0408932 0.009731843 -0.024547061
-0.01476387 -0.024153875 -0.037308898 0.010355682 -0.040094953 -0.103079736 -0.08818534 -0.05209601

module.conv2T.weight f4 [64, 32, 3, 3]
00000000: ba53 63be ca55 7fbe 7c0b 273e 3f5a e33d
00000010: e56c 3c3d 747a 4b3d 3b99 20bf 05db 543c
00000020: 3125 1c3e 789c 313d f12a b83d 848c be3d
00000030: a61d e1bd 7626 a2bd 0fe1 6dbd 46bf 49be
00000040: f395 36bd e158 a93e 95d1 e83d 2dd3 b5be
00000050: 0985 5bbe 96ea 93be d561 38be 06ec 63be
00000060: c2f7 ddbd 204c 903e 959f 6bbe 6023 583d
00000070: 3d7b d4be 030d dbbe 5619 08be 8f49 613e
00000080: 821f b43d c89a 63be 2e63 ce3d aef0 ae3e
00000090: 67bc 2fbd 7bce c4be 17c4 203d 28ae 963d
000000a0: e444 20be 4f03 933d 9c06 b03e aadd b8bd
000000b0: 9281 4b3e 4767 183e 3fe6 d73e 4880 86be
000000c0: bb9b 3f3e 46cb b53e aec7 09be 4a6a 883e
000000d0: 9628 a73e d7b8 883e 4e9f 48bd f487 86be
000000e0: 15e9 df3d 4bc6 7ebe e24f 9ebd f383 b43d
000000f0: 2fbc b23b 006b c53e 1903 533e bace 89bb
00000100: 926c ca3d 3f12 6a3d 367e 3dbd bc82 8abe
00000110: 6726 9abe 709c 87bd 705e 313e ab89 853e
00000120: 8ee7 3ebe be2c 113e 0b51 a7be a298 e0bd
00000130: 8be9 903e 4de9 b9bd 866c d13d edf0 203e
00000140: 7d81 883e b770 a43d 6a30 5fbd c1f8 8a3d
00000150: 88c9 61bd 9ff3 09be 4f17 89bd f715 803e
00000160: 19c3 06bd ac2c 963d 867b 9bbe 8871 1cbe
00000170: 6e96 663d 56b2 47be 4ca6 8ebe fba7 7bbd
00000180: 60a3 41be b216 233e 2c6f 793e dfeb acbe
00000190: 60c4 a93e bc8f c8bc 9571 bbbd b51f 873e
000001a0: 438f 44bd 1a26 493b fb32 b73d a2d0 47bc
000001b0: fcf2 3a3e 3329 9abd 7ab5 0cbe f215 85bd
000001c0: a3d0 ca3c 09d7 d1bc ce63 2cbe 8cc4 793e
000001d0: a53b 2a3e 955f 4cbe ae2c 7d3d 01d4 f93d
000001e0: df3c 013d 463b 4c3d 21a1 2f3d 417a bfbd
000001f0: 66f8 2f3e 534f aebd 7017 25be 25dd 2ebe
00000200: 60a7 8bbe 9b5a 993d 0e70 e83d b67d 613d
00000210: 6b0e 9bbb 4f55 1f3f 0d9b 4ebe d2eb c0bd
00000220: 6863 c0be 2f8e 3a3e f792 873c f021 62bd
00000230: a0ee 90bd 14f2 60bd 6fc9 153e 3cb4 f9bd
00000240: 8951 0b3e 4fe2 7e3e c724 023e 66d1 0b3e
00000250: beeb 033e 887b 15be 6aa6 a73e 8e37 963e
00000260: b8cb 733e e38c 00bd b7eb 8eba b9e5 88be
00000270: 43a0 483e 5c70 bd3e a6e4 cc3c 80ed 413d
00000280: f3bf a73e 3d1a 733e 3c55 f6bd 99f3 41be
00000290: 9072 83bb da2e c23d e16a 19be ed7f e93d
000002a0: 7b15 10be 0d37 033f 8beb 863d 963d 37be
000002b0: 39a4 63be 441b 89be d08a bebb 2cb4 543d
000002c0: 826d 0fbe e87b 8ebd 51d9 95be 2031 1e3e
000002d0: 04d6 d3be aec5 92be 03c9 08bf f6c2 423e
000002e0: 5629 c3bd 8b93 653e 522d 983e 2a98 0fbe
000002f0: 2f53 8c3d 48f1 b9be 8012 08bd cff6 81bc
00000300: 4f08 d1be fa2d bb3e 58e2 363d 45e0 b9be
00000310: 0b38 61bb a028 bb3e 376a 0f3e c7e5 bcbd
00000320: c85a 79be b272 9e3e 263d e43e 5366 903d
00000330: 2d2f 283e 441e a93e ae42 c33d 3fd0 863d
00000340: 4d2e c03c 9606 413e 6426 95bb d738 9c3e
00000350: 5c7c 273e 8654 e33e 7719 123f f7c8 0b3f
00000360: 842c 483e 56c4 be3d e617 f7bd 2705 363d
00000370: 1965 8e3e 2718 303e e1aa 7e3e 9880 bd3d
00000380: ff79 b13e b1d6 da3c c26b 45be 3022 3abd
00000390: 258d 1d3d f807 0b3d 7e5a 883e d415 16bd
000003a0: f57c 013f e689 fe3e 4b96 a7bd b8cb cd3d
000003b0: 5596 523e 6a05 b73b 06a4 de3e e921 623e
000003c0: 1cbd cfbc 5cdc 143e bfaa 0d3e 4417 b0bd
000003d0: 487e ab3d a7fd 0c3f 8249 25be 97c5 fc3d
000003e0: 718c ecbd 9e98 2abd cf65 e83e 18bc 2d3e
000003f0: 3bb7 42be a67a 4cbd 5ba4 e93c 44b1 c23d
-0.22199908 -0.2493507 0.16312975 0.111011975 0.046002287 0.049677327 -0.6273381 0.012991671
0.15248562 0.04336211 0.089925654 0.09304145 -0.10991983 -0.07917492 -0.05807596 -0.19701871
-0.044576596 0.33075622 0.113680996 -0.35512677 -0.21437468 -0.28889912 -0.1800607 -0.22258005
-0.10838272 0.2818308 -0.23010094 0.05276811 -0.41500273 -0.42783365 -0.13290915 0.22000717
0.08795072 -0.22227013 0.10077511 0.34168 -0.042904284 -0.38438782 0.039249506 0.073574364
-0.1565128 0.071783654 0.34380043 -0.09026654 0.19873646 0.14883147 0.4216785 -0.26269746
0.1871175 0.35506648 -0.13455078 0.26643592 0.32648152 0.26703522 -0.04898005 -0.262756
0.10933129 -0.2488033 -0.0773008 0.0881423 0.005454562 0.38558197 0.2060665 -0.004205552
0.098839894 0.057146307 -0.046262942 -0.27052867 -0.30107424 -0.06621635 0.17321181 0.26081595
-0.18643019 0.14177224 -0.32679018 -0.109666124 0.2830318 -0.09077702 0.10225777 0.15716906
0.26661292 0.08029311 -0.05448953 0.06785727 -0.055123836 -0.1347184 -0.06693899 0.25016758
-0.032900903 0.07332739 -0.30367678 -0.15277684 0.056295805 -0.19501624 -0.2786125 -0.061439496
-0.18909979 0.15926626 0.24358815 -0.33773705 0.33157635 -0.0244826 -0.091525234 0.26391378
-0.047988188 0.0030692876 0.08945271 -0.012195738 0.18256754 -0.075273894 -0.13741103 -0.06498326
0.024757689 -0.025615232 -0.16834947 0.24391383 0.16624315 -0.19958337 0.061810188 0.1219864
0.03155219 0.049861215 0.042878274 -0.0934949 0.171846 -0.08511224 -0.16122222 -0.17076547
-0.27276134 0.07487985 0.11349498 0.055051528 -0.0047319434 0.62239546 -0.20176335 -0.09419979
-0.3757584 0.18218301 0.01654957 -0.055208147 -0.07076764 -0.054918364 0.14627622 -0.1219258
0.13605322 0.24891017 0.12709342 0.13654098 0.12882897 -0.14597905 0.3274415 0.2933926
0.23808181 -0.03138436 -0.0010903989 -0.26737764 0.19592385 0.36999786 0.025011372 0.04734564
0.32763633 0.23740478 -0.12027976 -0.18940581 -0.0040114596 0.094815925 -0.14982177 0.11401353
-0.14070694 0.51255876 0.06587895 -0.17894587 -0.22230615 -0.26778615 -0.0058148876 0.051929638
-0.14006618 -0.06957227 -0.29267362 0.15448427 -0.41374218 -0.28666443 -0.5343172 0.19019684
-0.095293686 0.22419564 0.29722077 -0.1402289 0.068518035 -0.36316895 -0.033220768 -0.015864758
-0.4082665 0.36558515 0.044649452 -0.36303917 -0.003436568 0.36554432 0.14005361 -0.09223514
-0.24351037 0.3094688 0.44577903 0.07050767 0.16424246 0.33030903 0.095342025 0.065826885
0.023459578 0.18850169 -0.0045516957 0.30512115 0.16356033 0.44400424 0.57070106 0.54603523
0.19548231 0.09314792 -0.12065105 0.044438507 0.27811506 0.17196713 0.24869873 0.09253043
0.34663388 0.026713701 -0.19279388 -0.04544276 0.038464684 0.033943146 0.2663154 -0.03664191
0.50581294 0.49714583 -0.08182963 0.10048622 0.2056516 0.005585362 0.43484515 0.22083248
-0.025358729 0.14537185 0.13834666 -0.085981876 0.083736956 0.5507454 -0.16141322 0.12342375
-0.115502246 -0.041649453 0.45390174 0.16966283 -0.1901521 -0.049921654 0.028520754 0.09506467

module.conv2T.bias f4 [32]
00000000: fe79 bfbc ed03 a53d cde5 183d 74e9 0abf
00000010: 89e7 0a3e 2451 6ebe f4e4 7c3c 0b77 04bd
00000020: 195a 62bd 3c3a 603d f07b eb3d 4094 703e
00000030: a073 e73c 46c7 323d ee0e a23d e36d ef3d
00000040: c9d0 9dbc 4bc7 16bd 1773 013e a0f4 e13d
00000050: 59d1 183e aa1d a8bd 3e5b fa3d c3bc f1bc
00000060: d1b4 7e3c fff2 3b3d f86d 033e 4a7d c5bc
00000070: fafb 893d f8d8 003e 8baa 6dbe 39e9 fc3d
-0.0233736 0.080573894 0.03732853 -0.5426247 0.13564886 -0.2327314 0.015435446 -0.03234009
-0.055261705 0.054743037 0.114982486 0.23494053 0.028253376 0.043647073 0.07913004 0.11690881
-0.019264596 -0.036811154 0.1264156 0.11032987 0.1492361 -0.08208783 0.12224434 -0.029508954
0.01554604 0.045886036 0.12834918 -0.024107594 0.06737514 0.12582767 -0.23209588 0.12349171

module.conv3T.weight f4 [32, 16, 3, 3]
00000000: 2d8e 333e 667a 94be 5ef0 03be a259 22bf
00000010: 8f3d 36bf a31f de3d a481 343e 0c63 fc3e
00000020: b6fa 463f f219 1bbe 0f5e 8d3e 3963 dcba
00000030: 094f f2bc 7331 9c3e ee89 f53d 8288 e73e
00000040: 64cf ff3e 2a8c c83d f633 963d d59e aa3c
00000050: 3e33 17be 0e40 1a3e fb77 a23e d61d 813e
00000060: 674e ffbc 712b a83e 7fe0 b83e 5db9 94be
00000070: a98f bb3d c4c6 9e3d 2dab e2bc 2ce3 9dbc
00000080: c612 22be 87dc 2b3e 82a8 c23e 62af 91bd
00000090: dd88 df3e 70d7 823e 50fa 8f3d 4adc f1bd
000000a0: 8596 20be d3b2 83be e352 2b3e 4125 06be
000000b0: de8f 87be d999 2f3e fdd2 b4bb 6a87 3fbd
000000c0: ebfd a23e 99c6 7c3d 0365 0e3f 0564 c63e
000000d0: 17f5 163f cd6f 9a3e a080 743e c5dd e23d
000000e0: 4173 da3d 93b1 9b3e 386e 6e3e a9a8 4c3f
000000f0: 8f2b 31bc 99fb 37bd 240a b7bd c819 df3e
00000100: d50b 96be 0e28 0abd 7aeb 843e 3f98 bebe
00000110: 47ca 3dbd 32d5 b53d 7089 973d ef94 b03e
00000120: 53e7 e13d 9fe6 b43e 85ad b53d 1d72 bb3c
00000130: b300 713c 788e e1bd 4dcf 8c3e c8ea 303f
00000140: f37e a13e 004c 2a3f 1e91 81be 2b84 b43e
00000150: a4a2 babe 8539 dbbd 13dc e63d 2bfc f1be
00000160: 05b2 b53d f2db 623d 63fa 833d d299 bebc
00000170: b9bf ee3d 25d2 a53e adc5 473d 3f20 393e
00000180: 71d9 c93c a7d4 213e a15e 053f fa19 053e
00000190: 61e6 bd3c 004a 1a3e be8a a03e 115e a2bd
000001a0: 6870 ef3d 8b44 9f3e 865c 163f a72d 013f
000001b0: c1eb ed3e 6036 c1bd 4076 6f3e 752f 313e
000001c0: f49b 953d 0dd0 463e cdf5 9f3e 4621 183f
000001d0: d55a 473f 9025 9e3d abac d6bd 1219 0d3e
000001e0: c296 b33e 5d2d 253e 02ff c53e 726f 84bd
000001f0: 50c1 283f 4d78 a43e 6152 e1bd c701 fe3c
00000200: 3bc7 95be 4c3d 0e3f 85d2 ba3c d401 c03e
00000210: d558 113e abb8 643d ae9d 073f 1575 6a3d
00000220: 81d3 5bbe af0e 373d 0935 9c3e 701d 3a3c
00000230: e147 a73e 8ab2 05be b17f ce3c a6d9 bb3d
00000240: 1522 1f3e 5862 ae3e 44ab e03d a082 7b3e
00000250: ba04 9f3e cd72 7d3e 1be1 093e 1064 133e
00000260: c564 113e daed 0d3e e5a7 403d 57b8 14be
00000270: ab77 59bd d5bc 4f3e 8360 1b3e 5563 ddbd
00000280: 2987 dfbb 8ec8 fabd 6459 143e 2c68 b1bd
00000290: 7f6b 2a3e aa22 3b3e 7298 b03e f3ec df3e
000002a0: d61f c5bd 274c a83e 1fb1 b73e e33e 63bc
000002b0: 9ee3 683e f629 c03d 8b27 8fbd db81 513e
000002c0: 36dc ac3e caa0 3c3e e634 113e d9a1 573d
000002d0: ccc7 0d3d 6fde 373c a070 f33d 2abe 6b3e
000002e0: fb74 19bd f196 03bd ff12 903c c195 853d
000002f0: 043e c33d 6d01 54bd ef11 f63c 26ed 923c
00000300: dfb1 c13c 4eec 793e 1cb5 503e 48cb c13e
00000310: 4d60 a33d 6726 ce3e 6b52 0dbc 8be9 e93d
00000320: 82bf 9f3d 1948 6c3e be62 ff3d 3c23 493e
00000330: b256 af3e 9360 873e 8562 303e 8ca2 fc3d
00000340: cb6b 5e3d 99d1 3c3e 7859 953e f122 44bb
00000350: b077 1e3e 1af0 b23d cd68 173f e8ea cc3e
00000360: ef67 92bd 357d af3d fe8f 313e 0150 843d
00000370: a345 003e 474b ca3e f0ec a53e 9f72 823e
00000380: e376 173f ea8b 16be 4d50 39bd b62f 9bbc
00000390: 794e 9b3d 1f05 573e 4bb3 113e 9514 943e
000003a0: 39dc 1a3d 5de6 3f3e 4cd0 413e ea75 833e
000003b0: c99c 8e3e 2309 813e 5c33 8b3e 3d92 b03e
000003c0: c4c3 143e 431b bc3e 4bc3 b23e 41a7 793d
000003d0: 80ec e63d 5b4e 3e3d e9a3 db3d c46c d2b9
000003e0: 4cf0 4b3e 4e57 02bc 5a9c 653d 5d94 d53d
000003f0: 1718 243e 0d98 18bd 3be5 123e 89ab 6f3e
0.17534705 -0.28999633 -0.12884662 -0.6341802 -0.7118768 0.10845878 0.17627579 0.49294317
0.77726305 -0.15146616 0.27610824 -0.0016814239 -0.029578703 0.30506477 0.119891986 0.45221335
0.49962914 0.09792359 0.073341295 0.02082769 -0.14765641 0.15063497 0.31732163 0.25218076
-0.031165315 0.32845643 0.36108777 -0.2904767 0.091582604 0.07752755 -0.027669514 -0.019273363
-0.15827474 0.16783343 0.38019186 -0.0711353 0.43659106 0.2555499 0.07030165 -0.11809595
-0.15682419 -0.2572237 0.16730838 -0.13100149 -0.2647695 0.17148532 -0.005518316 -0.04676
0.3183435 0.061712835 0.5562288 0.38748184 0.5896773 0.30163422 0.23877192 0.110774554
0.10666514 0.30408916 0.23284233 0.79944855 -0.010813608 -0.044917677 -0.08937481 0.43574357
-0.29305902 -0.033729605 0.25960904 -0.3722553 -0.046335485 0.088785544 0.07399261 0.34488627
0.1103045 0.353322 0.08870987 0.022881562 0.014709639 -0.11013502 0.27501908 0.6910825
0.31542167 0.66522217 -0.25306028 0.35257086 -0.3645221 -0.1070433 0.112724446 -0.472627
0.08871845 0.055385537 0.06444242 -0.023266707 0.11657662 0.3238689 0.048772503 0.18078707
0.024639817 0.15803777 0.5209752 0.1299819 0.023181142 0.15067291 0.31355852 -0.07928098
0.11691362 0.31106982 0.5873493 0.50460285 0.46468928 -0.09434199 0.23384953 0.1730326
0.07305136 0.19415303 0.3124222 0.5942577 0.77872974 0.07722008 -0.104821526 0.13779095
0.35075957 0.16130586 0.38671118 -0.06466569 0.6591997 0.32123032 -0.11002041 0.031006707
-0.29253563 0.5556228 0.022805462 0.37501395 0.14194043 0.055840176 0.52974975 0.057240564
-0.21467401 0.044691738 0.30509213 0.0113595575 0.32672027 -0.13056388 0.025207372 0.091723725
0.15540345 0.34059405 0.10970166 0.24561548 0.31058294 0.24750824 0.13464777 0.1439364
0.14198597 0.13860264 0.047035117 -0.14523445 -0.05309264 0.20286877 0.15173535 -0.10809962
-0.0068215323 -0.12245284 0.14487225 -0.08662447 0.16642569 0.18274942 0.34491307 0.43735465
-0.09625213 0.328706 0.3587732 -0.013869974 0.22743079 0.093830034 -0.06989964 0.20459692
0.33761758 0.18420711 0.14180335 0.052644584 0.03461437 0.011222466 0.11886716 0.2302176
-0.037465077 -0.03212637 0.017587183 0.06522704 0.09533313 -0.051759172 0.030037848 0.017935347
0.023644386 0.2440655 0.20381588 0.37850404 0.07977352 0.40263674 -0.008625607 0.11421498
0.07800199 0.23074378 0.124700055 0.19642347 0.3424583 0.26440868 0.17225082 0.12335691
0.054302018 0.1843933 0.29169822 -0.0029928053 0.15475345 0.08737202 0.5914429 0.4002297
-0.0714873 0.08568803 0.17340085 0.06460572 0.12526564 0.39510557 0.3240733 0.25478074
0.5916578 -0.1470181 -0.045242596 -0.018943649 0.07583327 0.20998047 0.14228551 0.28921953
0.037807677 0.1874022 0.18927115 0.256759 0.27853993 0.25202283 0.27187622 0.3448657
0.14527804 0.3673955 0.34914622 0.06095052 0.112755775 0.046461444 0.10724623 -0.00040135358
0.19915885 -0.007955385 0.05605731 0.10428689 0.16024815 -0.037254382 0.14345257 0.23405279

module.conv3T.bias f4 [16]
00000000: bb0c 5d3e d425 33bb 0cbf 963e 3ee0 5a3e
00000010: 4d02 88be f2b0 07be 1895 2e3e 053a 1d3e
00000020: 9b0d 883e 794b c5be c780 703e 2bfa 663d
00000030: 4cd6 953e 61e8 943d 8ac6 323e 5adc 7c3e
0.21586888 -0.002733578 0.29442632 0.21374604 -0.26564255 -0.13251093 0.17049062 0.15354164
0.2657288 -0.38534144 0.23486625 0.056390923 0.29265058 0.07270885 0.17458549 0.24693432
