theta_run_birds_unet/exp-single-file-ten-dim-full-node/conv_autoencoder.pth (torch, 997865 bytes, 19 tensors)

module.conv1.weight f4 [16, 1, 3, 3]
000000 6a 06 57 3e 7f a2 73 3e 19 b7 9c 3e d2 11 86 be
       0.2099854 0.23792456 0.30608442 -0.2618547
000010 3c 7b 23 be 3e 37 24 3d 9a 70 16 3e 01 5e 76 3e
       -0.15964979 0.040091746 0.14691392 0.24059297
000020 ff 49 84 be fe 27 50 be 62 f8 e7 3d 54 2d a0 bd
       -0.25837705 -0.20327756 0.11326672 -0.07821146
000030 44 b9 97 bd 47 cc 73 be 82 32 87 be 5b 35 a0 bb
       -0.074083835 -0.23808394 -0.26405722 -0.004889173
000040 8d 0c 86 be 69 70 f5 3d 47 9e 47 bd 76 12 91 3e
       -0.2618145 0.11984331 -0.04873493 0.28334397
000050 c0 90 ea bd 2f a5 7b bd 9a 4a ed 3d 9c 20 8b be
       -0.1145339 -0.06143683 0.11586495 -0.27173316
000060 2a ee 58 3e 2c c9 49 3e 92 ad 05 bd c5 a9 e0 bd
       0.21184602 0.19705647 -0.032636233 -0.10969881
000070 11 2f d1 bd 51 db 90 3e 08 04 12 3e 5b 9c 0a 3e
       -0.10214055 0.28292325 0.1425935 0.13536207
000080 b2 ee 3d 3d d8 0a 01 be a5 b2 b9 3c 28 6d df bc
       0.046370216 -0.12601793 0.022668192 -0.02727373
000090 a4 19 a4 3d c6 13 34 3e 11 ed 77 bc 4c a5 a0 be
       0.08012703 0.17585668 -0.015132205 -0.31376112
0000a0 65 e7 dd 3d 02 5e bf 3d e0 87 20 be 4f da 3d 3e
       0.10835151 0.093441024 -0.15676832 0.1854031
0000b0 ef 77 3f 3e b6 59 0f 3d 66 97 99 3e 3c 9b f2 3d
       0.18698095 0.034997664 0.2999832 0.11846015
0000c0 f6 65 5e bc a3 ca a1 be 4b e1 30 3e d1 27 55 3e
       -0.013574114 -0.31599912 0.17273442 0.2081597
0000d0 49 52 02 be a3 d1 09 3e f4 cc 0d be a3 8f 99 3e
       -0.12726702 0.13458876 -0.13847715 0.299924
0000e0 b6 2b d7 3d 26 26 99 3c 8e 44 11 3e 8c 76 8d bc
       0.10506384 0.018694948 0.14186308 -0.017268442
0000f0 ad 08 02 be 04 e8 a2 be f6 0d aa be 19 ff 48 3e
       -0.12698622 -0.3181764 -0.33213776 0.19628562
000100 3b a0 4a 3d fa 5d 78 3d b6 b5 78 bc af 5c ce bc
       0.049469214 0.060636498 -0.015180042 -0.02519068
000110 e2 ae 8c be 65 56 39 3a b7 43 1c be a4 b6 66 3e
       -0.27477175 0.0007070064 -0.15260206 0.2253061
000120 55 57 2d 3e dc cb 37 3e 5c e7 c1 3d d5 31 03 bc
       0.16927846 0.1794886 0.094679564 -0.008007486
000130 2a 2d 6e 3d 0e be c0 3d 51 76 5b be 54 c8 fc 3d
       0.05814854 0.0941125 -0.21431853 0.12342897
000140 5c 14 0e be 68 b1 80 3e 39 52 15 3d e1 70 74 be
       -0.13874954 0.2513535 0.036455367 -0.23871185
000150 10 e7 4f 3e e8 25 47 bc 79 de 76 be a2 34 88 3e
       0.20302987 -0.012155034 -0.24108304 0.26602656
000160 bc c8 c4 bd 1f 3f 0d be 3e 44 af bc 1c db 0d bd
       -0.096085995 -0.1379361 -0.021394845 -0.034632787
000170 4c 05 66 3e d4 e6 81 bd 9a 84 d9 bd 11 ac 98 3e
       0.22462958 -0.06342855 -0.10620995 0.29818776
000180 95 23 8d be bb cb 8d 3e 63 fb 82 3e 06 7b 9d 3e
       -0.2756621 0.27694497 0.25582418 0.30757922
000190 7d 28 1d be 61 33 0c be 3e 52 aa 3c d7 56 66 3d
       -0.15347476 -0.13691474 0.02079117 0.05623516
0001a0 a0 9a 83 3e c7 67 3c be 99 19 9c 3e 83 55 c8 bd
       0.25703907 -0.18398963 0.3048828 -0.09781935
0001b0 98 bc fb 3d e2 6f 47 3e 7e a3 2e 3e 15 b7 7c 3e
       0.12291831 0.19476274 0.17054555 0.24679215
0001c0 ae 57 7c be 86 08 51 be 33 fd 21 3e 65 ca 92 3e
       -0.24642822 -0.20413408 0.15819244 0.2867004
0001d0 0e ef 87 be 48 19 f1 3d 60 0e fa 3d 06 e3 c9 3d
       -0.26549572 0.117724 0.12209773 0.098577544
0001e0 96 23 29 be c9 43 43 be 9d c5 1f be 3a c9 60 be
       -0.16517481 -0.19068827 -0.15602727 -0.21951762
0001f0 6c fe 40 3e 6a 8d 8c bd 1e 9d 2c be 0b 83 66 be
       0.18847054 -0.0686291 -0.1685681 -0.22510926
000200 0c 9e 0a be 69 80 ae bd 22 bb 0b be 63 5a 06 3e
       -0.13536853 -0.08520586 -0.13645604 0.13120417
000210 bf e5 8d 3d ab 19 12 be 9c da 56 be b4 02 3f 3e
       0.06928586 -0.14267604 -0.2098183 0.18653375
000220 27 2a 44 be 8c 04 55 3d 43 b9 53 3d d4 b5 7b be
       -0.19156705 0.05200629 0.05169035 -0.2458108
000230 04 95 8d be 6a a6 90 bd 94 09 8e 3e 07 a1 1d be
       -0.27652752 -0.07062991 0.27741683 -0.15393458

module.conv1.bias f4 [16]
000000 b5 59 b5 be 3e 64 b2 3e 72 8f a6 bd b5 ba a3 be
       -0.35420004 0.34842104 -0.08132829 -0.31978384
000010 a7 2c 1c be 16 91 a5 3e c7 24 ae bd 7a 95 af be
       -0.15251409 0.32337254 -0.085031085 -0.3429373
000020 95 41 f2 bd b5 43 9b 3e 7a 0e 0e bd 0a 8e 09 3e
       -0.11828915 0.30325094 -0.034681775 0.1343309
000030 7a d2 ea 3c 2c ac 98 3e 48 1d 94 bc 08 be a1 3e
       0.028664816 0.29818857 -0.018080369 0.31590295

module.conv2.weight f4 [32, 16, 3, 3]
000000 72 4f af bc f9 14 99 bd 66 f5 8c 3d ba a7 34 ba
       -0.021400187 -0.07474703 0.068827435 -0.0006891448
000010 48 7c a2 bc a4 8e 9d bd ff f8 b1 3d 52 6e 94 bd
       -0.019834653 -0.07693222 0.0869007 -0.072476044
000020 ce 8a 24 bd 96 34 23 3c 85 45 ac bd d5 c8 62 3d
       -0.040171437 0.009961268 -0.08411697 0.05536731
000030 1f 46 7f 3c 5e 24 c6 bb f4 25 73 bd 05 a2 2f bd
       0.015580683 -0.006046816 -0.059362367 -0.042879123
000040 0a 05 f6 bd 5b 63 ca 39 64 8e 0f bd 5d 67 8d 3d
       -0.1201268 0.00038602468 -0.035047904 0.069044806
000050 45 f0 d8 3c 4a 0c fb bc 25 52 f9 3c cd 24 99 3c
       0.026481757 -0.030645508 0.030434677 0.018694306
000060 09 a2 55 bd 83 7c 5b bd f7 5e 2a 3d bd fb 50 3d
       -0.052156482 -0.05358554 0.04159447 0.051021326
000070 43 4a ec 3c 1e 5d 68 bc 32 77 67 3c 33 70 3d bd
       0.028844004 -0.014182357 0.0141275395 -0.04624958
000080 ee d0 9b bb 2f 37 f0 3c be 44 5b 3d f8 c4 98 3d
       -0.004755131 0.029323189 0.053532355 0.07459444
000090 64 5c 00 bd 99 fe 75 3d f6 fd 5b 3d 92 d3 92 3d
       -0.03133811 0.060057256 0.053708993 0.0716926
0000a0 d5 0f 9a 3d 09 8b 25 bd 7b bd 77 3d 4e dc 2a 3c
       0.07522551 -0.040415797 0.060483437 0.010428501
0000b0 16 d5 cd 3c 58 a1 12 bd 92 a6 4f bd b1 67 db bc
       0.025126021 -0.0357984 -0.050695963 -0.026782842
0000c0 ab 29 75 bd 88 62 6a bd 54 7b 8d 3d 8c 17 45 bc
       -0.05985419 -0.057222873 0.069082886 -0.01202954
0000d0 c5 ca de 3c a5 13 13 ba a2 8d 1b 3c 08 55 9c bd
       0.027196297 -0.0005610532 0.009494217 -0.07633406
0000e0 e5 6d 9a bd 9c c7 78 3d 19 99 b2 3c b6 e3 cd 3c
       -0.07540492 0.060737237 0.021801518 0.025132995
0000f0 9f 6a ad bc e8 51 84 bc 16 95 95 3d fa 38 61 bd
       -0.021169005 -0.016152337 0.073038265 -0.054985978
000100 5d 40 31 bc 1e 7b 4a bb 67 02 32 3d 0d 45 0d 3d
       -0.010818568 -0.0030896137 0.043459322 0.03448968
000110 7f 40 b5 bc 27 80 a3 3c 0f 65 12 bd a1 4b 34 3d
       -0.02212548 0.019958569 -0.03574091 0.044017438
000120 d6 77 4d 3d d9 ba 50 3d 06 f8 49 3d bc a3 85 bd
       0.050163113 0.05095944 0.0493088 -0.065253705
000130 2e f7 0c bd 89 c1 91 3d 91 1a d4 bc 02 c5 67 bc
       -0.034415416 0.07116992 -0.025891574 -0.014146091
000140 ed a0 52 39 64 67 2f bc d4 d2 65 3d e5 e3 7f 3d
       0.0002008711 -0.010705803 0.056109264 0.062473197
000150 b0 d0 9a bc 9d 90 8b bd 01 4a 9a bd 8f af cd 3b
       -0.018898338 -0.06814692 -0.075336464 0.0062770317
000160 ef 09 f1 3c 2f 07 6b 3d af 2f 09 bd e9 ac 65 3d
       0.029423682 0.057379898 -0.03349274 0.056073103
000170 50 2d 39 bc af fa 8c bd 3f d5 3e bc 00 3f 38 bd
       -0.011302307 -0.068837516 -0.0116475215 -0.044981956
000180 d3 5b 9d 3c 5f e9 49 3c d0 6a 18 bc 8a 5b 5c 3d
       0.019208824 0.012323706 -0.00930281 0.053798236
000190 4c f7 9e bd d4 f5 71 bc 7e 72 79 bd 5f be 8e 3d
       -0.07762012 -0.014768083 -0.060900204 0.06969904
0001a0 e8 54 91 3c 0b bc ca 3c 15 29 ec bc 1f e9 58 3d
       0.017740682 0.024747869 -0.028828183 0.052956697
0001b0 23 ba 7f 3d f3 0f 2e 3d a1 10 28 bd 6d 05 99 bd
       0.062433373 0.04249568 -0.041031484 -0.07471738
0001c0 9b ca 8c 3c 9e 33 19 bd 47 41 e1 3c 52 e4 f2 3c
       0.017186454 -0.03740274 0.027496947 0.029649887
0001d0 a0 75 e1 bc 72 55 80 bd b4 af c8 bd 16 f5 79 bd
       -0.027521908 -0.062662974 -0.09799138 -0.061024748
0001e0 f9 05 67 bd eb e6 2c 3d a6 9c 86 bd e9 54 19 bd
       -0.05640218 0.042212408 -0.06572847 -0.037434492
0001f0 18 3a 50 3c 3c ac 6b bd 41 0a 0e bd 77 86 88 bc
       0.012709163 -0.057537302 -0.034677748 -0.01666568
000200 15 77 52 3d 89 9f 3b bc 3e fc fb bc 0c 7e 4c bd
       0.051383097 -0.01145161 -0.030759927 -0.049924895
000210 61 51 bd bb 97 97 65 bd ce 4c c2 bb eb 82 b1 bd
       -0.0057775234 -0.05605277 -0.005929566 -0.08667549
000220 fe ca a1 bc 9c e9 77 3d b1 fd 70 3c 95 48 b7 bc
       -0.019750115 0.06052552 0.014708922 -0.022373477
000230 58 a7 85 bd ad de d5 bc 94 5c a3 bd e2 1c d0 bb
       -0.06526059 -0.026107157 -0.07976642 -0.0063510993
000240 bb 03 ab bd 90 f2 b4 bd 71 d9 b2 3c 72 02 4b bc
       -0.08350321 -0.088353276 0.0218322 -0.01239072
000250 13 9e 92 bd 3d 9b 57 bd 7f 38 7c 3d bd 9c 69 3d
       -0.071590565 -0.05263828 0.061577316 0.057034243
000260 61 55 3c 3d a3 e4 2b 3d cb 71 c1 bc cc b4 9d 3d
       0.04597986 0.04196609 -0.023613831 0.077005
000270 3f a6 30 bc 23 47 62 bd c9 c1 99 bc 01 f0 d3 3d
       -0.010781824 -0.055243623 -0.018769162 0.103485115
000280 16 7e 11 3d f4 5c d4 3d 9c c2 1f 3c 12 f3 b9 bd
       0.035520636 0.10369292 0.009750988 -0.09079565
000290 0f fb 9e b9 b4 fa 33 3d 19 af 25 bd 9c 57 ba bc
       -0.00030323162 0.04394026 -0.04045019 -0.022746854
0002a0 60 52 70 3d 72 93 db bc a8 a7 78 bd 80 55 c7 bd
       0.05867231 -0.026803706 -0.060706764 -0.09733105
0002b0 85 db 3f 3c ee 48 84 bd af 64 b4 3b 15 4f 84 bd
       0.011710052 -0.06459223 0.0055051665 -0.06460396
0002c0 a6 d3 e6 bc 9e 85 62 bd 12 06 aa bd 05 fb 67 bd
       -0.028177094 -0.05530321 -0.08301939 -0.056635875
0002d0 2f 75 b1 bd b0 72 93 bd 34 e7 d6 bc e5 1c 2c bd
       -0.08664929 -0.07199609 -0.026233293 -0.042019743
0002e0 52 68 96 bd dc 79 03 bb ab ff 84 bd a0 fe 0e bd
       -0.07344116 -0.0020061648 -0.06494077 -0.034910798
0002f0 52 32 83 bc 02 7d 67 bd ba 22 25 3c 79 4c b2 bc
       -0.016015206 -0.0565157 0.01007908 -0.02176498
000300 c7 22 b4 b8 52 da a6 bc 3c b6 a2 3d 04 29 0d bd
       -8.5895466e-05 -0.020367775 0.07944915 -0.034462944
000310 cb ae 63 bd 8f 4f 64 bc 6d 13 52 3d 09 1e 4a bd
       -0.055586617 -0.013934984 0.051288057 -0.04934505
000320 2e fb 49 bd fd 40 b4 bc 8b 4a a3 bd 36 4a 73 3d
       -0.04931181 -0.022003645 -0.07973202 0.059396945
000330 23 f7 1a bc 97 29 63 3d 46 ee 9c bd 69 e4 35 3c
       -0.009458336 0.055459585 -0.076626346 0.0111018205
000340 50 a9 b7 3c bf 11 d7 bb c9 c0 7f bd 8e cc 8f bc
       0.022419602 -0.006563395 -0.062439714 -0.017553594
000350 5d 7c 16 3d 2d b2 b0 bd 6b 40 87 bd 2d 85 8e bd
       0.036739696 -0.08627734 -0.066040836 -0.06958995
000360 fd 8f f6 3c cc fb ee 3c 2f b7 8a 3c 66 13 45 bd
       0.030097956 0.0291728 0.016933052 -0.048114203
000370 2a 61 97 bd 95 cb 80 3d 6c 58 12 bd fa 59 00 3c
       -0.073915794 0.0628883 -0.035728857 0.007833952
000380 07 71 a8 bd e8 5b 5f 3d 49 23 1f 3d d3 8d ef 3b
       -0.08224683 0.054531008 0.03885201 0.007310608
000390 7d 82 0d bc 6b 2a 91 bd 3f 07 00 bd f6 57 9a bb
       -0.008637068 -0.07088169 -0.03125691 -0.004710193
0003a0 da 15 d8 3c da 9c 9e b9 fa 4c 71 3d 31 fd 24 bd
       0.026377607 -0.00030252972 0.0589113 -0.040280525
0003b0 ba ef 0b 3d cf 07 98 39 ba 65 5a bb 31 84 39 bd
       0.034164168 0.00028997517 -0.0033324794 -0.045292083
0003c0 39 92 27 3c b7 de 07 3d af b0 3d 3d 28 21 6b 3c
       0.010227733 0.03317138 0.046311077 0.014351167
0003d0 8a 68 15 3d 33 41 93 bd d7 62 a3 bd 44 06 32 3d
       0.03647665 -0.0719017 -0.079778366 0.043463007
0003e0 14 f4 d1 3c a9 04 fa bb 85 a9 41 3d ec 8b 72 b9
       0.02562908 -0.00762995 0.047280807 -0.00023131043
0003f0 8b 7e 6b bb 5c b7 7e bc a2 1d 90 3c c4 1d 89 bc
       -0.003593358 -0.015546646 0.017592255 -0.016737826

module.conv2.bias f4 [32]
000000 1c e4 ce bd 9d 90 a8 3d a4 cd a3 bd 42 94 f4 3c
       -0.10102102 0.08230708 -0.07998207 0.029855851
000010 2e d6 96 3d 9a 31 6c bd c9 4a de 3d 32 24 6b bd
       0.0736507 -0.05766449 0.10854108 -0.057407565
000020 f6 34 d3 3d 94 82 8d 3b 6f e5 88 3d 30 04 99 3c
       0.10312836 0.0043185446 0.06684386 0.018678755
000030 8f 66 06 bb 18 f4 cb bd 04 71 88 bc d4 a2 b5 3d
       -0.0020507907 -0.099586666 -0.016655453 0.088689476
000040 b1 96 c7 bd 74 ff e6 3d 33 8c 34 bd 77 fd 19 3d
       -0.09745539 0.112791926 -0.044079017 0.03759524
000050 b4 4a c5 bd 1b fb 96 bd 5e 0c a4 bd 7b 8e d6 3d
       -0.09633389 -0.07372113 -0.08010171 0.10476395
000060 a8 18 51 bd 31 6e b6 3c d7 cf 15 bd 26 5e 0f 3d
       -0.051048905 0.02226934 -0.036575165 0.035001896
000070 c7 b1 14 bd 63 aa 93 bd ab b9 8c bd 05 91 ef 3a
       -0.036302354 -0.07210233 -0.06871351 0.0018277472

module.conv3.weight f4 [64, 32, 3, 3]
000000 f4 f8 85 bb db 66 fd bc 93 7a 4b 3d d8 36 15 3d
       -0.0040885154 -0.030932834 0.049677443 0.036429256
000010 1c 2f 86 bc 97 7a 00 3d 85 82 d7 3c 28 0f 68 3c
       -0.016379885 0.03136691 0.026307354 0.01416377
000020 cb 16 2b bc 32 0b 3a 3d 4d 5d 72 bd 9e 08 87 3d
       -0.010442446 0.045420833 -0.05917101 0.065934405
000030 9c 44 9a bb 37 bf 3a bd 45 f6 4a bd 7a 5c 16 bc
       -0.004707886 -0.045592513 -0.049551267 -0.009177322
000040 7d bf 91 3b 70 b2 87 bc 41 aa 38 3d d6 e1 51 3c
       0.004447876 -0.016564578 0.04508424 0.012810191
000050 ff 99 15 3d 69 e4 36 3d 49 f6 14 3d 8e 76 11 3d
       0.036523815 0.044651423 0.03636769 0.035513453
000060 0f 12 64 bc 24 9c 5a 3c f7 47 ef 3c 4a 0b 7f 3c
       -0.013920321 0.013342891 0.02920912 0.015566656
000070 9f 3c 56 bd ed a7 10 bd a9 14 f5 bb 5d c3 1c bd
       -0.052303907 -0.035316397 -0.0074792695 -0.03827225
000080 84 6c 37 3d c8 e6 2d bd f1 52 d9 bc 83 8a bc 3c
       0.044781223 -0.04245642 -0.026528807 0.023015266
000090 38 c1 dd bc fd 2e 53 3d ce 50 ba 3c 29 1d 37 3b
       -0.027069673 0.051558483 0.022743609 0.0027940965
0000a0 f4 14 36 bd 38 30 23 3d 0a 58 45 bd 1f a0 9f 3b
       -0.044453576 0.039840907 -0.048179664 0.004871383
0000b0 01 40 0b bd 68 4b e2 3c de b4 0b 3d 24 2d 08 3d
       -0.033996586 0.027623847 0.034108035 0.033246174
0000c0 c3 94 8c 39 ec 72 33 3c a0 15 df bc 18 c4 7a 3c
       0.00026813717 0.0109526925 -0.027231991 0.015305541
0000d0 75 96 b1 3b 69 0c 39 3d 4f b8 0a 3c 01 38 89 3c
       0.005419547 0.04517785 0.008466794 0.016750338
0000e0 bd a8 55 bd b8 a7 a4 3c 08 b2 c7 3a 55 68 96 bd
       -0.052162874 0.020099506 0.0015235553 -0.073441185
0000f0 e0 6b 42 3c e3 f2 51 bd 1d af e6 bc 43 09 c0 bc
       0.01186654 -0.051257025 -0.028159672 -0.023441916
000100 67 4b 3b 3b b1 ba 48 bd 96 c7 5a 3c 26 dc c8 3c
       0.002857888 -0.049006168 0.013353249 0.024519037
000110 08 80 05 3d fd b5 b0 bc 8c d8 4e bd fc 7f cb bc
       0.032592803 -0.021571154 -0.050499484 -0.024841301
000120 14 cf 0a bd 54 f2 01 bd 0f 8f 72 bd 9f 9c df bc
       -0.03388889 -0.031725243 -0.059218463 -0.027296362
000130 10 f0 2c 3d 7d 97 6e bd e9 2e 34 bd 43 4a 33 bd
       0.04222113 -0.05824994 -0.04399005 -0.043771993
000140 00 20 93 bc d0 e8 c8 bb 5a fe 2c 3d 30 87 0e 3c
       -0.017959595 -0.006131269 0.042234756 0.008699223
000150 0f 3e ad 3c 20 18 8d bc 4a 2c 1d 3d d6 f2 01 bd
       0.021147756 -0.017223418 0.038372315 -0.031725727
000160 d1 3a bf 3c 39 89 b0 bc 28 51 f0 3b cc d3 80 3d
       0.023343476 -0.021549808 0.0073338933 0.06290397
000170 61 ee 31 bd 11 ce c4 3c 70 ae ea bc bc f3 1b bc
       -0.043440226 0.024024041 -0.028647631 -0.00951856
000180 e7 0d be bb 87 e6 4c 3c e7 c6 ca 3c 8e fc 38 3b
       -0.005799997 0.012506134 0.024753047 0.0028226706
000190 d3 f2 60 bc b1 e0 52 bb d1 30 61 bd ab e1 dd bc
       -0.013729769 -0.0032177384 -0.054978196 -0.027085146
0001a0 ee 5c 09 bd 44 76 0d bc e8 da 48 3d fc 87 f6 3c
       -0.03353589 -0.008634154 0.04903689 0.03009414
0001b0 db ea 19 3d b0 ac b9 3c 20 54 84 bd e7 09 4e bc
       0.03757749 0.022665352 -0.06461358 -0.012575603
0001c0 3d 4f 28 bd 2e 10 a5 3a 99 43 36 3c 74 02 18 bd
       -0.041091193 0.0012593323 0.011124515 -0.037111714
0001d0 92 cc 55 bd e0 57 15 3d de 20 4f 3d eb 96 09 3d
       -0.052197047 0.036460757 0.050568454 0.033591192
0001e0 e1 d2 2a 3d 38 75 47 bd 3a e2 c5 bc a5 6b 21 3c
       0.041705016 -0.048695773 -0.024155725 0.009852325
0001f0 59 60 07 bd 07 18 01 3b 7f f8 6a 3d 6d d6 cc 3c
       -0.03305087 0.001969816 0.05736589 0.02500459
000200 66 c9 6d 3d ad 26 b0 bc 4f 5a 0a bd 4b 1b 5b bd
       0.058053397 -0.021502817 -0.03377753 -0.053492825
000210 42 69 c6 bc 45 56 88 bc 29 cb 3e bd f8 f8 9d bc
       -0.024220113 -0.016642699 -0.046580467 -0.019283757
000220 03 56 32 bd da a5 63 bd 99 5a e7 bc eb 02 20 bd
       -0.04353906 -0.05557809 -0.028241443 -0.039065283
000230 31 db 28 3d d9 d0 b1 3b b3 63 f0 bb 6f 01 39 3d
       0.041224662 0.005426508 -0.007336104 0.045167383
000240 8a 97 22 bd 4b b1 3a 3c aa fd 54 3b de cd 21 3d
       -0.0396953 0.011394809 0.0032499828 0.03950297
000250 a7 75 55 bd 97 aa 4c 3b ff 09 f7 bc 09 68 b1 bc
       -0.052114155 0.003122961 -0.030156134 -0.021656053
000260 2d 8b 7a 3c f7 cf 8c bd 92 0e 4b 3d cc c0 c3 3c
       0.015291971 -0.06875604 0.049574442 0.023895644
000270 69 ed f9 3c 0c e9 e9 3c 43 c1 e4 3c 29 30 1e bc
       0.030508714 0.028553508 0.027924186 -0.009655037
000280 49 db 88 bc d2 68 76 bd 33 09 91 3c 14 0e 1e 3c
       -0.016706126 -0.06015856 0.017704582 0.009646911
000290 e6 f6 a5 ba d9 02 08 bd ea 73 a9 bc c2 e3 d6 bc
       -0.0012662082 -0.03320584 -0.020685155 -0.02623165
0002a0 95 87 0b bd 13 27 68 3d e1 14 97 3c 21 e4 6a 3b
       -0.034064848 0.05667789 0.018442573 0.0035841542
0002b0 e0 a9 fa bc da 53 2f bd 21 8d e8 3b 2b c8 16 3d
       -0.03059858 -0.042804576 0.007096902 0.03681199
0002c0 70 6a 0f 3d 3c 11 7e 3c 5b 67 95 bb 07 8f 02 3d
       0.035013616 0.015507039 -0.00455944 0.031874683
0002d0 22 81 ed bc f7 12 36 3d 7b 7b 0b 3c d4 98 02 bb
       -0.02899224 0.04445168 0.008513327 -0.0019927518
0002e0 93 f8 6b bd b6 af 3e ba 69 19 68 bd 7e 29 19 3c
       -0.057610106 -0.0007274108 -0.056664858 0.009348271
0002f0 ed ae 19 bd a3 de 60 bd f5 5f 81 bd 7b 48 aa 3c
       -0.037520338 -0.054899823 -0.063171305 0.020786515
000300 b2 d4 76 bb d6 3a 14 39 ca 77 db bc f8 e9 37 3d
       -0.0037663397 0.00014136298 -0.026790518 0.044900864
000310 8d 8f c1 bb 51 3e 45 bc e8 1c c2 3a 2b a9 20 bc
       -0.005907005 -0.012038783 0.001480964 -0.009805958
000320 92 9d 2a bd da cf 1f bc e4 95 af bb 7e 90 e0 bc
       -0.041654177 -0.0097541455 -0.0053584445 -0.02741265
000330 43 3c c8 3c e7 ef 24 bb 3c 35 99 bd a2 29 d7 bc
       0.024442798 -0.0025167407 -0.07480857 -0.02626497
000340 d9 da 07 bc 21 f9 95 bd ea 0b 2a 3c 89 57 9c bc
       -0.008291923 -0.07322908 0.010378817 -0.019084709
000350 56 8a fb ba 61 d9 aa 3c a4 7b ba bc 76 97 93 bd
       -0.0019191008 0.020855607 -0.022764035 -0.07206623
000360 69 b3 85 ba b3 f9 3d 3d 2c bc 03 bd 8d a6 56 3d
       -0.0010200563 0.04638071 -0.032161877 0.05240493
000370 39 f0 17 3d 01 df 31 bd 19 d0 f1 3c 79 b5 00 bd
       0.03709433 -0.043425564 0.029518174 -0.031423066
000380 9a df 42 bd 61 e9 1e 3d 72 6e 2a 3d 93 7c f0 bc
       -0.047576524 0.038796786 0.041609235 -0.029356277
000390 3f 00 ad 3c 2b e3 98 3c 43 0c 5b 3c 25 82 2e 3d
       0.021118281 0.01866301 0.013369623 0.042604584
0003a0 a0 07 be bc 19 d3 e9 3c 85 59 87 3d 6c a0 7d 3d
       -0.023196995 0.028543042 0.06608871 0.06192057
0003b0 89 fe 37 bd 2b 5c a2 3c b3 c5 25 bd bc e3 0d 3d
       -0.044920478 0.01981934 -0.040471744 0.034641013
0003c0 6a e8 f2 bc 52 6a 5a 3c 58 e5 40 3c 9a 48 09 3d
       -0.02965184 0.013331013 0.01177343 0.033516504
0003d0 eb d9 33 3d 60 2b 08 3d de 17 c1 3b e2 89 95 3c
       0.043908995 0.03324449 0.005892738 0.018254224
0003e0 79 1a 12 bd de 4b 40 bd 60 7c cf 3c f5 80 16 3c
       -0.035669778 -0.046947353 0.025327861 0.009186019
0003f0 f7 3a 0d 3b d6 9a 25 3d cb dd 13 3d d9 a6 8d bc
       0.0021550038 0.040430866 0.03610019 -0.017291473

module.conv3.bias f4 [64]
000000 0b 12 66 bd a7 3b be bd 83 01 07 bd 26 cb da 3b
       -0.05616955 -0.092887215 -0.032960426 0.006677049
000010 3c 96 af bb 13 11 cc 3c 86 7d b4 bc 12 a4 55 bd
       -0.0053584855 0.024910485 -0.02203251 -0.052158423
000020 7d b6 35 3b 27 3d 45 3d 52 30 47 3d 49 80 5e bd
       0.002772718 0.048154023 0.048630066 -0.05432156
000030 dd 2a f4 3c 14 38 f6 3c d6 bc 0d 3d 16 21 c9 bd
       0.029805595 0.030056037 0.034603916 -0.09820764
000040 89 7e c0 bd f1 1f a4 3c f9 b0 97 3d fd 4e 81 3b
       -0.09399135 0.020034762 0.07406802 0.0039461837
000050 da d5 ab bd 19 dc da 3c 94 ee 95 bc b1 e5 6b 3d
       -0.08390398 0.026716279 -0.01830224 0.057592098
000060 8f 49 a3 3d b3 a1 51 bd b4 1a 8e bd 79 61 1b 3d
       0.079730146 -0.0511796 -0.06938687 0.037934754
000070 ca 0d 6e 3d e9 c1 73 3c 63 80 a0 3d 9e 93 e3 bd
       0.05811862 0.014877775 0.07836988 -0.1111214
000080 bf c1 41 bb ab 4f 23 3c cb b6 67 bd 5a 54 a2 bd
       -0.0029564945 0.009967725 -0.05657081 -0.07926245
000090 08 47 44 3b ad a4 8d bd ef 2f 35 bd f4 3c d0 bd
       0.0029949564 -0.06916175 -0.044235166 -0.10167876
0000a0 7b 46 db 3c b1 c4 83 bd b5 cc 06 bd 75 ac c6 3c
       0.026767006 -0.06434 -0.032910068 0.024252156
0000b0 9f 4c 50 3d 27 87 05 3d 58 e4 bf bc d7 7a 0c 3b
       0.05085432 0.032599594 -0.023424312 0.0021435523
0000c0 77 11 94 bc bf 49 a4 3d 31 1a 67 bc 81 f9 67 bc
       -0.018074734 0.080218785 -0.014105366 -0.014158607
0000d0 04 9e bb bd 71 34 65 bd fc d1 4f bc 40 aa 6f bc
       -0.091609985 -0.055958215 -0.0126843415 -0.014627993
0000e0 fa d8 69 3c a1 6c 36 3d 9b 7c 06 bb 34 88 98 3d
       0.014272923 0.04453719 -0.0020521048 0.07447854
0000f0 c0 02 65 bc 8d 57 ce 3c e6 9f 9f ba a1 b0 1e 3d
       -0.013977706 0.025188232 -0.0012178391 0.038742665

module.conv4.weight f4 [128, 64, 3, 3]
000000 37 f5 2c 3d 01 85 69 bd e4 c4 cc 3c a7 8e 90 3c
       0.042226043 -0.057011608 0.024996229 0.017646147
000010 ef 8f d7 3c c8 0c 00 bd bd 6e b8 3c 9b 6f 04 3c
       0.02631375 -0.03126219 0.022513742 0.008083249
000020 f1 3a 28 3b d8 e6 84 bc 6a d4 16 bd e4 27 0e bd
       0.0025669897 -0.016223356 -0.036823668 -0.03470601
000030 ca 85 e8 ba 86 c6 c7 bc d3 84 33 bd 12 fa 30 bd
       -0.0017740068 -0.024386656 -0.043827843 -0.043207236
000040 47 6c 1e bd 97 bf 8e bc f7 83 9c bc f7 41 c8 bc
       -0.03867748 -0.017425342 -0.019105894 -0.024445517
000050 ce b7 4f 39 99 72 ee ba cb 1d fe 3c 9a fc b3 3c
       0.00019809531 -0.0018192112 0.031020066 0.021971036
000060 aa fa 26 3d 4e a8 e3 3b aa 0f 35 3a d7 f3 d3 3a
       0.040766396 0.0069475537 0.0006906936 0.0016170692
000070 0c 6c d9 bb 57 62 b1 3c ba f9 57 3c 49 ca 4b 3c
       -0.0066351946 0.021653337 0.013182098 0.012438365
000080 80 b3 a7 3b bf b3 e2 3c a0 51 1f bb cd ba 8b bc
       0.0051178336 0.0276736 -0.0024310127 -0.017056847
000090 13 12 e8 3c f6 50 2d 3d e8 fb bd bb 58 c6 3b bd
       0.028328931 0.04231354 -0.005797852 -0.045843452
0000a0 4d fe b3 bc c7 34 18 bd 2c 55 fe 3c aa 5b d5 bc
       -0.021971846 -0.037159707 0.031046472 -0.026044685
0000b0 46 4c ec 3c 4f 53 db bc ec a4 53 bc f0 8a b1 3c
       0.028844964 -0.026773123 -0.012917738 0.021672696
0000c0 0c 15 64 bc 3d 14 dc 3c f3 f2 00 3d ad 5a 21 bb
       -0.013921034 0.02686512 0.031481694 -0.0024620697
0000d0 ea 59 88 3b 11 48 ba bc f3 d1 c5 bc 17 da 10 bd
       0.004161109 -0.022739442 -0.024147963 -0.035364237
0000e0 1f 13 9f 3c 5f 36 0f 3d a3 14 35 3c 7c 28 ed ba
       0.019418297 0.03496396 0.011052283 -0.001809373
0000f0 b2 b2 0f bd a4 ca 91 3c c1 be 57 3c 3f 15 cb 3c
       -0.035082527 0.017796822 0.013168038 0.024790404
000100 01 ad d2 bc 07 36 02 bd 50 d2 f4 3c a8 51 35 3c
       -0.02571726 -0.031789806 0.029885441 0.011066832
000110 77 f5 3d 3b 84 a1 ac 3c ca 4c 00 3d 49 a0 45 3c
       0.002898542 0.02107311 0.03132323 0.012062141
000120 e4 33 7d bc c0 a9 36 bd 3b be 90 3c ae 6e 50 b8
       -0.015454266 -0.04459548 0.017668834 -4.9694143e-05
000130 cc 85 06 bd 28 e6 54 3d d7 8d d3 3c d8 ae d2 3c
       -0.032842442 0.051977307 0.02582447 0.025718138
000140 14 00 3b 3d 24 b0 1c bd c3 51 ac 3b ab b6 f3 bb
       0.04565437 -0.03825392 0.00525877 -0.007437547
000150 50 95 76 3c 5b 59 3a bd ec 8a 01 bd f7 4a 6b bc
       0.015050247 -0.045495372 -0.031626627 -0.014361135
000160 ab 02 ad 3b 62 5a c9 3c 44 3d 9f bc 5f 0b 16 bd
       0.005279859 0.02457923 -0.019438393 -0.036631938
000170 73 5f 3e 3c e3 8e 18 3d 7f 62 a4 bb 9a b5 cb 3c
       0.011619437 0.037245642 -0.0050166245 0.024866868
000180 d0 d4 e1 3c 8c db d1 3c 86 74 90 3c 18 a3 fa 3b
       0.027567297 0.025617383 0.017633688 0.007648837
000190 00 91 ac 38 25 bb 40 bd 52 5d de ba be 42 a4 bc
       8.2286075e-05 -0.047053475 -0.0016965067 -0.020051356
0001a0 b7 6e 4b bd 24 cb 93 bc c0 a4 b9 3b 34 d2 6d 3c
       -0.049666133 -0.018041201 0.0056653917 0.014515448
0001b0 ab 81 1b bd 98 73 c8 bc b7 35 47 3c 9e 27 d2 bb
       -0.037965458 -0.024469182 0.012158803 -0.006413414
0001c0 51 54 35 bd ea eb c7 bc 79 e4 1e bc 4e db 60 bc
       -0.044269864 -0.024404485 -0.009698027 -0.013724161
0001d0 da 12 4e 3d b2 ee 67 bd 17 c9 07 3d cb 56 12 3b
       0.050310947 -0.056624122 0.03315076 0.0022329565
0001e0 7a 1c 2a bd 66 15 50 bd 7f 0e 75 3c ee 69 89 bc
       -0.041531064 -0.050801657 0.014957069 -0.016774144
0001f0 2d 84 b5 3c 41 4b 5f 3b 56 78 c9 39 f9 80 f2 bc
       0.022157753 0.0034071954 0.00038427365 -0.029602515
000200 e9 f4 2e 3d 3b 74 d1 bc 06 8d 28 bb bb 3c 54 bd
       0.042714033 -0.025568118 -0.0025718822 -0.05181573
000210 24 38 e3 bc cd 1c aa 3c f6 da 7d bc 74 3f d5 3c
       -0.02773673 0.020765686 -0.015494099 0.026031233
000220 e5 8b 59 3d 18 8a 5e 3c a1 55 98 3b 4f dd 04 bd
       0.05311193 0.013582729 0.0046488796 -0.03243762
000230 b5 8e 01 3c 92 38 94 3c 4f 24 8e bc d8 a6 36 3b
       0.007907559 0.018093381 -0.017351298 0.0027870443
000240 dd 78 ea bc 97 fa 41 bc 86 ae 5c bc af 3f e3 3c
       -0.028622085 -0.01183953 -0.013469344 0.027740328
000250 66 2b 3a bd d8 4d ca bc a6 d9 96 bc 25 20 f4 3c
       -0.045451544 -0.024695322 -0.01841433 0.029800484
000260 5e 67 ed 3c 86 21 c9 bc d9 1c f9 3b 8d 47 21 bc
       0.028979953 -0.024552118 0.007602316 -0.009843719
000270 35 cb 9e bc 1c 0d 93 bc a9 39 ec bc 07 24 79 bc
       -0.019384006 -0.017950587 -0.028836088 -0.0152063435
000280 bb 63 f0 bc 13 00 88 bb 7b f4 3e bd b6 59 a3 bb
       -0.02934443 -0.0041503995 -0.046619873 -0.0049850596
000290 93 5f 00 3d dc e2 87 bc 26 a3 60 bc c8 fe 08 3d
       0.031341147 -0.016587667 -0.013710773 0.033446103
0002a0 84 91 31 3c f5 56 47 bd 97 89 9c 3c 99 3e 68 ba
       0.010837916 -0.048666913 0.019108577 -0.00088594254
0002b0 0f 8b e5 3a a2 ed a7 3c 5d cd ac bc 03 76 06 3d
       0.0017512756 0.020499054 -0.021094019 0.03282739
0002c0 79 d0 65 bc c4 75 57 3c 8e 21 79 bc e3 e3 04 3c
       -0.014026755 0.013150636 -0.015205754 0.008110973
0002d0 2d a8 1a 3d d8 62 72 bd be 1e e5 ba 3c e1 19 bc
       0.03775804 -0.059176296 -0.0017480475 -0.009392079
0002e0 be 72 98 3b b0 63 23 bd 0b 66 c6 3b 10 72 b6 3c
       0.00465235 -0.03988999 0.006054645 0.022271186
0002f0 50 78 3c bd 87 cd 7c 3c 99 1d 8f 3b 76 cb 45 3d
       -0.046013176 0.015429861 0.004367542 0.04828974
000300 ad 70 ad 3c be bd f7 bc 73 1f f5 3b 35 39 dd bc
       0.021171892 -0.030241843 0.0074805557 -0.027004818
000310 ff 83 ba 3b f0 85 cb 3c 7d 8b 7a 3c 81 34 44 bd
       0.0056920047 0.02484414 0.015292046 -0.047901634
000320 16 97 72 bd 19 48 33 bd 84 5c b7 bc e6 ea 4d 3b
       -0.059226118 -0.04376993 -0.022382982 0.0031420528
000330 ea f3 00 3d 20 86 8d 3c df 30 43 bd a8 43 07 3b
       0.031482615 0.01727587 -0.04765403 0.0020639692
000340 24 3b 06 3d e2 b9 12 3d 73 75 0a 3d da 50 85 bc
       0.032771245 0.035821803 0.033803415 -0.016273905
000350 1a 05 2f bb f4 69 10 3b 90 b6 84 bc 64 45 f8 bb
       -0.0026705922 0.002203581 -0.016200334 -0.0075766314
000360 84 9a 6d bb 4d 50 df 3b 08 91 ca 3b ab 9a be bc
       -0.0036255429 0.0068149925 0.00618184 -0.02326711
000370 e3 10 70 3c 4e bd 59 ba 2a a0 53 bd 50 9a 56 bc
       0.014652464 -0.00083061017 -0.051666416 -0.013098314
000380 08 fe c7 3c 0b 08 ed bb d4 50 43 3d 1f 46 1a 3c
       0.024413124 -0.007233625 0.047684506 0.009416132
000390 d8 c4 c9 bb 3b f1 d4 bc 64 a3 8c bb 3e c0 5b 3c
       -0.006157499 -0.025993934 -0.0042919386 0.013412533
0003a0 f1 fb 5d bd 41 db e8 bb b9 e2 58 bc bd d8 ab ba
       -0.05419535 -0.007106215 -0.013237649 -0.0013110858
0003b0 44 cf 45 3b 86 d8 70 bc 91 ed 81 3d 68 44 1c 3d
       0.0030183354 -0.014700061 0.0634414 0.038151175
0003c0 4b 38 cb bc 71 69 9b bc eb 85 04 3c f9 81 5c 3c
       -0.024807116 -0.018971177 0.008088569 0.013458722
0003d0 bd 9d c3 3a b7 41 82 ba 7b 5f d9 3c 6b 84 12 3d
       0.0014924329 -0.0009937797 0.026534786 0.035770815
0003e0 ab ae e6 ba c9 3b 1a bc 66 ae 00 3c 0e 46 87 3c
       -0.0017599663 -0.009413668 0.00785408 0.016512897
0003f0 f3 4e eb bc ab 77 aa 3c 4d 06 69 bc 8b 13 4e bd
       -0.02872417 0.020809015 -0.014222694 -0.050311606

module.conv4.bias f4 [128]
000000 0f 9d 20 3d c8 21 7a bc 65 64 85 bd 48 98 51 3d
       0.039212283 -0.015266843 -0.06513289 0.051170617
000010 b4 35 86 3d 2a 11 78 bd 14 44 a6 3c ed 8a 5d bc
       0.06553212 -0.060563244 0.020296134 -0.013521892
000020 75 1b 06 bd ac 9d 77 bd 0e 66 26 3d 6d 65 6c 3d
       -0.03274103 -0.060453102 0.04062467 0.057713915
000030 a1 1a 6c bd 3d 8e 26 bd bb e2 93 bd 2e cc ef 3c
       -0.057642583 -0.040662993 -0.0722098 0.029272165
000040 54 88 86 3d 53 46 64 3d 81 18 b4 3c d0 07 5c bd
       0.06568971 0.05573113 0.02198434 -0.053718388
000050 d7 e3 4a 3c ff 0e 8b 3c 82 cf 36 3d 1c 3e 9a 3d
       0.012383423 0.016974924 0.04463149 0.07531378
000060 fd e4 90 bd ad 75 83 bd 48 e9 86 bd de dc 08 3d
       -0.07074926 -0.06418929 -0.065874636 0.03341376
000070 c4 fc 69 3d c5 a7 7e bd 68 d7 14 bd 5f 95 77 3d
       0.05712582 -0.062171716 -0.03633824 0.060445186
000080 ab 93 54 bd 63 e0 2b 3d 52 51 c3 3c 2a 6e 05 bd
       -0.05189864 0.04196204 0.023842487 -0.032575764
000090 6e 05 41 3d 3f 29 09 bd b9 b6 2b 3d fd 28 14 3d
       0.04712432 -0.0334866 0.041922305 0.036171902
0000a0 a3 23 78 bd f8 fa 38 bd 79 63 46 3d 4e 61 8f 3d
       -0.06058086 -0.045161217 0.04843471 0.07000981
0000b0 95 dc 21 3b c5 1e 8b bd a4 b8 58 bd c3 64 38 bd
       0.0024698128 -0.06792978 -0.052910462 -0.04501797
0000c0 5f 39 67 bc 76 be 7e 3d 8f a9 61 3d 33 56 33 bd
       -0.014112799 0.062193356 0.055093344 -0.043783378
0000d0 05 91 00 3c 80 e7 80 3d 0f 88 7f 3c 76 04 85 bd
       0.007847075 0.06294155 0.015596404 -0.064949915
0000e0 da 6c 18 3d 8d 72 4a bd e1 d3 3f bb 79 0e 84 bd
       0.037213184 -0.04942565 -0.0029270577 -0.06448073
0000f0 91 4e a0 bc a2 ec 24 bd c6 77 34 bb cd e2 23 3d
       -0.019568713 -0.040264733 -0.002753721 0.040011216
000100 bd 13 b3 bd ad 0e 83 bd 0e b0 5b 3d f4 20 1b bd
       -0.08743999 -0.063992836 0.053634696 -0.037873223
000110 e5 84 67 bc 41 30 45 bd 5f 84 9a bd b3 8a 9d 3c
       -0.014130806 -0.04814172 -0.07544779 0.019231176
000120 28 5b 6f 3d 14 72 02 3d 3c a5 41 3d 71 35 92 3d
       0.058436543 0.031847075 0.04727672 0.071390994
000130 01 42 7a bd 44 d8 99 bd d7 94 8d bd 40 c3 4b 3d
       -0.061098102 -0.075119525 -0.069131546 0.04974675
000140 cb d6 ed bc a3 e9 0d 3d 9c 08 b9 3c 46 ad 8e bd
       -0.029033085 0.03464664 0.022587113 -0.06966643
000150 ba dd f0 3c 98 1c 91 bc 42 a0 b4 bc c0 9c 01 3d
       0.029402602 -0.01771383 -0.022049073 0.03164363
000160 2a 39 22 3d ac da 28 3d 48 ed 2b bd c5 c0 78 3d
       0.039605297 0.041224167 -0.041974336 0.060730714
000170 45 8f 32 bd 15 1d 94 bd 94 6c 7a 3d ba 65 2e 3d
       -0.043593664 -0.072321095 0.061138704 0.042577483
000180 3a 07 2b 3d d1 1a cd bc 8e 1a 2f 3d 16 e6 de bc
       0.04175494 -0.025037201 0.042749934 -0.027209323
000190 40 a3 71 3a a5 a8 74 3d 19 cc 1e 3d d2 57 90 bd
       0.00092177466 0.059731144 0.03876886 -0.070480004
0001a0 8c 9c 25 3d b6 34 48 3d dd e8 8c bd bc 6a 1a bc
       0.040432498 0.048878394 -0.06880353 -0.0094248615
0001b0 20 7b 17 3d 48 27 97 bd 26 9f 6c bd a0 5a b0 3c
       0.036982656 -0.07380539 -0.057768963 0.021527588
0001c0 10 a0 50 bc 64 93 60 3d 9a 35 15 bd ff 34 33 bc
       -0.012733474 0.054828063 -0.03642807 -0.010937928
0001d0 2d ca 48 bd ae 8b 94 3c bc aa 2f 3c d4 77 74 3d
       -0.049020935 0.01813301 0.010721859 0.05968459
0001e0 93 fb 8a 3d 2a 46 73 bc 40 13 4e bc 3f f9 04 3d
       0.06786265 -0.014848271 -0.012577832 0.032464262
0001f0 ea 3f 1e 3d a8 3b 75 bd e3 f4 ac 3c a7 d1 8c 3d
       0.038635172 -0.059871346 0.021112865 0.068759255

module.conv1T.weight f4 [128, 64, 3, 3]
000000 40 93 44 bc 91 3c a1 bd 58 d4 9c 3c 9f 8c 5e bd
       -0.011997998 -0.0787288 0.019144222 -0.054333325
000010 09 e0 e1 bd a0 00 89 3c 05 a7 b3 bd 96 cc a3 3d
       -0.110290594 0.01672393 -0.08772091 0.07998006
000020 59 77 47 bb e5 24 e1 bb 71 d0 12 be ab ac d1 bd
       -0.0030436127 -0.0068708532 -0.14337327 -0.10238012
000030 d7 ee fa 3c 50 25 70 bc 52 26 47 3d 76 09 61 3c
       0.030631466 -0.0146573335 0.04862053 0.013735166
000040 a4 9c 85 3d ea b6 91 3d e0 f4 c9 3c 6f 79 e5 bc
       0.065240175 0.07114966 0.024652898 -0.028012006
000050 5f 0e 0e bd 8a 29 83 3c 79 57 91 bd 64 cb a7 3d
       -0.034681674 0.016011018 -0.07096762 0.081930906
000060 96 48 ef 3d 60 56 18 3d d1 72 fd 3c 14 c0 8f bd
       0.116837665 0.03719175 0.030938538 -0.07019058
000070 9f cc 42 be 6f b5 86 be 71 d1 e4 3d 07 9c a7 bd
       -0.19023369 -0.26310298 0.1117276 -0.08184057
000080 e0 20 e2 3d 6b 40 00 be b6 44 29 3e ad fb ac 3c
       0.11041427 -0.12524574 0.16530117 0.021116102
000090 47 1d c5 b9 fc 16 86 be f0 01 47 bd 41 2d 81 bd
       -0.0003759658 -0.2618941 -0.048585832 -0.063074596
0000a0 0f 9f c1 bd e9 48 f4 bd 6e 82 07 3d 55 38 cc bd
       -0.09454166 -0.11927969 0.03308337 -0.09971682
0000b0 3c 1d b7 3d 03 e6 41 3e 2c a1 75 3e 3f ed b4 3d
       0.08941123 0.18935399 0.23987263 0.088343136
0000c0 b7 6e d1 bd f6 13 f3 bc 9b 1d 26 bd 56 de bc 3d
       -0.10226195 -0.029672604 -0.040555578 0.09222095
0000d0 d8 d3 3f 3e 97 58 16 bb 45 fd 1a 3c ab 07 d6 3c
       0.18733156 -0.0022940987 0.009459798 0.026126703
0000e0 9c 58 21 3e 2a ab bf be 43 0e e6 3b 3d 2c 04 bc
       0.15756458 -0.37435275 0.007020743 -0.008067188
0000f0 e6 97 3c 3d d0 28 71 3c 3c d8 ca 3d c9 33 9e bd
       0.0460433 0.014719203 0.09904525 -0.07724721
000100 62 0e a4 bd 82 cd c9 3c 2a 68 b3 3b 6a a7 59 be
       -0.08010556 0.024634127 0.005475064 -0.2125527
000110 e2 06 6f 3e 6a e5 71 3e 32 f9 f0 3d cd 88 74 3e
       0.2334247 0.23622671 0.1176628 0.2388031
000120 88 b0 cc bd ab 1f a8 be eb f4 b4 be 00 c6 64 be
       -0.09994608 -0.3283666 -0.35343108 -0.22341156
000130 19 e4 d1 bd 6b 6c 02 3e 9f 27 0b 3c 42 18 24 3e
       -0.10248584 0.1273667 0.008493333 0.16024879
000140 26 85 af 3d 78 8b 06 be 7a 7a 3e 3e d8 c6 9a 3d
       0.08570318 -0.1313914 0.18601409 0.07557458
000150 2b ba 31 3d 79 a5 44 3e 0c 68 d2 3b df a0 08 3d
       0.043390434 0.19203748 0.0064210948 0.033356544
000160 8b bd 22 3e ba 22 a3 3c 42 ea 04 bd 81 f8 cc be
       0.15892617 0.01991402 -0.03244997 -0.40033343
000170 a3 e9 b9 bb d8 79 5a 3c e7 52 c9 be 92 2d 92 3d
       -0.0056736036 0.013334714 -0.39321062 0.07137598
000180 c5 ff 2f 3c 39 2f 8f 3c 0f 3d 1e 3d 7b 19 f4 bd
       0.010742133 0.017478572 0.03863245 -0.119189225
000190 50 66 35 be c0 8c 0e 3e 6e 40 aa 3b 2d a2 23 be
       -0.1771481 0.1392088 0.005195669 -0.15979834
0001a0 65 f5 bd 3d 88 a1 64 3d 45 1a 05 3e bd 1a b1 3d
       0.09275321 0.05581811 0.12998302 0.08647678
0001b0 cf b8 8d bd b2 43 5a 3e 9d ff bc 3e 20 f2 e7 bd
       -0.06920015 0.21314886 0.36913767 -0.113254786
0001c0 9e 9c 94 be 93 d3 0d 3e 91 8e c9 3d a5 a3 98 bd
       -0.2902574 0.1385024 0.098416455 -0.07453088
0001d0 f8 1f 3e 3e 71 2d 36 bc d7 17 5c be 90 f0 78 be
       0.18566883 -0.0111192325 -0.21493469 -0.24310517
0001e0 5f 82 8b bc 9f d2 93 bd 25 31 21 3d 52 b0 ff 3c
       -0.01702994 -0.07217907 0.03935351 0.031212006
0001f0 3c a0 3e 3d cc ef 6b 3d de aa 43 bc df 4a 54 be
       0.04653953 0.057601735 -0.011942593 -0.20731686
000200 85 27 40 bd a9 81 32 be 51 8c db 3c ad e9 12 3e
       -0.04691269 -0.17432274 0.026800307 0.14346953
000210 ea 6b f5 3d c3 4a 8f 3d 2c b1 f4 3d 3c b8 44 bd
       0.119834736 0.069966815 0.11947855 -0.048027262
000220 d4 47 27 3d a0 5d 77 bc a4 b6 ac bd 2c 77 4e be
       0.040839985 -0.0150980055 -0.084332734 -0.20162648
000230 a3 c6 37 3b 64 a7 c0 3d 3b ca e7 3a 7d e7 45 3e
       0.002804198 0.09406927 0.0017684171 0.19326587
000240 d6 02 ae bd 6c fc 5e bd 52 81 3e 3d 54 28 2d be
       -0.08496635 -0.054439947 0.04651005 -0.16909915
000250 10 bf cf 3c 1f 63 f9 3d b0 5e 24 bd d2 5d d0 3d
       0.02535966 0.12177109 -0.040129364 0.10174145
000260 23 fc 0d 3e ac ab 44 3d f6 9c 0a 3e be ba f6 3d
       0.13865714 0.04801528 0.13536438 0.12047337
000270 ca c8 96 3d 1c de 1c 3e ec 03 9d 3d d8 88 12 3e
       0.07362516 0.15319103 0.07666764 0.14310014
000280 94 41 83 3c b2 e3 53 3d 44 f7 b6 bd 72 64 6a be
       0.016022481 0.05173082 -0.08933881 -0.2288988
000290 c0 2c 39 be b6 e0 01 3d 6c a3 4e be 0a 6a 1c 3d
       -0.18083477 0.03170844 -0.20179528 0.038187064
0002a0 27 4a 9a 3d 43 99 bf 3c 1d 92 b7 3d dd 0d 9c bd
       0.07533675 0.02338851 0.08963416 -0.07619832
0002b0 15 f1 81 be dd 51 11 be 42 1a 4e bd 7d 92 9a bc
       -0.25379243 -0.14191385 -0.05031801 -0.01886868
0002c0 b9 9b 76 bd 6d 80 6c 3d 20 10 31 bb 64 08 cb 3d
       -0.060207102 0.057739664 -0.0027017668 0.0991371
0002d0 bc 80 b9 bd 44 c1 17 be 1b c6 55 bd 47 46 66 bd
       -0.09057757 -0.14819819 -0.05219088 -0.056219365
0002e0 4e f0 b4 bc a9 ed 87 3d de cd 2f 3d 95 ee f8 3d
       -0.022087242 0.06637127 0.04292094 0.12154881
0002f0 6d 94 9a 3d e9 9e 2f be 88 e2 58 3e c2 51 b6 bd
       0.07547841 -0.17150463 0.21180165 -0.08902313
000300 1c 20 14 be 6a 23 be bd e2 1c 1c bd f9 aa 97 3d
       -0.14465374 -0.092840984 -0.038113482 0.07405657
000310 26 0c 87 3e 23 cf f3 3d b4 d0 b5 bd 63 6e 65 be
       0.26376456 0.119047426 -0.088776976 -0.2240539
000320 fd ae 2b be 1d 90 84 bd 8d ef 8d bc 62 f7 bb 3d
       -0.16765971 -0.064728 -0.01732614 0.09178044
000330 c2 3c 03 3d 4f 8e 99 3d d1 04 c9 3d 35 89 c1 bd
       0.032040365 0.07497846 0.09815372 -0.09449998
000340 9a 6a 5b be 87 09 81 3d 84 7c 6d be 85 47 ec bc
       -0.21427384 0.06300645 -0.2319203 -0.028842697
000350 1a 2c 89 bc 31 20 01 3e 80 ab b2 bd fc 56 31 3e
       -0.016744662 0.12609936 -0.08724117 0.17318338
000360 6e 69 30 3d 1e 43 a5 3d 88 27 54 3e 7d 22 65 3d
       0.043069296 0.08069442 0.20718205 0.055941094
000370 59 92 6d 3c a4 a0 7d 3d 14 38 95 3c 2b 2c 44 bc
       0.014500224 0.061920777 0.018215217 -0.011973421
000380 1d ab a8 3b 86 02 cb bb 42 67 ae 3d 95 bc 75 3d
       0.0051473514 -0.006195369 0.085157886 0.0599943
000390 99 83 ec bd 82 75 2a 3e 84 58 a0 bd 88 48 c9 3c
       -0.11548538 0.16646388 -0.07829383 0.024570718
0003a0 69 d4 f9 3d 70 22 b9 3d 11 ee 49 be c0 6f cb bb
       0.12198717 0.090397716 -0.19719721 -0.00620839
0003b0 8b c4 54 3d 27 2f 36 be 99 8b 47 bd ba fc 07 bd
       0.05194525 -0.17791425 -0.048717115 -0.033200003
0003c0 ef 4f 98 3c ae 08 87 b8 37 7a 21 ba f8 a2 00 bb
       0.018592803 -6.438918e-05 -0.0006159874 -0.0019628387
0003d0 a8 13 9b be 1b c8 ab bd 28 de 0f be 95 9b 17 3b
       -0.30288434 -0.083877765 -0.1404959 0.0023133506
0003e0 49 b0 d9 bd 6b 36 2a 3d a0 55 74 3d 5e 21 c0 3d
       -0.10629327 0.041555803 0.05965197 0.09381364
0003f0 1b 30 b8 3d 61 ba c8 bd b1 d8 00 be fa 64 e8 bd
       0.089935504 -0.09801174 -0.12582661 -0.11347385

module.conv1T.bias f4 [64]
000000 50 34 a1 3d 2f 3d 62 3d b2 c6 71 3d 06 0d 75 3d
       0.07871306 0.05523413 0.05902738 0.059826873
000010 01 ae 0d 3d 5b 57 f3 bc 51 81 13 bb cf 63 e1 3d
       0.03458977 -0.02970474 -0.0022507499 0.11005365
000020 1a f6 57 3b 28 1c 9c 3c 94 58 66 bc df f5 c4 3d
       0.0032953084 0.019056395 -0.014059205 0.09617209
000030 ac 3f 58 bc d2 bf f4 bb 30 1b 70 bc cf 24 93 bd
       -0.013198774 -0.007469156 -0.0146549195 -0.07184755
000040 62 55 c1 3d db ec 6b 3c 0c a6 93 bc b0 d4 f5 bc
       0.094401136 0.014399732 -0.018023513 -0.030008644
000050 38 52 45 3d 5b 53 be ba 6e 51 98 3d d3 35 96 3b
       0.048174113 -0.0014520691 0.074374065 0.004584053
000060 df a0 b3 3b 9b 1f e2 ba 03 62 25 bd bc cc 57 bc
       0.005481824 -0.0017251851 -0.040376674 -0.013171371
000070 64 5d 66 3a 71 b4 76 3c 5f 73 f6 3c 5d dc bb 3d
       0.000878772 0.015057669 0.03008431 0.0917289
000080 d1 6b 1f bc 61 93 89 3b 10 9d e1 bb 3d 33 be bc
       -0.009730295 0.004198477 -0.0068851784 -0.023217792
000090 79 cd 1a bd 42 f4 aa bd c9 4d 5c bd 10 bc f1 3a
       -0.03779361 -0.0834737 -0.05378512 0.0018442888
0000a0 eb 34 02 3d c2 5f 9e 3d df 75 18 bc d8 39 75 3d
       0.031788748 0.07733108 -0.009305446 0.059869617
0000b0 58 8c 4c 3d bc bc a6 3d 97 a2 63 bd e4 81 a5 bd
       0.04993853 0.08141467 -0.05557498 -0.08081415
0000c0 ff 9f 0f 3d 14 34 09 3c 16 63 80 3c be cd 9e bd
       0.035064694 0.008374233 0.015672248 -0.07754086
0000d0 31 57 fb 3d 27 fe 87 3d d0 75 60 bd 6e 7f cb bc
       0.1227249 0.066402726 -0.054799855 -0.024841037
0000e0 4b ed 31 3c 97 ce cf 3b 57 7c 45 bd 9e 81 3b 3d
       0.010859798 0.006341766 -0.048214283 0.04577791
0000f0 2c 5c ae 3b f6 51 c5 bc ba d1 cf 3d 97 5a cf 3d
       0.0053210463 -0.024086934 0.10147424 0.101247005

module.conv2T.weight f4 [64, 32, 3, 3]
000000 12 92 01 be 27 96 cd 3d 10 31 02 3e 59 32 ce 3d
       -0.12653378 0.10038405 0.12714028 0.10068197
000010 38 71 83 bd 7e f7 37 bb 5d 19 d0 3d 5b 7c 29 3e
       -0.06418079 -0.00280711 0.10161088 0.16551344
000020 75 92 1c 3e 0e 50 d0 bc 9f ac 3b be 58 7c ae bd
       0.15290244 -0.025428798 -0.18327568 -0.085198104
000030 e0 99 69 3e 70 ed 8d 3d 92 d9 c1 3d 65 47 5a 3d
       0.22812605 0.06930053 0.09465326 0.053290743
000040 89 36 0b 3e 14 c7 5e 3d fb b7 8b bd b5 7d f5 3c
       0.13595022 0.054389074 -0.06822201 0.029967168
000050 18 ee 8f 3d 24 18 37 3e d2 d1 49 3e fd d7 9f 3e
       0.07027835 0.17880303 0.19708946 0.31219473
000060 93 54 41 3d 17 f7 56 3d 64 06 bd 3d 86 f3 04 bd
       0.047199797 0.052481737 0.092297345 -0.032458805
000070 03 07 15 3e f2 57 10 3e 93 e9 88 3e 14 f2 03 bd
       0.14553456 0.14096048 0.26740703 -0.032213286
000080 45 7f 91 3e 0f 78 89 bd e6 10 de bd 6f 91 bb bb
       0.2841741 -0.067123525 -0.10843067 -0.005724124
000090 f8 07 7e 3e e6 ce d3 bc 85 4f 4f 3e 0d 67 d8 bd
       0.24807727 -0.025855493 0.20245178 -0.105665304
0000a0 be 21 c7 3d ca 0e 53 3e c4 4a e1 3b cb 1e d9 3d
       0.09723233 0.2061111 0.006875368 0.106015764
0000b0 1d 72 5b 3c 11 5a e0 3d 77 e3 3c bd 01 59 62 3d
       0.013393906 0.10954679 -0.046115365 0.055260662
0000c0 19 74 da bc 1c 89 c8 bb 64 3e d7 3d 3a 9f a2 bd
       -0.026666688 -0.0061198603 0.10509947 -0.07940526
0000d0 b9 ea c2 bd 7b ec bf bd c7 db fd bd 97 70 4d 3d
       -0.09517426 -0.09371277 -0.12395435 0.050156202
0000e0 28 4c cb bd 80 c7 4c 3e d8 2d 0b bd 30 12 dd 3c
       -0.09926635 0.19997978 -0.033979267 0.026986212
0000f0 a3 4e 8a 3d 5f e4 da 3d dc 41 94 3d f5 70 5e 3d
       0.0675328 0.106880896 0.07239124 0.054306943
000100 d6 a5 e0 3d 57 2b 90 be 85 21 50 3e af 12 81 3e
       0.10969131 -0.28158066 0.20325287 0.25209567
000110 4c 5b 54 3e aa fd b8 3d 6c 55 97 bc 26 58 1c 3e
       0.20737952 0.090327576 -0.01847335 0.15268001
000120 fc 5e 21 3e e4 1f 22 3e a1 86 0b bd 81 84 07 3e
       0.1575889 0.15832478 -0.03406394 0.1323414
000130 30 c6 c1 3e 58 a8 6a be f3 51 d2 bd 3b 02 3f 3e
       0.37846518 -0.2291578 -0.10269537 0.18653195
000140 5b 4c 48 3e ca bc e5 3d ff cc 56 bd 4f 37 2e 3e
       0.19560377 0.11217649 -0.052441593 0.17013286
000150 39 d8 cf 3d 65 37 6b 3e 33 23 47 3e ba 12 34 bd
       0.10148663 0.2297035 0.19447021 -0.04396317
000160 6b 62 81 3d a4 d2 a4 3d e9 d6 1b bd c5 b7 17 3d
       0.063176 0.08047989 -0.03804675 0.03704049
000170 1a 89 59 3e 57 1c 8a 3e fb 15 33 3d 7b be 6f 3e
       0.21243706 0.26974747 0.043722134 0.23412506
000180 25 22 04 3e e7 89 be 3d 6c d6 56 3e 81 d4 bd 3d
       0.1290365 0.093036465 0.20980233 0.092690475
000190 ed f7 70 3d 56 a1 8e 3e 8b c6 2a 3e 46 58 56 3d
       0.05883019 0.27857465 0.166773 0.052330278
0001a0 69 08 b2 3d 3c 8b f2 3d fa 3a 4a 3e 63 4a a1 3b
       0.0869301 0.11842963 0.1974906 0.0049221977
0001b0 89 af 6a 3e db 6b 3e 3d e1 fe a7 bd 7e fa c8 3d
       0.22918524 0.046489578 -0.08202911 0.098134026
0001c0 96 26 8c 3e ed 86 e5 3d 7b 77 67 3e 7d a8 1c bb
       0.2737319 0.11207376 0.22604172 -0.0023904138
0001d0 4e 2f e2 3e a1 e8 02 be b0 b9 7f bd 0f 04 66 3d
       0.44176716 -0.12784053 -0.062432945 0.056156214
0001e0 67 5d ec 3d 5b 96 3d bd 65 e4 1b 3e 4a 1b e4 3d
       0.115412526 -0.04628597 0.15223844 0.111380175
0001f0 c6 48 0c 3e 76 84 c4 3d 15 07 6a 3e 64 c5 8a 3e
       0.13699636 0.095955774 0.22854264 0.27103722
000200 8b 42 49 3e 33 28 a1 3e 9b c4 70 3e 0f 4d fa bb
       0.1965429 0.31475982 0.23512499 -0.0076385806
000210 e0 d9 71 3c 3d 22 0b be ed c7 18 3d c8 8f 66 bd
       0.014761418 -0.1358728 0.03730004 -0.056289464
000220 36 2d 16 3e ef bd 47 3e 7d 73 3b 3e 40 29 c3 bc
       0.14665684 0.19506048 0.18305774 -0.02382338
000230 78 33 95 bd fd 13 2b be f5 d4 8e bd 93 be 16 3d
       -0.072852075 -0.16706844 -0.06974212 0.03680284
000240 3b c3 89 3d b8 bb 5f be b7 b0 ee 3d 50 cb 3e bc
       0.067266904 -0.21848953 0.116547994 -0.011645153
000250 e4 66 eb bd f4 37 b1 3e 08 d7 cc bd cb ae ee 3d
       -0.11494234 0.34613 -0.100019515 0.11654433
000260 8e 59 82 bd 9b 3a e7 bd 69 a3 76 3e 6c db 2d 3d
       -0.063647375 -0.11290475 0.24085774 0.042445585
000270 e7 73 8b 3d 9c f2 e9 3d 7d 3e 19 3e 22 c3 86 3b
       0.06809216 0.11423227 0.14965244 0.004112617
000280 d2 f0 35 3d a0 a7 89 bd 46 59 b7 bd 4d d6 01 bd
       0.044419117 -0.06721425 -0.089525744 -0.031698514
000290 c1 a7 7f 3e 39 63 8c 3e 57 11 6a bc 4d 32 16 be
       0.24966337 0.2741945 -0.014286361 -0.14667626
0002a0 77 3e 2e 3e 31 bd 38 3e 3d c2 0e 3e c2 ca 91 3d
       0.17016016 0.18040921 0.13941284 0.07118751
0002b0 53 dc 8b 3d ee ce a8 bd 44 bd 57 3d 25 86 d4 3c
       0.06829133 -0.08242594 0.052670732 0.025942871
0002c0 4c 31 93 bd 03 98 0d bd 77 d0 a3 3c 27 87 a6 bd
       -0.07187137 -0.034568798 0.019996865 -0.08131247
0002d0 3a 76 61 bd a8 cf d3 3e cb 49 ac bd 60 a8 8f 3e
       -0.05504439 0.41369367 -0.084125124 0.28058147
0002e0 ff 7b ac 3d 25 3b d2 3e 17 cb 64 bd fe 6f 0f 3d
       0.08422088 0.4106075 -0.055857744 0.035018913
0002f0 eb 8f 0e be 80 dd 66 be 69 ce 9c 3b 3f 93 a6 3e
       -0.13922088 -0.22545433 0.004785348 0.32534215
000300 01 a4 3c 3e 1a a9 e7 3c cd af 29 3e 4c 8f c0 bc
       0.18421938 0.028278876 0.16570969 -0.02350583
000310 21 4f 08 3e 28 dc 9e bb 03 a0 44 3e b8 57 3b 3e
       0.13311435 -0.004848022 0.19201665 0.18295181
000320 8a 6e 08 3d 37 38 1a bd b0 fe d6 3d 6e 3a a9 3e
       0.033308543 -0.037651267 0.104977965 0.3305239
000330 ec 69 42 3e df 02 71 3e 12 66 5c 3e b6 35 a4 3c
       0.18985718 0.23536251 0.21523312 0.020045143
000340 09 a4 3c 3e e5 e5 ba 3d ee ea 5f 3e dc 65 a8 3d
       0.1842195 0.0912588 0.21866962 0.08222553
000350 f1 60 46 3e cc 0f dc 3c 9b 1f 1d bd e8 04 15 3e
       0.19372918 0.026863001 -0.03836022 0.14552653
000360 e9 07 66 3d 3c a2 5e 3d eb 95 b7 bd 53 62 0c 3e
       0.056159887 0.054353938 -0.089641415 0.13709383
000370 0d 8c 19 3e 7b 7c 0a 3e 06 b1 bc 3d fb 76 c8 3d
       0.14994831 0.13524048 0.09213452 0.09788319
000380 92 5f 99 3d 48 ad 04 3e 05 b4 2c 3e 52 d8 05 3c
       0.07488932 0.12956727 0.16865547 0.008169251
000390 d2 55 91 3e a7 cd 9f 3e 09 5b d6 3b 0b 83 94 bd
       0.28385788 0.31211588 0.006541614 -0.07251557
0003a0 f4 c2 04 3e 0a f5 6e 3d b4 44 5b 3c 0b 00 39 3e
       0.12964994 0.058339156 0.013383079 0.18066423
0003b0 a2 0c ca 3d 9e 10 fb 3d b9 36 1c bd 4e d0 fb 3b
       0.09865691 0.12259029 -0.038138125 0.007684744
0003c0 7f 67 1f 3e 28 eb 13 3e 80 17 06 bd 94 94 67 bd
       0.15566824 0.14445174 -0.032737255 -0.05653818
0003d0 6b bd 38 3d 11 34 b4 3e ab d7 75 3e 58 cb 5c 3e
       0.045102518 0.35195974 0.24008052 0.21561944
0003e0 89 ce d2 bd 37 62 67 3e 3d 23 70 3e 4e 64 ad 3c
       -0.102933 0.2259606 0.23450942 0.021165993
0003f0 5a 36 0e be f1 5c 35 3e e0 2e 68 3e 17 bb 98 3d
       -0.13887921 0.17711236 0.22674131 0.074575596

module.conv2T.bias f4 [32]
000000 4b b6 29 bd 0c 97 a9 bd 24 82 ac bd 35 6d 36 3e
       -0.041433614 -0.08280763 -0.0842326 0.17815097
000010 09 08 6e bc 47 86 cd 3c ae 30 04 3e 8f 56 fe 3d
       -0.014528283 0.025088442 0.12909195 0.124188535
000020 22 18 71 3e 71 e7 1f 3e 59 c0 3e 3d 9e e6 50 3e
       0.23544362 0.15615632 0.046570156 0.20400473
000030 00 d2 44 be 99 f3 21 be 8e a0 09 be 2b 62 60 be
       -0.19220734 -0.15815581 -0.13440153 -0.21912448
000040 d2 24 1b 3d a9 78 a7 3d 60 be b8 bb ce ab e7 bd
       0.03787691 0.08177311 -0.005637929 -0.11312066
000050 4b 85 07 3d 96 f8 eb 3d d7 be 0f 3e e2 db 82 bd
       0.033086102 0.115220234 0.14037643 -0.063895956
000060 25 b7 76 3d c4 54 b1 bd 4d be 71 3d b6 4f a1 be
       0.060233254 -0.08658746 0.059019376 -0.31506127
000070 1b 3e 7b be 26 4d 59 3e e0 b8 cb bd cb 23 ba bd
       -0.2453541 0.21220836 -0.099473715 -0.09088858
