theta_run_birds/exp_dim3_files6_cropped/conv_autoencoder.pth (torch, 895145 bytes, 19 tensors)

conv1.weight f4 [16, 1, 3, 3]
00000000: 5f7c bf3b 6f50 093e ce90 683e b3e7 12be
00000010: 70fc df3d 3cc4 a6bd 6bab 89bd 738c c6bd
00000020: e6d2 0fbe 58b2 873d 2cc8 87bd 9ca4 c8bd
00000030: 29e4 e43d db74 2a3e 3e12 aabc 4a00 473e
00000040: 47c5 443b ba73 303e d97e 393e 99da 39bd
00000050: 5c2c 14be a207 2f3e 0f67 ad3b d31c 753b
00000060: bc1e d2bc 974a d53d 24d2 bd3d b301 25be
00000070: ef38 4d3d 3d75 98bd 9ef3 d0bd 8650 3a3d
00000080: 164a 0dbe b5f4 933d 54c1 193e 7d0a 013e
00000090: 594b 34bd d92b 1dbd 79f1 b0bd 393e 18be
000000a0: 7378 82b9 4441 743e c17c 3cbd 8e68 d43c
000000b0: 1150 9bbd d212 173d ee79 ad3d 8693 3a3e
000000c0: 0b8c 083e 3608 cabd ff1f 7ebd cef7 68be
000000d0: 4e6e 65bd 6f1d 23be eea7 013d b74d d53c
000000e0: e743 193b 1e48 a43d 77e6 e9bb 53c8 5fbe
000000f0: 4b19 d6bd 7918 443e 3880 08be b811 19be
00000100: 91c0 3abd 2458 6cbe dcc8 173d 7eb8 243d
00000110: a237 8f3d 0f53 403e 8988 a6bd 1c59 22be
00000120: f16d 223e 4fff 143e e982 c73c dbd2 2c3d
00000130: 7ec6 4d3e a904 dc3d c12a 0bbe c421 77bd
00000140: 73d5 193d c53f 03bc b81e 15bd de3b 7a3d
00000150: d547 67be 5210 263e 04a7 8cbe 690b adbc
00000160: ad56 89be dde2 13be 766d 1cbe defc 54be
00000170: 818d e8bc 8401 32be bb66 4f3c c518 2b3e
00000180: d7f8 2e3e 5a39 6e3e 4cbc 4b3e 1a5f c53d
00000190: 7265 003e a22b b63c f581 8abd 3f5e 3cbe
000001a0: 49b3 f0bc 23df be3d 9d94 12bd 471c 383e
000001b0: 559c c33d 05c0 07be bff2 acbd 6a22 943d
000001c0: c4b9 2b3e fc28 eabd f561 943d 8b4b 533d
000001d0: adcf 473e f209 60be 186c 143e 5d83 5abe
000001e0: 931e 9a3d f70b 69be 1531 963b a7cc 19be
000001f0: af51 d5bd 42c9 3bbe 61b8 b43c afc6 84be
00000200: c703 3c3e 7124 82be b1bc 113e f68b 4abe
00000210: 80f0 06bd 4022 80be 90b7 463e 3cc5 823d
00000220: fb7d 0d3d b199 013d 312b 703e 8a19 95bd
00000230: 462b 113e 8e9b 773e e5c1 4c3d 3ba3 873d
0.0058436836 0.13409589 0.22711489 -0.14346199 0.109368205 -0.081428975 -0.067221485 -0.09694757
-0.14045295 0.06625813 -0.06629977 -0.09797022 0.111763306 0.1664614 -0.020760652 0.19433704
0.0030024813 0.17231646 0.18114795 -0.045374487 -0.14470047 0.17092755 0.0052918266 0.0037401214
-0.02564942 0.104146175 0.09268597 -0.1611393 0.050103124 -0.074442364 -0.10202716 0.04548695
-0.13797793 0.072244085 0.15015155 0.12601657 -0.04401717 -0.038371895 -0.08639807 -0.14867486
-0.00024885274 0.23853022 -0.046017412 0.025928762 -0.07583631 0.036883183 0.08470522 0.18220338
0.13334672 -0.09864847 -0.062042233 -0.2275078 -0.056013398 -0.15929197 0.03165429 0.026038034
0.002338642 0.08021568 -0.0071380693 -0.21853761 -0.10454043 0.1914996 -0.13330162 -0.14948165
-0.045593802 -0.23080498 0.03705679 0.040215008 0.06993033 0.18781684 -0.08131511 -0.15854305
0.15862252 0.14550517 0.024354415 0.042193275 0.2009525 0.10743076 -0.13590528 -0.060334936
0.037557077 -0.008010809 -0.03640625 0.06109225 -0.22585995 0.16217163 -0.27471173 -0.021123605
-0.2682394 -0.1444201 -0.15276131 -0.20799586 -0.028387787 -0.1738339 0.01265877 0.16708668
0.17087112 0.23264065 0.19896048 0.0963728 0.12538698 0.022237603 -0.067630686 -0.18395327
-0.029382365 0.09319904 -0.03578626 0.17979537 0.09551302 -0.13256843 -0.08444738 0.072331265
0.16770083 -0.114335984 0.07245246 0.051585715 0.19512816 -0.21878794 0.1449436 -0.21339174
0.07525363 -0.2275847 0.0045834878 -0.15019475 -0.104159705 -0.18338493 0.022060575 -0.25932834
0.18360816 -0.25418428 0.14232136 -0.19779953 -0.032944202 -0.2502613 0.19405961 0.06385276
0.034543972 0.031640712 0.23453976 -0.07280262 0.14176664 0.24180433 0.0499896 0.066229306

conv1.bias f4 [16]
00000000: ca53 05bb a2b9 69be f418 9bbe 0536 833e
00000010: 63da 96be cdb7 a63e 580f 103d df75 d33d
00000020: 818e 0fbe dc71 5bbe b02a 9e3e 9cab dfbe
00000030: f156 08bf cfbb 66bb 5e71 f43b f4d9 0bbd
-0.0020344132 -0.2282472 -0.30292475 0.2562715 -0.2946349 0.32562104 0.035170883 0.103252165
-0.14019205 -0.21430153 0.30891943 -0.43685615 -0.5325766 -0.0035207157 0.0074598035 -0.034143403

conv2.weight f4 [32, 16, 3, 3]
00000000: 0246 2f3c d887 c1bc aee3 d4bc 856b 25bd
00000010: 6167 11bb 1c96 513d 76ed 513d ae25 83bc
00000020: 55d8 273c 9455 833d 86bd 0f3d 988a b1bc
00000030: ff72 09bd 627e 103d 1b20 bc3c bb97 a03c
00000040: df09 883c af30 dabc 8aad 49bd 0b46 213d
00000050: a2c5 78bc 0422 8c3c 43ea ae3c da3d 0cbc
00000060: e852 8cbd 3109 223d 138f ac3c 7228 0cbd
00000070: 5aa9 3bbd d1ad 863c ade8 83bd 8199 583d
00000080: 0c25 bebc 95c5 f03c e676 2e3c 2505 063d
00000090: 625c 14bd 5e31 d2bc 88a8 e1bc bb1d 96ba
000000a0: 2331 ca3b a167 16bd 40a0 e3bc 7ffe a7bb
000000b0: e7c9 cabc 0a40 9ebc b48a 3c3d ad95 1cbd
000000c0: a5f1 993b cabf b4bc 9506 48bd 5f7a 4c3d
000000d0: e733 603d 6126 8d3d 73e8 583d 4502 ef3c
000000e0: 57c0 d4bc f90e 21bd dc8f 98bc d664 a8bc
000000f0: 1f32 c0bc 5b7e 96bc ba20 e63a 770e 33bd
00000100: 02a9 543d fdd6 453d 56b1 7d3d 3e0f 4cbd
00000110: 7e81 143b 3a77 8f3b 45f4 e5ba 2089 b4bc
00000120: 0ae0 75bc 71c7 47bd 842f 2b3d 3ec0 193d
00000130: 8158 9e3b a207 22bd 57bc 823d 5633 2abd
00000140: 5d23 1f3d dc2b efbc 47e4 99bc 07fe 5b3d
00000150: 266f 81bd 519c fcbc fcfc 733d 7916 65bc
00000160: 9ab3 1c3d 3e41 143d e8eb 34bc d38d 583d
00000170: eb42 e9bc ecd0 23bd a402 eb3c 1ede 1cbd
00000180: fc5c ea37 29e9 133d ae73 9e3c d2c5 59bd
00000190: cdf0 edbc 8ac4 083d 5709 1ebb 5507 6ebd
000001a0: 8359 553d 8892 a03d 48c6 cdba 8890 a23c
000001b0: c88b 9d3c 0281 063d 5404 983d fe77 823b
000001c0: d337 80bd a3e4 943c 3ca2 083d 39cf 12bd
000001d0: 94b1 f13c 44d8 b33c e758 733d 0206 533c
000001e0: 6721 96bd b0f1 b9bd 5228 acbc 7ee7 033d
000001f0: da10 56bb df17 a2bc bedb a33b 2b36 8abc
00000200: 0142 afbc 9ee1 86bc 6af7 e43c e20b 29bd
00000210: c9e5 12bd 9d3b bb3b 2342 0fbd a215 303d
00000220: 6a41 093c 5468 35bd 6329 19bd 87ba 5dbd
00000230: b8b2 a53b fe1f ccbc 265d 81bd 1118 e1bc
00000240: e1a7 56bc a1e2 b4bd d65a 073d e52b 91bd
00000250: 106c 1e3d 5d30 90bd 2a0b 46bd 5257 233c
00000260: 18c1 1d3d 1fe4 10bc 9979 6c3d 6fc7 2a3d
00000270: efcb 88bd cc06 103c f21e f8bc 3696 1c3d
00000280: 619d 9abd e1fd 9dbd 2264 bb3d 16e6 41bd
00000290: 0d57 91bc c0b6 973d 4872 9fbc 8a35 a8bc
000002a0: 6296 10bd b301 3abd 5f73 c7bd 6c5d 5d3c
000002b0: b769 1b3d 55f5 f4bc 6239 f33c ec15 d13c
000002c0: a5d0 4c3b 8137 a2bc 160e dd3c 6138 583d
000002d0: 48cd bbbc 0356 5dbb 92d2 17bd 0244 823d
000002e0: b1d9 ba3c 4c34 7e3d fa79 863d 2380 753c
000002f0: 7da0 023c 38c2 81bc 8b25 03bb fb2a 803c
00000300: 031b a9bc ed28 073b cafe b6bc 4d2f 40bd
00000310: 3b38 19bd 5d11 51bd 2c8f 4f3d 1ea8 3ebc
00000320: ac08 323d c36c 183d 86b4 453d 7fff 37bc
00000330: 0f85 e33c e68f 053d f670 f33b 6aee a33d
00000340: c2c9 753d 0bb0 593d 84b7 083b b14b b4bc
00000350: a715 b8bb a6b2 493d ecde 623d 2c65 72bd
00000360: 0f9a 7bbc 727d e73c bc5f 803c ed74 3ebd
00000370: 642e 5b3d b46e 2cbd 4a46 86bd 2185 24bd
00000380: 1173 f83b 6b02 e3bb 2ee5 343d 8a7b 993d
00000390: a2eb 873c d071 fdbc 06b2 123d e287 ad3a
000003a0: 852c 00bc 5d02 bebc 61c4 793d 36bd 8fbd
000003b0: 3099 edbc e187 823d 5493 25bd e345 6cbd
000003c0: fa9e f63c 8ed8 78bb 2941 0cbd 7e6c 66bd
000003d0: 80e9 87bd 008e a7bd 3210 033d e4ba 603d
000003e0: 8c7d 88bd 37d1 b4bb 1997 163d 2235 e23b
000003f0: 23d2 23bd 41a0 543d 8088 23bd c46e 3f3d
0.0106978435 -0.023624346 -0.025987472 -0.04038574 -0.0022186863 0.051168546 0.05125185 -0.016009178
0.010244449 0.06412807 0.035092853 -0.021672532 -0.033556934 0.035276778 0.022964528 0.0196036
0.01660627 -0.026634542 -0.049237765 0.03937344 -0.015183838 0.017106064 0.021351939 -0.008559668
-0.068517506 0.039559547 0.021064317 -0.03421826 -0.045815803 0.016440304 -0.06440864 0.052880768
-0.023211025 0.02939109 0.010648465 0.03271975 -0.036220916 -0.025658306 -0.027546182 -0.0011452952
0.0061704083 -0.036719922 -0.027786374 -0.005126774 -0.024754478 -0.019317646 0.046030715 -0.03822868
0.0046979957 -0.022064108 -0.048834402 0.04992139 0.054736998 0.06892086 0.052956056 0.029175887
-0.025970621 -0.03932092 -0.018623285 -0.020555895 -0.0234614 -0.018370798 0.0017557361 -0.043714967
0.05191899 0.048300732 0.0619367 -0.049819224 0.0022660191 0.0043782266 -0.0017544111 -0.022038043
-0.015007028 -0.048774187 0.04179336 0.037536852 0.004832328 -0.03955806 0.06383579 -0.041552864
0.038852084 -0.029195718 -0.018785609 0.053709056 -0.06320028 -0.030836256 0.059567437 -0.013982409
0.03825722 0.036195032 -0.011042573 0.05286963 -0.028474292 -0.039994165 0.028687783 -0.038297765
2.7938273e-05 0.03611103 0.01934227 -0.05316717 -0.029045487 0.03339056 -0.0024114454 -0.05811246
0.05208732 0.078404486 -0.0015699351 0.019844308 0.019231692 0.032837875 0.074227005 0.0039815893
-0.062606476 0.018175429 0.033357844 -0.035842154 0.029503621 0.02195371 0.059410956 0.01287985
-0.0733059 -0.09079301 -0.02101532 0.03220319 -0.0032663853 -0.019786773 0.0050005605 -0.016871532
-0.021393778 -0.016465005 0.027950007 -0.041271098 -0.03586367 0.0057138936 -0.034975182 0.04298938
0.008377412 -0.04428895 -0.037392985 -0.054132964 0.0050567053 -0.024917599 -0.06316595 -0.027477296
-0.013101549 -0.088322885 0.033045612 -0.0708845 0.038677275 -0.070404746 -0.04835049 0.009969549
0.038514227 -0.008843451 0.057733152 0.0416941 -0.06679522 0.008790683 -0.030288193 0.03822919
-0.07549549 -0.07714439 0.09149958 -0.047338568 -0.017741704 0.07407904 -0.019463673 -0.020533342
-0.035299666 -0.045411777 -0.09738802 0.013511043 0.037942614 -0.02990214 0.029690448 0.025523148
0.0031252292 -0.019801857 0.026984256 0.052788142 -0.022925034 -0.003377319 -0.03706605 0.06360628
0.022808881 0.062061593 0.06566234 0.014984163 0.007972834 -0.015839681 -0.002001139 0.015645495
-0.020642763 0.002062376 -0.02233829 -0.04692011 -0.03740714 -0.05104195 0.05067365 -0.011636762
0.0434653 0.0372131 0.048267864 -0.011230349 0.027773408 0.032607935 0.0074292375 0.08004458
0.060006864 0.053146403 0.0020861337 -0.022008749 -0.0056178155 0.049242638 0.055388376 -0.059178516
-0.015356555 0.02825806 0.01567065 -0.046498228 0.05351104 -0.042097762 -0.06556375 -0.040166024
0.0075820764 -0.0069277785 0.044163875 0.07494266 0.01659185 -0.03093806 0.035814308 0.0013239349
-0.007823114 -0.023194486 0.060978297 -0.07018511 -0.02900371 0.06373573 -0.040423706 -0.057683837
0.030105103 -0.0037970874 -0.03424183 -0.05625581 -0.066363335 -0.08181381 0.031997867 0.054865733
-0.06664571 -0.0055181044 0.03676519 0.0069033066 -0.039995324 0.051910643 -0.0399251 0.046736494

conv2.bias f4 [32]
00000000: 3234 0ebf 267e 81bd 0515 2fbd 619c 253e
00000010: c8c3 dfbd 93f5 12bf 7c7a 333e 2805 dcbc
00000020: b40f a2bd d167 173e 42ce e5be 4c8a 77be
00000030: df23 05bd 974b 863c 3c66 e53d f229 f83d
00000040: 4cb1 98be caaa 23be 70e9 ba3d 262d c1be
00000050: 9fc2 05be ff52 61be 4aec 133e 7c19 fb3d
00000060: 73c6 b0be e866 a33d c05e 83be 7d5d 34be
00000070: 6b90 dc3d c521 ce3d 57a2 98bd 4851 ac3d
-0.55548394 -0.06322889 -0.042744655 0.16172935 -0.10926014 -0.57405967 0.17527193 -0.026857927
-0.079131514 0.14785697 -0.44883925 -0.2417385 -0.032504912 0.016393466 0.1120114 0.121173754
-0.29822767 -0.1598312 0.09126556 -0.37729758 -0.13062523 -0.22004317 0.14445606 0.1226072
-0.34526405 0.07978612 -0.25658226 -0.17613788 0.10769733 0.10065035 -0.07452839 0.08413941

conv3.weight f4 [64, 32, 3, 3]
00000000: dbf9 9cbc 5db5 933d f4c1 6d3a 797f 68bd
00000010: a2cd 003d 5123 5fba 8be0 84bd 3ef3 483d
00000020: 3487 34bd 40e7 5abd be5b b63c 8705 a63d
00000030: aa78 c93c 668b ad3c 35cf 873d e246 b6bb
00000040: 861b 07bb 37e8 abbc 0b24 7bbd b3b8 1bbd
00000050: e730 fabd 05e1 85bd ff28 4cbc b4dd 373d
00000060: c4b8 41bd 757b 8b3b 44e4 1ebd 2570 50bd
00000070: 814c 3f3c a5f3 efbd ad1b 9bbd 894b 303d
00000080: 101c 8c3d 9a22 333d 22d4 14bd 513a 2ebd
00000090: 8beb 433c d0ed 3ebc 7519 153d 36cb 61bd
000000a0: fae2 55bd 2560 783c 96cb 833d 7dcc afbb
000000b0: f8a9 a83a 9051 6e3c 451a 443d 66ed e63c
000000c0: 92c8 333c 2219 9c3c e075 50bd 58bb 333d
000000d0: 30f7 493c 8922 a0bc fdd8 2f3d 2ce6 753d
000000e0: 6f43 b6bc 0379 043c ad6d a93d 37b5 19bd
000000f0: b8f4 ecbc b8f6 663d ff8f 82bd 9757 09bd
00000100: b1e1 a1bd 2b9f 17bd 5bfc 393d f5eb 123d
00000110: 1bcf 1abc 7514 303d b7a3 a03b d717 0fbd
00000120: 7732 9abd 6ed3 d83c 3cee 8fbd abd6 c1bc
00000130: 8ebb 20bd 3f6d d0bc 741a 1cbc b5fb b53c
00000140: 1092 0dbd 62e1 07bd 93d2 38bc fe30 3e3d
00000150: 5e95 d63c ed45 9a3d b874 99bd f27f 14bc
00000160: b95c 27bd ad74 003d 24e6 4a3b 7b31 02bc
00000170: d50e 8cbd c645 523d 1c63 6dbd 4c83 70bd
00000180: 62c3 bcba eed8 d1bc 974c 643d 01a3 413d
00000190: ab24 323c 97d4 cabd ff73 8abd 7ae1 44bd
000001a0: 01ed f3bc c94d 2d3c 1316 28bd 0882 a93c
000001b0: 0921 74bc 4ccf 80bb 3112 453c e0be 81bd
000001c0: d307 2d3d de14 a13c c953 c5bc a24b b13c
000001d0: c413 04bd 87fa 71bd c14a 34bd f517 44bd
000001e0: 4cc8 3cbd 92f1 493d 3704 ad3c d2b0 81bd
000001f0: a818 863c 88b4 73bd 77b1 1b3d 4645 a63d
00000200: a3fa 4c3c 0ff6 24bd 1a65 c1bd e7c8 bbbd
00000210: 7bbf 4e3d 9292 2dbb 2b97 d7bc b3f1 c2bc
00000220: 3a4e 803c b6bc 0abc ea12 923d be6e 76bd
00000230: 3251 71bd 455b 963c 052c 333d fd96 9d3c
00000240: e4d4 efbc a048 af3b 317e 8cbd 1ce9 2bbc
00000250: bd07 85bd 45cc 923c b477 263d 1103 e9bc
00000260: 0498 713c 85fb ae3b 6feb 94bd a1e0 d83a
00000270: f90e b9bc 47e3 1ebd 1d33 19bd b96e ac3c
00000280: eeaf 37bd 1ac2 88bc c7fa 53bd 5e74 853c
00000290: 5da3 f5bc f20c 8b3d 70e5 26bc 012c 08bd
000002a0: 7dc8 72bc f13b c4bc bb37 26bc 884a 3abd
000002b0: f225 d8bc a71b 4bbd 3e14 2fbd 5d64 d6bc
000002c0: 1c20 773c cdeb d83c 1a28 74bd f971 23bd
000002d0: 0156 4dbc e37f 093d 0dbf 62bd 709d 8dbc
000002e0: d85e 7cbd 8981 4b39 bc22 23bc 0e0e 473c
000002f0: 7363 123d 461c 283d 2a1f 513d aa02 863d
00000300: 1706 e63c 54b8 ff3c b2f8 ac3a 7e19 ccb9
00000310: aff8 4c3c 7341 72bd f4d8 603d f590 91bc
00000320: 6efc 513b 858e c63c 20f7 9abc 2361 f2bd
00000330: b3d2 b9bc eeea 08bc fdd9 52bd c59b c93c
00000340: 1860 3e3c 34d3 da3c b21a ec3c a8f1 1ebc
00000350: fa8f acbd 707d 103d fd4e 0d3d 7063 5abc
00000360: 791d 5bbd 21ba debc a08c a8bd 16d0 6dbc
00000370: 5ec3 b03d 3c1e dfbc 6e68 a3bd 570d 393d
00000380: c978 213c c4c8 5d3d 6f46 663d 88c1 2f3d
00000390: 4bda 61bb 72c8 abbc bf85 d7bd 3d43 1ebd
000003a0: c050 97bd 1341 7dbd d0e6 a4bc 9930 afbb
000003b0: bbda 8ebc b6e0 1ebd 71f6 873c 82f7 f2bc
000003c0: bf6b 3bbd f79d b93c 03fa ec3b fe1f 48bd
000003d0: 29ee bdbc 4638 9abd d4d1 113d a2fb 6d3c
000003e0: 16b6 8a3d 14e0 2bbd eb84 aa3c 3e08 2e3d
000003f0: 2e93 e9bc 6876 bfbc fdbf dfbb d56e 36bd
-0.01916211 0.07212327 0.0009069734 -0.056762192 0.031446107 -0.00085120375 -0.06488141 0.0490601
-0.044074252 -0.053443193 0.022260543 0.08106523 0.02459367 0.021184634 0.066313185 -0.005562649
-0.002061577 -0.020984752 -0.06131367 -0.03801794 -0.12216359 -0.0653706 -0.012460946 0.044889167
-0.047295347 0.0042566606 -0.03879191 -0.0508882 0.011675955 -0.117163934 -0.07573638 0.043040786
0.0684129 0.04373417 -0.036335118 -0.042536084 0.011958013 -0.011653379 0.03640123 -0.055125438
-0.052218415 0.015159641 0.06435315 -0.005364953 0.0012868037 0.014545813 0.047876615 0.028189372
0.010973113 0.019054953 -0.050893664 0.043879837 0.0123270005 -0.019547718 0.042931546 0.060033962
-0.022248952 0.008085492 0.08272872 -0.037526336 -0.028925285 0.056387633 -0.06375121 -0.033530798
-0.07904375 -0.03701703 0.04540668 0.035869557 -0.009448792 0.04298826 0.004902329 -0.034934845
-0.07529157 0.026468005 -0.070278615 -0.023661932 -0.039241366 -0.025442718 -0.009527791 0.02221475
-0.034563124 -0.033173926 -0.011280674 0.04643344 0.02619427 0.075328685 -0.074929655 -0.009063708
-0.04085991 0.03136127 0.0030959928 -0.007946367 -0.068387665 0.051336072 -0.057955846 -0.058718964
-0.001440149 -0.025616135 0.055737104 0.047274593 0.010873 -0.099038295 -0.06760406 -0.048066594
-0.029776098 0.010577627 -0.041036677 0.020691887 -0.014900454 -0.0039309617 0.012028263 -0.06335235
0.04224379 0.01966327 -0.024087803 0.02164251 -0.032245412 -0.059076812 -0.044016603 -0.04787441
-0.046089455 0.049302645 0.021120174 -0.06332554 0.016369179 -0.05949834 0.03801104 0.081186816
0.012510928 -0.040273722 -0.09443112 -0.091691785 0.05047558 -0.0026485068 -0.0263172 -0.023796892
0.015662301 -0.008467844 0.07132514 -0.060164206 -0.058915325 0.018354068 0.043743152 0.019237036
-0.029276319 0.0053492337 -0.068600066 -0.010492589 -0.064956166 0.017919669 0.0406415 -0.028443845
0.014745716 0.005340042 -0.07271468 0.0016546437 -0.022590147 -0.038790967 -0.03740226 0.02104889
-0.044845514 -0.016694117 -0.05175283 0.01629084 -0.029985124 0.067895785 -0.010186538 -0.03324509
-0.014818308 -0.023954364 -0.010145123 -0.045481235 -0.026385281 -0.04958692 -0.042743914 -0.026170904
0.015083339 0.026479626 -0.059608556 -0.039903615 -0.012532712 0.033569228 -0.05535798 -0.017286986
-0.061613888 0.00019407844 -0.009957012 0.012149347 0.035739373 0.04104259 0.05105511 0.06543477
0.028079076 0.031215824 0.0013196676 -0.00038928905 0.012510463 -0.05914445 0.054894403 -0.017769316
0.003204133 0.02423788 -0.018916667 -0.118349336 -0.022683477 -0.008356793 -0.05147742 0.02461041
0.01161959 0.026712038 0.028821323 -0.00970117 -0.08425899 0.035275877 0.034499157 -0.013329372
-0.053494904 -0.027188363 -0.08229947 -0.014514944 0.08631013 -0.027236097 -0.07978903 0.045178737
0.009855458 0.054146543 0.056219514 0.042909175 -0.0034462388 -0.020969603 -0.10523557 -0.038638342
-0.07388449 -0.061829638 -0.020129591 -0.0053463695 -0.017438283 -0.03878852 0.016597005 -0.029659037
-0.04575705 0.022658331 0.007231952 -0.048858635 -0.023184853 -0.075302646 0.0356005 0.014525326
0.067730114 -0.041961744 0.020815333 0.04248833 -0.028512564 -0.02337189 -0.0068283067 -0.04453929

conv3.bias f4 [64]
00000000: cf7f d1bd fa40 dabe cc8a 433d 624d bebe
00000010: 4eec f43d c91e e53d c9b4 d5be 4838 083e
00000020: 2125 a3bc db56 5bbe 6d89 5d3d 0837 a8be
00000030: b285 163d bee4 93be a371 913b 8944 073a
00000040: b0ad cc3d e9a2 a8be 8e2f aebe ff75 dcbd
00000050: 55b6 13bf a336 d43d 9b79 a0be 76a4 f33d
00000060: fd9a 14bd 769c 0b3e 1097 9bbe 9a2e 14be
00000070: f5ac cfbe cbf4 be3d 4b9b e3bb 9c1f a63d
00000080: d2ee 83be e731 1fbe f74b 433c 5977 d5be
00000090: 0cda 373d b5dc 9b3d 11bb 4bbe 4cd0 e83d
000000a0: 576c 86bc 89ed f43d caa0 cabd 2768 ee3d
000000b0: b4e0 4cbe 7215 34be 49aa 48be 1901 11bf
000000c0: 17e3 943d 1f6e d93d 397a 3fbd 4008 99be
000000d0: f2bf 15be 09d5 f0be bd2b 9f3d 4be9 45be
000000e0: f4db 7e3d 01c7 c43d a9da 6aba 8742 c03d
000000f0: 4dfc a73d 907d 963d ea34 99be 53f3 cdbe
-0.10229456 -0.42627698 0.04773979 -0.37168413 0.11959134 0.111875124 -0.4173949 0.1330272
-0.019915165 -0.21419851 0.054086138 -0.32854486 0.036748596 -0.28885454 0.0044385954 0.0005160054
0.09994066 -0.3293679 -0.34020656 -0.107646935 -0.5770009 0.103619836 -0.31342778 0.11896603
-0.03628062 0.13633904 -0.3038869 -0.14470902 -0.40561643 0.09324034 -0.0069460026 0.08111498
-0.25768143 -0.1554638 0.011919967 -0.41692618 0.04488568 0.07610456 -0.19895579 0.113678545
-0.016409082 0.11959369 -0.09893949 0.11640959 -0.20007592 -0.17586306 -0.19596209 -0.566423
0.072698765 0.10616707 -0.04674742 -0.29889107 -0.14624003 -0.47037533 0.07772014 -0.19327275
0.062221482 0.096082695 -0.00089589745 0.09387689 0.082024194 0.07348168 -0.29923183 -0.40224704

conv4.weight f4 [128, 64, 3, 3]
00000000: 3934 38bc d48b 2b3d 3d4d 3d3d 503e 0dbd
00000010: b5e9 443d 6b3b 06bd 4110 a93c 8746 0ebd
00000020: 39e3 c0bc 4458 57bd 4ad1 113d 60ce 323d
00000030: 3e2a 463d 9499 e3bc a10c 233c db81 033d
00000040: f673 333c a07a 27bc 8359 153d 7c53 143c
00000050: 6c63 eb3b 1af3 273d 9262 d73c b25b 07bd
00000060: bd2c f1bc 4f7c e3b9 9459 1dbb 0b2a 18bd
00000070: 0818 903d 8049 a63a 201a 61bc 31e1 23bb
00000080: 9062 cdbc 28e7 893c 0df4 e43c b732 cabc
00000090: 044a 3dbc 88e2 c23b e045 49bc 4534 fdbc
000000a0: 351e 243d f662 62bb 6647 c6bd e0fc 85bd
000000b0: d2a7 42bc 5326 0cbc 876e 31bc 7e5a 763c
000000c0: 8bc0 823d 6756 1cbd 1732 28bc 8d14 da3b
000000d0: ec6a 71bd b35a 9abc 185f f6bd 604b 9d3c
000000e0: d1d2 47bd d837 2c3c 908d f13c 4f68 d4bc
000000f0: 8b29 7b3b ded6 0c3d 7d6f f13b ec34 b5bc
00000100: a904 143d b8c1 1d3d 52e2 b43c 09b0 11bd
00000110: 27dd 18bc b250 00bd c9f7 44bd 8901 afbb
00000120: 49f9 a83c 3c83 883c 14d8 7e3d 368c f1bc
00000130: 2792 08bd 69c5 503d a559 613c b9fc 86bd
00000140: 3fee 69bd d207 70bc cae5 8fbc 6d23 8a3a
00000150: 7643 e93c 9870 a93b 72e6 3a3d 83e5 3d3d
00000160: b49a b0bb 3076 363c 386f 1abd 3141 95bc
00000170: f725 cbbc 58fc f739 d733 45bc c67a 10bd
00000180: 07c0 e0bb b353 caba e9d9 febb d4a0 61bd
00000190: 6c38 fcbb 16f0 8a3b 7a5f 153c 7679 b33c
000001a0: 7616 533c bb15 393c 6cd7 36bd eb1b 85bc
000001b0: e0a1 823d a9f8 05bc b5a0 643b 5eb3 6d3d
000001c0: 4a14 283d 0842 b33c 6d2a df3b fe3f 7fbc
000001d0: 09e2 37bd 4d30 ca3d 2626 cf3c 82eb abbc
000001e0: 96fb de3b 9955 80bc 298b e1bb ef1e 2f3d
000001f0: 8970 f63c 6248 09bd d0c1 afbd 1987 263d
00000200: d8e9 afbc ba14 d4bc 920f 2cbc 16d8 2b3c
00000210: 4fda 59bd 6fda 37bd f646 e8bc 6fcf c93b
00000220: c04e a9ba 69f8 e33c ddc5 4e3d 0348 ecbb
00000230: 1f98 ce3b 5739 cfb9 59df f5bc 3fbf 1dbd
00000240: 63d4 83bc 1c58 9cbd 9387 683d d495 00bd
00000250: 913e 80bd 7ccf 86bc 086d 0bbc 767d 11bd
00000260: af4b 0dbd dde6 56bd eadb 1abd 8dbe e9bc
00000270: 6da7 993c 7bd7 eabc eba4 dd3a 55e5 933a
00000280: 073b 933b 8aa2 66bc 86f9 86bd a8a3 8d3c
00000290: c2fc b13c 78b8 153d 774a 8fbc 4f61 01bd
000002a0: b9ca af3c e1e4 bebc 7f8d a8bb c99a b23c
000002b0: bad5 b73b 7e2c 5d3d 3bdf 1ebd 2f02 26bd
000002c0: 259b 073d c92d fb3c 09f7 ec3b 8ffe 133d
000002d0: c769 17bd ced5 983b d27c 9f3c 3db9 1dbd
000002e0: 4867 54bd 8d61 4abb 3e86 183d 96b5 0abd
000002f0: 5cc9 86bd 4b70 1cbd 55e2 aabc aae4 6bbd
00000300: b734 ab3c 58ba bb3c 1196 cbbc bc37 1b3d
00000310: 7db1 913c 747b 7a3c f3ea 9b3b 9f07 f9ba
00000320: c3c0 75bd 9178 173d 7821 393d 3ca6 603a
00000330: 4b78 433c c291 a83c fec3 89bd 1b69 9cbc
00000340: a013 003c 5ea1 ab3c ce69 49bd e0de 67bb
00000350: bb3b fcbc a637 00bd 44db 3fbd 42f3 2c3d
00000360: ce09 8ebd 98b7 32bd 7a03 9b3d 4ea5 8bbc
00000370: c867 3a3c 4ed0 16bc ee58 213c 464e a0bb
00000380: b7a7 9cbc 7b1a 41bc df70 f43c 9042 0b3b
00000390: 9dbe 35bd 7424 163c ec7e 3cbd 0bcd fdbc
000003a0: 0e68 78bb d2a6 a13c 323b 1e3d 1aa8 443c
000003b0: 170f 9a3c befa 453d 70e9 753d 21d4 3d3d
000003c0: bf2e 13bd 327d 23bd 77e6 cb3c e64a 503d
000003d0: d61f f8bc b9cf 993b b1dd 1cbd 254a a33c
000003e0: cedf 63bc 78de 443d 35bd 22bc 133b 7a3c
000003f0: 9c9c a23c 0dd5 9e3c 0fed 243d 81ae 1abb
-0.01124292 0.041881397 0.04621624 -0.034483254 0.048074443 -0.03277151 0.020637633 -0.03473523
-0.023545848 -0.05257441 0.035599984 0.043653846 0.04838013 -0.027783193 0.009951741 0.03210626
0.01095294 -0.010222107 0.03646232 0.009053107 0.007183483 0.041003324 0.02629212 -0.03304643
-0.029440278 -0.0004338943 -0.0024009692 -0.03714947 0.070358336 0.00126867 -0.013739139 -0.002500605
-0.025071412 0.016833857 0.027948404 -0.024682386 -0.011553291 0.005947415 -0.012284726 -0.030908713
0.04006787 -0.0034543849 -0.09681587 -0.06542373 -0.011880832 -0.008554059 -0.010829574 0.015036223
0.06384381 -0.038168337 -0.010265849 0.006655282 -0.05893986 -0.018842077 -0.120298564 0.01920098
-0.048785035 0.010511361 0.029486448 -0.025928644 0.0038324322 0.0343846 0.0073680268 -0.022119962
0.036137257 0.038514823 0.022080574 -0.03556827 -0.009330071 -0.031326957 -0.04808787 -0.005340759
0.02062668 0.01666414 0.062217787 -0.029485803 -0.033342507 0.050969515 0.013754283 -0.06591172
-0.057111975 -0.014650302 -0.017565627 0.0010539122 0.02847455 0.005170893 0.045629926 0.046361458
-0.005389536 0.0111365765 -0.037703723 -0.018219562 -0.024798376 0.00047299522 -0.012036285 -0.035273336
-0.006858829 -0.0015436321 -0.0077774418 -0.05508502 -0.0076971557 0.0042400463 0.009117002 0.021908503
0.012883773 0.011296685 -0.044639036 -0.016248664 0.063785315 -0.008176961 0.0034885828 0.058032386
0.041034974 0.021882072 0.0068104775 -0.015579222 -0.0448933 0.09872494 0.025286745 -0.020986322
0.0068048937 -0.015665816 -0.0068830443 0.04275411 0.030082958 -0.033516295 -0.08581889 0.040656183
-0.02147381 -0.02588879 -0.010501759 0.010488531 -0.05318671 -0.04488605 -0.02835415 0.006158761
-0.0012917146 0.027828412 0.050481666 -0.007210733 0.0063047553 -0.00039524838 -0.030013727 -0.038512465
-0.016092485 -0.07633993 0.05676992 -0.031392887 -0.062619336 -0.016456358 -0.008509882 -0.03552004
-0.034496006 -0.052466262 -0.037807383 -0.028533245 0.018756593 -0.028667202 0.0016910111 0.0011283556
0.0044931206 -0.014076838 -0.065905616 0.017289951 0.02172697 0.036552876 -0.017491562 -0.03158694
0.02145897 -0.023302497 -0.005143821 0.021802323 0.005610195 0.05399751 -0.038787108 -0.040529426
0.03310694 0.03066148 0.0072315973 0.036131438 -0.03696611 0.0046641594 0.019468699 -0.038506735
-0.05185631 -0.0030880899 0.0372374 -0.03386458 -0.06581375 -0.03819303 -0.020859877 -0.057591118
0.02089916 0.022916004 -0.02485183 0.03789495 0.017784828 0.015288223 0.0047582327 -0.0018999464
-0.059998285 0.036980215 0.045197934 0.0008569693 0.011930536 0.020577315 -0.06726836 -0.019093087
0.007817179 0.02095097 -0.04917317 -0.0035380647 -0.0307902 -0.03130307 -0.046839967 0.042224176
-0.06935464 -0.04363212 0.075690225 -0.017046597 0.011377282 -0.009204937 0.009847863 -0.0048921434
-0.019122941 -0.011786099 0.029838977 0.002124939 -0.044371236 0.009163965 -0.04601948 -0.030981561
-0.0037903818 0.019732866 0.03863067 0.012002969 0.018806024 0.04833483 0.060037076 0.04634488
-0.035933252 -0.039914317 0.024890168 0.05085268 -0.030288618 0.004693952 -0.03829736 0.019932816
-0.01390834 0.048063725 -0.009932806 0.015272873 0.019850068 0.0193887 0.04026514 -0.0023602548

conv4.bias f4 [128]
00000000: b9e5 08be 5e5a 07be b282 e9bd cbe4 b83d
00000010: 57c9 b43d 2f3c adbd 560e af3d 8451 e63d
00000020: 0245 f23d 8236 cc3d 65af 84bc 09c4 09be
00000030: 595f fbbd e9a1 eebd 6e9c 07be 49ac 32bd
00000040: d388 53bd 5884 bbbd 731a 85bd 6464 983b
00000050: b9ef cd3d 223c febd 5db6 5c3d d0c5 ccbd
00000060: 2b6c 483d d5aa 37be 22a7 fcbd db43 94bd
00000070: a33b e33d 1680 e13d c770 3fbe 3299 e53d
00000080: cab8 28be 0c40 6dbe 6f59 833d 70a2 0bbe
00000090: d443 94be 8d4f a53d a80d 85bb 98c7 e1bd
000000a0: 2896 e43d 5ae1 b1bd f0e3 903d ff34 a0bd
000000b0: 5771 e33d f93f 90bd b7ff 073e c165 04bd
000000c0: 9851 c7bc 5fd4 00be a5b1 0dbe 636c 983d
000000d0: 0cc2 843d e5dc 893c a6be df3d 1936 3abd
000000e0: ab4d 933d 1359 9c3d c43f c83d 8cb9 a83d
000000f0: 9087 90bc b23b e13d 293c 0ebe a638 28be
00000100: bc33 59bd 4c51 8cbc badb 073e f9d4 27bd
00000110: 410e ddbd dd93 473d 6bd8 e43d 7a8b 99bd
00000120: 91fd 07be b70f 3a3c a8fa 11be c146 9f3d
00000130: 457d 23be 3c43 b53d 1d06 96be 11bb d53d
00000140: 2ec5 c6bd e500 20be f70e 353b d7ac bf3d
00000150: eacc b73d dec9 d0bd 6c41 9b3d 5b9b f8bd
00000160: 1f27 29bd 8ec3 d33d ab82 bdbd 1fa9 14bb
00000170: 0a68 1bbe 9a0c 60bd 3548 22bd 0409 bc3d
00000180: e687 99bd a25b d83d f8c6 cc3d e6d6 843d
00000190: 5b66 db3d e33b 74bd 4c1e 25bc e87d 4e3c
000001a0: f810 05be cff5 f13d 7654 ffbd d6f6 f23d
000001b0: 8897 86bd 5fcd ea3d 3d59 c5bd 630d eb3a
000001c0: 1cbe dc3d b7c2 e93d 5977 d83d b6bc b73d
000001d0: b1e6 ad3d d1b2 47be 6bdb 19be 5e0c 6fbd
000001e0: 5337 5e3d 5145 df3d 2bbd 0fbc 154e cf3d
000001f0: c618 b6bd 6733 88bc 99b0 91bd f284 e8bd
-0.13368882 -0.13218066 -0.11401881 0.09028014 0.08827465 -0.08458745 0.08547656 0.112460166
0.118295684 0.09971334 -0.016196916 -0.13453688 -0.122740455 -0.11651976 -0.13243267 -0.043621335
-0.051644158 -0.09156102 -0.064991854 0.0046506394 0.10055489 -0.12413813 0.053884853 -0.09998667
0.048931282 -0.17936261 -0.123365656 -0.07239505 0.11095359 0.110107586 -0.18695365 0.1121086
-0.16476741 -0.23168963 0.064135425 -0.13636184 -0.28958 0.08071814 -0.004060466 -0.110243976
0.111614525 -0.086855605 0.07074726 -0.07822608 0.11105602 -0.07043452 0.13281141 -0.032323603
-0.0243309 -0.12581013 -0.13837297 0.07442548 0.06482324 0.016828964 0.10925035 -0.045461748
0.07192548 0.07634177 0.09777787 0.08238515 -0.017642766 0.10997714 -0.13890137 -0.1642786
-0.053027853 -0.01712861 0.13267413 -0.04097459 -0.10793734 0.048724998 0.11174091 -0.07497306
-0.13280322 0.011356286 -0.14255774 0.07777167 -0.15965755 0.088507146 -0.2930154 0.10436071
-0.09705578 -0.15625341 0.0027627328 0.093591385 0.08974631 -0.10194753 0.075808376 -0.12139007
-0.041297074 0.103400335 -0.092534386 -0.0022683812 -0.15176407 -0.054699518 -0.039619643 0.09181407
-0.07496624 0.105643526 0.09998888 0.06486301 0.10712882 -0.059627425 -0.010078024 0.012603261
-0.12994754 0.118144624 -0.124672815 0.118634865 -0.06571871 0.11464953 -0.096361615 0.0017933067
0.10778448 0.11414092 0.10569639 0.08971541 0.084912665 -0.19501807 -0.15025108 -0.058361404
0.05425198 0.10901893 -0.0087731285 0.10122315 -0.08891444 -0.016626073 -0.071137615 -0.11353482

conv1T.weight f4 [128, 64, 3, 3]
00000000: a958 35bf 7492 95be e057 08bd 3430 e23d
00000010: 3558 003f e834 ae3e 82fe d7bc c01e 8cbd
00000020: 88b7 3ebd c89f b63e 0156 b83e 07e3 093f
00000030: 322b f13e 4cdd fb3e 5464 743e 4972 0fbe
00000040: c347 5cbe d93c a13e bed0 b1be 8286 be3d
00000050: f567 8d3d 03dc 083f 1f9d 173f 8d31 243e
00000060: 4b88 073f a034 463e b579 933c 20aa d03d
00000070: 3943 293e d2a4 823e 826f 883e 8d1e eb3e
00000080: c916 8f3e 3af8 a13b 8fa0 9e3e d543 0dbe
00000090: 6415 b0be b96c c9be 1862 fdbd b739 ca3c
000000a0: bb7a 8f3e 41a0 873e 0321 dc3c cf63 763e
000000b0: cf74 7d3d 2281 1dbe 29d7 57be 7684 bb3d
000000c0: 35ad dc3d 4d86 913e bc2e 353e ec36 303e
000000d0: 5064 373e 659b 80bd 972a 263e df1c 8a3e
000000e0: 305c a4bd 6af0 1f3f 232f 653f 793a 123f
000000f0: b16b abbc 06be 41bd c805 b6bd b3d2 e1be
00000100: 3cdd b1bd 768a 943c 56f9 553d 0166 773e
00000110: 45c0 8e3e f418 c13d 96f6 ad3e 1a71 78bd
00000120: e408 0ebe e07e c4bd 2751 2b3d 376a 783e
00000130: e05a 043f bf05 b43e 7fc9 423d 1d7e 183e
00000140: 8340 37be b648 2d3d 548d 123e e429 bfb6
00000150: 4ef3 923e d6db ad3e e849 e13d 1010 d3bd
00000160: 68c1 7cbc 914d 283e 95c4 853d dfc4 b33e
00000170: 91e2 383e 31d5 f83e 43ee cf3e e6b1 963e
00000180: 92dc b13d c9b2 b2be b049 f6bd a8b8 073e
00000190: 95b6 e23e b9a2 17bd 6163 ff3e 208b 543f
000001a0: b8e2 be3e b0c7 b7be c90b 07bc 20c7 bd3e
000001b0: b9a6 c8be 2bf4 bcbd efab 8bbd db92 8c3e
000001c0: 3559 ba3e 31d4 963e 81d8 aa3e ec4e 113e
000001d0: a6d1 99bf 9d66 82bd faad 443e d784 f83d
000001e0: ddb5 8d3e 9825 3d3f fb07 843e db47 6f3e
000001f0: 3f55 853e fbb5 00bf d472 a33b e7f2 903d
00000200: 9fa5 8a3d 7b51 b43e 90f9 193e c8c6 ae3e
00000210: 3274 ddbd de5d 523e 0014 c5bd 3805 a2bc
00000220: f9e4 013e eb00 1c3c 8590 5f3e d8eb dc3e
00000230: 68a4 c03e af8c 93be 5148 ba3e 3f07 e7bc
00000240: 6e73 8cbe 1619 1dbe 9de6 acbd ff39 ca3d
00000250: b0c0 b83e 773b 5e3e 3f5f 8d3e 5d97 5f3d
00000260: 4026 aa3d cbad 893e de4a 1f3e 7dff 75bb
00000270: 4041 e83e 85c1 df3e bf43 8a3e 1346 253e
00000280: 1a87 953e 4fc4 5c3d ec3a 033f 58d3 5b3f
00000290: 6f2f 013f c1be 363e 2226 f93e 5e2f 993e
000002a0: 232e 74be b30c 62be 2e39 b6bc 54f8 79be
000002b0: 2345 c5be 0a4c a0bb 0861 3a3e 4908 da3e
000002c0: 11b3 cf3e a8d5 53be ec67 cc3d 2bc6 553b
000002d0: 7a43 de3d db0e abbe a168 e73e 841b 02be
000002e0: f285 503e 4824 153d 1935 a63e 30c2 753d
000002f0: 2bf0 c13e 55f5 1e3e 2da1 b63e 7208 563c
00000300: 3521 0b3f ee6c da3e 515c 103f a958 de3d
00000310: 1e38 0abe ee2c cdbd deab 3cbf d762 70bd
00000320: ba5f ad3d 631c 6b3e bf93 fe3e afb5 a83e
00000330: fc12 dcbb 4c1d 4f3d 123d 80bf 4887 263f
00000340: fe46 313f a384 c53d 5c82 7a3e b18a 293f
00000350: baf6 0e3e 2805 18bf 749a 97be 57e4 20bf
00000360: 4b1e 963e bf30 9b3e 5dda 9c3d 3ff6 f43e
00000370: 5f51 0e3f 84cc a13e 3d4f 0fbe b639 6d3e
00000380: 4c95 c6be 6258 e5be d6c2 883c 0549 87bd
00000390: 8e66 933e 5ea3 f73e 5058 cd3e d5a3 a9be
000003a0: a262 913e 07c8 37be 61b3 a53e fb40 e23e
000003b0: c740 b63d 9d1e 013f 7dc3 fc3e 2d77 493e
000003c0: fc93 0abf 256c 99bd 63c2 bfbe 6154 aabe
000003d0: 2d08 e7bc d4cb 9e3e 4a90 be3e 8419 ef3e
000003e0: 8e65 e13d c63d eb3b 24cd 753e c1a8 683d
000003f0: c98e 783e eeb5 833e 897d 2c3f 9b8c 693e
-0.7083841 -0.29213297 -0.03328693 0.1104435 0.50134593 0.3402474 -0.026366476 -0.068418026
-0.046561748 0.35668778 0.36003116 0.5386204 0.47103268 0.49192274 0.23866397 -0.1400844
-0.2151175 0.31491736 -0.3472957 0.09302999 0.06904594 0.5346071 0.5922412 0.16034527
0.5294234 0.19356012 0.01800237 0.10188699 0.1652955 0.25516373 0.26647574 0.45921746
0.2794707 0.004942921 0.3098187 -0.13795407 -0.3439132 -0.3934076 -0.123722255 0.024685724
0.28023323 0.26489452 0.02687121 0.24061511 0.061878975 -0.15381292 -0.21078171 0.09156124
0.10775224 0.28422776 0.17693609 0.17208451 0.1790936 -0.06279639 0.16227184 0.26975152
-0.08025396 0.6247622 0.8952505 0.5712047 -0.020925375 -0.04730036 -0.088878214 -0.44106063
-0.08684775 0.01813243 0.05223974 0.24160005 0.27881065 0.094285876 0.33977193 -0.060654737
-0.13870579 -0.09594512 0.04182544 0.24259268 0.51701164 0.35160634 0.047555443 0.14891858
-0.17895703 0.04230567 0.14311725 -5.6971203e-06 0.28701252 0.33956784 0.110004246 -0.10305798
-0.015426971 0.16435839 0.06531636 0.35111138 0.18055178 0.48600152 0.40611467 0.294326
0.086846486 -0.34902027 -0.120257735 0.13254035 0.44279924 -0.03702042 0.49880508 0.8302479
0.37282348 -0.35894537 -0.008242556 0.37065983 -0.391897 -0.09226259 -0.06819903 0.27455792
0.36396185 0.29458764 0.33368304 0.14190263 -1.2017105 -0.06367228 0.19206992 0.12134712
0.27677813 0.7388549 0.2578734 0.23367254 0.260416 -0.5027768 0.004988054 0.0707758
0.06769871 0.35218415 0.15036607 0.34136033 -0.10813178 0.2054362 -0.09622955 -0.01977788
0.12685002 0.009521703 0.21832474 0.43148685 0.37625432 -0.2881827 0.36383298 -0.028201697
-0.27431816 -0.15341601 -0.084424235 0.09874343 0.3608451 0.21702372 0.2761173 0.05458771
0.08308077 0.26890406 0.15555903 -0.0037536316 0.45362282 0.4370233 0.2700481 0.16140012
0.29204637 0.053898152 0.5126178 0.8586936 0.50463 0.17846204 0.48661906 0.2991895
-0.23845725 -0.22075157 -0.022244062 -0.24411136 -0.3852931 -0.004891877 0.18201077 0.42584446
0.40566304 -0.20686972 0.09980759 0.0032619338 0.10852714 -0.3340977 0.45197013 -0.12705809
0.20363596 0.036411554 0.32462385 0.059999645 0.37878546 0.15523274 0.35669842 0.013063537
0.54347545 0.42661232 0.56390864 0.10856754 -0.1349797 -0.10018335 -0.7369975 -0.05868801
0.08465524 0.22960047 0.49722096 0.32951114 -0.0067161303 0.05056505 -1.0018637 0.6505017
0.6924895 0.09644439 0.2446379 0.6622725 0.13961306 -0.5938287 -0.29610026 -0.6284842
0.29319987 0.30310628 0.07658837 0.4784412 0.5559291 0.31601346 -0.13995071 0.23166546
-0.3878578 -0.44793993 0.016694468 -0.06605724 0.2878918 0.48366827 0.4010644 -0.33132806
0.28395563 -0.17947398 0.32363418 0.441902 0.08899074 0.5043734 0.49367896 0.19674368
-0.54132056 -0.0749133 -0.37452993 -0.332675 -0.02820214 0.31014884 0.3721946 0.46699154
0.11005698 0.007178995 0.24004036 0.05680156 0.24273218 0.2572474 0.6737905 0.22807543

conv1T.bias f4 [64]
00000000: 4358 093e 9914 bb3c e8a1 d33c e6fa d83c
00000010: 559f debb 9e14 6e3d 9242 f33c 8458 113d
00000020: ebb2 163d 5f1f fc3c bd0f 893b 8953 bb3c
00000030: 5c7b c23d 03f1 ec3d 3204 f9bd 957f 803c
00000040: 1c4c 813c b7a1 b93d 17c4 1ebe f41a 09bc
00000050: d665 2b3d 1d57 153d 7237 e23c 3f88 413c
00000060: ce38 30be c764 b73c d6b8 d0bd d214 443c
00000070: f6e3 463e bc12 0c3e 70ae bd3c 9c95 16bd
00000080: 3441 313d be27 06bd e1bd 98bb ee59 ed3c
00000090: 467b 9c3d 1b71 ca3d de8a 203d 92aa b4bd
000000a0: f44f e0bc 06a1 efbc 740f 863d 8e55 c039
000000b0: 9f77 2f3d 35f8 82bd 858a b1bb f0d5 2f3d
000000c0: d66f f23c 6e9d 063e 12ba a53c a6dc 473e
000000d0: 9ddd c4be d41b 8c3d 1fcf 08bb c23a 88bc
000000e0: 14c7 78bd b08c d7bd 0f20 e2bc 2758 2fbd
000000f0: 9e8a 8c3d a2fa b53d d1b1 84bd e7d3 8bbd
0.13412575 0.02283697 0.025834039 0.026486825 -0.006793896 0.05812513 0.02969483 0.035484806
0.036791723 0.030776678 0.0041827844 0.022866981 0.09496185 0.11569407 -0.12159003 0.015685836
0.015783362 0.09064048 -0.1550449 -0.0083682425 0.041845165 0.03646003 0.027614329 0.011812269
-0.1720917 0.022386922 -0.10191505 0.011967855 0.19422898 0.13679022 0.023154467 -0.036763772
0.043275073 -0.032752745 -0.004661307 0.028973546 0.076407 0.098848544 0.039194934 -0.08821596
-0.027381875 -0.029251587 0.06545916 0.00036684837 0.04283869 -0.06394998 -0.005418124 0.042928636
0.029594343 0.13145992 0.020230327 0.19517764 -0.38450328 0.06841245 -0.0020875407 -0.01662958
-0.06073673 -0.10524881 -0.027603177 -0.042808678 0.06862377 0.08885695 -0.06479228 -0.068275265

conv2T.weight f4 [64, 32, 3, 3]
00000000: e28c 2f3c 2bd0 773e cba7 c6bc 68db 113b
00000010: e577 bf3e e216 0d3e 7411 bb3c 2b5b b73d
00000020: 938f bbbd f195 fb3d 10cf dabd aecf db3d
00000030: b4b2 863e 5eab e83e e236 673e 0710 573e
00000040: dc72 e43d e4db dc3d 9931 433d d684 443e
00000050: 0cae 173d db0d 823d 2cf2 123f 12c1 1a3e
00000060: 392f 7e3d bc4c 65be fc41 abbe ca86 3f3e
00000070: a0d9 003f 0fad 573e 0775 193e 9295 ce3e
00000080: 2572 7f3e 3386 ef3e 8f07 ca3e 07fa 6b3e
00000090: 3ba5 7e3e 9333 a43e c005 4c3e 8ec8 d4bd
000000a0: 3edf 043d 22a2 01be 17e1 df3e 3bec b83d
000000b0: 8629 123c 29f2 5d3d 8d96 953e 28e6 82bd
000000c0: d5ee 943d 5e69 e23c a2f0 e6bd 1329 3f3e
000000d0: 7cee 903d d227 1bbe 303c 563e c2d3 a83d
000000e0: 8e8c 32bd 558f ec3d ecce 983e bec8 243e
000000f0: 54ed 913d 3d5e 4c3e 7d44 033e e425 03be
00000100: 76ed 00bd 93d8 93bd eea3 1c3e 0ad6 ca3e
00000110: 819a 023e b9e5 673e 9328 303e 6c65 94bd
00000120: 4227 d13c e904 493e 650f 6b3d 3d2b 1cbd
00000130: 854f ee3e 4219 bc3d 0c6c a53e a860 8f3e
00000140: 9d67 67bc ee49 293b 1a7e b63e de3a f7bc
00000150: bfd8 e23d 3a4b f63e 3976 903e 37a6 ecbd
00000160: 28ed 3c3e cd68 093e 0fdc 05be d58b d1bd
00000170: 4665 adbd 8eb9 4c3e 162a 3c3e 73e6 2fbd
00000180: bf0f 2abe 5dad 043f a0cb 9b3e 8afe 9e3b
00000190: 4fd9 5b3e 2466 8bbe a889 613d 3678 5c3e
000001a0: f9bc 183e 7eb8 743c d2f0 813e 2bb1 543e
000001b0: b9ed 8bbe 49d7 83bd 1933 a8bd 3712 c53d
000001c0: 6d44 3c3e 07d3 bd3d 1f7b c63e efe9 7a3c
000001d0: 9866 353d c80e 293c 27a5 733e 0c94 8cbd
000001e0: 9359 22be 0a2c c13e 6e64 633d 48e2 873c
000001f0: 93b0 fd3c c87f 3b3d 3419 7c3d 28da e73d
00000200: 5636 cf3c 2b27 cabb 5944 a53e 46e8 e93c
00000210: c1cb 263f 2fc9 0fbf 94fb 83be 38c2 3c3e
00000220: 91b1 1d3e 24fb 363e 89cd 923e c8d8 9a3e
00000230: 429d 973e 75b2 c03d f818 e9bc 9d41 babd
00000240: 393f 013f 2ee4 713e b351 393d 95a7 813e
00000250: ea77 573e 4893 db3d 1dbb a13e 486b 28be
00000260: d09b e2bd 997b 093e 760e c53e 9b0c 383d
00000270: d189 bc3e fb18 aa3e cabb e73d 3609 813f
00000280: d57c 8bbe 1521 053c bd2f 6b3e 0552 7a3e
00000290: 186d 013e eb00 733e 8de5 d73e d861 9d3e
000002a0: e773 d03e 1cf7 c7bd c265 dd3d 15d3 9e3b
000002b0: a836 383e e59c da3d 5a34 a53c 0a0c e03e
000002c0: ac44 173e b82e b83e 17d5 21bf 7291 eabd
000002d0: a8bc a8bd bf84 803d 01a6 2abe 4329 4e3e
000002e0: a267 363e ba96 7f3d dd65 b23e e23d 4f3d
000002f0: 6bd3 60bd a440 683d 8ea4 cb3d 528b eb3d
00000300: 48a0 743e 8279 0b3f 255c 6c3e df3f 87bd
00000310: 0ac3 0fbe 6392 07bd 1a95 aebc b995 e7bd
00000320: c7c7 15be 9efe 9e3e 258c 873e 3e27 233e
00000330: 2750 8f3e 1ee5 5abb e44a 913d a17f c33d
00000340: 4303 de3c 550a 273e 1dc7 b33d 0ebd 083f
00000350: 222c 663e 47fe 40be b964 233e b572 b83d
00000360: 5eda 9c3e 0e4f 4f3e a7d1 90bf 4101 cd3d
00000370: 9cdc a93e d8e3 5d3d 7b9e 943f 3fad e03c
00000380: 7991 e93e f6b7 fa3d eaa1 7c3e 9515 fb3d
00000390: f0b7 793e d48d b53e d1ae 213e 3cd4 70bc
000003a0: 015f 663e e2da 203e bb5f 85bd 4b04 733e
000003b0: 167a c93d 8112 193d b10e bf3e 3aa6 4c3e
000003c0: b3bd 263e 4dda b53d 63e5 36ba e5b4 b73d
000003d0: 4ac8 5cbc 4009 cb3d 0616 403e 05dd e93e
000003e0: 9bd2 803e 50e0 8a3d 18e9 703e 2114 023e
000003f0: 12ea 25be f369 19be e7be 34be 2110 86bd
0.010714741 0.24200504 -0.024249932 0.002225602 0.3739616 0.1377826 0.02283547 0.08952936
-0.09158244 0.122844584 -0.10684025 0.10732971 0.26308215 0.45443243 0.2257953 0.21002208
0.1115472 0.10784128 0.047654722 0.19191298 0.03703122 0.06350299 0.57400775 0.15112713
0.062056754 -0.22392553 -0.3344878 0.18703762 0.5033207 0.2106211 0.14986049 0.40348488
0.24945886 0.46782073 0.39458892 0.23044597 0.24867718 0.32070598 0.19924068 -0.10389815
0.032439463 -0.12659505 0.43726417 0.090294324 0.008921033 0.05418602 0.29216424 -0.06391555
0.07272116 0.027638134 -0.11276366 0.18668012 0.07076737 -0.15151909 0.20921397 0.082435146
-0.043591075 0.11550776 0.2984537 0.16092202 0.07125345 0.19957824 0.12819095 -0.12807423
-0.03147646 -0.07219043 0.15296909 0.39616424 0.12754251 0.22646226 0.17202978 -0.07245907
0.025531415 0.1963078 0.05738773 -0.038127173 0.46545044 0.09184505 0.32308996 0.2800343
-0.014123824 0.002583142 0.35643083 -0.030179437 0.11076497 0.48104268 0.28215197 -0.115551405
0.18449843 0.13418885 -0.13072227 -0.10231749 -0.08466582 0.19992658 0.1837543 -0.042944383
-0.16607569 0.5182703 0.3042879 0.0048521208 0.21469615 -0.27226365 0.05506292 0.21530232
0.14915837 0.0149365645 0.25379044 0.20770709 -0.27329805 -0.06437547 -0.08212871 0.09622615
0.18385477 0.09268766 0.3876581 0.015314563 0.044287294 0.0103184655 0.2379347 -0.06864175
-0.15854482 0.37728912 0.0555157 0.016587391 0.030967986 0.04577616 0.061547473 0.11320907
0.025294464 -0.00616922 0.32278708 0.02855314 0.65154654 -0.56166357 -0.25777876 0.18433464
0.15399767 0.1786924 0.28672436 0.30243516 0.29612166 0.09409038 -0.028454289 -0.09094546
0.50487095 0.236222 0.04524393 0.25323167 0.21041837 0.10721451 0.3158807 -0.16447175
-0.11064875 0.13426055 0.38487595 0.044933897 0.36823896 0.33222184 0.11315115 1.0080936
-0.27243677 0.008125563 0.2296743 0.2444535 0.12639272 0.23730819 0.4216732 0.3073871
0.40713426 -0.09763929 0.108104244 0.0048469403 0.179896 0.106744565 0.020166565 0.43759185
0.1477229 0.35973144 -0.63215774 -0.11453523 -0.08239108 0.06275319 -0.16664888 0.20132928
0.1781297 0.062399603 0.3484334 0.050596125 -0.054889124 0.05670227 0.09943496 0.115011826
0.23889267 0.5448228 0.23082025 -0.06603979 -0.14039245 -0.03309859 -0.021311332 -0.11307854
-0.1462699 0.31053632 0.2647411 0.15932938 0.2799084 -0.0033400725 0.070943624 0.09545828
0.027101165 0.16312535 0.08778212 0.53413475 0.22477773 -0.18846999 0.15956391 0.09006254
0.3063535 0.20245 -1.1313981 0.10010005 0.33176124 0.054172367 1.1610864 0.02742636
0.456188 0.12242119 0.2467114 0.12259976 0.24386573 0.3545977 0.15789343 -0.014699038
0.22497179 0.15708497 -0.065124 0.23732106 0.09837739 0.037371162 0.37315896 0.19985285
0.16283302 0.08879528 -0.00069769303 0.0897005 -0.013475487 0.09913874 0.18758401 0.45676437
0.2516068 0.067810655 0.23526418 0.12702991 -0.16202572 -0.14981823 -0.17650948 -0.06546045

conv2T.bias f4 [32]
00000000: 3cf3 cbbd 83cf dcbe db91 3abe b035 363d
00000010: e9b1 c23d 30e4 d63d 4efe 983e 3b59 67be
00000020: 35b8 d13c 0bf4 30be b50a a13e 9f19 91bf
00000030: 230d 7abe a8b9 b4be 3a56 febe 4e3f ae3e
00000040: 2ed1 2a3f 3544 823e 4d2d 783e 84ca 2ebe
00000050: d35c b83e 23d3 a8be 83fc c1bd 74da fabe
00000060: 844b 6b3d b7f7 f2bd 1dbf 9a3d 5951 0ebf
00000070: 0cce 0e3e b454 a5be 52c6 39be f508 38be
-0.09958503 -0.4312707 -0.18219702 0.044484794 0.0950659 0.10492742 0.2988152 -0.22592632
0.025600532 -0.17280595 0.3145348 -1.1335944 -0.24419074 -0.35297894 -0.4967516 0.34032673
0.6672543 0.25442663 0.24236031 -0.17069441 0.3600832 -0.32973585 -0.09471991 -0.48994792
0.057445064 -0.11863654 0.07555983 -0.55592877 0.13945788 -0.32291186 -0.1814206 -0.17972167

conv3T.weight f4 [32, 16, 3, 3]
00000000: 5f42 96bc 61d7 8abd 295a febd 11a8 75be
00000010: 9c4a f33d fd05 693e 6b80 773e 057e 963d
00000020: eaef 9d3e 77d2 763e 420d 123e b443 28bc
00000030: 773f b53c 474b 7ebe cd8f ba3d cb80 853e
00000040: bcf0 08be 3d1c 98be 07b9 ae3e a756 303f
00000050: e44c b73d 585d 553e f5a8 03bd 2d0a dabd
00000060: 8fe0 abbe 766f 53be cf20 3d3e e667 41be
00000070: cd0b 35be 6f83 6c3e e4ae 4cbe a07a 4a3e
00000080: 51ae b9bc 83fe b53e 9729 753e 7903 f63e
00000090: 4fe6 abbc 0715 473e de70 44bc 7145 1cbe
000000a0: 716f 4f3e 153d efbd 469b f03c 281f e53d
000000b0: d79d 2f3e dd00 fb3e d489 313e f88f fdbe
000000c0: 0450 dc3d 6f3e e1bd b814 a2be 4b98 22bc
000000d0: 8937 d73d c1f2 023f faf9 e73d fca1 bc3d
000000e0: 40cc 2fbe 712b 78bd 8043 0fbe 8162 34be
000000f0: adf8 adbb 313d d43c f2fe a43e bbea a3be
00000100: fb62 abbd 9155 063e 95e2 75be bf5e 19bf
00000110: ade3 cdbc cb8d 143e 940d cc3d e616 a9be
00000120: afc5 06bd ac55 09be c6f7 723e 0412 a73e
00000130: 2636 383e 5009 6abc 3431 c03e b0e2 363e
00000140: b5f3 133f 92f5 e03d 5908 333d a6e3 1f3e
00000150: 709a 08be f8df f13d d1fc 173d 6802 40be
00000160: f079 efbd f142 983e b368 42bd 52db 133e
00000170: e479 d9bd 7482 d2bd 3478 0e3e 737a 77bd
00000180: 0ad9 a83d d84d 853e a1f9 9d3e 30c7 8ebd
00000190: 1d1a 9cbc 9582 32ba 6840 33be baca 21bd
000001a0: 55b7 3a3e af44 3b3f 0677 123e f5cb 233f
000001b0: 5e86 d43d a810 d639 7af3 593e 2fbc 16be
000001c0: a550 5fbd 74a9 033e 9013 f13e f092 4bbe
000001d0: aa84 ca3e cd0e 443e 9c66 bd3d c0e5 e4bd
000001e0: d985 d53e 758b 893e 59c5 5c3e 6059 b7be
000001f0: c6bf 353d 1c90 9dbe e0d6 043e bb11 e0bc
00000200: b0ce 64be 0a99 783e e5b5 773d 50a1 20be
00000210: 4f82 1fbe e876 81bd b935 873c bf40 653e
00000220: 3b0e b9bc 51ce 44be 5812 90be 2981 fcbe
00000230: 60a9 a23c 554b 28be 1676 29bf 7175 ffbc
00000240: f540 2fbd 0995 dfbc 09fe 063c fff7 c83e
00000250: 841e bc3e 7d9e 113e ee54 86bd 8c46 26be
00000260: 2e99 a3be 29d1 973e 5590 d03e 8d77 c9bd
00000270: f72d 283e 2430 073f 39e1 dbbd 8e43 70be
00000280: e378 79be 6384 90be e72a 2f3f 023c bb3e
00000290: cae1 4e3e 8134 1c3f 2278 fc3e ceb8 4abe
000002a0: 27d4 acbe 4353 98be 1256 a6be 0733 b83e
000002b0: 7f7e 943e 91ea 653e ce5b e13c 8209 743e
000002c0: bd89 92bd 3db7 99be 9ff3 2ebf 50ef b7be
000002d0: 557d 703e 3a3a 943e 1149 49bd b6ec 033f
000002e0: 2258 a23e 1711 063c 5c89 54be 2862 b5be
000002f0: c85d debe f1c3 d63e 779e fb3e 1766 343e
00000300: 7653 ef3e 3a46 b43e eedd 36be e25a 4fbe
00000310: 3fb9 65be 2918 fbbe 5471 983e c545 e63d
00000320: 3403 183c 0895 293e aaf2 593d 0f88 5fbe
00000330: 80a7 dfbe 8a36 4abf a34f 99be 6649 4d3f
00000340: e9ac 333e c787 933d b6de eebd bb49 96be
00000350: a09c d3be 963d 08bf 6113 81bf c358 04bf
00000360: cbb7 563d 6452 1c3e 6aa1 503e 528f 0c3f
00000370: 9dfe 1a3f fff9 bc3a 3a41 97be 1a84 a6be
00000380: 2a22 88be 9b05 9b3d f511 db3e 20d2 5f3e
00000390: 2d85 9e3e 9cf1 403f 8285 a43e 4188 d8be
000003a0: 3b88 a5be 09ef 08bf e2d9 a93e c582 533e
000003b0: 7647 6b3d e535 083e e3ee 7fbd 1254 dabe
000003c0: 8879 9abe ce00 8fbe cacb dfbe 965f af3e
000003d0: 8b61 f83d 35ce ffbe 668a 473e 163f 973e
000003e0: 949e cebe 27d4 abbe 764d fabe e7bb 19bf
000003f0: 964c 693e 425c 4b3e cab8 89bd 0487 2a3e
-0.018342195 -0.067793615 -0.124195404 -0.23989893 0.11879465 0.2275619 0.24170081 0.07348255
0.30847102 0.24103723 0.1426287 -0.010270048 0.022124989 -0.24833404 0.09109459 0.26074824
-0.13373083 -0.29709044 0.3412554 0.6888222 0.089502126 0.20836389 -0.03214355 -0.10646472
-0.33569762 -0.20647988 0.18469547 -0.1888729 -0.17680283 0.23097013 -0.1998859 0.1977334
-0.022666128 0.3554574 0.23941647 0.48049524 -0.020983843 0.19441615 -0.0119898 -0.15260865
0.20257355 -0.11681572 0.029370915 0.11187583 0.17150055 0.49024096 0.17337734 -0.49523902
0.10757449 -0.109982364 -0.31656432 -0.009924005 0.10508639 0.51151663 0.11326976 0.092105836
-0.17167759 -0.060588304 -0.13990593 -0.17615701 -0.0053091855 0.025908085 0.32225758 -0.32015023
-0.083684884 0.13118578 -0.24012215 -0.59910196 -0.025132978 0.14507215 0.09963527 -0.33025283
-0.03290337 -0.13411587 0.2372733 0.32630932 0.17989406 -0.014284447 0.3753754 0.17859912
0.5779374 0.10984339 0.043709133 0.15614185 -0.13340163 0.11810297 0.03710634 -0.18750918
-0.116931796 0.29738572 -0.04746313 0.14439133 -0.10618952 -0.10278788 0.13913041 -0.06041951
0.08244522 0.26035953 0.30854514 -0.06971586 -0.01905542 -0.00068096194 -0.17505038 -0.039499976
0.18233998 0.7315168 0.14303216 0.6398309 0.10377191 0.0004082967 0.21284285 -0.14720224
-0.054520268 0.1285761 0.47085238 -0.19880271 0.3955434 0.19146271 0.09248087 -0.11176634
0.4170368 0.2686421 0.21559657 -0.35810375 0.044372343 -0.3077401 0.12972593 -0.027352205
-0.2234447 0.2427713 0.060476203 -0.15686536 -0.15577053 -0.06321508 0.01650511 0.2238798
-0.022589793 -0.19219328 -0.28138995 -0.4931729 0.019856155 -0.16434987 -0.6619581 -0.03118393
-0.042786557 -0.027292745 0.008239278 0.39251706 0.36742032 0.14220615 -0.06559168 -0.16237849
-0.31952804 0.29651764 0.40735117 -0.098372556 0.16423784 0.5280783 -0.10736317 -0.2346327
-0.24362521 -0.28226003 0.6842484 0.3656922 0.20203319 0.61017615 0.49310404 -0.1979706
-0.3375561 -0.29751024 -0.3248754 0.3597643 0.2900276 0.22452761 0.027509596 0.23831752
-0.07155178 -0.30022612 -0.68340486 -0.35924768 0.2348531 0.28950673 -0.049141947 0.5153307
0.31707865 0.0081827855 -0.20755523 -0.3542645 -0.43430924 0.41946366 0.49144337 0.17617069
0.46743363 0.3520983 -0.17858097 -0.20249513 -0.22433947 -0.4904187 0.29773962 0.11243776
0.009278107 0.16560757 0.053209938 -0.21829246 -0.4368248 -0.7898947 -0.2994357 0.8019012
0.17546429 0.07203632 -0.116635725 -0.29353127 -0.41330433 -0.5321897 -1.0084039 -0.5169794
0.052421372 0.15265805 0.20374075 0.5490619 0.6054476 0.0014417766 -0.2954195 -0.3252266
-0.26588565 0.075694285 0.42787138 0.218575 0.3096098 0.75368667 0.32133108 -0.42291453
-0.32330498 -0.5348974 0.33174044 0.20655353 0.057441197 0.13301809 -0.06248368 -0.42642266
-0.30170846 -0.279303 -0.43710166 0.34252614 0.1212798 -0.4996201 0.19486389 0.29540318
-0.4035536 -0.33560297 -0.48887223 -0.6005234 0.22783121 0.19859412 -0.06724699 0.16653067

conv3T.bias f4 [16]
00000000: c3d1 8dbe 6bf5 4dbe 2ce7 1abf d9fd 0f3e
00000010: 9f75 9c3e e5ea 90bf cb8f 0fbf fe3c 2dbf
00000020: 33d1 8b3e d5d0 d53d 905f 1f3c b143 7abf
00000030: 5540 70be 0df9 7dbd f5d7 fb3e 6ee7 b4be
-0.27699098 -0.20113151 -0.6050899 0.14061679 0.30558488 -1.1321684 -0.56078786 -0.6767119
0.27308044 0.10440222 0.009727374 -0.9775954 -0.2346204 -0.06200509 0.491882 -0.35332817
