theta_run_birds_unet/exp_dim10_filesmany_tight/conv_autoencoder.pth (torch, 997865 bytes, 19 tensors)

module.conv1.weight f4 [16, 1, 3, 3]
00000000: 5544 17be af2e 53be dd71 d43d 96cf 2b3d
00000010: 2df9 6d3b 6272 c23d 9c49 aa3c e548 9fbe
00000020: 0305 f03d 125d 8c3d bb24 153d 8457 94bd
00000030: 99cf 8bbd fb3a ba3d 868d 28be 99ee 523e
00000040: 01af 983d 5143 503e f2ac 76bc 185c cbbd
00000050: 2e52 9abe b71f 1b3e 25a9 a6bd 7b73 5d3e
00000060: 6a76 79be 53fc dcbc d35a b1ba be71 a73d
00000070: c814 053e f63b e23d 7bfe 713c 1db4 90be
00000080: 9c93 e03d fde4 0cbe 4635 93bd bb8c 8cbd
00000090: 4235 24be 01fa d93c d32d a4bd 0e97 303e
000000a0: 995b 9cbe 9509 9a3d e4aa c1be 30ef 6a3e
000000b0: 9b33 29be f749 dc3c 9e0a cbbd c8f1 113e
000000c0: 3990 503e 1137 b2bd 7627 923d 36b7 163e
000000d0: 9728 f53d d265 e53d 679d fe3d 9a63 153e
000000e0: 5916 8bbe a100 17be e31c 3e3e 1ee6 12be
000000f0: 266c e13a a2c3 27be e903 a9bd 59f6 0f3e
00000100: 0582 6bbe 5f0d 13be 40de ad3d d310 59be
00000110: adad 95bd 3dea a8be 1857 073e 4849 383c
00000120: 5966 6cbe a060 bbbe 0ae0 193d 26ea f53c
00000130: 7ab7 62be 6a41 4f3e 73a7 453d baed c2bd
00000140: 0c5e aebe 2441 5ebe 636a 66be c91d f6bc
00000150: e5c1 ac3d 025e 5bbe 8004 f03d 773c b4bd
00000160: 8480 5f3c 1b4a 82be 7d69 ae3d 6c11 f33d
00000170: 6d84 bfbc d0cf eb3d b4f6 843d 36e4 2fbe
00000180: a020 383e 72c3 50bc 72b2 303e 8761 e0bd
00000190: d6da de3d 3309 2d3e 50d3 f43d bd97 b4bd
000001a0: e4b6 80bd 7fd0 28be 65cc db3d bb1d 133d
000001b0: 41ad 94be 16d9 a3bd 7be3 803d 6926 97be
000001c0: f035 9a3d 16c2 77be 6d4b a2bd 88b3 8bbe
000001d0: 6133 523e 66f6 a63c 959f 25be e45e a63d
000001e0: 3721 60bd 1816 113e a0ee a73d f5bb 113c
000001f0: b4f7 ce3d 33f9 a63d 194d e63d d56d 003e
00000200: b979 63be 2112 f8bc 0cf1 463d 71b5 89bd
00000210: 5352 313e 7201 e03d 1838 9dbe ac5b db3d
00000220: f502 ae3d e432 70be 1ddd 163a 7d03 ac3d
00000230: 8556 1b3e e180 d7bd 6ff7 403e 1bae 4fbe
-0.1477216 -0.20623277 0.1037328 0.041946016 0.003631185 0.09494473 0.020787053 -0.31110302
0.11719706 0.06853689 0.036411982 -0.07243255 -0.068267055 0.09093281 -0.16460237 0.2059883
0.07455254 0.20338179 -0.015055882 -0.09929675 -0.30140823 0.15148817 -0.081377305 0.21626084
-0.24361578 -0.026975786 -0.0013531096 0.081759915 0.12996209 0.11046593 0.0147701455 -0.28262416
0.10965654 -0.13759227 -0.071878955 -0.0686278 -0.16035941 0.026608469 -0.08016553 0.17245123
-0.30538633 0.07521359 -0.37825692 0.22942805 -0.16523592 0.026890738 -0.099141344 0.14252388
0.20367517 -0.08701909 0.07136433 0.14718327 0.119706325 0.11201061 0.12432366 0.14588776
-0.27165487 -0.14746334 0.18565707 -0.14345595 0.0017198368 -0.16383222 -0.08252699 0.14058818
-0.22998817 -0.1436057 0.084896564 -0.21197824 -0.07308517 -0.3299121 0.13216817 0.01124794
-0.23085918 -0.36597157 0.037567176 0.030018877 -0.22140303 0.20239797 0.048255395 -0.09517999
-0.34056127 -0.21704537 -0.22501521 -0.0300435 0.0843542 -0.2142258 0.11719608 -0.08800595
0.01364148 -0.25447163 0.08516214 0.11868557 -0.023378575 0.115142465 0.064923674 -0.171769
0.17981195 -0.01274191 0.17255571 -0.10956102 0.108815834 0.1689804 0.11954367 -0.08818004
-0.062848836 -0.16485785 0.107323445 0.035917025 -0.29038432 -0.0800039 0.062933885 -0.29521492
0.07529819 -0.24195132 -0.079245426 -0.2728541 0.20527412 0.020381164 -0.16174157 0.08123568
-0.054719176 0.14168584 0.08199811 0.00889491 0.10105839 0.08153 0.11245174 0.12541898
-0.22214402 -0.030282082 0.048569724 -0.0672406 0.1731656 0.10937776 -0.3070686 0.107108444
0.08496658 -0.23456913 0.00057549943 0.08399103 0.15169723 -0.105226286 0.18844388 -0.2028126

module.conv1.bias f4 [16]
00000000: 6ee5 f73e d55f 50be 30cc f33e efa8 c43e
00000010: 5115 093e c3d1 ffbe f1b5 49bf 9a9b ee3e
00000020: 844f 0bbf d735 d33e 5cb5 b83a 4ccd 28bf
00000030: 3f3c a5be de75 683e 7b41 29bb dc1e 06bf
0.48417228 -0.20349057 0.4761672 0.38410136 0.13387038 -0.49964723 -0.78793246 0.4660309
-0.54418206 0.41252014 0.0014092135 -0.6593826 -0.32272527 0.22701213 -0.0025826383 -0.5239084

module.conv2.weight f4 [32, 16, 3, 3]
00000000: c4bd 7fba 9042 d9bd fd20 c0bd aa3d cbbd
00000010: a096 fc3b 8708 c1bc 3a04 b1bd 4626 333d
00000020: 2d27 bc3c c193 82bd 2cbe 84bd 4c2a f2bd
00000030: 506a 853d 7fb0 19bd a316 e93c 7f73 b4bd
00000040: ea58 50bc d8c7 96bd aeb4 3abd 427a 15be
00000050: 4b65 97bb e1a0 bfbc a6b3 f3bc e8e3 cd3c
00000060: 6d7f 39bd ec90 acbd 75d2 213c daa6 bcbc
00000070: 65ca 9ebd d34a 1bbd 6d42 00bd f4f9 b9bd
00000080: bd62 a3bd 8ec6 61bd 9a8f 363d 39eb 4c3d
00000090: f13e dd3c 4c95 3f3d c645 61bd c037 ccbc
000000a0: c8ef 983d ef36 3ebd a6d5 463c 9c45 d6b9
000000b0: 6d25 2abc c2c7 0bbe 42f3 20be c184 6a3c
000000c0: 3e24 453d a25a 7c3d ec77 9d3c b26e 673c
000000d0: 1e50 99bd f94c 69bc 35f9 08be fd85 a6bd
000000e0: 3f71 593d 4bd2 1ebd d815 6ebc ba09 1abe
000000f0: 5e59 06bb 40a6 cfbd 2c88 fdbc 8ea1 083c
00000100: 773f dfbd b017 01be 3700 c0bd c13d 343d
00000110: 4ce5 37bd 789e 9abd 77f6 53bd f006 13be
00000120: 3a1f abbd be24 d8bd bb45 55bd 8a79 35bd
00000130: c0cd 56bb 7f49 81bc c283 1abd 6c12 b3bc
00000140: a2a6 abbc 3151 5a3b d431 45be 30de 97bc
00000150: 0e3f 00be c3b8 dabd 03e4 99bb d2ab 56bd
00000160: f4c0 183d 04e9 86bd c25e 02be 17d6 1abe
00000170: 54c0 8ebc 7909 793d 9cd7 803d 66a1 61bd
00000180: f18e 7e3d 79ca 043c 3d4c 103d a8fb 28bd
00000190: 4e02 02be 1ae4 66bd 3907 dfbd 3b5c b1bd
000001a0: 9868 bcbd e94a f03c 77ff 7bbc d596 f73b
000001b0: 3300 95bd b079 8a3c c29d 79bd 4dc4 c9bd
000001c0: 3851 3cbd 8af0 143d b8f9 1cbd 43fe 66bd
000001d0: 0c8f 6fbd e309 99bd 4640 03be 8154 90bd
000001e0: fca9 4f3d c047 103d b412 c73b 5fc1 01bd
000001f0: 8f54 1c3d 4ed1 96bd bde0 56bd 932d 733d
00000200: 527a 0bbd 17b4 bdbd 8f30 7abb 7225 933c
00000210: 62d5 6abd b37a 1fbc d911 163d 315d d1bd
00000220: b67c a2bd adde 58bc 040b 3ebd 8850 78bd
00000230: c15d 65bd be58 4ebc fdf0 debd e98a ea3c
00000240: 5a78 b0bd 13c0 903c bbab d6bd 06c2 dbbc
00000250: d9f1 543d c951 47bd 17a3 933c 9dfc 04bd
00000260: 432d 673d eda5 a03c 6106 9a3c 3817 01bc
00000270: f6ef c9bd f47c 6b3d 7dee 1b3c 4ecb a43c
00000280: a01b 33bd d551 0bbb 80ce c33d 6366 22bb
00000290: 9a41 9fbc 9738 ca3c 2428 96bc beff e03c
000002a0: f7d3 41bc 28c4 9aba 56de 6fbd 17ec 543d
000002b0: 6b89 0f3d 110e a33d f801 083c 6cf9 5ebd
000002c0: c40e 993b d187 bebd f7d1 003d 3b82 6c3d
000002d0: da29 be3c 903a b6bd 55d9 aa3d c936 c93c
000002e0: 7996 80bd cfd1 6bbd b849 393d a30c 5bbd
000002f0: 30f4 ffbc 8c98 93bd c640 71bd cc2a cbbd
00000300: c515 04be feec b9bd b965 e5bc 3143 b63c
00000310: 2725 983c ede3 563c 9f33 5f3d f5c4 8d3d
00000320: 1cdb be3c f394 183d fa14 debd 3800 e7bd
00000330: d992 eabd 1861 df3c d546 6dbb 8ee8 103d
00000340: 0dce 91bc 6e90 9e3d e23f d73c b14d f23c
00000350: 8001 dd3b 4c71 55bb 80ff 99bd 5594 11bd
00000360: fcc5 d1bd 796e 6bbd ea34 45ba 651d 57bd
00000370: dfc5 5c3d 8645 383d 535a 7ebd 6709 d0bc
00000380: c2e4 98bd c13c b53d 7214 8b3b e28a e13c
00000390: ea8b 623d b3cb 1ebc 5489 ad3d 9854 adbd
000003a0: b859 5ebd 04ba df3c c27a 81bd 8207 b2bb
000003b0: 90df 113d fccf 5cbd 5265 51bd 7a6f c4bc
000003c0: faab cbbc f15d 073d 179f e9bd 6637 50bd
000003d0: c91c a9bd f982 513d ea61 e9bd 7edc 90bc
000003e0: 7a69 1dbd ced5 d4bd 4b94 3e3d a36d 80bd
000003f0: 8830 efbd 7933 04bd 8453 b8bd 91a2 82bd
-0.00097557553 -0.10608399 -0.09381292 -0.09923871 0.0077083856 -0.023563636 -0.08643384 0.043737672
0.0229679 -0.06375838 -0.06481585 -0.11824474 0.06514418 -0.037521835 0.028453177 -0.08811092
-0.012716511 -0.07362336 -0.045582466 -0.14597419 -0.0046202294 -0.023392143 -0.029748749 0.025133088
-0.04528754 -0.08426079 0.009876837 -0.02302878 -0.077534474 -0.037913155 -0.03131335 -0.09080878
-0.07977817 -0.055120997 0.044570543 0.050029013 0.027007552 0.04677324 -0.05499818 -0.024928927
0.0746761 -0.046439108 0.012135899 -0.00040869124 -0.0103849 -0.1365042 -0.15717795 0.014313878
0.048130266 0.06160987 0.019222222 0.014125513 -0.07485984 -0.014239543 -0.13376315 -0.08131025
0.053086516 -0.03877477 -0.014531575 -0.15042773 -0.0020500044 -0.101391315 -0.03094872 0.008339299
-0.10900777 -0.12606692 -0.09375041 0.044004206 -0.04489641 -0.07549757 -0.05174872 -0.14358115
-0.08355565 -0.10553883 -0.052068453 -0.04430536 -0.0032776445 -0.015782116 -0.03772331 -0.02185937
-0.02095348 0.0033312554 -0.19257289 -0.018538564 -0.12524053 -0.10679772 -0.0046963706 -0.052409954
0.03729339 -0.06587413 -0.1273146 -0.15120731 -0.017425694 0.06080005 0.06291124 -0.055085562
0.06214804 0.008104914 0.035228956 -0.041255623 -0.12696192 -0.05636988 -0.108900495 -0.0866017
-0.09199637 0.029332595 -0.015380732 0.0075558224 -0.072754286 0.016903728 -0.060941465 -0.098518945
-0.045975894 0.03636221 -0.038324088 -0.056394827 -0.05848603 -0.07472589 -0.12817487 -0.07047368
0.05069922 0.035224676 0.0060752276 -0.031678554 0.03816658 -0.073641405 -0.05246042 0.059369635
-0.0340522 -0.09262865 -0.0038175916 0.017962191 -0.057332404 -0.009733844 0.036638115 -0.10222853
-0.07933943 -0.013236684 -0.046397224 -0.060623676 -0.055997614 -0.0125944 -0.108858086 0.02863069
-0.08616705 0.017669713 -0.10481974 -0.026825916 0.051988456 -0.04866198 0.018022103 -0.032467473
0.05643965 0.01961037 0.01880187 -0.007879071 -0.09860222 0.05749221 0.009517309 0.020116474
-0.043727517 -0.0021258492 0.09560871 -0.0024780266 -0.019440461 0.024685187 -0.018329687 0.027465697
-0.0118303215 -0.0011807727 -0.058561645 0.051982965 0.03504316 0.07961667 0.008301251 -0.054437086
0.0046709497 -0.09303249 0.031450238 0.057741385 0.023213316 -0.08897889 0.08342234 0.024562256
-0.062787004 -0.057573136 0.04523632 -0.05347885 -0.031244367 -0.072068304 -0.058899663 -0.09920272
-0.1289893 -0.09078406 -0.028002607 0.022248836 0.018572403 0.013115865 0.05449259 0.06922332
0.023297839 0.037251424 -0.10843845 -0.112793386 -0.1145379 0.027267978 -0.003620555 0.03537803
-0.017798448 0.077423915 0.026275579 0.029578062 0.0067445636 -0.003256875 -0.07519436 -0.03554185
-0.10242841 -0.0574784 -0.00075228384 -0.052518267 0.053899642 0.044988178 -0.06209786 -0.025395108
-0.07465507 0.088494785 0.0042443806 0.027532045 0.055309214 -0.00969212 0.08473459 -0.084634006
-0.05428478 0.027310379 -0.06322242 -0.005433024 0.035613596 -0.053909287 -0.051122017 -0.023978937
-0.024862278 0.033048574 -0.11407297 -0.050834082 -0.082574435 0.051150296 -0.11395629 -0.017683264
-0.03843067 -0.103923425 0.046528142 -0.062709115 -0.116791785 -0.03227565 -0.09000304 -0.06378663

module.conv2.bias f4 [32]
00000000: 7e24 3fbe 4029 843e 87d9 dfbd 91f9 88be
00000010: 1074 643d 4b60 f53c 9558 2dbe be1a b4bd
00000020: 3381 98bd bf71 78be 8a1d bdbe 018a 073e
00000030: d36c 3c3e 3ccb d1be 2efe 1abe 0b6d 193a
00000040: 2eaa 1bbe 459d 1b3e 6840 1d3d a066 d2bd
00000050: fb07 ebbd 1b1e 103e 099f 313d b2a5 88be
00000060: c8e5 b7be 104b 58bc 9298 d4be 42e8 163c
00000070: 1e02 513e ea56 2c3e df6b 8cbe 195a 8fbe
-0.18666264 0.2581272 -0.10930162 -0.26752904 0.05577475 0.029953143 -0.16928323 -0.08794163
-0.07446518 -0.2426214 -0.369366 0.13236238 0.18400888 -0.40975368 -0.15136024 0.00058527355
-0.15201637 0.15196712 0.0383915 -0.102734804 -0.114761315 0.14073984 0.04336456 -0.26688915
-0.35917497 -0.01320149 -0.41522652 0.009210648 0.20410964 0.1683003 -0.2742605 -0.27998427

module.conv3.weight f4 [64, 32, 3, 3]
00000000: 38c5 d83c e3b6 04bc 1a80 4c3c 6c38 953c
00000010: a494 0cbd 7dbb 033c 0287 973d 6cfb ab3c
00000020: d11e 34bd b788 c2bc 5372 6fbd dbaa 9ebd
00000030: 83b9 5ebd 3431 fabc a89e dbbc de10 473b
00000040: e0f8 56bd 00ed 363d 4fc9 543d 8989 e03c
00000050: f661 93bb b8dc a6bd 7e74 123d 34b6 25bd
00000060: c82c 86bc 6baf 243d 579c 803c 5180 833b
00000070: 4783 d53c 7ad8 76bd 6783 fc39 f92e 1fbc
00000080: 7e0a 04bd e2ab 1c3d ce60 483d 92b0 43bd
00000090: d8a1 1cbd a912 a53d 79f6 f7bc d8b9 16bd
000000a0: 1b90 3c3d 3d9b 27bd e8e8 bdbd 5c53 bfbc
000000b0: dc9d e23b 7d09 e6bc 432c b8bc 61ea a0bd
000000c0: 629a 23bc d033 63bd 7c7c 9abd 1278 2dbd
000000d0: 1439 0d3d 23c0 e1bb 9d8c 0ebc 65b3 2c3d
000000e0: 4a41 b4b7 3ccc bdbc df91 51bb d765 66bb
000000f0: f41a 933d a085 57bc 1179 2bbc f1ff 0cbd
00000100: ec71 b3bb 7c2b a2bd 857e a2bd 252e 78ba
00000110: 76f4 95bd 25ba 173d a9f5 8f3c b9ec 363d
00000120: 2831 2bbc 68b1 76bd aedb 2abd 94ae 0d3c
00000130: 5235 93bc 0c32 d5bd eafb 61bc 3888 7fbd
00000140: f9a9 2ebc a4d6 c5bb 8bbc 933d e135 82bd
00000150: 1808 a7bc a0bb d93b de8d ff3b c5a3 ac3d
00000160: d1db 17bd b0ed 203d ea95 403b cbdb 8fbd
00000170: f2de 193c 7047 853c 37be 1bbc 5b1e 523b
00000180: 2d69 9abb e70c 0cbd b9ef f0bc c19d 03be
00000190: 4c53 83bc fb13 a1bc 9f00 aebd e610 98bc
000001a0: 9a79 c8bc b826 7ebd 999f abbd bc7b fa3b
000001b0: 71ec 82bc f9cc cdba 4f51 cebd 950a de3c
000001c0: ffe2 7abd e909 04bd b6ab bbbd c969 d6bd
000001d0: 0424 bebc 30c9 803c bd04 2f3d 3ded 153d
000001e0: a85b 9ebd 6308 833d a0dc 32bd e822 e1bc
000001f0: 2588 c03c a933 a4bc 7571 923b 4980 96bd
00000200: ec0e 90bc b460 033d 670a 85bc 3fca e9bb
00000210: 72f3 2e3d 6d74 c8ba c7dd f0bc aadb e2bd
00000220: 6c6a 9e3d 85c2 34bd 9986 ddbd 45f5 023d
00000230: 7fc3 68bc ca86 c8bc e1ad 3dbd 280e 633d
00000240: 9d60 623d 0148 ffbc 861f ab3b 0f72 fc3b
00000250: 6c51 f93b 35e4 5e38 c8bc f23c 59de 213d
00000260: 795d 2938 d237 6abd 5198 d83c 8e88 8ebd
00000270: 12bd ec3c 9f93 15bd 9f27 0bbe 0fe8 c43c
00000280: 7acf 24be 7bd4 983d 9fb7 4fbd 908c 82bc
00000290: 40ea 5fbd a9bd 4cbd 002b 083d b63d 433d
000002a0: b7a2 19bc 1139 9dbd d05f 59bd dca8 453d
000002b0: 61b0 883a 0ff6 43bc e3b9 0c3c 3e84 6cbc
000002c0: bfd8 b23c 6828 e5bb c010 c13b b1df cdbb
000002d0: 0282 c8ba 8fac e5bc fdd8 2dbd f1ad 40bd
000002e0: 4128 183d 5925 533c 8fcc cf3c 1773 83bb
000002f0: b960 76bc f5a4 013a 788d 83bd 3aed 013b
00000300: 1602 4c3c fa18 993d 153a f83a 55d1 78bc
00000310: a4e4 03bd 0bee 0e3d a228 cfbd d05c 7fbc
00000320: 38d0 12bc 18ab fcbc 4fd4 9dbd 7eee 3dbd
00000330: 74b3 26bd 863b 55bd 17cf 973d fe9a e8bc
00000340: 83a0 1d3c 0e53 f8bc e6ab 98bc f1ff 5cbd
00000350: 3316 cbbd e453 ecbc 3809 8a3b c8ce 67bd
00000360: 2ed9 0e3d 1b21 b1bc 5fa6 a5bc 9991 053d
00000370: 58b8 4e3c 970c 63bd 0b2f 4ebc 29aa 15bd
00000380: 2a90 febc 1ace 163d f6a9 543d 608d 13bd
00000390: b627 ffbc c2e1 c8bd df98 2abd aaab 4dbb
000003a0: df2e 373d 6e64 533d a6b7 2abd 1cfd 90bd
000003b0: db45 10be a54e f3bd 1ab8 3bbd 7087 e5bc
000003c0: 49c9 a13a 4349 933b ddc1 e13b 0ce4 413c
000003d0: a610 443c c01d 55bb 56a1 8a3c 5ff4 4dbb
000003e0: 58ac 663a af7c 3c3c d537 e639 f6d3 6ebc
000003f0: 0c3c 5d3b e916 23bb e467 c1bd 8e36 a63c
0.026461229 -0.008100244 0.012481714 0.01821538 -0.034321442 0.008040306 0.073987976 0.02099391
-0.0439747 -0.023746831 -0.058458637 -0.07747432 -0.054376137 -0.03054104 -0.026809052 0.0030375044
-0.05248344 0.044659615 0.051949795 0.027409332 -0.004497762 -0.081475675 0.035755627 -0.040456966
-0.016378775 0.040206354 0.015699549 0.0040130992 0.026063574 -0.060265042 0.00048163088 -0.009715789
-0.03223657 0.038249858 0.048920445 -0.047775812 -0.038240284 0.080602 -0.030268895 -0.03679833
0.046035867 -0.04091953 -0.09272939 -0.023355179 0.006915791 -0.028080696 -0.022482043 -0.07857204
-0.009985538 -0.055469334 -0.07543275 -0.042350836 0.034478262 -0.0068893596 -0.008700517 0.04216327
-2.1488075e-05 -0.023168676 -0.0031977815 -0.0035155916 0.07182875 -0.013154417 -0.010465876 -0.034423772
-0.005476227 -0.0791845 -0.07934288 -0.0009467325 -0.07322018 0.037042756 0.017573195 0.04465935
-0.0104487315 -0.06022778 -0.04171341 0.00864758 -0.017969761 -0.10409936 -0.013792971 -0.062385768
-0.010660642 -0.00603755 0.07213696 -0.06357933 -0.020389602 0.006644681 0.0077988943 0.08429674
-0.037074868 0.039289176 0.002938623 -0.07024344 0.009391533 0.016269416 -0.0095058 0.003206155
-0.004712245 -0.034191992 -0.029411184 -0.12853147 -0.01603093 -0.019662848 -0.08496212 -0.018562745
-0.024472047 -0.062048644 -0.0838005 0.007644145 -0.015981885 -0.0015701345 -0.10074102 0.027104655
-0.061251637 -0.032236014 -0.09163611 -0.10469396 -0.023210533 0.015720934 0.04272913 0.0366032
-0.07732326 0.06398084 -0.043667436 -0.027482465 0.023502419 -0.020044165 0.0044690915 -0.07348687
-0.01758524 0.032074645 -0.016240312 -0.0071347053 0.042712636 -0.0015293487 -0.029402627 -0.11077054
0.07735142 -0.04413082 -0.10816688 0.03197219 -0.014206766 -0.024478335 -0.046308402 0.055433422
0.05526792 -0.031162264 0.0052222637 0.0077040265 0.007608583 5.314146e-05 0.029631034 0.039518688
4.0379793e-05 -0.05718214 0.026439818 -0.069596395 0.02889875 -0.036517736 -0.13589333 0.024036435
-0.16094771 0.074624024 -0.050712224 -0.015936166 -0.054666758 -0.04998556 0.033244133 0.047666274
-0.009377173 -0.076769 -0.05306989 0.04825674 0.0010428542 -0.01196052 0.008589241 -0.014435826
0.021831868 -0.006993342 0.0058918893 -0.0062827696 -0.0015297534 -0.028036384 -0.042443264 -0.047040883
0.037147764 0.012887322 0.025366096 -0.0040115225 -0.015037709 0.000494554 -0.064234674 0.0019825236
0.012451669 0.07475467 0.0018938208 -0.015186627 -0.03220047 0.034894984 -0.10115172 -0.015586093
-0.008960776 -0.030843303 -0.0770651 -0.046370022 -0.040698484 -0.05205872 0.07412546 -0.028394219
0.0096207885 -0.030313041 -0.018636655 -0.053955022 -0.099163435 -0.028848596 0.0042125247 -0.056593686
0.034875087 -0.021622231 -0.020220933 0.032609556 0.012617193 -0.05543193 -0.012584458 -0.03653923
-0.031074602 0.036817648 0.0519199 -0.036023498 -0.031146865 -0.09808685 -0.041649695 -0.0031382837
0.044722434 0.05160945 -0.041679047 -0.07079527 -0.14089148 -0.11880235 -0.04582987 -0.028018683
0.0012343313 0.0044948175 0.0068895654 0.011834156 0.01196686 -0.0032518953 0.016922634 -0.0031426174
0.0008799485 0.011504336 0.00043910617 -0.014576903 0.0033757715 -0.0024885482 -0.09443644 0.020289686

module.conv3.bias f4 [64]
00000000: d88f 0e3e 7a52 1abe ae15 163e 0a61 163e
00000010: 5931 2c3e 85d8 153d 5f6a bf3d 3e38 793c
00000020: 1df9 123e a5a7 edbe d056 803c 3284 e6bd
00000030: ffae 89be 1bdd 3c3e d009 033e 04b3 223e
00000040: ca1c b33c b2c9 f6bc 6340 243e 7886 0abe
00000050: 559a 45be 7f28 a73d f868 463d 2b35 bfbc
00000060: cf6d 3abc 7b18 e03d 6e19 3a3d 0b90 163e
00000070: be77 93bd c3f4 98be 0403 a7be 08e5 393e
00000080: 14bc 1cbe 1e0a 03bd 6e07 ef3d 07dc f43d
00000090: 2b22 4bbe 5b6d ae3d f2fb 82bc fa5a 9abe
000000a0: 4537 033d baf6 d43b 9936 cdbe ab0a b9be
000000b0: 8c67 e2bd 0946 133e c0f8 b63d aa18 34bd
000000c0: c532 bdbe cd7e 71bd 1d1a 4d3e f618 05bd
000000d0: 31a4 00be 83c5 893d 3114 fabe 768c a43d
000000e0: be9b efbd a83a a43c b2d6 bd3d 8e27 7fbd
000000f0: 00e6 95be e825 22bd ef41 53be a2a2 5d3e
0.1392206 -0.15070525 0.14656708 0.14685455 0.168157 0.036583442 0.093464606 0.015211163
0.14352842 -0.46416965 0.015666395 -0.11255683 -0.26891324 0.1844372 0.12796712 0.15888602
0.021864314 -0.030125473 0.16040187 -0.13527858 -0.19297154 0.08162021 0.04843995 -0.023340782
-0.0113787195 0.10942169 0.045434408 0.14703386 -0.072005734 -0.29874238 -0.32619488 0.18153775
-0.15306121 -0.03199207 0.11671339 0.119560294 -0.19837253 0.08516952 -0.015989278 -0.30147535
0.03203513 0.0064991387 -0.40080717 -0.36140952 -0.11054906 0.14382185 0.08934164 -0.043968834
-0.36952797 -0.058958817 0.20029493 -0.032494508 -0.12562634 0.067271255 -0.4884353 0.08034603
-0.11699627 0.0200475 0.092694655 -0.06229358 -0.2927704 -0.03958693 -0.2063062 0.2164407

module.conv4.weight f4 [128, 64, 3, 3]
00000000: bce9 85bc 465b f23d 0886 61bb ee6e 4f3c
00000010: b0e8 96bc 5ce4 26bd c003 b73d e5ff 833d
00000020: fc17 14bb c847 babb 8b4d 023b 031d b2bd
00000030: 6a7e b6bd 8ef6 ffbc 45dd 763c 4d6c 26bd
00000040: 56b8 963a 658b 773c 6b88 2fbd 7d94 48bd
00000050: de4a 03bd a97c 90bc b5ec cebc bc84 613b
00000060: 7a93 4cbd 4b13 01bd 8b63 71bd dd8a f9bd
00000070: d1fe 21bc a4f9 b7bd 9f03 dbbd 1919 ee3c
00000080: 3624 583b 1d32 c5bd 874d c7bc 9d11 90bd
00000090: 2358 f93a 3b7d 37bd 627b 683c 7c0f 0f3b
000000a0: f6c3 5fbd 8774 1bbd f4c9 a43d eced ae3b
000000b0: 6d02 43bb 9734 81bd 8307 093d a84a edbc
000000c0: 4b27 92bc 8d55 cc3c c075 e8bc 8cb4 913c
000000d0: 05b7 fd3b ca40 4fbc 9f7f 99bd 2b03 e6ba
000000e0: e6d5 22bd a4a4 cb3b c093 13bd 2255 633d
000000f0: 523b 80bc 8cf7 3bbd c6ab a0bc dfe3 de3c
00000100: 82aa 2a3d 1c57 1f3d 01c0 dd3b d081 5e3c
00000110: 7623 11bc 636e b13c d164 0bbd 1517 eebc
00000120: 10e4 89bd c958 efbc 112f 7b3c 3e54 bcbc
00000130: 90b8 48bc ce7a bcbd 3cb7 033c 0479 7dbd
00000140: dc78 b6bd f863 b03b dead c63b bd09 58bd
00000150: 5b08 8e3b 5e67 d9bc b7c1 84bb 4b71 1cbe
00000160: cc69 d0bd 0139 afbd b464 10bd faa1 613d
00000170: 635b 8f3c 8a54 b3bb 3267 1bbd 38d6 01bd
00000180: 6d04 07bc 48ef 3abb d145 843c 8883 8bbd
00000190: cb14 69bd bb57 933c 5938 e9bb 2786 203b
000001a0: ad06 543c c297 433d fdec 1dbc 2170 b1bc
000001b0: 3a1b 33bd 52b9 06bd b6ef 493d 4794 643c
000001c0: 070d ec3c 3caa 423d e8c9 07bd bc58 57bc
000001d0: 10c5 91bd 9075 26bd 702f 003d cfd2 903b
000001e0: 5422 0dbe abe2 893d 0583 3b3c 538a 7cbd
000001f0: 6484 28bc 71e3 82bd 9f6d abbc 0b8e 71bd
00000200: 1aad 4f3c 9533 cdbd e3d9 1cbd b747 c1bc
00000210: 35d1 9abd 997c a4bd f696 76bd 82d2 c5bc
00000220: bb60 a5bc bce8 d5bb d421 85bd c483 8d3c
00000230: 9750 873c d5a2 c63d c436 3dbd d502 1a3d
00000240: a404 23be 0eec 4ebd 7f9d 77bc d968 2ebd
00000250: 8efe 79ba 5eba 2b3d 481b febc 7881 6abb
00000260: cee6 7cbb f27e 22bd ea67 f7bc 5ab7 50bb
00000270: 3124 64bc 739a d63b 62bb 0dbd a7ca 2c3d
00000280: a2e2 623c b7e0 dcbc 2164 01bd 0bd2 4bbc
00000290: 15a4 27bd 5a78 b8bc 9a26 debc 8c6c 32bc
000002a0: 736d 41bc 576a 9ab9 282f 96bd 9853 ce3c
000002b0: 5425 01bc 6f68 18bc ec22 7c3c 96e4 da3c
000002c0: 047a 043c 3fd0 e3bb 6446 14bd 64a5 833b
000002d0: abbf 67bd aff0 ddba 8e2b 82bc 738b a93c
000002e0: ef27 0c3d ed9d 9bbb 407a bfbc f48c 2a3d
000002f0: 016f 0cbd 8a51 1ebc 2775 5bbc 0ab1 3b3d
00000300: 9c30 cdba 74ad cbbc 1f93 abbd ea00 09bd
00000310: 5753 33bc 4563 683b ab18 183c cd6a 5cbd
00000320: 3db7 babc b307 24bd 8e49 79bc 4eb0 91bc
00000330: 8c13 7a3d 741f 7e3d e65a 463d cb28 91bb
00000340: b164 213d 7311 d43b 68cb 1c3c 5796 943b
00000350: 194a c73c 2d32 83bd 1c16 1dbe a617 03be
00000360: 9eea 8e3d 8443 cdbb 50a7 163d 0193 71bd
00000370: 12c0 45bd 2044 81bd 9b79 fcbc 4971 84bd
00000380: 3d80 443d 37f1 a3bb f126 2a3d 2563 653d
00000390: c97f 373c edbb 6dbc dea6 62bc b4cc a2bd
000003a0: ef1a 4ebd 499b 8cbd 9a40 03bd e771 cabc
000003b0: ce76 e3bb ebad 053d f66c d23c 1dcd 2fbd
000003c0: ba01 633d 4ec7 3c3d 9175 1e3d e7ef a3bd
000003d0: 00ce 33bd fff4 1b3c 8b92 19be 756e 97bc
000003e0: 6b81 8f3b 9889 47bd fcda fd3a 9f62 4bbc
000003f0: 26be 44bc a6e1 a9bb dfd7 bcbd 726f a6bc
-0.016346805 0.11833815 -0.0034412164 0.012660725 -0.0184215 -0.040745124 0.08936262 0.064452924
-0.0022597304 -0.0056848265 0.0019882645 -0.0869694 -0.0891083 -0.031245496 0.015067403 -0.040630627
0.0011499028 0.015108918 -0.042854708 -0.048969734 -0.03205382 -0.017637568 -0.025259355 0.0034411391
-0.049945332 -0.03151254 -0.058932822 -0.12184689 -0.009887413 -0.08983162 -0.1069405 0.029064702
0.0032980568 -0.09628699 -0.02432896 -0.070346095 0.0019023459 -0.044797163 0.014189573 0.0021829298
-0.054630242 -0.037952926 0.08046332 0.005338421 -0.0029756085 -0.06308859 0.03345443 -0.028966263
-0.017841002 0.024943138 -0.02837646 0.017786287 0.007742765 -0.012649724 -0.07495045 -0.0017548552
-0.03975477 0.006214695 -0.036029577 0.05550111 -0.015653286 -0.045890376 -0.019613158 0.027208267
0.041666515 0.038901433 0.0067672734 0.013580754 -0.008858552 0.021659082 -0.034031693 -0.02906374
-0.067329526 -0.02921714 0.015331046 -0.022989389 -0.012251034 -0.09203111 0.008039292 -0.061882988
-0.08909771 0.005383011 0.006063207 -0.052743662 0.004334492 -0.026538547 -0.004051413 -0.15277593
-0.10176429 -0.085557945 -0.035252288 0.055086114 0.017499631 -0.0054727243 -0.03794021 -0.031698436
-0.008240801 -0.002852397 0.016146572 -0.06812197 -0.056904595 0.01798617 -0.007117313 0.0024494024
0.012941045 0.04775215 -0.009639022 -0.021659913 -0.043727137 -0.03289158 0.04930087 0.013951368
0.028814806 0.04752563 -0.033151537 -0.0131437145 -0.07117665 -0.04063946 0.03129524 0.0044196616
-0.13782626 0.067326866 0.011444812 -0.061655354 -0.010285471 -0.06391037 -0.020926295 -0.058973353
0.012675548 -0.10019604 -0.03829373 -0.023593767 -0.07559434 -0.080315776 -0.06020256 -0.02414823
-0.020187726 -0.0065279882 -0.06500593 0.017274745 0.01651792 0.096990265 -0.046194807 0.037600357
-0.15919739 -0.050518088 -0.015113234 -0.04258046 -0.0009536528 0.04192578 -0.031018868 -0.0035782736
-0.0038589719 -0.039671846 -0.030200917 -0.0031847567 -0.013924644 0.0065491735 -0.03460253 0.04218545
0.013847979 -0.026962621 -0.03158963 -0.012440215 -0.040927965 -0.022518326 -0.027118016 -0.010890137
-0.01180588 -0.00029452398 -0.07333213 0.025186345 -0.007882435 -0.009302243 0.015389185 0.026720326
0.008085731 -0.006952315 -0.036199942 0.004017519 -0.056579273 -0.0016932691 -0.01588991 0.020696377
0.03421777 -0.004749051 -0.023373723 0.04163833 -0.03428555 -0.009662995 -0.0133946305 0.045823134
-0.0015654746 -0.024862982 -0.083776705 -0.033448137 -0.010945163 0.003545956 0.009283225 -0.05381279
-0.022792453 -0.040046405 -0.015215291 -0.017784264 0.061053798 0.062041715 0.04842653 -0.0044299117
0.039402667 0.0064718067 0.00956998 0.0045345235 0.024327325 -0.06406055 -0.15340465 -0.1280199
0.069783434 -0.006264152 0.036780655 -0.058978084 -0.048278876 -0.06311822 -0.030819705 -0.0646692
0.04797386 -0.0050031203 0.041541044 0.056002755 0.0111999 -0.014510137 -0.01383373 -0.079492
-0.050318655 -0.06865556 -0.03204403 -0.024712516 -0.006941653 0.032636564 0.025686722 -0.04292022
0.05542157 0.04608851 0.03868634 -0.08004742 -0.04389763 0.009518861 -0.14997308 -0.018485287
0.0043794415 -0.048715204 0.0019367631 -0.01241365 -0.012008226 -0.00518437 -0.09220862 -0.020316813

module.conv4.bias f4 [128]
00000000: cc3a 553d ba69 c23c 955a d93d a8fc 45be
00000010: 119a fe3d 06e8 91bd 502d c33d fd54 b73d
00000020: f6ce b3bd 8e91 88bd 86ad 29be 8dc4 b13d
00000030: 4e64 96bd 36e5 55be 3364 5fbe 6a29 1abe
00000040: b3b5 07be 05bf 18be e9db d33d 79fe c83d
00000050: afcb c4bd 99b1 c23d 0d33 fc3c cb48 adbd
00000060: 4981 2c3e f230 b2bd 9f4a 0cbe 4ebf 13bd
00000070: 6cc3 473c 50eb b43d ba24 b1bd 60ae b6bd
00000080: 7434 80bd e6da 0bbe 1840 de3d ee13 873d
00000090: 1722 8abd 2252 1ebe 0b89 143e 4018 fbbd
000000a0: 3f82 c23d 694d 81be c60e 1cbe 1fee 13be
000000b0: 6664 1abe 84e6 5bbd 35f1 93bd 25fd 98bd
000000c0: 8eb3 23bd bf7b e23c 36d2 bcbd ef11 4abd
000000d0: cc6b cebd 5292 b93d f818 d23d 4bda 97bd
000000e0: 96b9 ddbd c8ac 943d aead 08be 0158 f0bc
000000f0: 7369 1b3e 9564 443d ae9e 14bd e77e 953d
00000100: 0a45 f03d b49b 03be 5204 f2bd d4b1 a2bd
00000110: ce77 23bd 8a38 48bd 986a 043e b738 04be
00000120: 7d2c 0abe ee42 cabc 56f7 c5bd b120 0a3e
00000130: b76b a3bd ece5 cabd 1ef4 333d 1a16 c3bd
00000140: a4bc 4cbd 4cc2 17be 94de 0f3e e90f 2abe
00000150: 60df 7bbe 78a2 89be 57d1 d23d 297a afbd
00000160: d9cd 34be b53c cbbd 1f8a 873b 6630 7cbe
00000170: ef8f 16be 43c8 b9bd 8e04 d6bd a622 cb3d
00000180: 9560 a43d 58a9 33be 7da6 093c ca4d 213e
00000190: dca6 fa3d fd4f c9bc e46f 51be 2379 433a
000001a0: 26d3 27be 2950 f53d 6df2 003e f7f6 e83c
000001b0: c307 c33c 7caf 053e 01a4 f93d 05b1 70bd
000001c0: 66f7 b53d f34f 5e3d 9bec d03d 7b25 28be
000001d0: 7d6f 073e 9b03 c7bd a0bb c63c e9ab dcbd
000001e0: f146 243e ef8d 08be 2d92 f33d a402 ac3d
000001f0: b7e4 d63d 4171 483e e505 e8bc 9168 f23d
0.052058026 0.023732055 0.1061298 -0.19334662 0.124317296 -0.07124333 0.09530127 0.08951757
-0.08779709 -0.06668387 -0.165701 0.08680067 -0.0734335 -0.20888218 -0.21815567 -0.1505486
-0.13252907 -0.14916618 0.10344679 0.09814162 -0.09609162 0.0950653 0.030786062 -0.0846115
0.16846193 -0.08700742 -0.1370034 -0.036071114 0.012192588 0.08833945 -0.08649583 -0.08919978
-0.06260005 -0.13657722 0.10852069 0.06595598 -0.06744783 -0.15461019 0.14505403 -0.12260485
0.09497499 -0.25254372 -0.1524001 -0.14446305 -0.15077361 -0.053686634 -0.07223741 -0.074701585
-0.03996616 0.027646897 -0.09219782 -0.04933351 -0.10079154 0.090611115 0.10258669 -0.07414683
-0.10826413 0.07259518 -0.13347504 -0.029338839 0.15176944 0.047947485 -0.03628414 0.07299595
0.11731918 -0.12852365 -0.1181723 -0.07944074 -0.039909177 -0.048882045 0.12931287 -0.1291226
-0.13493533 -0.024690118 -0.09666316 0.13489033 -0.07979529 -0.09907135 0.04393398 -0.095257
-0.04998459 -0.14820212 0.1404975 -0.16607632 -0.2459693 -0.26881766 0.10293835 -0.08568222
-0.1765665 -0.09923688 0.0041363384 -0.24627838 -0.14703344 -0.090714 -0.104500875 0.09918718
0.08026234 -0.17545068 0.00840151 0.1575233 0.12238857 -0.024574274 -0.20452839 0.00074567104
-0.1638914 0.1197818 0.12592478 0.028438075 0.023807412 0.13055223 0.121894844 -0.05876257
0.08885078 0.054275464 0.10201379 -0.16420548 0.13226123 -0.097174846 0.024259388 -0.10774977
0.16042687 -0.13335393 0.11893115 0.08398941 0.10492843 0.19574453 -0.028323123 0.11836351

module.conv1T.weight f4 [128, 64, 3, 3]
00000000: 15b7 9abd 0e19 96bd 3109 b2bd 5d9f 03be
00000010: 90c7 783c c386 a63c 9e33 143b ef4f 6bbe
00000020: 8633 cc3c d0fa 483d d4bf fa3b 1ddd 0fbd
00000030: 2ed6 773b 17e2 56bd 5cb7 513d 9d52 82be
00000040: c9f1 f4bd 72cd 9cbe 8c3e 2cbd 554a 913c
00000050: 239a 73bd 4a91 1d3b e40d 32bc 2ba3 cbb9
00000060: 2661 0c3e 9af7 e23d 93bc b63c b852 11bd
00000070: c355 22be 89c2 ecbd bc9f 26be 0f99 c83c
00000080: c3bd 2f3c fd85 b9be 38e1 5fbf c251 9bbe
00000090: 8faf 15bd bbf4 743d 8328 603d 2b84 efbe
000000a0: b7a9 a7bd 3179 04be 6578 d1bd 85b2 efbd
000000b0: ad72 28bd db6c bf3d 1144 d0bc 5ff4 9b3c
000000c0: 7d3e a8bc 3319 79bd 588e e5bc 9403 a43d
000000d0: 7d96 bf3d 6c77 753e 3886 9c3d c540 403d
000000e0: 1571 ebbc 51ba a4bd 7137 56be 3691 adbd
000000f0: 6549 b2be 7da7 3f3e 4a88 a4bc 5b55 0339
00000100: 0287 2e3d 0eb1 3f3d 5fab 04be f5a5 76bd
00000110: 565f 29bb 7ac5 c5bb 8ab4 c1bc 1fef 7b3d
00000120: d1d3 24be 89ae 70bd 4dfc f3bb 9270 d2bc
00000130: 06bb 873d 7fcc 813d 6738 1c3e c136 6b3e
00000140: fe57 353e 7b62 acbe 8957 f3bc 8ada 4bbe
00000150: a597 9ebd 2786 06be 001c 47bd d17c 21be
00000160: 1a4e d13b 07eb d13d 093b bfbd 6d0d 25be
00000170: 5857 f6bc 747c c2be 352e debe 2104 fdbe
00000180: 03cc 36be 243a bcbe d5de 7abe 4b35 76bd
00000190: 9126 943c 8a9e 79bd 7cbd 29be 600d 2abe
000001a0: 3a59 d33d cfd5 13be 4e78 3c3c d946 893d
000001b0: d830 9fbe 1163 e1bd b074 12be 93ea 22be
000001c0: ea0d 34bd a2c1 52bd 85ad adbd 6e19 0cbe
000001d0: e223 6f3e 72ce 27bd 5204 a0bd 311d acbd
000001e0: 0602 9bbd d402 aa3d 2acc 803d 0cb9 adbe
000001f0: 9d42 0abe 2160 98bc af32 81bd 3f82 61bd
00000200: f071 20bd 1047 c83d 21ec f93d 9bb1 4b3d
00000210: 6102 16bf 59af 8fbd 4657 4b3c 624e 8f3d
00000220: f8bd 193d 741e debc ec86 b43c a889 7fbc
00000230: ef60 233c e3ee f9bc 5e11 bd3d 6f21 38bd
00000240: 62b1 8abe 86e1 03be cb30 7bbe cd0d 3ebe
00000250: c0fa f6b9 6258 10bd ac6d 58be 58e8 94be
00000260: 4b02 08be c69d 6bbd 5ab0 e1bb 0c13 82bd
00000270: 84cb ccbc 64ba 9ebd 7eb5 8cbd 1609 8d3e
00000280: 859a 863e 4b02 053e c809 24be b2c2 fdbd
00000290: c3b0 e03b 30bd 2abe 139a fc3c 4645 953d
000002a0: ba58 86be 3fc0 0bbf b80f 303e 7500 eebd
000002b0: df9a ebbd 900c 2abd 56b1 5d3d 6443 683d
000002c0: 52a0 f23c 3870 f4bc 04fb 673d dcc7 e33d
000002d0: 6a7c 1abe 8d05 97be eab9 87bd f3f2 56ba
000002e0: c8d2 0f3d 18ac 843c b7e0 a3be 6d91 af3d
000002f0: efb0 ff3c 3a93 1b3d e384 fc3c e8ce 4f3d
00000300: 3b2d 87bd 575e 8bbd 7da1 95bc 4752 abbd
00000310: 5e84 75be 91b3 77bd c142 19be a0fd 1dbe
00000320: 5525 c7bd 0c20 a7bd 8380 c4bd d557 aebd
00000330: 8f82 6a3d d111 4a3e 4241 27bd 7d85 27bc
00000340: 6a6c 1c3d 6513 5b3d 1e75 3bbb b8a9 96bc
00000350: b307 a3bd 431d c7bd bbe1 95bd 63ea cb3d
00000360: e169 0cbf 43e4 0dbe 81b4 13bd 5e87 aebd
00000370: 5d3a 4abe beef 09bd 8db6 05be 1c2e 5ebc
00000380: d3b3 90bd a536 a5bc cbbf 323d 5945 303d
00000390: 0b87 2dbd cf48 9ebd 5d9f 65bd a3ed 5f3d
000003a0: 1c11 2a3e 4834 183e b47d 72bb ac36 033c
000003b0: 3ae3 8cbc 1ccd 41bd a1e1 cebd ff44 1fbe
000003c0: b549 663e 51af ae3e c127 8c3e 36cb aebd
000003d0: 114a 8bbd e13d d1bc 1083 e2bd 2e50 49bc
000003e0: f41f 5f3d 436c 243d f89f bbbe 2253 363e
000003f0: 21d2 833c f4e5 87bb 6f25 bd3c b6eb a33c
-0.075544514 -0.073289976 -0.08693159 -0.12853761 0.015184298 0.020327931 0.0022613774 -0.22979711
0.024926912 0.04906732 0.007652262 -0.03512298 0.003781687 -0.05246171 0.051200256 -0.25453654
-0.11960179 -0.30625492 -0.042051837 0.01773564 -0.059473168 0.0024042898 -0.01086757 -0.00038840747
0.13708934 0.110823825 0.022306716 -0.035479277 -0.15853028 -0.11560542 -0.16271871 0.024487047
0.010726395 -0.36235037 -0.8745303 -0.30335814 -0.03654438 0.059803706 0.054726135 -0.46780524
-0.081866674 -0.12936856 -0.102280416 -0.11703972 -0.04112499 0.093469344 -0.025423082 0.019037424
-0.02053761 -0.060815047 -0.028021976 0.08008495 0.09354875 0.23971337 0.07642788 0.04693677
-0.028740445 -0.080433495 -0.20919587 -0.084749624 -0.3482162 0.18716235 -0.020084519 0.00012524931
0.042609222 0.046799712 -0.12955998 -0.060216863 -0.0025844178 -0.006035504 -0.023645658 0.06150734
-0.16096427 -0.0587602 -0.007445848 -0.025688443 0.06627469 0.06337833 0.15255891 0.22970106
0.17709348 -0.33668885 -0.029704826 -0.19907585 -0.07743768 -0.13137113 -0.048610687 -0.1577027
0.0063874843 0.10249906 -0.09337432 -0.16118403 -0.030070946 -0.37985575 -0.43394628 -0.49417213
-0.17851262 -0.36763108 -0.24499066 -0.060109418 0.018084796 -0.06094221 -0.16576189 -0.16606665
0.10319753 -0.1443703 0.011503292 0.06702966 -0.31091952 -0.110052235 -0.14302325 -0.15909795
-0.043958582 -0.051454194 -0.08480362 -0.13681576 0.23353532 -0.040968366 -0.07813324 -0.08404005
-0.07568745 0.08301321 0.06288941 -0.33930242 -0.13501973 -0.018600525 -0.06308495 -0.055055853
-0.03917116 0.09779179 0.12203241 0.049729925 -0.5859738 -0.07015867 0.012410944 0.06997372
0.037534684 -0.02711413 0.022036992 -0.015596785 0.009971841 -0.030509418 0.09231828 -0.04495376
-0.27088457 -0.12878999 -0.24530332 -0.18559952 -0.000471076 -0.03524054 -0.21135587 -0.29083514
-0.13282125 -0.05752351 -0.006887478 -0.06351289 -0.024999388 -0.07750395 -0.068705544 0.27545995
0.26289764 0.12989156 -0.16019356 -0.12390651 0.006857009 -0.16673732 0.030835187 0.072886035
-0.26239568 -0.5459022 0.17193496 -0.11621181 -0.11504149 -0.041515887 0.0541242 0.056704894
0.029617462 -0.029838666 0.05663587 0.111221045 -0.15086523 -0.29496422 -0.06627257 -0.00081996544
0.035113126 0.016195342 -0.3200738 0.0857266 0.031212298 0.037982203 0.030825084 0.05073443
-0.06600424 -0.06805103 -0.01826548 -0.083653025 -0.23976275 -0.060473982 -0.14966871 -0.15428782
-0.097239174 -0.08160409 -0.09594824 -0.085128464 0.057253417 0.19733359 -0.04083372 -0.010224697
0.03818933 0.053485293 -0.0028603743 -0.018391475 -0.07960453 -0.09722378 -0.07318445 0.09956815
-0.5484906 -0.13856606 -0.036060814 -0.08521913 -0.19748826 -0.0336759 -0.13057919 -0.013560798
-0.07065549 -0.020167658 0.04363994 0.043034885 -0.042365115 -0.07728731 -0.056060184 0.054669987
0.16608089 0.14863694 -0.0037001194 0.00800864 -0.017198194 -0.04731475 -0.10101629 -0.15553664
0.22489055 0.3411813 0.2737408 -0.08534853 -0.068012364 -0.025542201 -0.110601544 -0.012287183
0.054473832 0.04014231 -0.36645484 0.1780515 0.016091408 -0.0041472856 0.023089139 0.020009857

module.conv1T.bias f4 [64]
00000000: 6cff 653d c221 9bbc 7bb1 dabc 3283 923d
00000010: f31d 34be f322 53bd 9ad7 8f3c 5da6 67bd
00000020: 0e12 8ebd b071 0ebd 722a 40be fc3c cabc
00000030: d260 c3bd e808 513c eed7 cd3d eaed 0ebb
00000040: c852 f93b 893c 30bd 560f bf3d 4fb8 973d
00000050: 8513 233d 64b1 72bc ac0a a3bb be2f 103d
00000060: c544 1b3d da97 6bbd 3468 f3bd c0a7 1fbc
00000070: ae09 ffbd dab5 493d 089b 85bd c663 ffbd
00000080: 0695 cabd 7eff df3d c884 853c 5ba3 b63c
00000090: 711d 523d 533f 16be a2b6 c8bd 596e 5abc
000000a0: 429a 98bd 8e94 473d 9780 8bbd 3007 cbbc
000000b0: cc03 0cbd 29d6 bc3d d9f0 fdbd 207f 98bd
000000c0: c41b 0bbe 54ac e5bc 3c14 32bc e8d7 1fbe
000000d0: 415e 10bc 51d0 2c3d 49d5 9cbd 6630 063d
000000e0: 73c9 bbbd c18c 243d 0b29 91bc 3bd8 cabc
000000f0: 6421 80bd 294a b23c 59a9 9f3b cccd 9e3d
0.056151792 -0.018936995 -0.026695957 0.0715393 -0.1758955 -0.051547002 0.017558862 -0.05655514
-0.069370374 -0.03477639 -0.18766192 -0.024687283 -0.095399514 0.012758471 0.10050951 -0.0021809288
0.0076087452 -0.04302648 0.09329097 0.07408201 0.039813537 -0.014812801 -0.0049756374 0.03520178
0.03790738 -0.057517864 -0.118851095 -0.009744585 -0.12453018 0.049245693 -0.065237105 -0.12470202
-0.09891705 0.10937403 0.016298667 0.02229469 0.05129761 -0.14672594 -0.098004594 -0.013331973
-0.07451297 0.048725657 -0.06811636 -0.0247837 -0.03418331 0.09220535 -0.12399454 -0.07446122
-0.1358481 -0.028036274 -0.010869082 -0.15609705 -0.008811534 0.042190854 -0.076578684 0.032761
-0.09169283 0.040173296 -0.017719766 -0.02476131 -0.06256369 0.021763878 0.0048724827 0.077540964

module.conv2T.weight f4 [64, 32, 3, 3]
00000000: 2526 273e 62e6 ad3d 9711 c0bd 83dc 6c3e
00000010: 80f1 8a3e 6d1b 083e 9a4f 6c3e 2f3b 093f
00000020: 7d0e 033e 7730 013e 381d 473e 7a61 ce3d
00000030: cb47 7a3e 5a7e fc3d 2547 a43e 24d7 ebbc
00000040: 92e4 04bd fb24 c33d 29de b2bd 4c9a 2b3e
00000050: 9a88 b3bd b226 5d3e 40c9 863e b208 7e3e
00000060: 486f ec3d a5eb 673e 9572 383e b8b9 c13d
00000070: 0d2c 1f3d 1a46 03bd 4d62 883e 2d08 c73e
00000080: deed 0a3e e5be be3e 07d0 ea3e f5e8 433e
00000090: 1ccc 06be 41b9 a3bd cb32 50bc 499e 4f3e
000000a0: 43ed e93e f774 6e3d 8261 743e bfa9 f13e
000000b0: 6f1f 793e a30e 823d 17a0 07bd 99d6 04be
000000c0: 14cd 393e a852 863e 448f 5b3d d8d6 ad3e
000000d0: 4513 083f 0a56 993e f4ee 91ba f7fa 173d
000000e0: b33e 96be 45bb b03e 9ad1 783e e8be 673e
000000f0: 01f6 b73e 3f49 b73e b0c0 293d e837 3d3e
00000100: 1e5b 8f3d c8aa 6fbd 0455 a63e 5f38 ae3e
00000110: 6383 173e 81cd ed3e f3fd b23e dae6 9b3e
00000120: fd60 3cbd 3f9b 9f3e db24 66be 73c4 d83e
00000130: c318 fc3e e58d 723e a50d 7b3e ac50 293f
00000140: bd9c 263e 3619 5ebc ff6e b53e f42d d8bd
00000150: c4a6 6a3e 1721 a03e 4bca ab3d 1c98 943e
00000160: 703c c43e 8715 eb3e 98fc 02be 2cf3 39bc
00000170: 10d5 ab3d 5950 163e 8abc 903e 7c3f 273e
00000180: 0b6b f1bc 448b 133d fa77 2b3d 51fc e2bc
00000190: ab77 e23d 674d 033e 3759 be3d 5c2e d53c
000001a0: facf 823e 0c58 10bc 96ff 073d 3dac 163e
000001b0: 3eda bf3d 2a45 703e b097 cbbb 21fa 9c3e
000001c0: aef8 033f 9c07 923e d218 ae3e 8a5f 863e
000001d0: a03f 653e 7a72 cdbd 3b65 ab3d 290e 72be
000001e0: 125e 843e 221c 023f d22a 193e 0303 bb3e
000001f0: 5210 203f 26eb a63e 61bc c23d 0830 f83d
00000200: 6590 72bd 0159 ad3e 0f1a b13e bac4 913c
00000210: 6e62 b03e f6f2 e53e 94e5 1d3e c4f1 b5bd
00000220: 7e5f cc3e c4f2 843d 0d8b 0f3e 296f 083f
00000230: a6d9 883e 77ea 963b 0e32 b73e 264e 7f3e
00000240: 502f 053e c1b0 cc3d 7413 8cbc f38c 443d
00000250: 4c43 ed3d d847 0fbd 9632 8e3e 1dfa c73e
00000260: bf51 593e c949 6fbd c540 2abc c9cf 233e
00000270: 61c6 13bd 771c 3fbd 1882 ab3d fc23 1abe
00000280: d896 b6be ba3a b1bd 9510 dc3a 591e 0c3d
00000290: 696d 47bd b529 733d c745 773e cdbc 60bd
000002a0: d271 913e 9810 ef3e 978b ab3d e711 543c
000002b0: d322 6d3d 41e9 27be dbeb 163e 91ff 863e
000002c0: d6b9 23bd a641 4f3e 91a3 c23e 9dc0 ea3d
000002d0: 89e4 68bd 5d6b 9bbe 792d 47be 3183 843e
000002e0: 2860 573e d5e7 f53d 643e 713e db15 793e
000002f0: 2bc7 2d3d 27ce 07be 0d1c 2dbc cd02 95be
00000300: 7f80 833e 67ce c23e 0016 083d 1c5a a43e
00000310: 30ef af3e 88c0 eb3d 6865 15be f64a 30bd
00000320: 630c 48be 6981 6a3e a580 ab3e 67eb 0cbc
00000330: e638 713e e87c c23e 68aa 723e ec41 8e3d
00000340: 2d5e 083e 596a 05bd 20cc f33e fcd5 f83e
00000350: 730e 673e 6e1e a93e 17fd 1e3f b5e4 493e
00000360: bdef a93d 7c64 283e 0ddf ccbd 5d55 073f
00000370: 1258 c23e ba7b 2e3e bf37 8e3e acec f13e
00000380: 26cb bb3e 7779 9fbc da83 6cbd e964 07be
00000390: a922 203e 5e2f c53e 7cfe af3d eded ac3e
000003a0: 4e40 c93e 6b8e 3f3e e02b 513b efec a0bd
000003b0: 47fb 293e a20b afbd ad91 263e a6cc 6ebd
000003c0: 840f d9bd 5adf 833c 8a8d 12bd d7a2 8dbc
000003d0: 8b26 babc 4694 b0bd b0e6 553e d11d 703e
000003e0: 5ada cb3d 5d31 2b3e 593c c03e f290 113e
000003f0: 5e90 11be 58a7 98bd a99c 98be c8e3 a83e
0.16323145 0.08491208 -0.09378355 0.23130994 0.27137375 0.13291712 0.2307724 0.5360593
0.12798496 0.12616144 0.1944474 0.10077186 0.2444145 0.12328787 0.3208553 -0.02878911
-0.032444544 0.09528538 -0.0873378 0.16758078 -0.08766289 0.21596792 0.26325417 0.24808004
0.11544663 0.22648485 0.1801246 0.09459251 0.03886037 -0.032049276 0.26637498 0.38873425
0.13567302 0.37255016 0.45861837 0.19131835 -0.13163799 -0.07994319 -0.0127074225 0.20275225
0.4568883 0.058217015 0.23865321 0.47199818 0.24328397 0.06350448 -0.033111658 -0.12972488
0.18144637 0.26234937 0.053603426 0.33952975 0.531544 0.29948455 -0.0011133836 0.037104573
-0.2934471 0.34517875 0.24298707 0.22631419 0.35929874 0.3579807 0.041443527 0.18478358
0.06999801 -0.05851248 0.32486737 0.34027383 0.14796214 0.4644585 0.34959373 0.30449563
-0.045990933 0.3117313 -0.22474997 0.4233738 0.49237642 0.23686941 0.24516924 0.6613872
0.16270728 -0.013555815 0.35436246 -0.1055564 0.22915179 0.31275246 0.08388194 0.290223
0.3832736 0.45914862 -0.1279167 -0.011349481 0.08390248 0.14679088 0.28268844 0.16332811
-0.029469987 0.036021486 0.041862465 -0.027708204 0.11057981 0.12822495 0.0929436 0.026023082
0.255493 -0.0088100545 0.03320273 0.14714141 0.09367798 0.23463884 -0.006213151 0.30659583
0.5155133 0.2852143 0.3400331 0.26244766 0.22387552 -0.100316 0.083689176 -0.23638214
0.2585302 0.5082418 0.14957741 0.36525735 0.625249 0.3260128 0.09508587 0.12118536
-0.059219737 0.33856967 0.34590194 0.017794002 0.34450096 0.44911927 0.15419608 -0.08884004
0.39916605 0.06491616 0.14017887 0.53294617 0.26728553 0.004605587 0.35780376 0.24932155
0.1300633 0.09994651 -0.01709912 0.047985982 0.115851015 -0.034980625 0.2777297 0.3905801
0.2122259 -0.058419976 -0.010391419 0.15997232 -0.03607786 -0.046658006 0.08374423 -0.1505279
-0.3566196 -0.08653779 0.001678961 0.03420863 -0.048688326 0.059365947 0.24147712 -0.054867554
0.2840715 0.46692348 0.08376234 0.012943721 0.05789454 -0.16397573 0.14738409 0.26366857
-0.03997215 0.20239887 0.38015416 0.11462519 -0.056858573 -0.3035535 -0.1945094 0.2588134
0.21032774 0.12007109 0.23558956 0.24324743 0.04242627 -0.13262235 -0.01056577 -0.291037
0.25683972 0.38048097 0.033224106 0.32099998 0.34362173 0.11511332 -0.14589465 -0.04304024
-0.19535975 0.22900929 0.33496585 -0.008601046 0.23556861 0.3798592 0.23697817 0.06946167
0.13317175 -0.032572124 0.47616673 0.48600757 0.22564106 0.33031029 0.62104934 0.19716151
0.082976796 0.16444582 -0.10003481 0.5286463 0.37957817 0.17039385 0.27776906 0.4725088
0.36678427 -0.019467099 -0.05774293 -0.13222088 0.15638222 0.385127 0.08593461 0.33775273
0.39306873 0.18706672 0.003191702 -0.078576915 0.16599761 -0.08547141 0.16266508 -0.058300637
-0.105986625 0.016097713 -0.035779513 -0.017289562 -0.022723457 -0.08622031 0.20888782 0.23448874
0.09953757 0.1671805 0.37546042 0.14215448 -0.14215228 -0.07453793 -0.29807022 0.32986283

module.conv2T.bias f4 [32]
00000000: d880 2ebc a5e8 f9bd fee7 523e a7f3 353e
00000010: 3a1a 103e 3574 6e3d 2351 25bc fa62 1b3e
00000020: b5d8 93be f20b ae3e 7cf6 a93d efaf a7be
00000030: eb5b d0bd 1fb8 833c d375 9dbe 5612 9bbd
00000040: a163 c9bb 5057 dcbe e8b1 c1bc 9118 c7be
00000050: 948c a9be fb92 8cbc 66bc 4b3e e3f1 0b3d
00000060: eda0 193e 2016 7bbf bc52 b5bc b56d fd3a
00000070: 34ca 143e 48b2 413e 4029 173d 6eb9 c4bc
-0.010650836 -0.122025765 0.2059631 0.17768727 0.14072505 0.058216292 -0.010090145 0.15174475
-0.28876272 0.3399349 0.08298966 -0.32751414 -0.10173782 0.016079007 -0.30753955 -0.07571857
-0.00614591 -0.43035364 -0.023644403 -0.3888593 -0.33115065 -0.01715993 0.19896087 0.034166228
0.15002795 -0.98080635 -0.022134177 0.0019335063 0.1453026 0.18915665 0.036904573 -0.024014201

module.conv3T.weight f4 [32, 16, 3, 3]
00000000: 8670 00bf 1a0f f4be de50 ecbe 106a b1be
00000010: 8334 fdbd a715 c83b 584c c3bd 0478 2c3e
00000020: 9f81 5b3d 0a2c c33e 4dbc 0f3f 2155 bf3e
00000030: fcf7 013f ddfd 193f 71aa 9b3e 2511 9e3e
00000040: e8f2 903e ea74 f43d 4e00 2ebd 4f12 643d
00000050: f9fc 353e 77e4 993d b7a4 563e b12e 063e
00000060: 3579 9a3e 68b7 7b3e a05c 3c3e bccf d6be
00000070: d4a6 1cbf 1a13 3fbf 795d 54be 668e 16bb
00000080: a183 4f3d 72e1 013e 320c a03e 102d 813e
00000090: c094 83bf 20fd 3bbf fcf0 06bf b5b7 423d
000000a0: 2482 d23e 529e 1a3e 6877 da3d d038 863e
000000b0: ad63 8f3e 6725 19be 9b29 74be 3e47 fbbd
000000c0: 9fa7 6c3e 44df 07bd 9838 c93d 3a04 953e
000000d0: 9642 aebd 883b fe3d 0578 08bf e752 09bf
000000e0: c8e8 bebe da88 34be 9034 0c3e 3eec ce3d
000000f0: 4f81 01bf 7873 15be f8eb a13d af48 23bf
00000100: c5b7 47be 13b9 dfbe f98c 86bd f5e6 c73d
00000110: 7684 bd3d 7bbe 2dbe 681f 7fbc e3ba dfbd
00000120: c5fc 73be 27cf 94be efcf 9abe 7399 f83b
00000130: 2d63 483e 6d67 0cbd 464e 4b3e db18 293e
00000140: cbd4 893e 3c85 8bbe 9499 4b3c 43b5 f1be
00000150: 13c5 d03e f001 3f3f 0c8b 013f 2133 203f
00000160: 5065 653f 7257 073f 9e9a a1be 7780 0cbe
00000170: 861a a3be dbc4 7b3e c948 953e 0764 903d
00000180: 7232 ec3e 1364 e23e 4726 ae3e 004a 79be
00000190: db8e f73a c9d8 54be 5b3c 343d 1b17 e73e
000001a0: 9d94 0d3e 9544 a13e 9ba8 423f 04ce 283e
000001b0: 6a31 b3bc 1845 c13d 6cfd 02be fd0d 7bbe
000001c0: 901b ae3d 20bb dcbc 4888 e3be 2f65 1d3c
000001d0: 8522 3cbe d0f0 863e 4a88 0e3f b07e 233e
000001e0: a2c0 1a3f 41d6 5a3f 737a 133f 1028 033f
000001f0: 0285 363f ee44 583e 4113 8b3e e70c c03e
00000200: f453 7fbc d41e 173e 628e 013f 478c 033e
00000210: 96bd bb3e 8703 553e 1461 873e 8964 8fbd
00000220: 9a67 f33d d3a6 123e cdd1 543d 1123 023f
00000230: 7728 b03e 26b6 253e 5194 003f 298f c93e
00000240: 34c8 f5be 2633 02be 77f6 cebe baca 17be
00000250: b085 1bbe e6d4 08be 6b7d 89bd 73ac 24bd
00000260: 04bc 0d3e b41f 3cbe ce38 8dbe c2f0 1abe
00000270: cd75 c5be 6da6 58be e61f f33d 8635 0d3e
00000280: 4976 ed3d 0388 2e3c 1ee2 cbbe 750a cfbd
00000290: 6667 52be d8d2 41be d1bb c6bd 428f 0b3d
000002a0: b283 35bd 608c d2bc 6d5c 093e 45d8 96be
000002b0: 1621 74be c5ba bebe 6229 b43c 8d4e 063d
000002c0: 3b58 a23c c46d 2cbe 5b12 51bd 0ede 6f3e
000002d0: 434c 78be 7caa 2bbf 0beb 3dbf 617a 51bf
000002e0: 0770 8cbf 6d0e c4be c17f 03bf d2da 18bf
000002f0: a6e2 a33d a0c3 cdbe afdc 023d 3a1d 0cbe
00000300: 091f 74be 16c1 06be 99a7 303d 6b9e 05be
00000310: c353 0e3c 4fac 043d 2be8 4bbe 0941 d3be
00000320: 3f34 c0be cb98 2cbe a453 c3be 1bdc bcbd
00000330: a2d1 cfbd ba59 e03d 2497 29bd 24bb 14bd
00000340: 9c92 abbe bda1 8fbc 0e2d e7be 0e04 97be
00000350: 3818 90bd 8249 b9be 1a82 1cbe 3e3b e2bc
00000360: 83f4 f8be 3db6 96be 6210 89be 4d37 b6be
00000370: 6fa0 21be b092 2d3d 45a1 05be 44ac ab3b
00000380: 4388 58bd ab35 8dbe 0df1 54bf c3b1 70bf
00000390: adab 1ebf adba a9bf e726 efbe c336 39bf
000003a0: 547f 1dbf 818f c4bd a60e 18be 08b1 0dbd
000003b0: 37a5 e9bd 8beb a2be f60b 83be 6cee 543c
000003c0: 321f 82be affa a6bd e302 38be 6e9a c93c
000003d0: 226d e0be 10de 73bd 46d5 1abe 908d b9bd
000003e0: 31ee d13b 5b13 c7bc 555e 09bc eeef f43d
000003f0: 88d4 dbbe 2a23 5abe f11f 93be 57bd aabe
-0.501717 -0.47667772 -0.46155447 -0.34651232 -0.123635314 0.006106097 -0.09536046 0.16842657
0.053590413 0.38119537 0.561467 0.37369636 0.5076902 0.6015299 0.30403474 0.30872455
0.28310323 0.11936362 -0.04248076 0.055681523 0.17772283 0.07514279 0.20961271 0.13103749
0.301706 0.24581683 0.18394709 -0.41955364 -0.6119206 -0.7463852 -0.20738782 -0.002297306
0.05066264 0.12683657 0.31259304 0.25229692 -1.027977 -0.73433113 -0.5271146 0.047538478
0.41114914 0.15099457 0.10667306 0.2621522 0.28005734 -0.14955674 -0.23843996 -0.12269448
0.23110817 -0.033171907 0.098252475 0.29104787 -0.08508794 0.124136984 -0.53308135 -0.53642124
-0.37286973 -0.1763033 0.13691926 0.10103653 -0.50587934 -0.14594829 0.079063356 -0.6378278
-0.19503696 -0.43695888 -0.06569857 0.097608484 0.092537805 -0.16967194 -0.015571453 -0.10924318
-0.23826893 -0.29064295 -0.30236766 0.007586652 0.19569083 -0.034278322 0.19854078 0.16513388
0.2692016 -0.27250087 0.012426753 -0.47208604 0.40775356 0.7461233 0.50602794 0.62578017
0.89607716 0.52867806 -0.31563276 -0.1372088 -0.31856173 0.24586813 0.29157093 0.07050329
0.46132237 0.44216976 0.34013578 -0.24344635 0.0018887179 -0.20785822 0.044002872 0.45134816
0.13826223 0.31497636 0.7603852 0.16484839 -0.021874148 0.09437007 -0.12791985 -0.24517055
0.08501351 -0.026944697 -0.44439912 0.009606644 -0.18372543 0.263556 0.5567671 0.15966296
0.60450184 0.85483176 0.5760872 0.51233006 0.71296704 0.21120045 0.27163127 0.37509844
-0.015583981 0.14757854 0.50607884 0.1284648 0.3666808 0.20802127 0.26441252 -0.070015974
0.11884995 0.14321451 0.051957894 0.5083476 0.34405872 0.16182765 0.5022631 0.39367035
-0.48004305 -0.12714824 -0.40422413 -0.14823428 -0.15187716 -0.13362464 -0.06713375 -0.040203523
0.13841254 -0.18371469 -0.275824 -0.15130904 -0.38566437 -0.21157236 0.118713185 0.13789949
0.11594827 0.010652545 -0.3982095 -0.101094164 -0.20547256 -0.18928087 -0.09703792 0.03407217
-0.044315048 -0.025701702 0.13414164 -0.29461876 -0.23840746 -0.3725187 0.02199239 0.032789756
0.019817462 -0.16838747 -0.051042896 0.23424551 -0.24247842 -0.67057014 -0.7418677 -0.8182736
-1.0971688 -0.38292256 -0.5136681 -0.59708893 0.08002214 -0.40188313 0.03194874 -0.13683024
-0.23839964 -0.13159594 0.043128584 -0.13048713 0.008686963 0.03239089 -0.19912784 -0.41260555
-0.3753986 -0.16855161 -0.3814975 -0.09221669 -0.10147406 0.10954614 -0.041403905 -0.036311284
-0.33510292 -0.017533178 -0.45151561 -0.2949528 -0.07035869 -0.36188895 -0.15284005 -0.02761614
-0.48624048 -0.29435912 -0.26770312 -0.35589066 -0.15783857 0.04237622 -0.130498 0.0052390415
-0.052864324 -0.27580008 -0.83180314 -0.9402124 -0.61980706 -1.3260094 -0.46709368 -0.72349185
-0.6152241 -0.09597684 -0.14849338 -0.03459266 -0.11408465 -0.3182033 -0.25595063 0.012996297
-0.25414425 -0.08153283 -0.17969851 0.02460977 -0.43833262 -0.059537947 -0.1512042 -0.09060204
0.0064065685 -0.024301222 -0.008384307 0.119598255 -0.42935586 -0.21302477 -0.28735307 -0.3334758

module.conv3T.bias f4 [16]
00000000: 8ea8 68be ee4e 40be 1584 d93d f231 4e3e
00000010: 22e8 8abf 9f16 503e 63ec 85be c80e 64be
00000020: c953 fd3d 7521 5a3e 5bb9 193f 4fbe 3a3e
00000030: 4b67 cabe 4204 aa3e 0fb4 183d 3c6f 283e
-0.22720549 -0.1878011 0.10620896 0.2013624 -1.0852091 0.2032113 -0.2615691 -0.22271264
0.123694964 0.21301825 0.60048455 0.1823666 -0.3953193 0.33206373 0.037281092 0.16448683
