theta_run_birds_unet/exp_dim10/conv_autoencoder.pth (torch, 997545 bytes, 19 tensors)

conv1.weight f4 [16, 1, 3, 3]
0	0xbe4492c0	-0.19196606
1	0xbe4f431b	-0.20240442
2	0x3e54cbbe	0.20780846
3	0xbe9e6dfa	-0.3094328
4	0xbd65a645	-0.05606677
5	0x3cefb78f	0.029262332
6	0xbe662b63	-0.22477488
7	0xbe293275	-0.16523154
8	0xbdf4aae0	-0.11946654
9	0xbd84bde8	-0.06481534
10	0x3e0ceeb9	0.1376294
11	0xbcf0a1c3	-0.029374009
12	0x3d2283cd	0.039676476
13	0xbd8f399a	-0.069934085
14	0x3de3fb81	0.11131955
15	0x3cc07327	0.023492409
16	0x3e254344	0.16138941
17	0xbdf51eeb	-0.11968788
18	0xbe95d071	-0.2926059
19	0xbe9ada79	-0.30244806
20	0x3e0a6f81	0.13519098
21	0x3c93d802	0.018047336
22	0xbe4a2b7c	-0.1974315
23	0x3dfe9b00	0.12431908
24	0x3e045c62	0.12925866
25	0x3e527e42	0.20555976
26	0xbe4c5cf6	-0.19957337
27	0xbe2b7833	-0.16745071
28	0xbd9abc2a	-0.07555421
29	0x3e5aaa23	0.21353965
30	0x3d3e1b9d	0.046413053
31	0xbe32aa29	-0.17447723
32	0xbdacfd6c	-0.08446774
33	0x3e3faaba	0.18717471
34	0x3e283d8e	0.16429731
35	0x3e55d3a7	0.2088152
36	0xbc3d8bbc	-0.01156896
37	0x3dd57fb4	0.10424748
38	0xbd9a8d63	-0.075464986
39	0xbe51e72c	-0.20498341
40	0x3d158805	0.03650667
41	0x3db16a22	0.08662821
42	0xbe9363c0	-0.2878704
43	0x3ddaf3f0	0.10691059
44	0x3e55596d	0.20834894
45	0xbce28fe6	-0.027656507
46	0x3c43fe94	0.011962552
47	0xbe3f293f	-0.18668078
48	0x3e6438ba	0.22287264
49	0x3e285756	0.16439566
50	0xbe5e34a0	-0.21699762
51	0xbdb56926	-0.08857946
52	0xbe03836c	-0.12843102
53	0xbd7ea1b7	-0.062165942
54	0xbe1ca04e	-0.15295526
55	0x3e3bf497	0.18355022
56	0xbe920274	-0.28517497
57	0x3e227a65	0.15867002
58	0xbe07121b	-0.131905
59	0x3e293b3e	0.16526505
60	0x3dc3d138	0.0956139
61	0xbe3f0a40	-0.18656254
62	0x3d2fec61	0.042950038
63	0xbd67f85c	-0.05663334
64	0xbe3e2ddd	-0.18572183
65	0xbe468140	-0.19385242
66	0x3e789946	0.24277219
67	0xbe771a4c	-0.24131125
68	0x3e69a9b5	0.22818644
69	0xbda93ddf	-0.08263754
70	0xbe33f224	-0.17572838
71	0xbd7c5ffb	-0.06161497
72	0x3e755081	0.23956491
73	0xbd38b277	-0.045092072
74	0x3da001d7	0.07812851
75	0x3e26dfea	0.16296354
76	0x3d453651	0.048147503
77	0xbded22e2	-0.11578919
78	0x3e5db817	0.21652256
79	0xbe0e8e71	-0.13921525
80	0x3d71dcde	0.059048526
81	0x3de204a5	0.11036042
82	0xbd96c198	-0.07361144
83	0x3b392cd7	0.0028255486
84	0x3c712c83	0.014720085
85	0xbe158985	-0.14603241
86	0xbe50e6fb	-0.20400612
87	0xbe4938d6	-0.19650587
88	0x3da2f11c	0.07956144
89	0xbebd535a	-0.36977655
90	0x3d8c1d2e	0.06841503
91	0xbe8630de	-0.26209158
92	0xbe2e9446	-0.1704875
93	0x3e64f9f9	0.22360982
94	0xbe9d17fc	-0.3068236
95	0x3e4d468b	0.20046441
96	0x3c88c293	0.016694343
97	0x3dae2dfa	0.08504863
98	0xbe78bc98	-0.24290693
99	0xbe072c00	-0.13200378
100	0xbe8cf80a	-0.2753299
101	0x370d20f3	8.4119265e-06
102	0xbc30c086	-0.010788089
103	0x3e5dc9c2	0.21658996
104	0xbe69c153	-0.22827654
105	0xbe5386f4	-0.2065695
106	0x3e511a77	0.20420252
107	0x3db7669d	0.08955119
108	0xbe970e69	-0.29503182
109	0x3e81f422	0.2538157
110	0x3a99b7b5	0.0011727723
111	0x3de99ec0	0.11407232
112	0xbe83a206	-0.25709552
113	0xbe1e66d4	-0.15468913
114	0x3dba6562	0.091013685
115	0xbe39b766	-0.18136367
116	0xbc30c3b9	-0.010788851
117	0xbdcfc382	-0.10144712
118	0xbeb06089	-0.3444865
119	0xbea9c087	-0.331547
120	0xbe100cde	-0.14067408
121	0xbe67ec48	-0.22648728
122	0xbe8e7faa	-0.27831775
123	0xbe13a860	-0.14419699
124	0xbe474b13	-0.19462232
125	0x3e25b07d	0.16180606
126	0xbe73f110	-0.23822427
127	0xbe6f4828	-0.23367369
128	0x3e873370	0.2640643
129	0xbe2cb760	-0.16866827
130	0xbea03523	-0.3129054
131	0x3e5401c0	0.20703793
132	0xbe4c580d	-0.19955464
133	0xbdf9ae5b	-0.12191459
134	0xbdcbe276	-0.09955303
135	0xbe0249e6	-0.12723503
136	0xbc859f22	-0.016311232
137	0x3e490aaa	0.19632974
138	0x3e1c087e	0.15237615
139	0x3e5f6ffd	0.21820064
140	0xbd8dcf2c	-0.069242805
141	0xbe2ce26b	-0.16883247
142	0xbdf8c343	-0.12146618
143	0xbe817a1b	-0.25288472

conv1.bias f4 [16]
0	0xbe911d88	-0.28342843
1	0xbed70a2e	-0.41999954
2	0xbe986eda	-0.29772073
3	0x3da4a2fd	0.080389
4	0x3e4eec43	0.20207314
5	0x3ea3fb1c	0.3202752
6	0x3de86928	0.11348182
7	0x3c89ed35	0.016836742
8	0xbd469d5e	-0.04848992
9	0xbedd6cb0	-0.43246984
10	0x3a969cc3	0.001149081
11	0x3e0702cb	0.13184659
12	0xbe5b2efd	-0.21404643
13	0x3db48908	0.08815199
14	0x3dbbb080	0.09164524
15	0x3d46e3fe	0.048557274

conv2.weight f4 [32, 16, 3, 3]
0	0xbdb9362a	-0.09043534
1	0xbd8a8c32	-0.067650214
2	0xbdcf3bbb	-0.101188146
3	0xbc2c275f	-0.010507434
4	0x3d139179	0.036027405
5	0xbd177255	-0.03697427
6	0x3b18e3f9	0.0023329242
7	0xbd38ba4a	-0.045099534
8	0x3c7aa158	0.015297256
9	0xbcccc705	-0.024997244
10	0xbd45f1f6	-0.048326455
11	0xbcd2aa50	-0.025715977
12	0x3d444fb2	0.047927566
13	0xbcecee09	-0.028922098
14	0xbb973030	-0.0046138987
15	0xbd4dd99b	-0.050256353
16	0x3d21d6db	0.039511543
17	0x3d202dac	0.039106056
18	0x3d1c306b	0.038132112
19	0x3c89f9b6	0.016842704
20	0xbc7341ea	-0.014847258
21	0x3cd2fba4	0.025754757
22	0xbd990e2b	-0.074734055
23	0x3d0afccc	0.033932492
24	0x3d38662a	0.045019306
25	0x3ceb4310	0.028718501
26	0x3cba1679	0.022715794
27	0x3d20aecf	0.03922921
28	0xbd8dd68e	-0.06925689
29	0xbbb00fe0	-0.005372986
30	0xbd23fc80	-0.040035725
31	0x3d30758f	0.043080863
32	0x3cc59850	0.02412048
33	0x3d428114	0.04748638
34	0xbd69e6af	-0.057104763
35	0xbc55b3c8	-0.0130433515
36	0xbd8fbe4d	-0.07018719
37	0x3cac9452	0.021066818
38	0xbd8a1e0c	-0.06744012
39	0xbc55c95e	-0.013048498
40	0xbc9e9944	-0.019360192
41	0xbd8bcb26	-0.06825857
42	0x3c005a79	0.00783407
43	0xbd882843	-0.06648304
44	0x3d0a5905	0.033776302
45	0xbda246c4	-0.07923654
46	0xbd2e8b2b	-0.04261319
47	0x3d200e09	0.039075885
48	0xbcbbc657	-0.022921724
49	0xbdad212d	-0.084535934
50	0xbddefe14	-0.10888305
51	0xbcf315c2	-0.02967346
52	0xba7f8ec1	-0.000974875
53	0x3d0cc771	0.03436989
54	0xbd89e415	-0.06732956
55	0x3c03e56d	0.008050305
56	0x3ca107bc	0.019657008
57	0xbcfb476b	-0.030673703
58	0xbc34698b	-0.0110114915
59	0x3cbc5501	0.022989752
60	0xbd062b95	-0.032756407
61	0xbd311722	-0.04323495
62	0x3cfabef1	0.030608626
63	0xbd3006be	-0.04297518
64	0x3d9545cc	0.07288703
65	0xbd4955d5	-0.04915412
66	0x3b139d7d	0.002252429
67	0xbde4fee5	-0.1118143
68	0x3d0b24bd	0.033970583
69	0x3ca22583	0.019793278
70	0xbd071cde	-0.032986514
71	0xbd8e0f0d	-0.069364645
72	0xbd1efa64	-0.03881301
73	0xbda733e4	-0.08164194
74	0xbd6a1899	-0.057152364
75	0xba378017	-0.0006999983
76	0x3cf1f0f8	0.029533848
77	0xbceee49f	-0.02916175
78	0x3a8c982d	0.0010726504
79	0xbd0e5dc6	-0.034757398
80	0x3bfe371d	0.007758035
81	0x3db1e198	0.08685607
82	0x3dabdc9b	0.083916865
83	0x3d0e1594	0.034688547
84	0x3b111c12	0.0022141975
85	0xbd2b0b1c	-0.04175864
86	0x3bfa196c	0.007632425
87	0x3c80b6a9	0.0157121
88	0x3c987824	0.018611975
89	0x3d2bcc86	0.041943096
90	0xbd941366	-0.072302625
91	0xbd1c63f2	-0.038181253
92	0x3d31b00c	0.043380782
93	0xbd2e53e3	-0.04256047
94	0xba6e904c	-0.00091004814
95	0xbce41155	-0.027840296
96	0x3bc753ef	0.0060830037
97	0xbd645e7b	-0.055754166
98	0xbd3a9043	-0.045547735
99	0xbc5e15f2	-0.013555037
100	0x3ba3e344	0.0050014574
101	0xbd9c7bba	-0.076407865
102	0x3c968944	0.018376
103	0xbd684ec7	-0.056715753
104	0xbdbc1bfd	-0.09185026
105	0xbd9a4014	-0.07531753
106	0x3d7be4a9	0.061497364
107	0xbcbcf2e5	-0.02306504
108	0x3d7718d1	0.0603264
109	0xbd29caa8	-0.041453034
110	0xbdbbcb87	-0.09169679
111	0xbb97e844	-0.0046358425
112	0x3d128388	0.03576997
113	0xbdcaafc0	-0.09896803
114	0xbdc646bf	-0.096814625
115	0xbd8634e1	-0.065530546
116	0xbd64b362	-0.055835135
117	0x3d457147	0.048203733
118	0x3d846964	0.06465414
119	0xbd9a60dc	-0.07538006
120	0xbcd35efb	-0.025802126
121	0x3db4a1ce	0.08819924
122	0x3d5de47c	0.054172978
123	0x3d38db4b	0.04513101
124	0x3c937c23	0.018003529
125	0xbd15177d	-0.036399353
126	0xbda5b56b	-0.08091243
127	0xbd9edca1	-0.077569254
128	0xbd97f2d9	-0.074193664
129	0xbd701302	-0.058611877
130	0xbddd612f	-0.10809552
131	0xbc2be9db	-0.010492767
132	0x3c3ff81d	0.01171687
133	0x3d3f886e	0.04676097
134	0xbc341b45	-0.01099283
135	0xbd130dd9	-0.035901878
136	0xbd41c199	-0.04730377
137	0x3cc47285	0.023980388
138	0x3c8a1a44	0.016858228
139	0xbd74f571	-0.059804384
140	0xbdbc6a2f	-0.091999404
141	0x3d024588	0.03180459
142	0x3d111b12	0.035426207
143	0xbd45d2d0	-0.04829675
144	0x3cd07483	0.025446182
145	0x3d71f461	0.05907095
146	0x3d6cbb88	0.05779603
147	0xbb1c5c13	-0.0023858591
148	0x3c64de58	0.0139690265
149	0x3a80232e	0.0009776109
150	0xbd05078c	-0.0324779
151	0x3d5dd848	0.05416134
152	0x3c6e78e3	0.014555189
153	0x3d20c1eb	0.039247435
154	0x3d728e8a	0.059217967
155	0x3d00b406	0.031421684
156	0x3cc9fe9c	0.02465754
157	0x3d435d31	0.047696296
158	0xbd674b2b	-0.05646817
159	0xbc86c6fd	-0.016452307
160	0x3d734c98	0.059399217
161	0xbd9bd79a	-0.07609482
162	0x3cf9ce50	0.030493885
163	0x3d1af48b	0.03783087
164	0x3d1b47b4	0.03791018
165	0x3da085ab	0.07837995
166	0x3d3bd779	0.045859788
167	0xbdaf0123	-0.08545139
168	0x3cccc2db	0.024995258
169	0xbd31ce24	-0.04340948
170	0x3c434643	0.011918607
171	0xbd7b9899	-0.061424825
172	0xbd4b3270	-0.049608648
173	0x3d14a3a5	0.036288876
174	0xbce6ee0c	-0.028189681
175	0x3d4da572	0.05020661
176	0x3d2469cb	0.040139955
177	0x3cdf890c	0.027287029
178	0x3ccb2ed2	0.0248026
179	0xbdd3af08	-0.10336119
180	0xbd7430fb	-0.059617024
181	0xbd7a47b7	-0.06110355
182	0x3c809726	0.015697073
183	0x3b043a71	0.0020176435
184	0xbd61ee6e	-0.055159025
185	0xbdbfa8c9	-0.09358365
186	0xbcd529c9	-0.026020901
187	0xbdbcf135	-0.09225694
188	0x3d3b9947	0.045800474
189	0xbe19c6d5	-0.15017255
190	0x3c630cbe	0.013858018
191	0xbc5e14cb	-0.013554762
192	0x3d24ac21	0.040203217
193	0xbe05a942	-0.13052848
194	0xbd120eae	-0.03565853
195	0x3be7f664	0.0070789326
196	0x3d85a7f7	0.065261774
197	0xbc76db23	-0.015066895
198	0xbd9d0b7f	-0.07668208
199	0xbc41a2e7	-0.011818624
200	0x3ce0f296	0.027459424
201	0xbd81a28b	-0.06329831
202	0x3c8dc6a3	0.017306631
203	0x3d92d2a9	0.071690865
204	0xbd816b7c	-0.06319329
205	0xbd18864b	-0.037237447
206	0xbc1b268d	-0.00946964
207	0xbcd06adb	-0.025441578
208	0x3ce14f96	0.02750377
209	0x3b0ed753	0.0021795824
210	0xbc3efe4d	-0.01165731
211	0xbd56cff7	-0.052444424
212	0xbc84fb28	-0.016233042
213	0x3d6960d0	0.056977093
214	0xbd8ec7f7	-0.06971734
215	0xbd13f0fc	-0.036118492
216	0xbd1fc369	-0.039004717
217	0x3d62be9c	0.05535756
218	0xbc808c34	-0.015691854
219	0xbe040f55	-0.12896474
220	0xbd1c982f	-0.03823107
221	0xbd3092e2	-0.04310883
222	0x3bebf80d	0.007201201
223	0xbd580571	-0.052739564
224	0x3d668878	0.05628249
225	0x3de158d7	0.11003273
226	0x3d910bb2	0.07082309
227	0x3d41a865	0.047279734
228	0xbe0765f4	-0.13222486
229	0xbe0a0a4e	-0.13480493
230	0x3d372b99	0.044719312
231	0xbd5732b4	-0.05253859
232	0xbdcf6529	-0.10126717
233	0xbd968a0e	-0.073505506
234	0xbdbaafcf	-0.09115564
235	0xbd531931	-0.051537696
236	0xbd882b0b	-0.06648835
237	0x3dcfc544	0.10145047
238	0xbca61222	-0.020272318
239	0x3cedd430	0.029031843
240	0xbd40eda0	-0.047101617
241	0xbdba12c9	-0.09085614
242	0xbd4b881c	-0.04969035
243	0xbd20b471	-0.039234582
244	0xbb75db08	-0.0037514586
245	0xbd5f8b2b	-0.05457608
246	0xbdbd08c9	-0.09230191
247	0xbc1e80fb	-0.009674306
248	0xbd9cf71a	-0.076643184
249	0xbdd331f3	-0.103122614
250	0xbdb1c5cd	-0.08680306
251	0xbcf9b400	-0.030481339
252	0x3d672ed2	0.056441136
253	0xbd1e4991	-0.038644377
254	0x3cd00534	0.025393106
255	0xbd0ed855	-0.03487428

conv2.bias f4 [32]
0	0xba3e0e68	-0.00072500715
1	0xbdc1faa6	-0.094716355
2	0x3dc602ee	0.096685275
3	0x3d83a98d	0.064288236
4	0x3d3bb0ad	0.045822788
5	0xbd64f4a8	-0.055897385
6	0xbdf7a982	-0.12092878
7	0xbd13ef49	-0.036116872
8	0x3d282fb2	0.04106111
9	0x3c0484a4	0.008088265
10	0xbe130333	-0.14356689
11	0x3da1e488	0.07904917
12	0xbc0b3dc1	-0.00849861
13	0x3c5af1ae	0.013363285
14	0xbe256d48	-0.16154969
15	0x3d0db9fa	0.03460119
16	0xbc23bee5	-0.009994243
17	0x3d84eada	0.06490107
18	0xbdb04d11	-0.08608449
19	0x3d3c95a8	0.04604116
20	0x3bd953df	0.0066323127
21	0x3d8fa1bc	0.0701327
22	0xbe51964a	-0.20467487
23	0xbd1574bc	-0.03648828
24	0xbd1205a4	-0.03564991
25	0xbc8ebc37	-0.017423732
26	0xbd318e35	-0.04334851
27	0x3c89b93d	0.016811961
28	0xbdcb4e34	-0.099270254
29	0x3d8b1f10	0.06793034
30	0xbd2eda31	-0.042688552
31	0xbc9904c9	-0.01867904

conv3.weight f4 [64, 32, 3, 3]
0	0xbcb5d81f	-0.022197781
1	0xbd9eb2bf	-0.07748937
2	0xbcab5eda	-0.020919252
3	0xbc00039c	-0.007813361
4	0x3aa4ba67	0.0012567759
5	0x3cdf5fb8	0.027267322
6	0xbc1fc7b4	-0.009752203
7	0xbd81a911	-0.06331075
8	0xbd72c325	-0.059268136
9	0xbdbdf654	-0.09275499
10	0xbcd33933	-0.02578411
11	0x3cd69a14	0.026196517
12	0xbdd51fc7	-0.10406452
13	0xbe31f0a4	-0.17376953
14	0xbd530185	-0.05151512
15	0xbc88cb16	-0.016698401
16	0x3ce3813c	0.027771585
17	0x3ce0c4c8	0.027437583
18	0xbe089f80	-0.13342094
19	0xbd06b753	-0.032889675
20	0x3d2f6db9	0.04282925
21	0x3c52dde8	0.012870289
22	0x3cf9f5c9	0.030512707
23	0xbab84ab2	-0.0014060347
24	0x3d77bac0	0.060480833
25	0xbc8a3615	-0.016871491
26	0xbdafc63f	-0.08582734
27	0x3cd15a6a	0.025555808
28	0xbc8547d2	-0.016269598
29	0x3bb0cc53	0.005395451
30	0xbd18b54c	-0.037282273
31	0x3b987667	0.0046527865
32	0xbdb3aa9e	-0.08772777
33	0xbc86b0d7	-0.016441746
34	0x3d2a6b8a	0.041606463
35	0xbd71af1f	-0.0590049
36	0x3c298838	0.0103474185
37	0x3d867988	0.06566149
38	0x3d223529	0.03960148
39	0x3c8ee5b9	0.017443525
40	0xbc88ad64	-0.016684242
41	0x3b85d046	0.004083666
42	0xbc9799cf	-0.018505959
43	0xbd939ba4	-0.072074205
44	0x3d03f0d1	0.032212082
45	0xbcbd5839	-0.023113357
46	0xbc3c1dde	-0.01148173
47	0xbd85b26c	-0.06528172
48	0xbda4b409	-0.080421515
49	0x3c669a61	0.014074893
50	0xbc8077fc	-0.015682213
51	0x3b27f9c4	0.002563105
52	0xbd06f29f	-0.032946225
53	0x3cf9ca88	0.030492082
54	0xbd46ce03	-0.04853631
55	0x3ac98d36	0.0015377167
56	0x3b8d2155	0.004306952
57	0x3b6210b4	0.003449482
58	0x3ca1e06a	0.01976033
59	0x3caa2cd0	0.020773321
60	0x3c47b1d9	0.012188398
61	0xbc57dc2e	-0.0131750535
62	0x3cddf7e0	0.027095735
63	0x3d1dca28	0.03852287
64	0xbc3ee98d	-0.0116523625
65	0xbd034454	-0.032047585
66	0xbb9a2af7	-0.004704829
67	0xbd415a6d	-0.047205377
68	0xbd02ab10	-0.03190142
69	0x3d2ffff8	0.04296872
70	0xb9dd4c3d	-0.00042209207
71	0x3c84d593	0.016215121
72	0xbd0adf23	-0.033904206
73	0x3ca05645	0.019572387
74	0x3b99f9e3	0.0046989783
75	0xbd2fc681	-0.042913917
76	0xbddf43e3	-0.1090162
77	0xbcdbcb20	-0.026830256
78	0xbd80a7b4	-0.06281987
79	0xbd05bd3e	-0.03265118
80	0x3b812212	0.003940829
81	0x3c75b7ca	0.014997432
82	0xbc17807a	-0.00924694
83	0xbcda66f3	-0.026660418
84	0xbd51bf8d	-0.051208068
85	0x3d01e631	0.03171367
86	0xbcc83bf8	-0.024442658
87	0xbd93d93a	-0.07219167
88	0x3ccaeaad	0.024770105
89	0xbc5f29f0	-0.0136208385
90	0xbc15a844	-0.009134356
91	0x3c5f18ec	0.013616782
92	0x3d15f7b6	0.03661319
93	0x3d202d42	0.03910566
94	0xbcc13dc9	-0.023589032
95	0x3d23dbc5	0.04000451
96	0xbd95e2af	-0.07318627
97	0xbd4de940	-0.050271273
98	0xbd7ead2a	-0.06217686
99	0x3cd42b3a	0.025899518
100	0x3ca97382	0.020684961
101	0x3d0849b7	0.033273425
102	0xbe3f787d	-0.18698306
103	0xbd0f5d62	-0.035001166
104	0xbd37b3e8	-0.044849306
105	0x3c947721	0.018123211
106	0xbc8cadc9	-0.017172711
107	0x3cb436c4	0.02199877
108	0xbc4871a0	-0.012234122
109	0x3cd72a9c	0.026265435
110	0x3af2f3f5	0.001853584
111	0x3d3e93ef	0.0465278
112	0xbb80ceca	-0.003930901
113	0xbce9dcc5	-0.028547654
114	0xbd66e027	-0.056366112
115	0xbde0e775	-0.10981647
116	0xbd89eee9	-0.067350216
117	0x3d2ed6bf	0.042685267
118	0x3b1dfa72	0.0024105576
119	0xbc1e98a1	-0.009679944
120	0xbd2932ee	-0.041308336
121	0xbd823936	-0.06358568
122	0xbd676d62	-0.0565008
123	0xbd3fd408	-0.046833068
124	0xbc8be339	-0.017076122
125	0xbb15e537	-0.0022872218
126	0x3cc49830	0.02399835
127	0xbcd65d11	-0.026167424
128	0x3c96120e	0.018319156
129	0x3ca872f9	0.020562636
130	0x3ba0281d	0.0048875944
131	0xbc83b892	-0.01607922
132	0xbd28d406	-0.041217826
133	0xbc70221c	-0.01465657
134	0x3c824c58	0.015905544
135	0xbdaa17ad	-0.08305297
136	0xbd2dfb87	-0.042476203
137	0x3d2c1f16	0.042021833
138	0xbd6c9305	-0.057757396
139	0x3c10c0dc	0.008835044
140	0xbe4e891f	-0.20169495
141	0x3d030688	0.03198865
142	0xbdb87e3f	-0.090084545
143	0xbd93119a	-0.071810916
144	0xbd50a9ed	-0.050943304
145	0xbd2bf53e	-0.041981928
146	0x3bf058d1	0.0073348065
147	0xbcee9c31	-0.029127212
148	0xbc2a121b	-0.010380293
149	0xbca5ff5c	-0.020263366
150	0x3b0095f6	0.0019620634
151	0xbb926dc3	-0.004468651
152	0xbd45c074	-0.04827924
153	0x3d33e8a5	0.04392304
154	0xbca55b0b	-0.020185014
155	0x3c86fd5f	0.016478239
156	0xbda1a841	-0.0789342
157	0xbd8e19dd	-0.06938527
158	0xbd69cf93	-0.057082724
159	0x3d41ba4f	0.04729682
160	0x3d257a78	0.0404
161	0x3ce0db78	0.0274484
162	0xbd63f1ba	-0.05565045
163	0xbd28623c	-0.04110931
164	0x3b0f7d03	0.002189458
165	0xbd491814	-0.04909523
166	0xbd2a2e98	-0.04154834
167	0xbcfc1ac0	-0.030774474
168	0x3ca0a506	0.01960994
169	0xbd21d28d	-0.039507437
170	0x3988f905	0.00026125475
171	0x3cf698a9	0.03010209
172	0x3cc7631c	0.024339251
173	0x3c589799	0.013219737
174	0xbbffa7ec	-0.0078020003
175	0x3d2e450b	0.042546313
176	0x3c7fea13	0.0156197725
177	0xbca0aa62	-0.019612495
178	0xbd4389a7	-0.047738697
179	0xbd2787b0	-0.040900886
180	0x3c1aaea0	0.009441048
181	0x3bb31850	0.0054655448
182	0xbb747864	-0.0037303204
183	0x3dafdf6c	0.08587536
184	0xbc406e75	-0.011745085
185	0xbc120f1e	-0.008914737
186	0x3ce96054	0.028488316
187	0xbd884a18	-0.06654757
188	0xbcbce570	-0.023058623
189	0x3c3d27e1	0.011545152
190	0x3d7c5af3	0.061610173
191	0xbbb31b07	-0.0054658684
192	0xbdb47529	-0.08811409
193	0xbdb2b9f1	-0.08726872
194	0xbd6ce072	-0.057831235
195	0xbd2ac005	-0.04168703
196	0xbdaa9e81	-0.083310135
197	0xbd6a6e00	-0.05723381
198	0xbcaaa529	-0.020830708
199	0x3c93a07b	0.018020859
200	0x3b433cfa	0.0029790984
201	0xbd01b0a6	-0.031662606
202	0x3c84111b	0.016121438
203	0x3ce48137	0.027893646
204	0xbd3093ea	-0.04310981
205	0x3c4e647b	0.012597199
206	0x3ce4c536	0.027926069
207	0x3d1782ba	0.036989905
208	0xbd1f03a2	-0.038821824
209	0xbd1e4197	-0.03863677
210	0xbbaad3ef	-0.0052132527
211	0x3d350989	0.044198547
212	0xbd4b2ab1	-0.04960126
213	0xbcef0954	-0.029179253
214	0xbc783198	-0.015148543
215	0x3d2d2353	0.042270016
216	0x3c2cb4e4	0.010541175
217	0xbc418949	-0.0118125165
218	0xbbbaf1c9	-0.0057050926
219	0x3bae0e56	0.0053117676
220	0xbd2fae36	-0.04289075
221	0xbd06ccc3	-0.03291012
222	0x3aaf61d0	0.0013380591
223	0xbd3b57e6	-0.045738123
224	0xbc3bdafb	-0.011465783
225	0xbd11155d	-0.035420764
226	0x39451cb8	0.00018798083
227	0xbcb38ced	-0.021917785
228	0x3d0c40ec	0.0342416
229	0xbd122a7b	-0.035685044
230	0x3c8a85bd	0.016909475
231	0xbd485d49	-0.04891709
232	0xbdb91a96	-0.09038274
233	0xba8c041b	-0.0010682376
234	0x3d43b947	0.047784116
235	0x3d00cb97	0.03144416
236	0xbd794dc2	-0.06086517
237	0xbd22a046	-0.03970363
238	0x3cef47f3	0.029209113
239	0xbbe8ab5f	-0.007100507
240	0xbcc4c759	-0.024020838
241	0xbc2336bb	-0.009961779
242	0x3c8df394	0.017328061
243	0xbcd1afb6	-0.02559648
244	0x3c8196cb	0.015818974
245	0xbcca76fc	-0.02471494
246	0x3dafa55b	0.08576461
247	0xbd476bed	-0.04868691
248	0xbd89156e	-0.066935405
249	0x3cc6ff41	0.024291636
250	0x3d07faee	0.03319829
251	0xbd8b90c9	-0.06814725
252	0x3d33938e	0.04384189
253	0x3be0f2b9	0.0068648723
254	0xbdd035b6	-0.101664945
255	0xba07c997	-0.00051798805

conv3.bias f4 [64]
0	0xbe6f82b1	-0.23389699
1	0xbd82c7a7	-0.06385737
2	0xbe42c118	-0.19018972
3	0x3ddeb871	0.10875023
4	0xbd9d2cb4	-0.07674542
5	0xbdd07f15	-0.10180489
6	0xbccde78c	-0.025134824
7	0xbd989b3f	-0.07451486
8	0x3d0646f6	0.032782517
9	0xbda87ac1	-0.082265384
10	0x3cc93f1d	0.024566228
11	0x3daa06c1	0.083020695
12	0xbe1ca34a	-0.15296665
13	0xbb4074aa	-0.0029366412
14	0x3d061822	0.03273786
15	0xbe4ba3d2	-0.19886711
16	0xbddf53e3	-0.10904672
17	0xbd9463f5	-0.07245628
18	0xbd97a254	-0.074040085
19	0xbb91d726	-0.0044506965
20	0x3d8bf315	0.068334736
21	0xbe40a37f	-0.18812369
22	0xbd4471a5	-0.047959942
23	0xbd717d4c	-0.058957383
24	0x3d6c1c3e	0.05764412
25	0xbd058124	-0.03259386
26	0xbda8b8a6	-0.08238344
27	0xbcb58f41	-0.022163035
28	0x39d0c90c	0.00039822643
29	0x3bbe7864	0.0058126915
30	0x3c8778c6	0.016537081
31	0xbe948b06	-0.29012316
32	0xbe329941	-0.17441274
33	0x3b1d654d	0.0024016679
34	0xbd1e2057	-0.03860506
35	0xbe100c84	-0.14067274
36	0xbe1b40aa	-0.15161386
37	0xbe0a16fa	-0.13485327
38	0x3cac4fa7	0.021034075
39	0xbd30f442	-0.043201692
40	0x3cae7f5b	0.021300962
41	0xbdb49413	-0.088173054
42	0xbc372169	-0.011177399
43	0xbd957652	-0.072979584
44	0xbd513223	-0.051073205
45	0x3d85db30	0.06535947
46	0xbb017cbd	-0.0019758188
47	0xbe091cd9	-0.13389911
48	0xbb9485ad	-0.004532537
49	0x3d9c0abf	0.07619237
50	0x3c130f4b	0.008975814
51	0xbdfdf259	-0.1239974
52	0xbd514c24	-0.051098004
53	0xbdbd04b9	-0.092294164
54	0x3ce736c5	0.028224358
55	0xbc706b5c	-0.014674034
56	0xbdbd9fa3	-0.09258964
57	0x3c5fc336	0.013657382
58	0xbe23f4a6	-0.16011295
59	0xbe18964d	-0.14901085
60	0xbc4e488a	-0.012590537
61	0x3e17f36e	0.14838955
62	0xbe2ff331	-0.17182614
63	0xbde7f834	-0.11326638

conv4.weight f4 [128, 64, 3, 3]
0	0x3caae4da	0.020861078
1	0x3ca2fac7	0.01989497
2	0x3c88ec1b	0.016714146
3	0xbc735900	-0.014852762
4	0xbd0d0463	-0.03442801
5	0x3c1425e5	0.009042238
6	0xbbc174e5	-0.0059038275
7	0xbcc17eee	-0.023620095
8	0x3d24fc9a	0.040279962
9	0x3ca7f96e	0.02050468
10	0xbd453571	-0.04814667
11	0x3b35f48c	0.002776417
12	0xbc48b08d	-0.012249124
13	0xbc435a8a	-0.011923442
14	0xbc80d41f	-0.015726147
15	0xba430180	-0.0007438883
16	0xbbdbba16	-0.006705533
17	0xbd1214c6	-0.035664342
18	0x3bf0c8ca	0.0073481547
19	0x3badcbd8	0.005303841
20	0xbda02d7b	-0.07821175
21	0x3d14180c	0.036155745
22	0xbcd91f77	-0.026504261
23	0xbcdac4bc	-0.026705138
24	0xbd293fad	-0.04132049
25	0xbd53e8c2	-0.051735647
26	0xbc73913b	-0.014866169
27	0x3cc12b59	0.02358024
28	0xbd3fca25	-0.04682364
29	0x3cb3b9e9	0.021939235
30	0x3bb5abe0	0.0055441707
31	0xbc8f019a	-0.017456818
32	0x3cc8cfc9	0.024513142
33	0xbaca9658	-0.0015456183
34	0xbccda4ed	-0.025103057
35	0x3c95d8df	0.018291889
36	0xbd77ba68	-0.060480505
37	0xbdb6d69c	-0.08927652
38	0xbcd819e6	-0.026379537
39	0xbbc0ef30	-0.0058878884
40	0xbccdede6	-0.025137853
41	0x3c29c628	0.010362186
42	0x3c1647b0	0.009172365
43	0xbc07e405	-0.00829411
44	0x3d0b86b8	0.034064025
45	0x3d01c585	0.03168251
46	0xbd6c4002	-0.05767823
47	0x3ca39f4f	0.019973425
48	0xbcec7437	-0.02886401
49	0xbcc2df47	-0.023788108
50	0xbc896e21	-0.016776146
51	0x3be8d3a1	0.0071053063
52	0xbc50547f	-0.012715458
53	0xbd4730dc	-0.04863058
54	0xbd458486	-0.048222087
55	0x3d083ccc	0.033261105
56	0xbcfac68a	-0.030612249
57	0x3c8bdbd4	0.017072596
58	0x3cc4361f	0.023951588
59	0xbd15c414	-0.036563948
60	0xbc032b53	-0.008005935
61	0xbba54fb4	-0.0050449017
62	0xbc342e77	-0.010997406
63	0xbc1db882	-0.00962651
64	0xbce08bab	-0.027410349
65	0xbcadc040	-0.021209836
66	0xbcfacd1f	-0.030615387
67	0x3bf7adde	0.0075585684
68	0xbd3541ce	-0.04425221
69	0xbc36b170	-0.011150703
70	0x3d187760	0.03722322
71	0xbcdef18d	-0.02721479
72	0x3cb0ba89	0.021573322
73	0xbcb3e9e3	-0.021962112
74	0xbca11b14	-0.019666232
75	0xbc57e89b	-0.013178016
76	0xbd318570	-0.043340147
77	0x3c9caabd	0.019124383
78	0xbcb90251	-0.022584112
79	0xbd9be290	-0.07611573
80	0xbd962f29	-0.07333214
81	0xb870cfc9	-5.7413974e-05
82	0x3c8b516a	0.017006595
83	0xbb8e9179	-0.004350838
84	0xbd020ea9	-0.031752262
85	0xbc91e07f	-0.017807243
86	0x3d11265c	0.035436973
87	0x3bee0155	0.0072633424
88	0x3b17b3c3	0.0023147918
89	0xbd254638	-0.04035017
90	0xbbc31d48	-0.0059544183
91	0xbc4de9a9	-0.012567916
92	0xbc83ee52	-0.01610485
93	0xbca11c40	-0.019666791
94	0xbc6cc164	-0.014450405
95	0xbb490506	-0.003067316
96	0xbd1ada0f	-0.037805613
97	0xba87a736	-0.0010349515
98	0xbdadde2c	-0.084896415
99	0x3c0aad70	0.008464202
100	0x3cc9a299	0.024613665
101	0x3cde5279	0.027138935
102	0xb940e7ce	-0.00018396901
103	0x3c1d2dcb	0.009593437
104	0xbd3cc040	-0.04608178
105	0x3a69f394	0.00089245406
106	0xbdaa83cc	-0.083259195
107	0x3c7e240f	0.015511527
108	0x3bfa0893	0.0076304167
109	0xbc3433b5	-0.010998656
110	0x3c091118	0.008365892
111	0xbc4f583a	-0.012655312
112	0xbaf4e22a	-0.0018683125
113	0xbb6698a2	-0.003518619
114	0xbd041e5e	-0.032255523
115	0xbd4605d3	-0.0483454
116	0x3c65993d	0.014013586
117	0xb9927ca5	-0.00027940157
118	0x3ce908ed	0.028446639
119	0x3cac3686	0.021022093
120	0xbd4197fa	-0.047264077
121	0x3b8c3d6d	0.0042797835
122	0x3bee0c2c	0.0072646346
123	0xbd3e62d9	-0.046480987
124	0xbc9402d6	-0.018067759
125	0xbc97bbf6	-0.018522244
126	0x3d038a31	0.03211421
127	0x3d1db102	0.038498886
128	0xbc5b3358	-0.0133789405
129	0xbc7ad555	-0.015309651
130	0x3dbc0feb	0.091827236
131	0xbb9e14fd	-0.0048242793
132	0x3d25fae8	0.040522486
133	0xbd8fded1	-0.07024921
134	0xbd823fb5	-0.063598074
135	0xbcc85654	-0.024455227
136	0xbd207529	-0.039174233
137	0xbce622b2	-0.028092716
138	0x3d2773a5	0.04088177
139	0xbd24c6f3	-0.040228795
140	0x3d07358d	0.033010054
141	0xbd478ef4	-0.048720315
142	0xbd84d420	-0.06485772
143	0xbd315689	-0.043295417
144	0xbd2f6104	-0.04281713
145	0xbd187e02	-0.037229545
146	0x39a31464	0.00031104975
147	0xbbd2c782	-0.0064324746
148	0xb9ed4599	-0.00045256017
149	0xbb9128c6	-0.0044299094
150	0x3c320ef8	0.010867827
151	0xbd7b702c	-0.061386272
152	0xbca48143	-0.020081168
153	0xbcfc8f1d	-0.03082996
154	0x3c7bc7ae	0.015367432
155	0xbcf1902b	-0.02948769
156	0xbc772627	-0.01508478
157	0xbd5dfde8	-0.054197222
158	0x3cdd31e5	0.02700133
159	0x3cd8448b	0.026399871
160	0x3ca80790	0.020511419
161	0x3c740905	0.014894729
162	0xbcdda053	-0.027053988
163	0x3b99b634	0.0046909098
164	0xbbc5193a	-0.00601497
165	0xbdcea32f	-0.100897186
166	0x3c098f86	0.008396035
167	0xbd49b125	-0.049241204
168	0x3d9ec3a4	0.07752159
169	0x3c25c0f0	0.010116801
170	0x3cff10dc	0.031135969
171	0xbdad0c42	-0.084496036
172	0x3cf22003	0.02955628
173	0x3c6cef55	0.014461358
174	0x3c3f7d70	0.0116876215
175	0x3d4a78ae	0.049431495
176	0x3c9916eb	0.018687686
177	0xbbc15be2	-0.005900846
178	0xbdbf1f17	-0.09332102
179	0x3c80ec9d	0.015737826
180	0xbad65f7b	-0.001635536
181	0x3ceba592	0.028765474
182	0xbd59d64b	-0.05318288
183	0xbbb2e49e	-0.005459382
184	0x3d302857	0.04300722
185	0x3d092e9c	0.033491716
186	0xbd1d005a	-0.038330413
187	0xbd3e90e6	-0.046524905
188	0xbd1684fa	-0.03674791
189	0x3cd82e50	0.026389271
190	0xbca8dcb3	-0.02061305
191	0x3d393d3e	0.04522442
192	0x3bdd9ab9	0.006762829
193	0x3d0f23ec	0.034946367
194	0x3cf42826	0.0298043
195	0x3c897714	0.016780414
196	0xbdbd16aa	-0.092328385
197	0xbd292b05	-0.041300792
198	0x3d33cc91	0.04389626
199	0xbcc8cf31	-0.024512859
200	0x3c060f1f	0.008182316
201	0x3cfc5093	0.03080014
202	0x3b9e561e	0.0048320433
203	0xbcd3b538	-0.025843248
204	0x3d13bc8e	0.03606849
205	0x3c1867a1	0.009302051
206	0x3c57aaeb	0.013163309
207	0x3c6477a9	0.013944545
208	0xbd3cca05	-0.0460911
209	0xbc932e23	-0.017966336
210	0x3d42d2a5	0.047564168
211	0xbc7397df	-0.014867752
212	0xbd7cdb2a	-0.06173245
213	0x3b01107c	0.0019693663
214	0xbd522af0	-0.05131048
215	0x3c898e09	0.01679136
216	0xbc393d0f	-0.011306061
217	0xbceca57a	-0.0288875
218	0x3d7ec2cb	0.062197488
219	0xbd0bea98	-0.034159273
220	0xbdc15b6f	-0.09441268
221	0xbd9bbbca	-0.07604177
222	0xbd58ed09	-0.05296043
223	0xbd865c9a	-0.06560631
224	0xbcc41a1b	-0.02393823
225	0x3b54076b	0.0032353054
226	0xba741393	-0.0009310778
227	0xbc9ca036	-0.019119363
228	0x3c59625f	0.013268082
229	0xbcb3496d	-0.021885598
230	0x3d0805a8	0.03320852
231	0xbddcce2a	-0.1078151
232	0xbd353a2c	-0.04424493
233	0xbcb23a22	-0.021756236
234	0xbd71fdfb	-0.059080105
235	0x3b083152	0.002078135
236	0x3d248d16	0.040173613
237	0xbcd9081f	-0.02649313
238	0xbbd519f1	-0.0065033366
239	0xbd515c0d	-0.051113177
240	0xbd033f54	-0.032042816
241	0xbcdb2c35	-0.026754478
242	0xbd8696cc	-0.06571731
243	0xbb54c74c	-0.0032467423
244	0xba92c570	-0.0011197757
245	0x3cfe4636	0.031039339
246	0xbcee554f	-0.029093413
247	0x3d27741e	0.040882222
248	0xbcff528b	-0.03116729
249	0x3d368ab4	0.04456587
250	0xbd1296dd	-0.035788406
251	0x3cad3dc4	0.021147616
252	0xbd014bbb	-0.031566363
253	0x3cc1edd3	0.023672974
254	0x3cd27703	0.025691515
255	0x3a9ad2bd	0.0011812072

conv4.bias f4 [128]
0	0xbde30578	-0.110850275
1	0x3d9dbee6	0.077024266
2	0xbcfe2ab1	-0.031026216
3	0xbd1c98e0	-0.03823173
4	0x3dc078d5	0.09398047
5	0x3bf89ad3	0.007586816
6	0x3b724748	0.0036968756
7	0x3df4c3eb	0.11951431
8	0x3daa86f4	0.083265215
9	0xbde2b7e3	-0.1107023
10	0xbded57ad	-0.115889885
11	0xbd4f3526	-0.050587796
12	0x3dc816cd	0.09769974
13	0xbda93aa3	-0.08263137
14	0xbdce926e	-0.10086523
15	0xbd42bda2	-0.04754413
16	0xbc9bd515	-0.019022504
17	0xbd3c164f	-0.045919713
18	0x3cad4b9a	0.021154214
19	0x3d99dfeb	0.07513412
20	0x3bb5944a	0.005541359
21	0x3cd1f7a4	0.02563078
22	0xbc1d911c	-0.009617116
23	0xbe1157cc	-0.14193648
24	0xbca763c9	-0.020433323
25	0xbd81da49	-0.06340463
26	0x3c97c6d3	0.018527424
27	0xbab2c241	-0.0013638214
28	0xbe1c5c4a	-0.1526958
29	0xbc942f52	-0.01808897
30	0xbd608911	-0.054818217
31	0x3e11110f	0.14166664
32	0xbca8ca2c	-0.020604216
33	0xbe0856b4	-0.13314325
34	0x3d92b5fd	0.07163618
35	0x3e0c624e	0.13709375
36	0xbca6dca8	-0.020368889
37	0xbdc41d5e	-0.09575914
38	0x3d15abd6	0.03654083
39	0x3b051822	0.0020308574
40	0xbbc06986	-0.0058719544
41	0xbc5faeb2	-0.01365249
42	0xbe085aae	-0.13315842
43	0x3b29e925	0.0025926318
44	0x3dc96795	0.0983421
45	0xbc5fcae2	-0.013659211
46	0xbdb20444	-0.0869222
47	0xbdcf3442	-0.10117389
48	0x3d944f9c	0.07241747
49	0x3c66dcf3	0.014090764
50	0x3e1d0d0e	0.15337011
51	0xbe1e6331	-0.15467526
52	0xbdac0fea	-0.08401473
53	0x3df769ff	0.12080764
54	0x3cd4f10c	0.025993846
55	0xbd1d4f59	-0.03840575
56	0x3c0ebab3	0.008711505
57	0xbdc5bd01	-0.0965519
58	0xbddeb273	-0.1087388
59	0x3daf4564	0.08558157
60	0x3e48486a	0.19558874
61	0x3e1c0b8a	0.15238777
62	0xbd851b4f	-0.06499349
63	0xbe04eaa4	-0.12980133
64	0xbd71e475	-0.059055764
65	0xbcfb179f	-0.030650912
66	0xbd3ce51a	-0.046116926
67	0xbd9390d5	-0.07205359
68	0x3d9f0769	0.07765085
69	0xbd6c5205	-0.057695407
70	0x3e1f449a	0.15553513
71	0xbe089272	-0.13337114
72	0x3ce5eadc	0.028066091
73	0x3dda56a7	0.10661059
74	0x3d9e8959	0.07741041
75	0xbd909ab3	-0.070607565
76	0x3d3de419	0.04636011
77	0xbddfd04e	-0.10928403
78	0x3c0468f0	0.00808166
79	0x3dc6a6bf	0.09699773
80	0x3e1a5631	0.15071942
81	0x3db5fb8d	0.0888587
82	0x3ded9f29	0.11602623
83	0xbdded081	-0.10879613
84	0xbdabe3e7	-0.08393078
85	0xbd099b41	-0.033595327
86	0xbdabc255	-0.08386675
87	0x3e0a9003	0.13531499
88	0xbdaa8e31	-0.08327902
89	0xbd72ce83	-0.059278976
90	0xbd0873f3	-0.033313703
91	0xbdc1b6c4	-0.09458688
92	0xbd25007f	-0.040283676
93	0xbd9639ad	-0.073352195
94	0xbd98ebb6	-0.07466833
95	0xbd14f0b8	-0.03636238
96	0xbdaa5df4	-0.083187014
97	0x3d0a1ce2	0.03371895
98	0xbdd63049	-0.104584284
99	0xbbf78453	-0.007553616
100	0xbc3765d2	-0.011193709
101	0xbcb7cf77	-0.022437794
102	0xbddeaf8e	-0.10873328
103	0xbddb8dec	-0.10720429
104	0xbddd6c3d	-0.108116604
105	0x3cf2a61f	0.029620228
106	0x3ca29bd0	0.019849688
107	0xbc8c26b7	-0.017108304
108	0x3bfb08a2	0.007660941
109	0xbdf0d6e4	-0.11759737
110	0xbdad53d6	-0.08463256
111	0xbdf50ba4	-0.11965111
112	0x3e04952d	0.12947531
113	0x3cbe2231	0.023209663
114	0xbe141749	-0.14462008
115	0x3d9e498a	0.0772887
116	0xbdd8151c	-0.10550901
117	0xbdc69491	-0.096963055
118	0xbde75355	-0.11295191
119	0x3c3ad733	0.011403847
120	0xbc07d671	-0.008290873
121	0x3debaa3e	0.115070805
122	0x3dac8e11	0.084255345
123	0xbe13243a	-0.14369288
124	0xbe2a990d	-0.16659947
125	0x3c988758	0.018619224
126	0x3d6be883	0.057594787
127	0x3dc1d2e9	0.09464056

conv1T.weight f4 [128, 64, 3, 3]
0	0x3cc1ed16	0.023672622
1	0xbcf087b1	-0.029361578
2	0xbeac0b88	-0.33602548
3	0x3db641e5	0.08899287
4	0x3dc849ec	0.097797245
5	0x3dd85ff9	0.1056518
6	0x3b4a372e	0.0030855644
7	0x3e07964e	0.1324093
8	0x3eb8f05c	0.3612088
9	0x3f03d4c7	0.5149655
10	0x3ee330ca	0.4437316
11	0x3e899ef5	0.26879087
12	0x3b85adeb	0.0040795705
13	0x3e4a72f9	0.19770421
14	0xbdbd0d6e	-0.09231077
15	0x3e43ba77	0.191141
16	0x3ec85f19	0.39135054
17	0x3ebfd819	0.37469557
18	0x3cf72b2a	0.03017195
19	0xbe7c0be6	-0.24613914
20	0xbef600a9	-0.4804738
21	0x3e0d7df7	0.13817583
22	0x3e35b962	0.17746499
23	0x3da72181	0.08160687
24	0x3e0ecba9	0.13944878
25	0x3e314860	0.17312765
26	0x3e81113d	0.25208464
27	0xbdb7ab3e	-0.08968209
28	0xbe516eb7	-0.2045239
29	0xbee2765c	-0.44230926
30	0xbd069462	-0.032856353
31	0x3da0b8e9	0.07847769
32	0x3e09e567	0.13466416
33	0x3d837fa6	0.064208314
34	0x3ea51470	0.32242155
35	0x3e9e5eb3	0.30931625
36	0xbe4c69fc	-0.19962305
37	0xbebe547b	-0.37173828
38	0xbf3d1def	-0.738738
39	0x3d4bb9bc	0.049737677
40	0x3e0bc0d3	0.13647775
41	0x3d830182	0.06396772
42	0x3dfb596e	0.12272917
43	0x3e257052	0.16156128
44	0x3eb58001	0.35449222
45	0x3e5815b7	0.21102034
46	0xbe07cf43	-0.13262658
47	0xbf2b59c8	-0.6693387
48	0xbdbace96	-0.091214344
49	0xbc3b5775	-0.011434426
50	0xbe8a2e3b	-0.26988396
51	0x3e04d6fe	0.12972638
52	0x3e940acd	0.2891449
53	0x3ed23a4c	0.41060102
54	0x3eb5a49b	0.35477147
55	0x3e6fd580	0.23421288
56	0xbbd23430	-0.0064149126
57	0xbe01c963	-0.12674479
58	0xbe7fb6b3	-0.24972038
59	0xbef95265	-0.48695675
60	0x3ca93727	0.020656181
61	0x3e9ac69d	0.30229655
62	0x3ec0aec7	0.37633345
63	0xbbcbd0b4	-0.0062199477
64	0xbe74410a	-0.23852935
65	0xbf5de226	-0.866732
66	0x3e375667	0.17904054
67	0x3e82b0bc	0.25525463
68	0xbae41ecd	-0.0017404199
69	0x3d1683c2	0.036746748
70	0x3e17e62d	0.14833899
71	0x3eaf6bc4	0.34261906
72	0x3d80922b	0.06277879
73	0xbe6ca906	-0.23111352
74	0xbf36caec	-0.71403384
75	0x3d3e8323	0.04651178
76	0x3d8b85df	0.06812643
77	0xbdc18fd4	-0.09451261
78	0xbd104d3b	-0.035229903
79	0x3e205dac	0.15660733
80	0x3eadf3f8	0.33975196
81	0x3e26596b	0.16245048
82	0xbdad9e6c	-0.08477482
83	0xbee624bd	-0.44949904
84	0xbe2d1396	-0.16902003
85	0xbd9ed7c8	-0.07756001
86	0x3cebb015	0.028770486
87	0x3db9e1eb	0.090762936
88	0x3e837846	0.256777
89	0x3ea8a8d2	0.329413
90	0xbd8b9636	-0.0681576
91	0xbed9b9b2	-0.42524487
92	0xbf0fb93c	-0.5614202
93	0x3d7fa13e	0.062409632
94	0x3e02fe86	0.12792405
95	0x3e0a38bc	0.13498205
96	0x3d52e935	0.051491935
97	0x3e6943a4	0.22779709
98	0x3e627d36	0.22118077
99	0x3ef7f364	0.4842788
100	0x3cb4000d	0.02197268
101	0xbe01904d	-0.12652703
102	0x3d5925ca	0.053014554
103	0xbdfca942	-0.12336971
104	0xbec6576b	-0.3873857
105	0x3d8bad8f	0.06820213
106	0x3ea75f50	0.32689905
107	0x3ecef230	0.4041915
108	0x3eb1f7f2	0.3475948
109	0x3e87d334	0.26528323
110	0x3d4b5ffa	0.049652077
111	0x3e56101f	0.20904587
112	0x3ec6e838	0.38849044
113	0x3ece9b20	0.40352726
114	0x3d018166	0.031617545
115	0x3ec899f5	0.3917996
116	0x3eb25f23	0.3483821
117	0x3e46c5a8	0.19411337
118	0xbdb7a2d7	-0.08966606
119	0xbe8a6772	-0.27032048
120	0x3e3a5fa2	0.18200544
121	0x3e53c37f	0.20680045
122	0xbda49348	-0.08035904
123	0xbc23cecf	-0.0099980375
124	0x3e781d26	0.24229869
125	0x3ec8f82a	0.39251834
126	0x3de38a1f	0.11110329
127	0x3d89b5b6	0.06724112
128	0xbe2e5b0e	-0.17026922
129	0x3e769772	0.2408121
130	0x3eafee36	0.34361428
131	0x3e62a779	0.22134198
132	0x3d8e2cb8	0.06942123
133	0x3eb1fc0f	0.34762618
134	0x3ead09d6	0.33796567
135	0xbd85347b	-0.065041505
136	0xbe94bf9b	-0.29052433
137	0xbed9a6f6	-0.42510194
138	0x3e0dabb5	0.13835032
139	0x3e834d9a	0.25645143
140	0x3ea72203	0.32643136
141	0xbda09410	-0.07840741
142	0x3e90ca0c	0.2827915
143	0x3eb9419c	0.36182868
144	0xbdba08c1	-0.09083701
145	0xbeca975a	-0.39568597
146	0xbf2cc2f6	-0.67484987
147	0x3e8ec367	0.27883455
148	0x3e47b418	0.19502294
149	0x3e7cc0f4	0.24682981
150	0x3e47d265	0.19513853
151	0x3ea8422b	0.32862982
152	0x3ed0cd0f	0.40781447
153	0x3ec5c04e	0.3862328
154	0x3eb72601	0.35771182
155	0xbdf02ba0	-0.11727071
156	0x3e320b73	0.1738718
157	0x3e5a8535	0.21339877
158	0xbd42c8a0	-0.047554612
159	0xbcf29b26	-0.029614996
160	0xbdb29791	-0.08720315
161	0x3eb66423	0.35623273
162	0xbd3aa9fa	-0.04557226
163	0xbdfd3ebd	-0.12365482
164	0xbe1aa4e1	-0.15101959
165	0x3e208b7e	0.15678212
166	0x3e5e42ac	0.21705121
167	0x3ce2e769	0.027698236
168	0xbe574e03	-0.21025853
169	0x3d556fd5	0.052108604
170	0x3ddb9df2	0.10723485
171	0x3eb87976	0.36030167
172	0x3e838af3	0.25691947
173	0xbe4a5278	-0.19758022
174	0x3e25c14b	0.16187017
175	0x3e1a3cd3	0.15062265
176	0xbe4b9c2d	-0.19883795
177	0xbd536874	-0.051613286
178	0xbd0c06c9	-0.03418616
179	0x3eb0eee3	0.34557256
180	0x3e40e9c4	0.18839175
181	0xbd5137bb	-0.05107854
182	0xbe932cf4	-0.28745234
183	0xbbfe9277	-0.007768925
184	0x3dc0fd36	0.09423296
185	0xbe4fb081	-0.20282175
186	0x3cf88a16	0.030339282
187	0x3d2bee50	0.04197532
188	0x3eb90c0a	0.36141998
189	0x3ef722ea	0.48268825
190	0x3ea466c6	0.3210966
191	0xbe40fdd0	-0.18846822
192	0xbe1013bd	-0.1407003
193	0xbe3e83f7	-0.18605028
194	0xbefcbc56	-0.4936244
195	0x3d896663	0.06708982
196	0x3e1897b7	0.14901625
197	0x3ee35649	0.44401768
198	0x3ee4f2a6	0.44716376
199	0x3e7e3263	0.24823909
200	0xbe0b3c2c	-0.13597172
201	0x3e6d4823	0.23172049
202	0xbd569cbe	-0.052395575
203	0xbe4e1d1d	-0.20128293
204	0xbe0afc91	-0.13572909
205	0xbcf06f01	-0.029349806
206	0x3df66f7f	0.12032985
207	0x3ed2c039	0.4116228
208	0x3eb7d40c	0.35903966
209	0xbdd39e47	-0.103329234
210	0x3e332685	0.17495163
211	0xbd03c118	-0.03216657
212	0xbe54dc37	-0.2078713
213	0xbe452536	-0.19252476
214	0xbdb9e18f	-0.09076225
215	0x3e64425c	0.22290939
216	0xbd4b537d	-0.049640168
217	0xbe635041	-0.22198583
218	0xbf135f26	-0.5756706
219	0xbc2ce204	-0.010551933
220	0x3e658486	0.22413835
221	0x3dadcc64	0.0848625
222	0x3da3a133	0.07989731
223	0x3e5b2c0d	0.21403523
224	0x3e8c3034	0.27380526
225	0x3efe780d	0.49700966
226	0x3eb3ea88	0.3513987
227	0xbe05f752	-0.13082626
228	0xbdfbcda9	-0.12295086
229	0xbe9ed449	-0.31021336
230	0xbf040016	-0.5156263
231	0xbd178b45	-0.036998052
232	0x3e8d1233	0.27552947
233	0x3ebb1e94	0.36546767
234	0x3ee42dff	0.44566342
235	0x3e55a99d	0.20865484
236	0xbeff6d28	-0.49887967
237	0x3de95972	0.113940135
238	0x3d8cf170	0.06881988
239	0xbdedcf8c	-0.11611852
240	0x3cf163e1	0.029466571
241	0x3d08adbe	0.03336882
242	0x3ebca40a	0.36843902
243	0x3b807355	0.0039199986
244	0xbe6244d3	-0.22096567
245	0xbf07bf6c	-0.5302646
246	0x3dd2ccee	0.102929935
247	0x3e75de8a	0.24010673
248	0x3d0395ae	0.032125168
249	0x3d0e8548	0.034795076
250	0x3e681113	0.22662763
251	0x3eb9d485	0.36294952
252	0x3b7cda2b	0.0038582187
253	0xbd73bcd8	-0.059506267
254	0xbe64d355	-0.22346242
255	0x3e23d299	0.15998305

conv1T.bias f4 [64]
0	0x3d7eb97f	0.06218862
1	0x3e1ee495	0.15516885
2	0x3e384045	0.17993267
3	0x3da420f3	0.08014097
4	0x3e12bcca	0.1432983
5	0x3cf8da65	0.030377576
6	0x3ca88324	0.020570345
7	0x3d89d5f9	0.06730265
8	0x3e4db4a6	0.20088443
9	0x3d16b0f8	0.036789864
10	0x3db9cdb2	0.090724364
11	0xbce600cb	-0.02807655
12	0x3dc4792a	0.09593423
13	0x3e5c7060	0.21527243
14	0x3e177120	0.14789248
15	0x3b128e98	0.0022362825
16	0x3e285703	0.16439442
17	0x3e259575	0.16170295
18	0x3dc57e6c	0.09643254
19	0x3e00a630	0.12563396
20	0x3dc0c7d6	0.09413116
21	0x3da0269b	0.078198634
22	0x3df45514	0.1193029
23	0x3e329e72	0.17443255
24	0xbd13c1bc	-0.03607343
25	0x3dbb7956	0.09154002
26	0x3e01a0f4	0.12659055
27	0x3d5aeb01	0.053446773
28	0x3e092b02	0.13395312
29	0xbc9d5f6d	-0.019210542
30	0x3e00527e	0.12531468
31	0x3d2bc7c9	0.041938577
32	0x3e029bc6	0.12754735
33	0x3decc49e	0.11560939
34	0x3e0b70fc	0.13617319
35	0x3dee7f22	0.116453424
36	0x3e0a9776	0.1353434
37	0x3e3b8e70	0.18316054
38	0x3dcac446	0.099007174
39	0x3df16c57	0.11788242
40	0x3e3bafdb	0.18328802
41	0xbbcae1c7	-0.0061914655
42	0x3e0c3eb0	0.13695788
43	0x3e5a5fe7	0.21325646
44	0xbc129991	-0.008947746
45	0x3dceaf5d	0.10092042
46	0x3e4affed	0.1982419
47	0x3b96505e	0.0045872172
48	0x3e01919b	0.126532
49	0x3decca67	0.11562043
50	0x3d4ec220	0.0504781
51	0x3e096a8d	0.13419552
52	0x3ddc5a44	0.10759404
53	0x3dc73ee4	0.09728792
54	0x3e09e5f7	0.13466631
55	0x3de0786d	0.109604694
56	0x3df7fd83	0.121089004
57	0x3d5527c3	0.052039873
58	0xbb34e128	-0.0027600024
59	0xbc271ebb	-0.010200198
60	0x3c25bb2c	0.010115426
61	0x3d353d06	0.04424765
62	0x3e156dec	0.14592713
63	0x3e689c4d	0.22715874

conv2T.weight f4 [64, 32, 3, 3]
0	0xbe7e2ba9	-0.24821343
1	0x3cba0b1a	0.022710372
2	0x3e13c7f2	0.14431742
3	0x3eb1656d	0.34647694
4	0x3eda768a	0.42668563
5	0x3ec7ecc7	0.39047834
6	0xbc8d759f	-0.017268
7	0x3d9f6eba	0.07784791
8	0xbd05ec72	-0.032696195
9	0xbee8d8ac	-0.45477808
10	0xbf02ba3c	-0.5106542
11	0xbeb06dbb	-0.34458718
12	0x3eaae8f1	0.33380845
13	0x3ef98424	0.48733628
14	0x3e7a30b5	0.24432643
15	0x3d9d7200	0.076877594
16	0x3e3410e1	0.17584564
17	0xbc93c9c6	-0.018040549
18	0xbdf671dc	-0.12033436
19	0x3eb318af	0.3497977
20	0x3ecfe9a1	0.40607932
21	0x3ed26ccc	0.4109863
22	0x3e912056	0.28344983
23	0x3e108554	0.1411336
24	0x3d43ebb5	0.04783221
25	0x3d90c99e	0.070697054
26	0x3decbe4a	0.11559732
27	0x3f88db05	1.069184
28	0x3e8f6851	0.28009275
29	0x3ec56fdf	0.38561913
30	0xbe40ca32	-0.18827131
31	0x3e407c8a	0.18797508
32	0x3e6f45dc	0.23366493
33	0xbd5da8d3	-0.05411608
34	0x3dd45762	0.103682294
35	0x3d4530ff	0.04814243
36	0xbd563557	-0.052296963
37	0x3e92d9be	0.2868175
38	0x3ed99a42	0.42500502
39	0x3ef3d0bc	0.4762019
40	0x3f3608a3	0.7110693
41	0x3f16d119	0.5891281
42	0x3e675e09	0.22594465
43	0x3eb4a4a9	0.35281876
44	0x3e29262e	0.1651847
45	0xbe44cae4	-0.19218022
46	0xbed8117d	-0.42200842
47	0xbe8973fb	-0.268463
48	0x3e0dd5a6	0.13851032
49	0x3ec9c9f2	0.39411885
50	0x3e906269	0.2820008
51	0x3d211843	0.03932978
52	0x3daa4eca	0.08315809
53	0xbce800a5	-0.02832062
54	0x3eed939f	0.46401688
55	0xbe315ae6	-0.17319831
56	0xbecba6f4	-0.39775813
57	0xbe7555f4	-0.2395857
58	0x3d31eca7	0.04343858
59	0x3de6f1c2	0.112765804
60	0x3d84f2ed	0.06491647
61	0x3d726556	0.059178673
62	0x3daa9773	0.08329668
63	0x3f418cbf	0.75605386
64	0x3f05ac52	0.52216065
65	0x3e976571	0.2956958
66	0xbad3f775	-0.001617177
67	0x3ec61e83	0.38695154
68	0x3edea474	0.43484843
69	0x3e8f5210	0.27992296
70	0x3ea19c3b	0.31564507
71	0x3e87225e	0.26393408
72	0xbeaeb091	-0.34119084
73	0x3e1a1c57	0.15049873
74	0xbabeb55d	-0.00145499
75	0x3f0abd27	0.54194874
76	0x3f567094	0.8376553
77	0x3f083f98	0.53222036
78	0x3ef1b311	0.4720693
79	0x3f16a723	0.5884878
80	0x3e90fac5	0.28316322
81	0x3f276d7c	0.65401435
82	0x3de2fd74	0.110834986
83	0xbcd34c6c	-0.025793277
84	0xbed2c905	-0.4116899
85	0x3c821452	0.01587883
86	0x3e4893dd	0.19587655
87	0x3e424042	0.18969825
88	0x3e4aa6a9	0.19790138
89	0x3dd832b9	0.105565496
90	0x3e0fcf1f	0.14043854
91	0xbeb9129a	-0.36147004
92	0xbec6ebe7	-0.38851854
93	0xbd32e568	-0.04367581
94	0x3e22b7e5	0.15890463
95	0x3e2e0584	0.16994292
96	0xbc759eb9	-0.014991456
97	0x3dc465a6	0.095897004
98	0xbdb2b3be	-0.08725689
99	0x3f12b4f5	0.5730737
100	0x3c9cb566	0.019129466
101	0xbe5b61ce	-0.21424028
102	0xbe85f90d	-0.26166573
103	0xbe3219dc	-0.17392677
104	0x3c907db9	0.017638074
105	0x3e3b1ed6	0.18273482
106	0x3e823c4a	0.25436622
107	0x3da2e978	0.07954687
108	0x3f843015	1.0327173
109	0x3f15555c	0.58333373
110	0x3ec671ad	0.38758603
111	0xbe9c23ca	-0.30496055
112	0xbcd9b42b	-0.026575169
113	0x3d028378	0.03186366
114	0x3e062daa	0.13103357
115	0x3e48dd1e	0.196156
116	0x3e042ce6	0.12907752
117	0xbd8874b9	-0.06662888
118	0xbdd665a2	-0.10468604
119	0xbdc86de3	-0.09786584
120	0x3e25d14a	0.16193119
121	0x3e861d71	0.26194337
122	0x3e715e6c	0.23571175
123	0xbb7cf9ed	-0.0038601116
124	0x3db7e357	0.089789085
125	0xbce035aa	-0.027369339
126	0xbd810114	-0.06299034
127	0xbecf249a	-0.40457612
128	0xbed8c650	-0.423388
129	0x3cd02f19	0.025413083
130	0x3e993fd7	0.29931518
131	0x3e7804ab	0.2422053
132	0xbce8e88e	-0.028431203
133	0x3e39da70	0.18149734
134	0xbd808684	-0.06275657
135	0xbdee0fda	-0.11624117
136	0xbd964e43	-0.07339146
137	0x3f10202e	0.562991
138	0x3eb72043	0.357668
139	0x3f41b239	0.7566257
140	0x3eeeef00	0.46666718
141	0xbe2d1a2e	-0.16904518
142	0xbd57a479	-0.052647088
143	0xbc3ea741	-0.011636556
144	0xbdf4d041	-0.11953784
145	0xbd877089	-0.06613261
146	0x3b9ba466	0.0047498224
147	0x3e0969dd	0.1341929
148	0x3e8af2b2	0.27138287
149	0x3e1dd09c	0.1541161
150	0xbd845a74	-0.06462565
151	0xbd86fcee	-0.06591211
152	0xbde77233	-0.11301079
153	0x3e6428a3	0.22281127
154	0xbb14ed00	-0.002272427
155	0x3e8f48f0	0.27985334
156	0x3f24a26f	0.64310354
157	0x3f429b47	0.76018184
158	0x3f204dd2	0.62618744
159	0x3d646742	0.055762537
160	0x3e2e0323	0.16993384
161	0x3e0ff2c9	0.14057459
162	0xbe1aee7f	-0.15130042
163	0x3d502ae9	0.050822172
164	0x3d95cf94	0.07314983
165	0x3e874896	0.26422566
166	0x3f01ad61	0.5065518
167	0x3ed7bab4	0.4213463
168	0x3d8005b9	0.062510915
169	0x3de4ed16	0.11178033
170	0x3d81589e	0.063157305
171	0x3f694b4e	0.9113053
172	0x3e696502	0.22792438
173	0xbdab8290	-0.08374512
174	0xbeb288e3	-0.3487006
175	0x3e213d17	0.1574596
176	0x3e31e9e3	0.17374377
177	0xbdd0483e	-0.10170029
178	0x3dca8c80	0.098900795
179	0xbd39e53c	-0.04538463
180	0xbe010cfc	-0.1260261
181	0xbe9871cb	-0.29774317
182	0xbe92b4ea	-0.2865365
183	0x3cbb074d	0.02283063
184	0x3e38cede	0.18047664
185	0x3e0f1e5f	0.1397643
186	0x3c987b62	0.018613521
187	0x3e3e764e	0.18599817
188	0x3c4d71df	0.012539356
189	0x3f462999	0.77407223
190	0x3ecd6214	0.4011389
191	0x3e2e823d	0.1704187
192	0xbebf6079	-0.3737829
193	0xbd8e4451	-0.06946624
194	0xbc0be356	-0.008538088
195	0x3e10d032	0.1414192
196	0x3e9cc6f5	0.30620542
197	0x3e2b2ca1	0.16716243
198	0x3e0ac204	0.13550574
199	0x3dc6204d	0.0967413
200	0x3df51bb6	0.11968176
201	0x3e98fa22	0.29878336
202	0x3f04f232	0.5193206
203	0x3f047f7a	0.51757014
204	0x3e1d0373	0.15333347
205	0x3e9153f4	0.28384364
206	0x3e32a473	0.17445545
207	0x3e056346	0.13026151
208	0xbd873352	-0.066015854
209	0xbe236f1b	-0.15960352
210	0x3d502835	0.050819594
211	0x3d0594ce	0.032612614
212	0x3ca1c9d8	0.019749567
213	0x3dccf46a	0.10007556
214	0x3e335eaf	0.17516588
215	0x3a6c485c	0.0009013468
216	0xbf399f2c	-0.725085
217	0xbef4f26f	-0.47841212
218	0xbe87bfaa	-0.26513416
219	0x3ee2d825	0.4430553
220	0x3f114d69	0.56758744
221	0x3ee55e50	0.44798517
222	0xbcb4ad37	-0.022055252
223	0x3da2cd5f	0.07949328
224	0xbdf1a39d	-0.11798785
225	0x3ecec4f0	0.40384626
226	0xbc309e28	-0.010779895
227	0xbe28639e	-0.16444251
228	0xbe371f39	-0.17883004
229	0xbc96dd6b	-0.018416127
230	0x3d671d11	0.056424204
231	0x3d9d6737	0.07685702
232	0x3e18098e	0.14847395
233	0x3caede1f	0.02134615
234	0x3e98517a	0.29749662
235	0xbdec207b	-0.11529633
236	0xbe931671	-0.2872806
237	0xbe3836cf	-0.17989658
238	0x3d3ff812	0.046867438
239	0x3e0b25b2	0.13588598
240	0x3dda9edc	0.10674831
241	0x3e42c0d2	0.19018868
242	0x3d12821a	0.035768606
243	0xbeaf7224	-0.3426677
244	0xbf08f690	-0.53501225
245	0xbe2a295c	-0.1661734
246	0x3e4580a2	0.19287351
247	0x3ebb53e0	0.3658743
248	0x3e7ab4a5	0.24482973
249	0xbc256bdb	-0.0100965155
250	0x3d328dcc	0.04359226
251	0xbd15512f	-0.036454376
252	0x3eabbf76	0.3354451
253	0xbddfda92	-0.10930361
254	0xbeb93014	-0.36169493
255	0xbe5cc334	-0.21558839

conv2T.bias f4 [32]
0	0xbe8f7ec7	-0.2802641
1	0x3e29072e	0.16506645
2	0x3f0335fc	0.5125425
3	0x3cf3f6b2	0.02978072
4	0xbea4a2a0	-0.32155323
5	0xbec9cdc7	-0.39414808
6	0xbe64c358	-0.22340143
7	0xbf11f87e	-0.57019794
8	0xbf326cf6	-0.6969751
9	0xbd61329d	-0.05497991
10	0xbe8beb7a	-0.27328092
11	0xbe858d0b	-0.2608417
12	0xbf3527db	-0.7076394
13	0xbea56c30	-0.32309103
14	0xbdc584ac	-0.09644446
15	0xbf459eb6	-0.771953
16	0x3c452869	0.01203356
17	0xbee3c273	-0.4448429
18	0x3e13fae0	0.1445117
19	0xbeb89ed2	-0.3605867
20	0xbe82c715	-0.25542513
21	0xbf04f782	-0.51940167
22	0xbe4c849b	-0.1997246
23	0xbe77838a	-0.24171272
24	0x3e505be0	0.20347548
25	0xbe3cc534	-0.18434602
26	0xbe444261	-0.19165947
27	0xbec70e63	-0.38878164
28	0xbe92af4a	-0.2864936
29	0x3edfe438	0.43728805
30	0xbf1ead59	-0.6198326
31	0xbdcb142e	-0.09915958
