theta_run_birds_unet/exp_bs2048_files1_tight/conv_autoencoder.pth (torch, 997865 bytes, 19 tensors)

module.conv1.weight f4 [16, 1, 3, 3]
00000000: e64e 863e 6dc3 35be 6713 94be ffb3 24be
00000010: 1b7b f2bc 75f4 833e 3565 673e df4e 8b3e
00000020: 4b90 3fbe 5d17 97be 5df8 bcbd 484f a33d
00000030: cc59 95be 344d 16bd 7035 7f3e 9caf e5bd
00000040: 5a1d 09be 297b 68be 73fe 23bd 1418 173e
00000050: 12df f7bd e4ef 92bd 2013 743e ab00 55be
00000060: 2211 1ebe 8e5c 893e e7d4 8c3e cd17 98be
00000070: cbe9 8e3e 44ba f03d fa6e 48be f2d3 e43c
00000080: 277e fbbd 20ff 763e f54b 9bbe 325f 99be
00000090: f62d 423e 4b19 43be 53af 9f3e 8a85 0d3e
000000a0: 144e f9bc 5f8a 35be 87cc 1d3e e88f 0ebe
000000b0: a782 613e 9cfd 763e cf44 8dbe 801b 893e
000000c0: dac5 87be 54ac 53bb 3377 d73d c251 5bbe
000000d0: d62a babe 68c9 84bd 3395 9cbd be94 7abe
000000e0: d647 993d 0301 46be 2da3 793e 5ab1 5c3e
000000f0: 638e e4bd 6876 a7bc 78a4 a93b 959a aabd
00000100: 49f9 19bd d0ea 7ebd f6c3 613d 6db6 2e3e
00000110: b48a 93be c6d0 813e 66d8 19be dbca 5a3e
00000120: b7fc e6bb 3a4f cfbc ff51 e83d 1719 5dbd
00000130: b8f6 a93d ff5d 58bd 70bc 913d b568 5a3e
00000140: 6828 413e a9ed 16bd 9eab 4fbd c24a 213c
00000150: f76c 7b3d 9c2f a0bd f364 5b3d 6ea6 32be
00000160: 7e85 85be 0c08 6a3e a88b ea3d 26c8 423d
00000170: c1c1 67be 9ac1 96be 06b9 8a3e 800e 78be
00000180: 4703 c4bc 5fc4 043e a55a 413d 66ef 8f3e
00000190: 1b63 bf3d 777b 553e 5158 a6be 0add de3d
000001a0: 7291 9dbe df74 a1be a71d 713e fc88 d0bc
000001b0: e8db dfbb eb25 8bbe dc40 2bbe dd75 4bbd
000001c0: dbc1 053c 6533 9f3e 9c66 5fbe 0c4d eebd
000001d0: 3856 2bbe 5658 073e bfaf 8ebe ef5e 8abe
000001e0: 856c b33d 084e 663d 443f f2bd 8acb 5a3e
000001f0: 8564 6fbe d7d7 0b3c b00a 84be 83e2 2e3e
00000200: 1bde 2dbd 9d58 0d3d 956d 8c3e a274 9f3d
00000210: de18 78bd 70db fcbd ddf5 01bd c3bf 423d
00000220: b438 443e 26b4 333e 57eb 73bd 3e2e e1bd
00000230: d65b c93d 349c 013e 58ec 34be 8bd6 313e
0.2623207 -0.1775033 -0.28921053 -0.16084288 -0.029599717 0.25772443 0.22597201 0.2720861
-0.18707387 -0.29510012 -0.09227059 0.07974106 -0.29170072 -0.03669472 0.24922729 -0.112151355
-0.13390103 -0.22703232 -0.040037584 0.14755279 -0.12103094 -0.07174662 0.2383542 -0.20801036
-0.15436223 0.26828426 0.27506182 -0.2970566 0.27912745 0.11754277 -0.19573584 0.027933095
-0.12279921 0.2412076 -0.30331388 -0.2995544 0.18962845 -0.19052617 0.3118845 0.13820472
-0.030432738 -0.17728566 0.15410052 -0.13922083 0.22022496 0.24120182 -0.2759156 0.26778793
-0.26518136 -0.003229876 0.10520782 -0.21417907 -0.36360806 -0.06483728 -0.07645645 -0.24470803
0.07484405 -0.19336323 0.24378653 0.21552029 -0.111599706 -0.020442203 0.005177077 -0.083302654
-0.037591252 -0.062235653 0.055118524 0.17061777 -0.2881676 0.25354594 -0.15023956 0.21366446
-0.007049169 -0.025306333 0.113437645 -0.053979006 0.08299011 -0.052824017 0.0711602 0.21329005
0.1886307 -0.036847744 -0.050700776 0.009844484 0.061383214 -0.07821581 0.05356307 -0.174463
-0.2607841 0.22854632 0.114524186 0.047554158 -0.22632505 -0.2944458 0.27094287 -0.24224281
-0.023927344 0.12965535 0.047205586 0.28112334 0.09345075 0.2084788 -0.32489255 0.108820036
-0.30775028 -0.31534478 0.23546468 -0.025455944 -0.006831635 -0.27177367 -0.1672396 -0.04967295
0.0081638945 0.31093898 -0.21816486 -0.11635789 -0.16732109 0.13217291 -0.2786846 -0.27025554
0.08760933 0.05622676 -0.11828473 0.21366706 -0.23378189 0.008535347 -0.25789404 0.17078595
-0.042448144 0.034508336 0.27427354 0.07785918 -0.06057059 -0.12346542 -0.031728614 0.04754616
0.19162256 0.1754919 -0.05955061 -0.10995148 0.098319694 0.12657243 -0.17668283 0.17366998

module.conv1.bias f4 [16]
00000000: c864 9cbe 2f21 103e 298e b9be 7977 bdbe
00000010: ad67 a0be 4f40 a53a 11e4 89bd 5234 d43d
00000020: 2f00 8fbe ef72 9dbe d3c5 66bd 8cd4 243e
00000030: 58d4 413e 5cf1 56bd 3233 183e eb93 6c3e
-0.3054564 0.14075159 -0.36241272 -0.37005213 -0.31329098 0.0012607666 -0.06732953 0.10361542
-0.27929828 -0.3075175 -0.056341004 0.16096705 0.18928659 -0.052476272 0.1486328 0.23103301

module.conv2.weight f4 [32, 16, 3, 3]
00000000: 3d70 30bc 41bb 29bd e5f1 923d 7f1a ba3c
00000010: 9270 a9bd d1b9 d8bc 2cde 6abd 03ac 153d
00000020: a2a8 97bc 3027 eabb 1eef a7bc 13a5 33bd
00000030: 1429 a8bc 3bf7 afbd 1e6d 4cbb 83a2 64bd
00000040: 5e24 753b 8e43 d13c 9338 adbc 111d 7e3d
00000050: f5f9 5cbc bfd6 853d 3956 cfbc e966 903d
00000060: 1ba7 cfbc d6f3 1cbd 3c74 923d e7dd 413c
00000070: 8ea0 943d 6961 44bd a361 3fbd f075 ca3c
00000080: c68f 333d ee2a bfbb b3fa 1f3d 2111 a13b
00000090: 04e7 5ebc 5d11 84bd 6154 02bd d257 6a3d
000000a0: 1799 81bd 5b7c e0bc 76af 19bd 0a33 353d
000000b0: ab25 64bc 9e55 9f3d c3d8 70bd 4be9 023c
000000c0: dc3f b6bd 0986 713d ee6d c23c 721c e03c
000000d0: 1f95 bb3d d9ac fe3b f36f 443c f115 403d
000000e0: d406 f8bc b5c6 f63c f70b ed3c 253c 103d
000000f0: 7dfd c8bc 95a8 71bd a7b7 e0bc cec5 6c3d
00000100: f448 763d 348f 3b3c b7e8 993c d92b f13c
00000110: e62c 653d dea3 88bd c6c4 a0bd 6678 bb3d
00000120: 181d 7bbd c46d c1bc 8c5e 903d 03a1 5fbc
00000130: bd5c 033c 528c 963d b3c1 7b3d aa04 b7bb
00000140: 3488 d93c d071 8a3d f6c1 7c3d 5374 94bd
00000150: 6afb c83c aef8 b13c f038 b0bd f9f7 703d
00000160: f073 0ebd 7d2e bcbc dbcb 983d 0fcf 8cbd
00000170: 8a1c 373d 7010 06bd 8d45 37bc 9efb 723d
00000180: f90b 003d 1f37 5dbb cbf5 803d c5e7 6fbc
00000190: 942c 9c3d 35af 9b3d 3f90 54bd fc1c 92bd
000001a0: ba5e e5bc 554f d83b 3650 a83d b004 74bc
000001b0: 0545 27bc 79fa c33c 5124 bfbd 3c0b 223d
000001c0: 49c4 84bc ef2b 1cbc cba9 d3bb 36f8 433d
000001d0: 1226 b73c a866 dc3b a7cf 84bb d529 1bbd
000001e0: d0a2 64bd 821b b93b 76fb 11bc 737e 8abd
000001f0: 4738 b1bc 07ae 1b3d 22e4 bbbb 0eab 6bbd
00000200: 64ae a03d 036a 323d ec1c 9a3d 9afd 21bd
00000210: 1e34 cbbc ae31 db3c 6832 0c3d 6da4 68bd
00000220: e2c5 6dbb 6a67 27bd dc3d b73c 2437 a4bc
00000230: e17a aebd e8f4 0d3b 7fd9 20bd 908d 7d3d
00000240: 6492 e93c ebac 8ebd ccb2 36bc 6270 323c
00000250: ed69 45bd b68c 71bd 54a0 283c cbe7 ee3c
00000260: df84 893d 11bf 213c 2722 ef3b 112f 0ebd
00000270: c40a 92bb cd70 673d 744c 04bd 26e4 5c3c
00000280: eea0 9fbc 4865 cd3c 22b3 70bd 8ce6 13bd
00000290: 64c0 b5bc 8f7f 6ebd ff7d 8a3d ced2 143d
000002a0: 044e edbb 2adb 74bd 6b30 acbc 05a7 e3bc
000002b0: f39d c8bc 7a35 a83d 1897 b1bb 7053 4ebd
000002c0: 7c72 343d a6a1 403a d2bc 553d 50e9 e93c
000002d0: f0e9 ddbc eb24 1dbb 56e5 f5bb 45d5 743d
000002e0: 80a8 86bc ceec 11bd 35a2 893d ab11 553d
000002f0: c08c 503d a6f5 163d 4339 823d 6723 903d
00000300: d5e4 a93c a61a 91bc 0d26 8cbd 6313 503d
00000310: fcc0 a63d 44fb 8cbc 0599 41bc 0791 4f3d
00000320: 66bf 47bd 2767 74bd 9474 efbb 18fd 66bd
00000330: 8e30 97bd 2d94 49bd 6061 30bd daa9 593d
00000340: f047 d73c fd7e aa3d 35f0 e43b faf6 d3bc
00000350: 0ae8 ad3c ac83 883d 4ce8 1b3d 6087 c13c
00000360: d8e0 733c 6869 5a3d d3d2 27bd 51cd 94bc
00000370: 0e6b 56bb bdfd 3f3d cf5e 273c 4e09 8d3d
00000380: cfc8 cd3b c9c9 ae3d 63a7 e8bb cfd8 c3bc
00000390: d8a8 623d 9bdc 83bc ac54 b23d ee11 23bc
000003a0: 8a65 813c 325e 16bd 10f7 8b3d a112 7f3d
000003b0: ad1b 8d3d 2473 58bd d33d 873d dd6f 343d
000003c0: 5bbb 8fbd d065 8f3b 4022 4f3d c9a1 3cbc
000003d0: b34a 99bb 9366 15bd b6fe a43d 105d 033d
000003e0: 4859 553b ff9c 93bc 1200 1e3d dd09 acbd
000003f0: d862 98bc 9f2b 113d 1fc4 8a3d 552c 8f3d
-0.010768947 -0.041438345 0.07175044 0.022717712 -0.08273424 -0.026455792 -0.057340786 0.036540996
-0.018513028 -0.007145785 -0.020499762 -0.0438586 -0.0205274 -0.08592077 -0.0031192969 -0.055819046
0.003740571 0.025544908 -0.02114514 0.06203944 -0.013487329 0.065351 -0.025309669 0.070508786
-0.025348237 -0.038318478 0.07151076 0.011832691 0.07257186 -0.04794446 -0.046723973 0.02471444
0.043838285 -0.005833975 0.039057445 0.004915372 -0.013604883 -0.06448624 -0.03181875 0.05721266
-0.06328028 -0.027403047 -0.03752085 0.044238128 -0.013924996 0.07780002 -0.05880047 0.007990192
-0.08898899 0.058965717 0.02373406 0.027357314 0.09159302 0.00777207 0.011989581 0.046895925
-0.030276693 0.030124048 0.02893637 0.03521361 -0.024534935 -0.058998663 -0.027431322 0.05780583
0.060128167 0.0114477165 0.018787725 0.029439854 0.05595102 -0.0667188 -0.078500316 0.091538236
-0.061307043 -0.02361191 0.070492834 -0.013649228 0.008017716 0.07350983 0.061464023 -0.005585273
0.026554205 0.06759989 0.061708413 -0.072487496 0.024533946 0.021725025 -0.0860461 0.058830235
-0.034778535 -0.022971386 0.07460757 -0.06875431 0.04470495 -0.03273052 -0.011186016 0.059321992
0.031261418 -0.0033754779 0.06296881 -0.0146426605 0.0762569 0.076017775 -0.051895376 -0.071344346
-0.02799927 0.006601254 0.08218424 -0.014893696 -0.010209327 0.023923146 -0.09333099 0.039561495
-0.016206877 -0.009531959 -0.00645945 0.047844134 0.02235702 0.0067261048 -0.0040530744 -0.03788169
-0.055819333 0.005649031 -0.008910051 -0.067623995 -0.02163328 0.038007762 -0.0057339827 -0.057536177
0.07845762 0.043558132 0.07525048 -0.039548494 -0.024805125 0.026757088 0.03422776 -0.056797434
-0.0036281277 -0.040870108 0.022368364 -0.020045824 -0.08519531 0.0021660868 -0.03926992 0.061902583
0.028512187 -0.06966575 -0.011151027 0.010891052 -0.04819672 -0.058972083 0.010292131 0.029163262
0.06714796 0.009872214 0.0072977724 -0.034712855 -0.00445685 0.05650406 -0.032299474 0.013482129
-0.019485917 0.025072709 -0.058764584 -0.03610854 -0.022186466 -0.058227118 0.06762313 0.03633385
-0.007241966 -0.059779324 -0.021019181 -0.027789602 -0.024489379 0.08213325 -0.005419623 -0.05037254
0.044054493 0.0007348306 0.052182026 0.028553635 -0.02708909 -0.0023978304 -0.0075041456 0.059773702
-0.016437769 -0.035626225 0.06720392 0.052018803 0.05091548 0.036855362 0.06358578 0.070380025
0.020738998 -0.017712902 -0.06843195 0.05079974 0.081422776 -0.017209657 -0.011816268 0.05067542
-0.048766516 -0.059668686 -0.0073075984 -0.056393713 -0.07382308 -0.049213577 -0.043061614 0.0531405
0.02627942 0.08325002 0.0069866427 -0.025874604 0.021228809 0.066657394 0.038063332 0.023624122
0.01488515 0.05332318 -0.040972542 -0.018164309 -0.0032717618 0.046872843 0.010215475 0.0688654
0.0062800418 0.08534581 -0.007100032 -0.023907093 0.055336803 -0.016096404 0.08707556 -0.009953005
0.015795488 -0.036710925 0.06834233 0.062273625 0.06890044 -0.05284418 0.06603589 0.044051994
-0.07018157 0.0043761507 0.050569773 -0.011513182 -0.0046780943 -0.036474776 0.08056395 0.032071173
0.0032554436 -0.018019198 0.038574286 -0.08400319 -0.01860182 0.03544199 0.067756884 0.069908775

module.conv2.bias f4 [32]
00000000: 54b1 5c3c f9ef 803d 15ab 013d 6972 13bd
00000010: 58f4 b0bd 9fd3 bebd 6055 b23d d8a7 02be
00000020: ecd1 b73d 7e17 b23d e2f4 d2bd 6dd6 e7bd
00000030: 0217 c6bd 6a7f ebbd 2405 57bd 12b2 a2bd
00000040: 60ae 073d 2f98 853d d177 c8bb a661 7e3d
00000050: c0ef 82bd 4eaa 7a3d 4f69 bdbd 2fa7 0abe
00000060: 9c25 78bd 5b68 753d dbc7 373c 6a24 d7bd
00000070: 48fd b83c c9e8 be3d ad93 d8bc 10be a03c
0.013470013 0.06295771 0.031657297 -0.035997782 -0.08640355 -0.09317707 0.0870769 -0.1275934
0.08975586 0.08695887 -0.10300614 -0.11320195 -0.09672357 -0.11498912 -0.052495137 -0.079441205
0.03312528 0.06523167 -0.006117799 0.062104844 -0.06393385 0.06119757 -0.09248602 -0.13540338
-0.060582742 0.059913974 0.011217083 -0.10504992 0.022581711 0.09321744 -0.026437605 0.019621879

module.conv3.weight f4 [64, 32, 3, 3]
00000000: ef2a 85bc 5d92 39bd 6833 fdbc 56c2 323c
00000010: 0b1d bc3b b5f0 043d f1de 1c3b 7bb1 50bd
00000020: 505b b53c a1af cd3c 0588 be3c e346 88bc
00000030: ec64 18bd 4506 f13b 88c1 2fbd f164 69bd
00000040: 8580 d73a fe8c ffbc 06c3 173d 9e93 233d
00000050: beff 8bbc ef93 9fbc fd6b 0cbd 766f 353c
00000060: c15b e7bc f848 d13c 22cc 013d b1ee 07bd
00000070: ba04 203b 3bd0 393d 9098 27bd f206 e2bc
00000080: 5c3b 953c c018 82bc 26b0 1a3d 34a9 2a3b
00000090: b230 55bd 9fe7 bcbc 25af 3d3c 0fec 5bbd
000000a0: f4cd 5b3c 80ff 1cbd 2377 18bc 545e 24bd
000000b0: 98f2 d03c aa53 44bd cf91 2dbd a9ea 3f3d
000000c0: a3ce 3d3d 0392 1bbd 5f89 03bc c6bd 433d
000000d0: d2fe 6ebd 8854 2a3d 897d d1bc 4f40 c9bc
000000e0: bf0d 8f3b 0405 433d 1c8e 803d 5371 33bc
000000f0: b28b 773d 5b9d 123d 151e 7fbc 4211 4abc
00000100: 7b45 babc 223b 32bd 1282 06bd c478 343d
00000110: bac0 13bd fcc2 1e3d 82b1 463d d191 debc
00000120: e685 0dbd 4ac5 ce3b ddd3 1dbd 7e3c 6a3b
00000130: 05f0 ca3c 9187 5d3d e7a0 403c efc9 dc3c
00000140: 2713 8f3c 3316 833c 986e 033d 32e5 193d
00000150: f2c7 99bc 5ed7 dabc 1166 45bb 53f0 d53c
00000160: 32fa 4abd bec5 233d 8bac 28bd 3b9b 113d
00000170: a2a4 b5bc bf65 49bd f59d ea39 8be8 f13b
00000180: 2d8b 5abd 484c 2c3d 18c3 5e3a c151 abbc
00000190: 9f5c 573d a060 d73c a40b 86bc 1bc2 103d
000001a0: bb4b 6c3d 163f 503c 508e bfbc fe7d 9bbc
000001b0: 1caa 91bc 2b66 ad3c ad8d 24bd 4c7b efbc
000001c0: f0ff 0d3d 39b6 5ebd 5d7f 68bc 1bf2 983c
000001d0: b9c5 14bd 1396 29bc 507e 95bc ac8f 373d
000001e0: 7a24 483d 486a b53c d7cd 64bc 982d 4bbd
000001f0: 1177 0d3c 18ab 1ebd e5ad 363d 590d 2a3b
00000200: 720d 03bc 3548 653d 1600 be3b 1911 613c
00000210: 5548 cd3a 2d3d 7fbc 0104 a7bc e186 24bd
00000220: 77e3 673c e6cd 973b 3215 42bd 4753 23bd
00000230: 4bf5 bf3b 2124 6ebd 77a7 59bd 86f4 1b3b
00000240: 4144 fb3c a6ea c73b 6672 133d 589f 42bd
00000250: acce eabc 03d9 40bd 669e e43c 2ec8 62bd
00000260: 0265 593d 62ad 2bbd 900e 6a3c a4b3 963c
00000270: 8d2c 7d3c f106 db3c 1ae1 5e3d 2d24 af3c
00000280: 6b6d 673b 09f5 be3c 1d5a 65bd 2960 923b
00000290: a604 343d d742 9abb 15c1 cd3c 5866 223d
000002a0: 2375 4fbd 3d40 98bc 2004 2cba 70f1 223a
000002b0: 31a0 ecbb ec29 5c3d 1691 0c3d fd36 7cbd
000002c0: 038e b83c 704e f13c 9f99 3dbc 0b17 983c
000002d0: 6d81 5abd 1544 2e3d 7c86 323d a386 db3c
000002e0: 9f92 21bd cc78 0ebd 80b6 79bd 7197 48bd
000002f0: 80a0 fabc d3f3 fcbb 03a5 1cbd 4f78 4f3d
00000300: 9e1d 013d 10a2 973c 4a4c 9b3a a4c8 b53c
00000310: e765 78b7 3f88 a73c 5c2d 0b3d 7e9d 60bd
00000320: 432f 3a3d b455 03bd 2aca b5bc 771b 6fbd
00000330: 97f1 83ba 8611 513d 5e5a 283d f4da 3a3d
00000340: 13b1 49bd 4bef 54bd ef0d 313d f83b 333d
00000350: acde 8dbc 40be 123d 677c 0abd 7190 28bd
00000360: 854d c43c a999 9abc 8cc8 1dbd 54df 6bbd
00000370: b323 bb3c 52c6 9aba d479 d13c 253f 893c
00000380: a7be 01bd 5001 9c3c 8750 1f3c 3787 0cbd
00000390: 0a2f 603b a8a0 323d cf72 263b e549 17bb
000003a0: 5e23 e83a 6abc dbbc 7b6a 653d 668f 49bd
000003b0: 0063 1cbd f91d 5fbc 6a75 56ba 52dc e0bc
000003c0: 3260 563d d962 663c e346 713c 15af 523d
000003d0: 1b07 5dbc ad82 cd3c ae0b bdbb 8d69 e4bc
000003e0: e5a8 dfbc 5637 613d 344c 293d a438 64bd
000003f0: 3a6a 8b3c 34b6 663d 6302 b53c c01e b63c
-0.016255824 -0.0453056 -0.030908301 0.010910591 0.005740767 0.03245612 0.0023936594 -0.05095051
0.022138268 0.02510816 0.023258219 -0.016635364 -0.03720562 0.0073554837 -0.042909175 -0.05698103
0.00164415 -0.03119516 0.037051223 0.0399357 -0.01708972 -0.01947972 -0.034282673 0.011073938
-0.028241994 0.02554749 0.031688817 -0.03318662 0.002441688 0.0453646 -0.04091698 -0.027591202
0.018216781 -0.015880942 0.037765644 0.0026040794 -0.052048393 -0.023059664 0.011577402 -0.05369192
0.013415802 -0.0383296 -0.009305748 -0.04012902 0.025506303 -0.04793135 -0.042375382 0.04685465
0.046339642 -0.037981045 -0.008028357 0.047788404 -0.058348484 0.04158452 -0.025572555 -0.024566798
0.0043656523 0.047612205 0.06277105 -0.010952312 0.06043596 0.035794597 -0.015571137 -0.012333216
-0.022738209 -0.043513425 -0.03283889 0.044060484 -0.03607247 0.03876017 0.04850913 -0.02716914
-0.034551524 0.00631014 -0.038532127 0.0035741623 0.024772653 0.054084364 0.011757112 0.026951758
0.017465187 0.016001796 0.032087892 0.037572093 -0.0187721 -0.026714023 -0.003012065 0.026115572
-0.04955501 0.039983504 -0.041180175 0.03554843 -0.02217323 -0.0491693 0.00044749645 0.0073824576
-0.053355385 0.042064935 0.0008497699 -0.020913007 0.052578565 0.026291192 -0.016362973 0.035341363
0.05768941 0.012710353 -0.02338329 -0.018980976 -0.01778131 0.021166882 -0.040174175 -0.029233597
0.03466791 -0.054373 -0.014190522 0.018670132 -0.036321376 -0.010350722 -0.018248707 0.04481475
0.04886291 0.022145405 -0.013965092 -0.04960403 0.008634345 -0.038737386 0.044599432 0.0025947897
-0.007998811 0.055977065 0.00579835 0.013736987 0.0015661815 -0.01557855 -0.020387651 -0.040167693
0.014153353 0.0046326993 -0.047383495 -0.03987434 0.0058580986 -0.058139924 -0.053138223 0.002379687
0.030672194 0.0061009703 0.03599777 -0.047515243 -0.028663002 -0.04708196 0.027907562 -0.055366687
0.053074844 -0.041913398 0.0142856985 0.018396206 0.015452516 0.026736708 0.054413892 0.021379555
0.003531302 0.023310201 -0.05599414 0.0044670296 0.043949746 -0.004707675 0.025116483 0.039648384
-0.05064882 -0.018585319 -0.0006561894 0.00062157866 -0.0072212447 0.053750917 0.034318052 -0.06157588
0.022528654 0.029456347 -0.011572271 0.018565675 -0.053346086 0.042545397 0.043585286 0.026797598
-0.03944647 -0.03478317 -0.06096506 -0.04897255 -0.03059411 -0.007719496 -0.038243305 0.050651845
0.031522386 0.018509895 0.0011848297 0.0221904 -1.4805678e-05 0.02045071 0.033978805 -0.054837696
0.04545523 -0.032064155 -0.022191126 -0.058375802 -0.0010066506 0.051042102 0.041101806 0.045618966
-0.049241137 -0.05198602 0.04322618 0.043758363 -0.017318092 0.035825968 -0.033810046 -0.041153375
0.023962745 -0.018872099 -0.038521335 -0.05758603 0.022844171 -0.0011808372 0.025570787 0.016753742
-0.03167596 0.019043595 0.009723789 -0.03430864 0.0034207725 0.043610245 0.002539802 -0.0023084816
0.0017710736 -0.026823241 0.05600975 -0.04920902 -0.03818035 -0.013617986 -0.0008180948 -0.027448807
0.052337833 0.014061653 0.014726373 0.051436502 -0.013490464 0.025086725 -0.0057692146 -0.027882362
-0.027302215 0.054984413 0.04133244 -0.05571808 0.017018426 0.056326106 0.022095865 0.02223146

module.conv3.bias f4 [64]
00000000: b587 a53d 0141 8a3c 3356 c0bd 157d adbd
00000010: 8984 903d fce4 50bc 8d37 70bd 7818 53bc
00000020: ae1f 183d d1f8 2ebd 2165 bebd 16d2 823c
00000030: 407d f13a a9bb 6a3d 3293 8abd 0f41 b5ba
00000040: e2a5 b4bd b433 92bc 4428 28bd 0750 3abd
00000050: 2d8e 833d 41f4 68bd fc36 1d3d cca8 36bd
00000060: 34a4 b4bd b354 7dbd 046f c3bd 47f0 41bd
00000070: 30b4 ad3d 668d aabd 64c2 d4bc be20 3e3c
00000080: c201 743d 4aa4 1dbd 748c dd3c d3da 6e3d
00000090: cde0 773d d3e6 cabd 5b43 663d 9683 213d
000000a0: 94dd 51bd 077f 713d 8d47 0f3c c21e a0bd
000000b0: 266b a2bd 1e45 e3bc d18a 9b3d 85b2 623d
000000c0: 84a3 94bc 8b85 a8bd aca5 8abd a0fa 073b
000000d0: 5e08 493b a40c b03b 3222 92bd 51bf cb3c
000000e0: 290f 8a3d a785 9bbd 8c95 43bd 1eef 03bd
000000f0: 0674 84bd 712d 52bd 311f b8bd 830c 6abd
0.08082525 0.0168767 -0.09391441 -0.08471123 0.07056529 -0.012749907 -0.058646727 -0.012884252
0.037139587 -0.04271776 -0.092966326 0.015969317 0.0018424168 0.057307873 -0.067663565 -0.0013828593
-0.08820702 -0.01784692 -0.041054025 -0.045486476 0.06423602 -0.056873564 0.038382515 -0.04459457
-0.08820382 -0.061848354 -0.09542659 -0.047348287 0.08481634 -0.08327751 -0.025971599 0.011604486
0.05957199 -0.038486756 0.027044512 0.058314156 0.06051712 -0.099073075 0.05621658 0.03943213
-0.051236704 0.058959033 0.008745086 -0.078183666 -0.07930593 -0.027742919 0.075948365 0.05534603
-0.018144377 -0.08228596 -0.06769881 0.002074875 0.0030675153 0.0053726006 -0.071354285 0.0248715
0.06741173 -0.075938515 -0.04775004 -0.03221046 -0.06467442 -0.051312868 -0.08990324 -0.05714084

module.conv4.weight f4 [128, 64, 3, 3]
00000000: caba 0b3c 45f3 443d 1f69 d6bc e053 0c3d
00000010: a379 253c ba93 dfbb 7abf 533c 5019 183c
00000020: 1322 d7ba 3cdd 4dbb 78d7 1cbd 41d8 2a3d
00000030: 493f fa3c 2e57 0dbc 0edc b7bb 0b6e 9c3b
00000040: 03c2 09bb 9e45 1fbd a0d2 a4bc cd20 a1bc
00000050: 9096 2ebc 0b35 b3bc a287 aa3c 3d77 a33c
00000060: e622 ffbc 288e 65bc ada0 07bd 24ca 9fbc
00000070: 0afe 9d3c 0eed fcbc c064 33bd 7690 a7bc
00000080: 7400 66ba bb5d 94bb ea67 023d c283 543c
00000090: eed6 873c 59ed 0cbd c642 d5bb 229c f93c
000000a0: 3596 9d3c cec6 53bc 080d 6bbc 1d8a a5bb
000000b0: 84fe adbc 78b2 ed39 2269 42ba 1cde eebc
000000c0: 4624 743b 8079 99bc 8b82 51bc 27eb 5dbd
000000d0: aff5 abbc 2273 d9bc 55d8 c9b9 4f2d 43bb
000000e0: bfdc 07bd ba96 003c e90a 2ebd 0c2c 71bc
000000f0: 6b19 14bd b99b 693c 8972 e03c 0a63 013c
00000100: 5fec a1bc 0474 a23c fe61 1abd 19bf 973b
00000110: f539 92bc 01bb fb3b e442 963b 0dfc 113c
00000120: d77e f93c d1e4 b5bc 726f f03b d0d9 0fbd
00000130: 6aff e2bc f719 c5bc 0c41 373c 6402 36bc
00000140: 7d9b 8dbc 75e7 e43c 4714 123d 93d3 fd3c
00000150: 769c 91bc 5fcc 1bbd 5260 e039 d264 90bc
00000160: 82ef 16bd 36a7 35bd 999e 48bd f8aa b63c
00000170: 743e 893c 3838 1dbd 351c 4f3a 33a6 87bc
00000180: 8a4c 98bb 0bf5 3fbd 028d 143a c1bf 0abc
00000190: e498 623c e730 b23c 7a36 c23c 91bc ac3b
000001a0: ceac af3c e7ee ad3b d4b8 43bd 4dd3 96bb
000001b0: 6a6c 8d3c 7658 c3bb a16d 08bd 1bc4 30bc
000001c0: ff94 15bd a48a 1d3d 4e80 7abd 3719 6bbd
000001d0: b788 25bd cc9c 9a3c 5ca8 b23c 2992 663c
000001e0: a375 d73b da39 2b3c b68b 213c fdcf 64bc
000001f0: dc6b f8bc c3f8 e8ba 20d2 56bd 05c5 493c
00000200: bcb6 0ebc 94ed 233c 1901 f5bc aa14 b8bb
00000210: 7c70 93bc be65 583c f5a4 1c3d 5297 14ba
00000220: c2e5 b5bb 140c 1bbd f35a 203c f7c3 313c
00000230: c3b7 8bbb 432a d13c b3cc 1bbd e595 db3b
00000240: 7cc7 853c 3c42 1abc 2aba 913c 30cf 1cbd
00000250: 7b38 843c e003 fb3b 338c 1fbd 3312 053a
00000260: db28 cebc a2dc febc f175 efbb f341 363d
00000270: 27a5 a4bc 2afd 003d 4d22 23bd 0897 903c
00000280: fc6b d2bc 4648 25bc 7b6b 14bd e38c 043c
00000290: 6eaa 933c b3f1 d1bb 3525 c3bc be7e cbbb
000002a0: 80ad 3abc c3de df3c 7c05 e5bb 7f4c d0bc
000002b0: 882d 1bbd c4cc dfbc b2ca 21bc 24bc 803c
000002c0: b936 353b ea6d 833c 8dd2 4cbd 483c 943c
000002d0: a46e a53c 8a73 533c fc08 883c 2594 cabb
000002e0: a7af 2a3c b07c 123d fde5 f53c 09d7 293c
000002f0: 1601 2c3b a96a 583c 1684 ac3c 2461 b2bb
00000300: e227 64bc bf33 48bc 1ada 5dbc 8bf2 a73c
00000310: 991c 8ebc 4239 fa3b 89f1 063d fda3 233c
00000320: 5786 203d f1c2 c0bc 2453 073d c312 563d
00000330: ebdd b6bc 4261 483d ecf0 bcbb 5c48 4f3c
00000340: 7954 ec3c b345 9e3c 045f 123d 0661 2dbd
00000350: b8bf 3f3b 0aa4 e03c 48b8 aebc 40b7 cebc
00000360: ae77 b93c 44af a23c b471 efbc 0cb0 68bc
00000370: 7ff5 343c 0aa6 0c3d f222 c03c bf49 6bbd
00000380: f923 27bc 2872 243c 4be2 833b 78ea 97bc
00000390: f69a 3dbc a769 d0bc 0e86 b9bb cb34 02bd
000003a0: a9bd 1ebd 8307 efbb 4836 d8bb d98b cabc
000003b0: c512 153d ce86 833c a9fe 2dbd 6cc5 1dbb
000003c0: 0e5b cebc 6e2f b2bc bbf9 a6bc dd20 0f3c
000003d0: 05ee f4bc 8330 7dbc 84e5 023d 8a1d 93bb
000003e0: cb05 8cbc 8ed2 a03c 38fa be3c 27d4 0dbd
000003f0: c56c f73b d837 f2b8 6cb9 193c 833c c73c
0.008528421 0.048083562 -0.026173173 0.034259677 0.010099801 -0.0068230303 0.01292407 0.009283379
-0.0016413353 -0.0031412384 -0.038291425 0.041710142 0.030547755 -0.008626742 -0.0056109494 0.0047738603
-0.002102018 -0.03888475 -0.020119965 -0.019668961 -0.010656014 -0.021875879 0.020816628 0.019954318
-0.03114457 -0.0140109435 -0.033112217 -0.019505568 0.019286174 -0.030874755 -0.043797255 -0.020454627
-0.0008773871 -0.004527775 0.03183738 0.012970867 0.016581979 -0.03440604 -0.006508204 0.030469958
0.019236663 -0.012925817 -0.014346369 -0.005051865 -0.021239527 0.00045337132 -0.00074161787 -0.029158644
0.0037253066 -0.018734694 -0.0127874715 -0.054179337 -0.020991175 -0.026544157 -0.00038498887 -0.0029781645
-0.033169504 0.007848436 -0.042490873 -0.014719974 -0.036157053 0.014258319 0.027398365 0.007897148
-0.01976603 0.019830711 -0.03769111 0.004630935 -0.017849902 0.0076822047 0.0045856107 0.008910191
0.03045599 -0.022203835 0.007337504 -0.03511983 -0.027709682 -0.024060233 0.011184942 -0.011108968
-0.017286057 0.027942399 0.03566387 0.030984676 -0.017774802 -0.0380367 0.00042796374 -0.0176262
-0.036849506 -0.044348918 -0.048979376 0.022298321 0.016753413 -0.038383693 0.00079006265 -0.016558742
-0.004647796 -0.04686455 0.0005666764 -0.008468569 0.013830397 0.021751834 0.023707617 0.0052715023
0.021444704 0.0053080204 -0.047783688 -0.0046028257 0.01726361 -0.005961473 -0.033307675 -0.010788943
-0.036519047 0.038462296 -0.061157517 -0.057397094 -0.040413585 0.018873595 0.021808796 0.014072933
0.0065753027 0.010450805 0.00985997 -0.013965604 -0.030324869 -0.0017774332 -0.052446485 0.0123150395
-0.008710559 0.0100053735 -0.02990775 -0.0056176977 -0.017997973 0.013207851 0.038243253 -0.00056683004
-0.005551071 -0.037853315 0.009787309 0.010849944 -0.0042638495 0.025532847 -0.038037013 0.0067012184
0.016330473 -0.009415206 0.017788965 -0.038283527 0.016140213 0.007660374 -0.038952064 0.0005076259
-0.025165966 -0.031111065 -0.007307761 0.044496488 -0.020098282 0.031491436 -0.039827634 0.017650142
-0.025686257 -0.010088032 -0.036235314 0.008090231 0.018025603 -0.0064069866 -0.023821453 -0.006210177
-0.011393905 0.0273279 -0.006989179 -0.025427101 -0.03788522 -0.02731932 -0.0098749865 0.015714712
0.0027651025 0.016043622 -0.050005484 0.01809515 0.02019436 0.012905965 0.016605847 -0.006182211
0.010417855 0.035763443 0.030016894 0.01036621 0.0026245764 0.0132090235 0.021059077 -0.005443709
-0.013925524 -0.0122193685 -0.013540769 0.020501396 -0.01734762 0.00763622 0.03294519 0.009987828
0.039190616 -0.023530455 0.033038273 0.052263986 -0.022322616 0.048920877 -0.005766025 0.012651529
0.028848873 0.019320345 0.035735145 -0.042328857 0.002925856 0.02742197 -0.021328107 -0.025233865
0.022640076 0.019858964 -0.029229023 -0.014202129 0.011044859 0.034338035 0.023454163 -0.057443377
-0.010201448 0.010036983 0.004024779 -0.01854442 -0.01157259 -0.025441004 -0.0056617325 -0.03178863
-0.038755093 -0.0072945966 -0.0065982677 -0.024724888 0.036394853 0.01605549 -0.04247919 -0.0024073971
-0.025189903 -0.021751132 -0.020382753 0.008735863 -0.029898653 -0.015453461 0.031957164 -0.0044896053
-0.017092606 0.01963165 0.023312673 -0.034626152 0.007550808 -0.00011549861 0.009382587 0.024320846

module.conv4.bias f4 [128]
00000000: 1264 163d b2e6 84bd 89d6 6b3d 05a9 cabc
00000010: 37f8 a9bd c451 2bbd 6e98 293d 9cfc 733d
00000020: 97c1 8e3c 19d3 983b da91 3c3d aa5a aabd
00000030: 2246 3e3d 68d0 833d bd1f 6f3c abfc 4abd
00000040: 0703 ff3c 8c68 5e3d 0a3a 813c c37c b0bc
00000050: 055c fd3c 0535 33bc cc5b 303c 91d1 7ebd
00000060: 66e2 1bbd aeeb 8f3d 8396 823c e8fc 62bd
00000070: 9724 903d b64c 70bd eb11 9ebd ab13 85bd
00000080: 5836 1d3d 33e2 8b3d 34d4 6a3d c811 b93c
00000090: e8d9 153d 668b fa3c 7cb5 80bd e7c7 2b3d
000000a0: 30b0 9abd af8b 48bc 2919 563d 123d e6bd
000000b0: 77d0 4f3d 9fd6 ebbc f25f 80bd d1b0 853d
000000c0: 5593 903c 0a75 8c3d f6bd c03c 9ee5 1b3d
000000d0: e9ab 3dbd 4d7f 30bb 85c8 d93c eebb 353d
000000e0: c965 48bd 36cd 9e3c 3c12 813d 92f1 4c3d
000000f0: 93b1 5fbd ca31 b1bd 1d3c 01bd ad73 1fbd
00000100: b621 b8ba d20a fb3c 441f 3c3d 0a53 bc3c
00000110: 44d9 90bc 71fe 9bbd 6bbe 533c 4b05 153d
00000120: c44f cfbc 5699 2c3d a2fe 743c a085 e33c
00000130: 089c df3b 8301 40bd 033e 533d 1084 1c3d
00000140: 2ab5 03bd 20e1 b4bd 1cd2 80bd 5629 333d
00000150: 9a77 4ebd f41d af3c 42f0 633d 15fb bb3b
00000160: ba19 933d afcb 533d 57be 30bd b787 323d
00000170: e7f7 7cbd 6a18 d23c 00bb 9cbd 279f a9bd
00000180: 06db e63c d6ca 123d 3809 c63c 5786 23bc
00000190: 0afb 3e3d 91ba a0bd 0f75 92bd 7b6f b1bd
000001a0: b01a 313d 3371 6a3d 82ae 803d d57e 3ebd
000001b0: 7787 a0bd 6c35 9cbd ca26 4dbc bc49 9a3a
000001c0: ca38 b7bc 4ba2 833d f7e0 dd3c 74a4 2ebd
000001d0: d6a0 c0bd a2b1 8dbd b698 71bd e51e 253c
000001e0: 5462 f4bc f9f5 153d 9f87 45bc 7db2 2f3d
000001f0: 36e6 8b3d 23de 80bd fc21 aebd 7a5e 753d
0.03671653 -0.06489314 0.057577644 -0.024738798 -0.08299296 -0.041826025 0.041405134 0.05956708
0.017426295 0.0046638367 0.046037532 -0.08318074 0.046453603 0.06436235 0.014594969 -0.04955737
0.031129373 0.054298922 0.015774745 -0.021543866 0.030927667 -0.010937934 0.010764074 -0.062211577
-0.038057707 0.07027374 0.01594091 -0.05541697 0.07038229 -0.058666907 -0.07718261 -0.06497892
0.038381904 0.068302535 0.05733128 0.022591487 0.036584765 0.030584048 -0.062846154 0.04193869
-0.07553136 -0.012240334 0.05227009 -0.11242117 0.050735917 -0.028788863 -0.062683 0.06527866
0.017648378 0.06858261 0.02352808 0.038060777 -0.046306524 -0.0026931346 0.026584873 0.044368677
-0.048925195 0.019384962 0.06302306 0.050035067 -0.054612707 -0.08652075 -0.03155147 -0.038928676
-0.0014048133 0.030644808 0.045928255 0.022988815 -0.017681725 -0.0761689 0.012923817 0.036382
-0.02530659 0.04213842 0.014953287 0.027773678 0.0068240203 -0.04687644 0.05157281 0.038211882
-0.032155193 -0.08832002 -0.06290075 0.043740593 -0.05040703 0.021376587 0.05564905 0.0057367184
0.07182641 0.05170792 -0.043150272 0.04358646 -0.061759856 0.025646407 -0.07652855 -0.08282309
0.02818061 0.03583797 0.024174318 -0.00998076 0.04662613 -0.07848085 -0.071512334 -0.08663841
0.04323834 0.05723686 0.06283285 -0.046507675 -0.07838338 -0.07627377 -0.012521455 0.0011771242
-0.022365946 0.06427439 0.02708481 -0.042637303 -0.09405677 -0.069186464 -0.058983527 0.010078167
-0.029832043 0.03661153 -0.01205626 0.04289483 0.068310186 -0.06292369 -0.08502576 0.059904553

module.conv1T.weight f4 [128, 64, 3, 3]
00000000: 952b e3bd b7fd b6bd 5ba9 353e e6c0 bbbd
00000010: 9284 093e b031 613d f4f8 0abe f5e0 e8bd
00000020: b797 98be 1528 a73c 3c6f 553d 65ef 54bd
00000030: abf3 0a3e 7f7f 473e e92f 0d3e 1202 a93d
00000040: 78d9 de3d df0f 113e 74fc cf3b 246b fb3c
00000050: 3a14 393e 4afc a03d e96e b9bd b87b 923d
00000060: 3690 81be b59e 5abd e958 31be 98d1 39be
00000070: fb46 67bc d0b7 cbbc bdfe 493e bcc3 983d
00000080: 3e60 0d3e 3398 23be af81 1abe 72d6 17be
00000090: 913f 643d 3756 e23d a78d 48ba fe21 473e
000000a0: acc5 703e 7c65 4a3e 7008 e33c bad6 033e
000000b0: 7110 153e 7974 fabd c2c2 923d 5db5 4c3e
000000c0: 141d 6fbe de40 c6bc 5ac4 9abd 3c47 253d
000000d0: c5fa 573d 06c6 7a3c 37ce c3bd a9c2 cdbc
000000e0: 2818 393c f423 bbbd b1df 16be 6f98 0e3c
000000f0: 1add f7bc a8f2 843d 77fc 5ebd e5ae adbd
00000100: 1485 3337 cab4 0c3d 6412 0fbe 8f05 313d
00000110: dbc5 453d 5daf 4ebd 119e 5cbd e77f 01be
00000120: 5599 31be a84b 63bd 2109 faba 092f 23be
00000130: c3f2 57bd fac5 20bd f2d0 2e3d c18b 853c
00000140: 2586 a0bd f921 7bbd 491a 2d3d 3f92 483e
00000150: b8c6 29be 67aa 5dbc 3d74 46bc cb49 943c
00000160: 403c 2f3c d3ff 603a 1a08 17bb 607b 003e
00000170: cf0d 7c3e d1df 5cbe 0353 0bbe b104 efbd
00000180: 31ee 9b3c 80f3 093d 34b7 013d 41a6 a1bd
00000190: dc08 15be 6fa1 c03d 6750 bbbd 6f97 e6bd
000001a0: a5e7 e8bc 180f 5dbc 347e 1c3d befa 58bd
000001b0: 8816 b5bd 804e 4839 9d9b bdbd 3792 62be
000001c0: 291a cfbd b281 c83c 9d36 74bd 746f 77bd
000001d0: 6421 05be e6d4 083d 1a5a 803e e702 313e
000001e0: 3c00 5c3e b7f1 12be 450f 4f3d fc29 acbe
000001f0: 3f1f 1ebe fb73 62be a8d0 dc3c 9256 8b3d
00000200: 84ff 423e 534b d13c 91e3 0a3e 9d60 203e
00000210: a95f c4bd 34c9 0abe a9f1 04be af01 44be
00000220: f6a2 cebd bc53 9c3d 6200 0fbe cc44 63bb
00000230: dd61 d93b 20c5 9bbd 5740 3abc ab41 2dbe
00000240: db4f b03c 21c2 24be 165c dabb 8ca2 18bc
00000250: e750 75bd f6af 4d3d 2269 bbbd bcb0 373d
00000260: 8599 cebd 09e3 c7bd f9e3 4e3c 88de 0f3e
00000270: 9833 c0bd 72c9 e8bb 749e 5b3d 1b7e a63a
00000280: 9e59 8f3c 9b48 c1bd 7014 88bd 2e3b 86bd
00000290: a0a9 abbd 9743 17be 3a3f 8ebc 78d2 4d3d
000002a0: 2d32 c2bc 7bb0 ecbd eb06 1abe 85ef aabd
000002b0: f4de b6bd 6be0 87bd 9769 2cbe 3da8 3e3d
000002c0: 121c d2bb fa76 02bd 0154 a4bc 20c9 c8bd
000002d0: f68e 7c3d 7a48 a53d 30ee 1f3e 1f26 e13d
000002e0: 4c10 1e3e 6e5d 283e d3d1 2bbe aa5f 2abe
000002f0: 3272 fbbd a35c bebb da98 6b3b 4c26 263e
00000300: a203 a6bd 2a05 00be 40cb 513d 0d9a 9e3c
00000310: 0d67 a73d 9e9b 2ebd 8fce 5f3d 1257 11be
00000320: 12d2 2a3c c8d1 a5be 22b2 273d f982 743d
00000330: c6b6 d53d 9431 c03d 6c86 8f3c 439a 09be
00000340: e1b7 81bd 675c 0abd 506d f0bd 74b4 1abe
00000350: 2fe9 1b3d c4ea a6bd 3152 1cbd fd18 26be
00000360: 96db 22bd fdec 273d 1b9e 4a3e a5a4 3ebd
00000370: 63c5 1bbc 4d5a 8ebc 2a4b aabd c6bd 97bc
00000380: bc33 41bd 5660 5bbe fb42 9bbc c90a ca3d
00000390: fe9e 8abd dfc8 b5bd 203d 46bb 4039 1fbe
000003a0: ee97 00be d478 b5bd 7a31 8bbd 012e fd3d
000003b0: ffcb 5a3e 4f7b 45bd 6a4a f9bd 01d2 e2bc
000003c0: 5848 3f3d b5e7 f9bc be89 e63d fbb1 1fbe
000003d0: e64a 35bd ecde 92bc 2441 a93c 3e01 fabd
000003e0: 6098 773d 79a3 86bd 0257 bdbd f74e 66be
000003f0: c15d 24bc 088b c3bd 232a 57bd 732a 73be
-0.11092297 -0.08935111 0.17740385 -0.09167652 0.13429478 0.054979026 -0.1357153 -0.11371032
-0.2980325 0.020404855 0.052108034 -0.051986117 0.13569514 0.1948223 0.13787808 0.08252348
0.108813226 0.1416621 0.0063472334 0.030690737 0.18074122 0.0786062 -0.090543576 0.07152504
-0.25305337 -0.05337401 -0.17319073 -0.1814636 -0.014116044 -0.024867922 0.19726081 0.07459208
0.13806245 -0.15976028 -0.15088533 -0.14827898 0.055724684 0.110516004 -0.00076505024 0.1944656
0.23512906 0.19765276 0.027713984 0.1287488 0.14557053 -0.12229247 0.07166053 0.1999106
-0.23350936 -0.024200853 -0.07556982 0.040351138 0.052729387 0.0153060015 -0.09560817 -0.025117235
0.011297263 -0.09137717 -0.14733769 0.008703335 -0.030256797 0.064915955 -0.054439988 -0.08480624
1.0700216e-05 0.0343521 -0.13971859 0.04321819 0.048284393 -0.05046021 -0.05386168 -0.12646447
-0.17343648 -0.055492073 -0.0019076207 -0.15935911 -0.05272175 -0.039251305 0.042679735 0.016301991
-0.07838086 -0.061311696 0.042261396 0.19587038 -0.16579711 -0.013529397 -0.012112674 0.018101593
0.010695517 0.00085830427 -0.00230456 0.12547064 0.24614643 -0.21569754 -0.13605885 -0.11670817
0.019034477 0.033679485 0.031668857 -0.078930385 -0.14554161 0.09405791 -0.09146195 -0.112593524
-0.02843077 -0.013492368 0.038206294 -0.0529735 -0.08842188 0.0001910273 -0.092581965 -0.22126089
-0.101124115 0.024475906 -0.059622396 -0.060409024 -0.13001019 0.03340616 0.25068742 0.17286263
0.21484464 -0.1435002 0.05055167 -0.33625782 -0.15441607 -0.22114556 0.026954964 0.06803621
0.19042784 0.025548613 0.13563372 0.15661855 -0.09588558 -0.13553315 -0.12982811 -0.19141267
-0.10089676 0.076331586 -0.1396499 -0.0034678457 0.0066339807 -0.07605958 -0.011367879 -0.16919582
0.021522453 -0.1608968 -0.0066638095 -0.009316098 -0.059891608 0.050216638 -0.09150912 0.04484628
-0.10087875 -0.097601004 0.012627595 0.14049733 -0.09384841 -0.0071040923 0.05361791 0.0012702377
0.017498787 -0.094376765 -0.06644523 -0.065542564 -0.08381963 -0.14771877 -0.017364133 0.050249547
-0.023705566 -0.115570985 -0.15041701 -0.08346466 -0.08929244 -0.06634601 -0.16837154 0.046547163
-0.0064120376 -0.031851746 -0.020059587 -0.098039865 0.061659776 0.080704644 0.15618205 0.10993599
0.15435904 0.1644189 -0.1677926 -0.16638055 -0.122776404 -0.005809383 0.003594926 0.16225547
-0.08106162 -0.1250197 0.051219225 0.019360567 0.08173952 -0.042628877 0.05464035 -0.14193371
0.010426061 -0.32386613 0.040941365 0.059695218 0.10435252 0.09384456 0.017520152 -0.13437752
-0.063339 -0.033779528 -0.117396 -0.151079 0.038064178 -0.08150247 -0.03816432 -0.1622047
-0.039760195 0.040997494 0.19786875 -0.046543736 -0.00950751 -0.017377043 -0.08315118 -0.018523108
-0.04716848 -0.21423468 -0.018952837 0.09865338 -0.067686066 -0.08876204 -0.0030248836 -0.15549183
-0.12557957 -0.08860937 -0.06796546 0.1236229 0.21366881 -0.0482133 -0.121723965 -0.027688028
0.04669985 -0.030505994 0.11256741 -0.15595238 -0.04426088 -0.017928563 0.020660944 -0.12207268
0.06044805 -0.06574149 -0.09245111 -0.2249106 -0.010032118 -0.095480025 -0.05253042 -0.23746662

module.conv1T.bias f4 [64]
00000000: 6870 7fbc 334d b23d fff8 f9bb 8c3b 81bd
00000010: b63f ad3c 88bc 3e3d d276 96bc c485 4f3d
00000020: 1dfa 13bb ab46 923d bfa3 683d a892 96bc
00000030: 036c af3c 757c 943b 7ba5 8639 330c 003d
00000040: c1c0 9e3c 16e3 5e3d 2020 0e3d e7e6 bdbc
00000050: 1096 0e3d 50e8 e43b 108f 8dba 0c9b 0fbd
00000060: 632a 7a3d 308d 31bd 67a6 343d 9dae f93b
00000070: 43d7 d5bd 187b 9d3d e1c3 323d afae 463c
00000080: 4cc9 913a 7f28 51bc cd69 63bc 7a7b 4abd
00000090: 9ef4 54bd 50c1 adbc e811 abbd 46e1 bfbd
000000a0: a9bf f1bb bbd4 31bd d3f9 fc3c d7db 4d3d
000000b0: 9df1 7c3d 6a11 bf3c e14a 9a3c a00d 25bd
000000c0: 9562 0e3d 901a 8d3d 9249 10bd 4175 63bd
000000d0: 71ec 2a3d e279 7ebd 6bcf a4bd 2c56 823d
000000e0: 78ef b8bb 6dfa 85bd 5b83 073d 9754 9a3d
000000f0: 66ee 013d a603 7f3d 153f 8bbc 04bf 043d
-0.015590765 0.08706131 -0.0076285596 -0.06310186 0.021148544 0.046566516 -0.018367205 0.05066468
-0.00225795 0.07142385 0.056796785 -0.018380478 0.021413809 0.004531438 0.00025681764 0.031261634
0.019379022 0.054415785 0.034698606 -0.023181392 0.03481108 0.0069857016 -0.0010800082 -0.035059974
0.06107558 -0.043347538 0.044104006 0.0076196925 -0.104414485 0.07689494 0.043643836 0.012126609
0.0011122613 -0.012766003 -0.013880205 -0.049434163 -0.051991098 -0.021210343 -0.08353025 -0.093691394
-0.007377584 -0.043415766 0.030880844 0.050258484 0.061753858 0.023323733 0.018834533 -0.040296197
0.034761984 0.06889832 -0.035226412 -0.055531744 0.041729394 -0.062127955 -0.08047374 0.06364092
-0.0056437813 -0.065419056 0.033084255 0.075356655 0.031721495 0.06225934 -0.016997853 0.03240873

module.conv2T.weight f4 [64, 32, 3, 3]
00000000: 53a5 aabd 0879 27bd dc9c 063e 90f7 71bd
00000010: 771b 743d bf9f 423e a365 633d b1fb 80bd
00000020: 3c64 b03c ac3a dfbd 6274 ee3b 83f9 003e
00000030: 3a32 e53c b903 44bd 97d2 663e a2d3 af3d
00000040: 72b1 5cbd 9513 00be cfa8 9dbc 4ec8 633d
00000050: b638 1abc 2d7e fabb c102 93bd e4c4 133e
00000060: c6c1 6e3d 5730 313d b59a 1d3e 0185 79bd
00000070: 3ea0 e1bd 1c09 003e 64b2 1dbe 4d8d 31bd
00000080: 68c9 9f3d 95c1 ed3a 7407 b2bc cf48 65bd
00000090: fd14 34be 613e 3dba 02e6 7b3d 39ed 43bc
000000a0: 5378 0cbd 7f9a 773d f67d 533e 4422 18bd
000000b0: 48ec ad3d e22e febd 6754 efbd 1295 263e
000000c0: f9da bb3d 7eb0 9c3c 6806 e73d e748 703e
000000d0: 9a71 e7bc 3b2d 5bbd 0621 8bbe 0aa0 f9bc
000000e0: 2697 873e 2eb8 eebc a954 683d 1fbe 273e
000000f0: 4546 0f3e 524b 4fbd 690f 9bbc ae5f d4bd
00000100: c7b7 9f3d 759f b23d e2e2 623c b61b d3bc
00000110: 58c4 d33d 93af 143e da74 a7bd 5517 01bd
00000120: 12c8 45be beb6 24bd 785d 9d3a db0d a2bd
00000130: 36fb c439 b9cd 463e 46fe 673e 3f56 613d
00000140: 4607 a83d 2ab0 32be 0d64 46bd e495 8c3d
00000150: a195 9cbd 73ba 54bd 2eca 943e b06a aa3d
00000160: 78ce 7bbd a02c dd3b d808 52be edbf 3d3e
00000170: 2809 a2bd eeeb 083e c43d ac3d 0718 8ebd
00000180: 88ec 993e 7ce0 5f3e 2f6b 6d3e 0941 35bc
00000190: 6513 313e ec91 e13d 849d 3cbe e0e0 8f3c
000001a0: 22b4 0b3e ecc8 0b3e 7826 dcbd 5a48 a0bd
000001b0: 18a5 37be 238d 45bd 1edd bf3d 42c6 33bd
000001c0: 09cd 673c 27dc 093e 73a5 3f3d fff7 9fbd
000001d0: be92 923d 4f19 5cbd dabe 473d 680c 5dbc
000001e0: c196 0cbe cba8 aebd c60b 603e d374 ea3c
000001f0: ee30 1fbe 2150 a3bc a399 1ebe abbf f4bd
00000200: dbba 063e 63a2 123d 3f92 8ebd 942c 673e
00000210: 4571 e23d 4b48 c5bd 5390 0abe 5be5 03be
00000220: 5360 47bd 04be 2f3e 4b47 d23b 6b2e 02bd
00000230: 2ad1 1b3e 367f 123d 52b1 89bd 174a 27bc
00000240: fb4b 0cbe c1e0 9c3d 42b2 193e 4980 243c
00000250: 899c 0c3d 360c 523c 8e88 3e3e 4cbe bbbd
00000260: 5968 b7bc 6459 b23d d0e1 6d3e b63b b9bc
00000270: 4412 4c3e 329c 253e 3b77 0fbc 43b3 2d3e
00000280: d65b 563e 900c 943e e7b9 643d 1493 7f3d
00000290: 46e0 8bbc de70 383e fab7 363e c1fc 213c
000002a0: 118d 643d 8e15 fd3d a4ff f63d 382a 9b3d
000002b0: 0c67 e33c be93 a33d e95c 953e 719e c13c
000002c0: a0cb b2bc 36f5 863d e242 3d3e cd75 413e
000002d0: 7065 f53d 080d a23d 0391 9b3d 0dda 2d3e
000002e0: 91d7 4d3e 8de4 303e 0268 d0bd 0626 413e
000002f0: e08c 4e3e 7afe 1dbd 6f5c 523e ed1a 973d
00000300: 17af 823d 38c3 083d aee4 343e 76b0 2a3c
00000310: 6a41 cdbc c0af 783d 1040 a03d 0a08 543e
00000320: dd21 023e 167b cf3d 91cf 8f3d d9ec 8a3c
00000330: 9d1d d33d 6a13 303e 390b 59bc 9d7e be3d
00000340: 0608 42bd 3ed6 b03c 46dd 59be 306d 913d
00000350: b64a 313e 9506 a23d 2790 10bd cf67 91bd
00000360: b010 313d f2ce 983d b458 b53c 2465 87be
00000370: 4b73 193c 0bde 0d3e 6104 14bd 85cd 013d
00000380: 30ad 4bbc b699 f6bc 0e06 fdbc 1631 d13d
00000390: 8132 07be 9423 38bd a450 523e ea9a 953d
000003a0: 7cf0 cebc f65d e4bb 7081 11be 95cf 83bd
000003b0: 637e 363e 22c2 e3bc a301 3c3d 3b8a b63d
000003c0: 2419 293e c896 92bc 35b0 613c e106 f7bd
000003d0: 7b91 f6bb 95d5 ae3d 2c53 8dbd 8609 4ebd
000003e0: 8e38 373e 9c17 c23c 4b99 9abd 84cc 09bd
000003f0: 9556 0cbe 46eb 323c 1c4b f03d c343 3ebb
-0.08332314 -0.04088691 0.13145775 -0.059073985 0.059596505 0.19006251 0.05551685 -0.06298006
0.02153217 -0.10899863 0.0072770575 0.12595181 0.027978051 -0.047855113 0.22541271 0.08585288
-0.053880163 -0.1250747 -0.019245533 0.055610947 -0.009412935 -0.007644436 -0.0717826 0.14430577
0.058290266 0.04325899 0.15391047 -0.060917858 -0.11016892 0.12503475 -0.15400082 -0.043347646
0.07802087 0.0018139357 -0.02173207 -0.05597764 -0.17586131 -0.0007219073 0.06149865 -0.011958414
-0.034294438 0.060450073 0.20653519 -0.037142053 0.08492333 -0.12411286 -0.1168602 0.16267803
0.09172625 0.019127127 0.11280519 0.2346531 -0.028252412 -0.053509932 -0.27173632 -0.03047182
0.26482505 -0.029140558 0.056721363 0.16381119 0.1399165 -0.05060894 -0.018928247 -0.10369812
0.077987246 0.0872182 0.013848038 -0.02577005 0.10340184 0.14520101 -0.081765845 -0.03151639
-0.19314602 -0.04021334 0.0012006005 -0.07912799 0.000375712 0.19414414 0.22655591 0.05501389
0.08204512 -0.17450014 -0.04843526 0.06864527 -0.07645727 -0.051935624 0.290605 0.0832113
-0.0614762 0.0067497045 -0.20511186 0.18530245 -0.07911903 0.1337125 0.08410218 -0.069381766
0.30063272 0.21862978 0.23185419 -0.011062869 0.17292555 0.110141605 -0.18419462 0.017563283
0.13642934 0.13650864 -0.10749525 -0.078263 -0.17934072 -0.0482303 0.09368347 -0.043890245
0.014148005 0.13462888 0.046788644 -0.078109734 0.07156895 -0.053735074 0.048765995 -0.013491727
-0.13729383 -0.085282885 0.21879491 0.02862016 -0.15546009 -0.01993567 -0.15488295 -0.1195062
0.13157217 0.035799395 -0.06961488 0.22575599 0.11056761 -0.096329294 -0.13531618 -0.12880461
-0.048675846 0.17162329 0.00641719 -0.03178255 0.15216509 0.03576585 -0.06723274 -0.0102105355
-0.13700859 0.07660056 0.15009406 0.010040351 0.03432897 0.012820294 0.18606779 -0.091671556
-0.022388624 0.08708456 0.23230672 -0.02261148 0.19928843 0.16172865 -0.008756454 0.16962914
0.2093347 0.28915834 0.055841353 0.062396124 -0.017074715 0.18011805 0.17843619 0.009886921
0.055798594 0.12357627 0.12060478 0.07576412 0.027759098 0.07987164 0.29172447 0.023635121
-0.021825612 0.06589739 0.18482545 0.18892594 0.11982238 0.07912642 0.07596018 0.16977711
0.20101763 0.17274685 -0.10176088 0.18862161 0.20170927 -0.038572766 0.20543073 0.073781826
0.06381052 0.0333893 0.1766536 0.010418048 -0.025055606 0.060714483 0.07824719 0.20706192
0.1270823 0.10130899 0.07022012 0.01695864 0.10308383 0.17194906 -0.013247305 0.09301493
-0.047370933 0.021586534 -0.21275815 0.07100904 0.17313656 0.07911412 -0.035293724 -0.07099878
0.043228805 0.07461347 0.022137024 -0.26444352 0.009365867 0.13854234 -0.03613699 0.03169014
-0.012431428 -0.030102592 -0.030886676 0.102144405 -0.1320286 -0.044955805 0.20538574 0.07304938
-0.025261156 -0.006969209 -0.14209533 -0.064360775 0.1782165 -0.02780253 0.0459 0.08913084
0.16513497 -0.017894164 0.013774921 -0.12061859 -0.007524667 0.08536831 -0.069006294 -0.05030205
0.17892668 0.023692898 -0.075487696 -0.033642307 -0.13704903 0.010920351 0.11733076 -0.0029032088

module.conv2T.bias f4 [32]
00000000: e927 303d 63be 423c 2a3e 97bc c22e 2d3c
00000010: 99bd 00bd 9e56 8f3d 5b0b 9fbc 6e67 2e3d
00000020: e150 c7bc 5d43 21be 6564 033c 6dbf f1bc
00000030: 9181 98bd aeb1 bb3c 2f4b 433c bdda 363b
00000040: 32cd 20be 2da1 743d 553c c1bd dbd6 18bd
00000050: 9eb2 c8bb be9c d23d bc9d 0d3d 790e 0a3d
00000060: 4885 efbc f367 14be e8f5 c43d 86f3 ce3c
00000070: e853 aa3d 5a2d 0dbc 75da 89bb 558e cbbd
0.04300681 0.011886212 -0.01846226 0.01057023 -0.031430814 0.06998943 -0.019414594 0.042579107
-0.024330558 -0.15748353 0.008019541 -0.029510224 -0.07446588 0.022911873 0.011919781 0.0027901374
-0.15703276 0.05972402 -0.094353355 -0.037314277 -0.0061248085 0.102838024 0.034574255 0.03370521
-0.029238358 -0.14492778 0.096172154 0.025262605 0.08316785 -0.00861677 -0.0042069503 -0.09939257

module.conv3T.weight f4 [32, 16, 3, 3]
00000000: 3820 a9bd ce6d 9d3d cf51 de3d cbf7 a23d
00000010: d515 20ba abbb 70bd 7532 4dbe 321c 7abd
00000020: 9088 33bd df0a 0abd f75a f03c dcf7 803d
00000030: 89d8 ce3c 0b63 a83d 947d c43d d9a7 1b3e
00000040: 0515 fa3d 1d39 1f3e 6fa6 8c3c 7da0 59bd
00000050: 4491 c7bc c70d a8bd f28f 3e3d 385e 063e
00000060: fd5e 7e3c c80e 993c 6f28 3f3e a418 24be
00000070: 0a4d ba3d 9aec 483b 9fd6 2cbe 39b5 b03d
00000080: c37b 913d 0408 df3d 2657 8d3d e020 593e
00000090: f957 11be 5a47 c3bd 53a2 d23d 578a 7abe
000000a0: b335 44bd 8b44 8e3d 5f1a 3fbe 2fde 9b3d
000000b0: edf6 043e 21e9 3fbc cfb1 1fbd ffed 793d
000000c0: 4e5c bfbd 67fc c3bd 2634 c63d 473a aabd
000000d0: 1b9c 3dbe 7596 993c 7e2a 863d 0f8a 143e
000000e0: ef1f 67bd 09ee d03d c8e8 163e 8da8 c93d
000000f0: b9bf 2b3c 78bb 9e3d fe29 9f3d 0038 8d3d
00000100: 6ce5 bc3d 3b7e f338 da34 2e3e 14d0 473e
00000110: 7c6e 173e 0157 2dbb 4669 7cbd 53b4 993e
00000120: 5eac a63d afc8 b23d d93c 073e 06c2 dd3c
00000130: 69c1 fa3d fed5 3d3e 35f8 2dbe aa5c 5fbc
00000140: 5262 e93d 9bf8 78be 4bc3 83be 007a b8bd
00000150: f8fe 09be 5868 353d fc5d a53d 800e 4d3d
00000160: d4db 363e c437 17bc 71df 963d e447 913d
00000170: 7b1f 0a3e f849 acbd de2b d23d 38c8 583e
00000180: 1eb5 adbd 5ff7 edbc 5908 e43d fc78 243d
00000190: 6df0 3abc c0a4 5b3d f538 223d 4d71 1b3c
000001a0: 5ebc f7bc 8b88 61bc 301f 1c3e 776e 15bc
000001b0: 155b 143d f009 9abc 9a36 a2bc 6746 c1bc
000001c0: 10ae 503e 1830 0c3e be66 99bd cbab 023e
000001d0: 0b41 ec3d d478 78bd 6f48 99bd e72f aa3d
000001e0: a101 98bd d993 133e d719 243e 9754 d1bd
000001f0: 3a42 55be b35d f73d 7f84 d6bd 20a1 2ebc
00000200: 5fa8 df3d 1987 953d 4e7b 233e b200 663e
00000210: cca3 15bd 1ed5 19bd 0301 3b3e 0cdb 8dbb
00000220: 55e3 bebc e8a4 43bc 13c7 673d c0d5 363e
00000230: d74f 1e3d 52f3 f2bb c636 a63c 63b3 333e
00000240: 7fc3 fa3d 0342 2e3d 7269 0bbd 85f9 1f3c
00000250: e62d f03c 7eab da3d 9a7f 783d 5e23 8d3d
00000260: 6eaf 833e b574 45bd 665c c53a c4cd 5bbd
00000270: 0575 d03c ddeb b6bc b1d1 39be e4d3 15be
00000280: 4300 babb 5768 18be 4baa 083d 8abd 743d
00000290: 22e0 ff3d dc1a 86bd 4cc3 853d 0747 693b
000002a0: e6c4 bebc e5d8 373e 79c8 e43d 7f83 9abb
000002b0: 74b3 e23d b7d2 e83d 4bc4 b2bd 9d90 dabd
000002c0: 297a 39be 50da 8fbe a57c a13d aac1 d83d
000002d0: 0ab4 e03d 25b1 bc3d e1bd 0b3e 0d23 883d
000002e0: a93f ba3d 4019 5a3e e881 943b 8c2a 033c
000002f0: 3182 953e fb38 6cbc 1945 babc 53ef 2f3d
00000300: 682d 94bd 1243 9ebd a317 f63c 3caa 3f3e
00000310: 144b fc3c cebd 953d 968f b8ba eb02 a8bd
00000320: 83b0 88be c005 223d cd80 8fbd 8161 56be
00000330: 2cda 983d 4249 8f3d d768 c3bd a1a7 81bc
00000340: 31f6 0e3d 26d4 71be 9873 f6bc 22fd d53d
00000350: 26ff afbb 8bd4 de3d 93be dc3d e7e9 1d3d
00000360: 59c9 1fbe f82a 1ebe 60c7 81be b129 56be
00000370: 8502 90bd d4f8 a6bd 9a7a a63d fdcd 8d3e
00000380: ad5d cd3d 5765 2c3d 0b4f ee3c f11c d23d
00000390: d0bf 4abd fc19 ecbd f6a7 52be 8fd9 1dbe
000003a0: dbf1 bb3d b445 383d a817 173d 048a b53d
000003b0: def3 b63d 031e d03d 1d33 f73d d736 683d
000003c0: 2fee 403c 8456 ee3d cf25 013e 4bfa 853d
000003d0: db6c c63d 0781 583d 85d0 60bd b20f 193e
000003e0: bc22 a13d 640d 9a3d 4cfd df3d 7e66 6bbd
000003f0: f6c3 8f3c 5980 133e a873 a33d eadf cc3d
-0.08258098 0.07686959 0.108554475 0.07957419 -0.0006106769 -0.058772724 -0.20038779 -0.061062045
-0.043831408 -0.033701774 0.02934025 0.062972754 0.025249736 0.08222016 0.095942646 0.15200748
0.122110404 0.1554913 0.017169205 -0.05313157 -0.02436126 -0.08205753 0.046523996 0.13121879
0.015525577 0.018683806 0.18667768 -0.16025025 0.09096725 0.0030658604 -0.16878746 0.086283155
0.07103684 0.10890201 0.06901388 0.21203947 -0.14193715 -0.095350936 0.10284867 -0.24466835
-0.047902774 0.06946667 -0.18662404 0.076107375 0.1298482 -0.011713297 -0.03898793 0.061017986
-0.093437776 -0.09569626 0.09677915 -0.08311897 -0.18516581 0.018748501 0.065510735 0.1450579
-0.05642694 0.102016516 0.14737236 0.09846602 0.010482722 0.077506006 0.07771681 0.06895447
0.09223446 0.00011610655 0.17012349 0.1951297 0.1478824 -0.0026449563 -0.061623834 0.3002039
0.08138345 0.087296836 0.13206805 0.027070057 0.12243921 0.18538663 -0.16989215 -0.013632933
0.11395706 -0.24313585 -0.25734934 -0.09007645 -0.13476169 0.044288963 0.08074567 0.050062656
0.17857295 -0.009229604 0.07366837 0.0709379 0.13488571 -0.08412546 0.10262273 0.21170127
-0.08481811 -0.02904862 0.11134405 0.040154442 -0.011409861 0.053623915 0.0396051 0.009487462
-0.030241188 -0.013765465 0.15246272 -0.009120575 0.036219675 -0.018803567 -0.019801427 -0.02359314
0.203789 0.13690221 -0.074903 0.12760846 0.115358435 -0.060662106 -0.07484519 0.08309918
-0.07422186 0.14411868 0.16025482 -0.10221212 -0.20826045 0.120784186 -0.104744904 -0.010658532
0.10920786 0.073011585 0.15965006 0.22461203 -0.036533162 -0.03755676 0.18262105 -0.004329091
-0.02330176 -0.011941172 0.056586336 0.17854977 0.03865036 -0.00741426 0.02028979 0.175489
0.12244319 0.042543422 -0.034036107 0.00976408 0.029318761 0.10677241 0.060668565 0.068915114
0.2571978 -0.048207004 0.0015057444 -0.05366303 0.025446424 -0.022329265 -0.18146397 -0.14631611
-0.0056763007 -0.14883552 0.03336553 0.05975107 0.12493922 -0.06548092 0.065313905 0.0035595314
-0.023287248 0.17953832 0.111710496 -0.0047153826 0.11069384 0.11368316 -0.08728846 -0.10672114
-0.18113007 -0.28096247 0.07885102 0.105838135 0.1097184 0.09213475 0.13646652 0.066473104
0.090941735 0.21298695 0.0045320876 0.008005749 0.2920089 -0.014417882 -0.022738026 0.042952847
-0.07235223 -0.077276364 0.030040568 0.18717283 0.030797519 0.07311593 -0.0014080878 -0.082036816
-0.26697168 0.039556265 -0.07006989 -0.20935632 0.07463488 0.06996395 -0.09541481 -0.015827002
0.034902755 -0.23616084 -0.030084416 0.10448672 -0.0053709922 0.10880383 0.10778537 0.038553145
-0.15604152 -0.15446079 -0.25347424 -0.20914342 -0.070317306 -0.08152929 0.08128853 0.2769622
0.10027633 0.042088833 0.029090425 0.102594264 -0.049499333 -0.115283936 -0.20571885 -0.15415023
0.0917699 0.04498835 0.036887795 0.08864215 0.08933233 0.10161974 0.12070296 0.056692924
0.011775537 0.11637595 0.12612079 0.0654188 0.09688731 0.052857425 -0.05488636 0.14947394
0.07867953 0.07522085 0.109369844 -0.05747079 0.017549496 0.1440443 0.07981044 0.10003646

module.conv3T.bias f4 [16]
00000000: 7758 e13c 7fb7 ba3c f859 8cbd 8728 3dbe
00000010: 9972 9ebb b37c 25be 05a7 d6bc 20c3 153d
00000020: 731a 67bd 53e0 10be aaf1 ca3d 86e7 dd3d
00000030: 06ad 02be 950b b1bd 3081 463d 1389 a2bc
0.027508004 0.022792576 -0.06853098 -0.18472491 -0.0048354384 -0.1616085 -0.026202688 0.03656304
-0.05642171 -0.14148073 0.09909375 0.10835175 -0.12761316 -0.08644787 0.048463047 -0.019840753
