theta_run_birds/exp-single-file-three-dim-single-gpu/conv_autoencoder.pth (torch, 854505 bytes, 19 tensors)

module.conv1.weight f4 [16, 1, 3, 3]
00000000: d9c4 983e 2487 4fbe e826 883e c9eb 343e
00000010: 2159 0e3e 0296 be3b 586d 6e3e a527 833e
00000020: 0c83 56be 7c83 aa3b ace3 53be 0834 7cbe
00000030: bb12 20bd 66ee eabd 0fdb 4f3e 0a1f 8b3b
00000040: 6fe7 40bd cd0f 30be b39a 173e 6635 3dbe
00000050: 535e 983c 428c 9ebe 8327 043e 7d51 a0be
00000060: 1b51 5ebe 7a33 783e cb7e 99be fc47 bd3d
00000070: 14b9 7d3e 9a23 693e 9239 8c3e 5592 14bd
00000080: ecc7 d23d f1d2 e438 3d1b f23c 7fcb 9f3e
00000090: df9b 70bd 4ef6 8dbd 9437 dc3d 837d 63bc
000000a0: bf7f 1b3e f61f 75bd debf a3bc 37ff fb3d
000000b0: 3205 e53b b50d 8cbe 0bc1 823e d24e 923e
000000c0: 7ecb a7be 846f e1bd 812e 723e c94d 5f3e
000000d0: 3f00 85be b10a 97be 04c9 6ebc f69e 3f3d
000000e0: 3b45 4cbe 1e20 bb3d 13bd 9bbe dc80 e93d
000000f0: 8d27 79be 9b44 7d3e 15ae e7bb 1d59 30bc
00000100: 9a30 a0be fe30 74bd 7105 6e3e 59c6 103e
00000110: 7b69 8fbd cc39 76be 5b7f 673e 347f 2ebe
00000120: 4f04 95be f2fb c1bc 7a13 873e 21f7 9fbe
00000130: 1da1 3e3e f221 ed3d 395f 3b3e 05a7 5abd
00000140: 2b9f 713e d408 1ebe fa7a 4bbe 4795 753e
00000150: 096e 793e a3e5 4bbe 54b8 533e e921 1fbe
00000160: 660a 93bc d83a 9bbe 0fd3 963e c07a 0c3e
00000170: 36d1 aabe f5d1 97be f5cd 9dbe 6d3d 8dbe
00000180: b150 58bd dd60 81be 3fd0 8abd a79c 07be
00000190: 4007 54be 36ed 2bbe 76f1 57bd ce60 2d3e
000001a0: 01f1 2b3d 80bd 01be 5a04 643d 64bd 4b3e
000001b0: 71fd 28bd 0994 0f3e be9c 403e 64a8 51be
000001c0: dc54 1a3e 26ce 183b fd5f 543e 62b8 41be
000001d0: 9717 1abe 7170 323e da88 9cbe e85f 9a3e
000001e0: ccf9 c1bd 7c6a 10be c208 42be 6e00 ee3c
000001f0: b784 10bd f542 a5be 45f7 69bb 65c3 ce3c
00000200: ac09 42be d21a d23d 8c13 94be 786d 4abd
00000210: f6c0 5f3e 86a9 43bd daa7 843d 987e 9dbe
00000220: 73b6 29be 1fc4 efbd fd2b 553e 3b1b 5b3e
00000230: a67c 3f3d 5eaf 8f3e bb8a 37bd 1c5e 413e
0.29837683 -0.20266396 0.26592183 0.1766807 0.13901187 0.005816222 0.23283899 0.25616184
-0.20948428 0.0052036624 -0.20692319 -0.24629223 -0.039080363 -0.11471252 0.20298408 0.0042456435
-0.047095712 -0.17193528 0.14805107 -0.18477401 0.018599665 -0.30966383 0.12905698 -0.3131217
-0.21710627 0.24238387 -0.29979548 0.092422456 0.24777633 0.22767487 0.27387673 -0.036272366
0.10292038 0.00010911178 0.029554004 0.31209943 -0.0587424 -0.069317445 0.10752788 -0.013884905
0.1518545 -0.059844933 -0.01998895 0.12304538 0.0069891447 -0.27354208 0.25537905 0.2857576
-0.3277244 -0.11007598 0.23650552 0.21807016 -0.2597675 -0.29500344 -0.014574293 0.046782456
-0.19948284 0.09136985 -0.3041769 0.11401531 -0.24331494 0.24733202 -0.0070703127 -0.010763434
-0.3128708 -0.059617035 0.23244263 0.14138164 -0.07002541 -0.24045485 0.22607176 -0.17040712
-0.2910485 -0.023679707 0.26382047 -0.31243232 0.18616147 0.1157874 0.18298043 -0.05338194
0.23595874 -0.15433055 -0.1987113 0.23982726 0.24358381 -0.19911818 0.20675784 -0.1554028
-0.017949294 -0.30318332 0.294579 0.137187 -0.3336274 -0.29652372 -0.30821195 -0.27585927
-0.05281133 -0.25269213 -0.06778001 -0.13243352 -0.2070589 -0.16789708 -0.05272051 0.1693146
0.041977886 -0.12669945 0.055668212 0.19896466 -0.041257326 0.14021315 0.18809792 -0.20474392
0.15071434 0.0023316233 0.20739742 -0.18917993 -0.15048061 0.17425705 -0.3057316 0.30151296
-0.09471473 -0.1410312 -0.18948653 0.02905294 -0.035282817 -0.32277647 -0.0035700363 0.025239656
-0.18949002 0.10259022 -0.28921163 -0.049420804 0.21850953 -0.047769092 0.06477328 -0.30760646
-0.16573505 -0.11707329 0.20817561 0.21397106 0.046749733 0.28063482 -0.044810038 0.18883556

module.conv1.bias f4 [16]
00000000: 85bd 01bc cf8e 60be 0852 2f3e af6a a1be
00000010: 0acd 773e 0589 34be cb8e 5abe 8d8b 993d
00000020: 81d7 bcbe 2d89 8c3e 3384 92be d6b0 423d
00000030: 56cf 973e a656 223e e3e3 b83c 5259 c5bd
-0.00791872 -0.21929477 0.17121136 -0.31526706 0.2419931 -0.17630394 -0.21343534 0.0749732
-0.36883166 0.27448407 -0.28616485 0.047531925 0.29650372 0.15853366 0.022569602 -0.09636177

module.conv2.weight f4 [32, 16, 3, 3]
00000000: 4ec8 65bd 0bec 56bb 1285 8c3d ecd5 b9bc
00000010: f144 4f3c 968e 473b 67d6 643d 3384 15bd
00000020: 92ed 9cbd 29ea 8ebd 0cd3 85bd 0e93 233d
00000030: fcbd 18bd 5827 50bd 06de 0e3d 2509 d0bc
00000040: 556c 4abd 7cd3 2abd f39a 983c 2d76 3d3d
00000050: 596e 54bd 7c06 083d 36ea 5abd 087f dcbb
00000060: fc0f 6b3d 212d 72bd 5b1b 25bc cd75 dabc
00000070: d0fc 26bd 4bf8 e2bc 8b12 7abd ed99 353d
00000080: c368 da3c f410 743d 3f86 26bc b400 0e3d
00000090: b6ae 893d 021b 44bd 4604 043d d7b2 43bd
000000a0: 74e7 9fbd 30df 4c3d 3d99 65bd e7a7 153d
000000b0: 1d06 813d d24e 11bd 0c20 43bc 36df 833d
000000c0: 7d5f 55bd 3bd3 f0bc 4d48 8b3d b737 493d
000000d0: 37b1 043d df8b 013d ca02 feba 8268 413c
000000e0: a855 21bd 51e3 68bd 043b 83bd 269a d33b
000000f0: ee84 cfbc a57e 653d 4795 c7bc b72c 163d
00000100: 9711 853d a4f9 b83c abf2 233d 141f 8c3d
00000110: 3669 89bd dab7 5abd 4b5c 723d 528c 89bd
00000120: 21ff eabb a05e ccbc a8ea ae3b d78b a83d
00000130: 0b89 de3c 166d 10bd 8daa be3b af85 1cbd
00000140: 15ab 803d 4bdb 643c d60a 89bd 9d9b bd3c
00000150: 98c0 ffbb 4b88 f53c e2bf 703c 8e10 66bd
00000160: 6d67 9b3d fe63 c13c e018 ddbb 0859 b53c
00000170: 12e4 713d a268 0d3d 1635 4ebd 45c2 363c
00000180: cfe5 43bd 6274 88bd 4d93 f7bc 1983 9ebb
00000190: 4bd4 7bbb 95d4 6a38 2100 ce3c 22f1 90bc
000001a0: 851c 163d 93ac 90bc ed13 b4bd 8a1c 7bbd
000001b0: 1e1c a4bd 4582 273d 879b cd3c 60f3 99bc
000001c0: 36e9 a3bd b003 7fbd b6bc 253d 34d4 8ebc
000001d0: 948e c03c 814c b73c 0c20 b8bc 316b 8b3c
000001e0: 1079 f53b e900 2dbd 0110 1f3d d288 5abd
000001f0: cdd6 9c3c 2031 eb3c 99bc 333c 4c47 dfbc
00000200: 9550 28ba 6efa 443c d0ec 893c 3c2d 1d3d
00000210: f5f4 aabc 7e41 893d 8e78 b1bd 7bf1 4a3d
00000220: 1982 463d 19d6 8b3d 48fe 823d 4cca 713d
00000230: 2b59 07bd 5244 ec3c 6e44 21bd f3b4 9d3c
00000240: 852d 043d b679 81bd d5d5 8d3d 264e 223c
00000250: 9120 25bd c451 71bd ffa7 013d e81e 853d
00000260: 58fb 413d a489 253d 6fb1 48bd 6b55 98bc
00000270: 3d71 45bd 91d9 053c dee3 6f3d 6d19 643c
00000280: 005b a83c 3135 64bd a3ea 81bd e7e6 2c3d
00000290: c5c4 46bd 157f 39bd 01aa 283d 7799 14bd
000002a0: ef37 c6bc fb72 2bbd 5f0e 0d3d c5c1 81bd
000002b0: ff23 a8bc 45d6 82bd 759f 533d e365 ae3c
000002c0: a1e3 3dbd e7f7 70bd 4f18 163d c8a8 8bbd
000002d0: 1ea2 193d 6ced 863d 6e42 bcbd 0d88 733d
000002e0: 6043 743d a01d 4d3c 604e 4abd 22e6 84bc
000002f0: 19d1 8fbd e333 cabb 2930 bc3d 437f 923d
00000300: ce20 673d f1fa b6bc a29c 1dbd 997a af3d
00000310: 26fc 53bd 8b08 70bd a8be 043d a66d 1abd
00000320: eaa7 a4bc 8682 1c3d a207 193d 8f3a 5fbd
00000330: b017 053d 42be c03c d2d7 af3b 7a70 123c
00000340: a1b9 a73d 4c4d 45bd cdcd 6b3b cfc5 9bbd
00000350: 5de6 3b3d 3a95 8bbc cbd8 f33c 9e10 1e3d
00000360: e991 5ebd cc8f 40bd f7d1 2cbd cc8b 2d3d
00000370: 5642 a93d b391 5abd 9f9a 74bd b2ae 87bd
00000380: 1f8d 953d 3f61 2abd a8d7 37b8 cf2a b1bd
00000390: f627 81bd 3e63 913b 8ba1 893c 94d9 513d
000003a0: 644d a03b 1ee1 f73c b639 a5bc c6dc a63d
000003b0: 454c fabc eeb4 8e3c aaa3 f63c 3c18 913d
000003c0: 68a4 483d 6f82 c9b9 23d1 f63c e1d7 cbbb
000003d0: ba5a 92bd e9c4 38bd f3a2 963b 8f04 3dbd
000003e0: 2d80 15bd 27b9 153d bb28 253d 1729 683d
000003f0: 8dac 2abd ecee 93bb 1ba8 a9bd 7fb9 56bd
-0.05609923 -0.0032794501 0.06861319 -0.022685014 0.012650714 0.0030449978 0.055868533 -0.036503028
-0.076625004 -0.06978256 -0.065343946 0.039935164 -0.03729056 -0.05081877 0.034879707 -0.025394985
-0.04941972 -0.041705593 0.018628573 0.04625528 -0.05186305 0.03320931 -0.053446017 -0.0067290105
0.05738829 -0.05912507 -0.010077323 -0.0266675 -0.040768445 -0.027706286 -0.06105284 0.04433625
0.026661282 0.05958648 -0.010163843 0.03466864 0.067227766 -0.04787732 0.032230638 -0.047777977
-0.07807818 0.050017536 -0.056054343 0.036537077 0.06299994 -0.03547556 -0.011909496 0.064390585
-0.052093018 -0.029397598 0.068009 0.0491254 0.032395568 0.031627532 -0.0019379493 0.011804702
-0.03938833 -0.05685741 -0.06407741 0.006457585 -0.02533194 0.05602898 -0.024363173 0.036663737
0.064974956 0.022579975 0.040026348 0.06841865 -0.067095205 -0.05339799 0.05917005 -0.06716217
-0.007171527 -0.024947464 0.005338032 0.08229797 0.027164957 -0.035260282 0.005818671 -0.038213428
0.06282631 0.013968299 -0.0669152 0.023145491 -0.0078049414 0.029972216 0.014694186 -0.05616813
0.07588086 0.02360725 -0.00674735 0.02213718 0.059055395 0.034523614 -0.050343595 0.011154716
-0.047826584 -0.06662823 -0.030221606 -0.0048374054 -0.0038426097 5.598793e-05 0.025146546 -0.017693106
0.036648292 -0.017660415 -0.08792863 -0.061306514 -0.080131754 0.04089572 0.025098575 -0.018792808
-0.08003466 -0.062259376 0.040463172 -0.01743517 0.023505487 0.022375347 -0.022476219 0.017018886
0.0074912384 -0.042237196 0.038833622 -0.05335314 0.019145394 0.028709948 0.010970258 -0.027255677
-0.0006420699 0.012022598 0.016836554 0.038373217 -0.020868758 0.06701945 -0.08665572 0.0495467
0.048463915 0.06827945 0.063961565 0.059030816 -0.03304402 0.028841171 -0.0393719 0.019251322
0.032269973 -0.06322043 0.06925551 0.009906327 -0.04031426 -0.05891587 0.031654354 0.065000355
0.04735884 0.040414467 -0.04899734 -0.018595418 -0.048203696 0.008169548 0.05856692 0.013922078
0.020551205 -0.05571479 -0.063435815 0.042212393 -0.048527498 -0.04528721 0.041177753 -0.036279168
-0.024196593 -0.0418577 0.034437533 -0.06335787 -0.020524977 -0.06388525 0.051665742 0.021288818
-0.046359662 -0.058830168 0.036644276 -0.06819302 0.037508123 0.065882534 -0.09192358 0.05945592
0.059634566 0.01251927 -0.04939115 -0.016223017 -0.07022304 -0.006170736 0.09188873 0.071531795
0.05642777 -0.022336455 -0.038479455 0.085683055 -0.05175414 -0.058601897 0.032408386 -0.037702225
-0.020099599 0.038210414 0.037360795 -0.054499205 0.032493293 0.023528222 0.005366304 0.008937949
0.08189703 -0.04816942 0.003598082 -0.07606088 0.04587399 -0.01703893 0.02976646 0.038590066
-0.05433837 -0.047012135 -0.042192426 0.04236965 0.08264606 -0.053361606 -0.05971777 -0.06625117
0.07302307 -0.041596647 -4.3831446e-05 -0.08650743 -0.0630645 0.0044368794 0.016800663 0.05123289
0.004892038 0.030258711 -0.02016912 0.08147578 -0.030553946 0.017420258 0.030107338 0.070847005
0.048984915 -0.00038434888 0.030129021 -0.006220803 -0.07146211 -0.045109663 0.004597062 -0.046146926
-0.03649919 0.03655353 0.040322047 0.05667981 -0.041668463 -0.0045145657 -0.08284017 -0.052422997

module.conv2.bias f4 [32]
00000000: f898 9ebd 567d 0f3c 3856 d33d 6d79 b63b
00000010: 854f 3c3b 24c9 a03d 62c2 90bd 7882 cf3d
00000020: 38f4 6dbd bf0f d83a 3b08 7e3d d43a 8b3d
00000030: 5e7e 11bd 3701 b73d 18f7 b7bd 37fb c13d
00000040: 9576 8bbd b46e 85bd 1587 9d3d efec 84bd
00000050: 377a bb3b 6196 27bd 4bda 30bd 5afe d0bd
00000060: 301d 94bc 64dd 76bc 4c99 4d3d 2680 09bd
00000070: f262 c83d f40b 043d 1bdf d73d 992c 65bd
-0.0774402 0.00875791 0.10319179 0.0055686743 0.002873392 0.078508645 -0.070683256 0.10132307
-0.058094233 0.0016484185 0.062019568 0.0679833 -0.035520904 0.089357786 -0.08982676 0.094717436
-0.06809727 -0.065152556 0.076917805 -0.06490504 0.0057213563 -0.040914897 -0.04317693 -0.10204764
-0.018080324 -0.015067432 0.050195023 -0.033569477 0.09784497 0.032237962 0.10540601 -0.055950735

module.conv3.weight f4 [64, 32, 3, 3]
00000000: 75e8 3c3d 380f 8fbd d452 a63c 9f72 463d
00000010: 39b8 babc 3315 1cbd 7786 f1bc c33d 413d
00000020: ea49 6ebd b968 27bc a9ee fcbc 3d4e 303c
00000030: 684b c9bc e63e b7bc 8b4a 213d 80eb 963c
00000040: 9f5e 263c 0cdb 55bd 1199 ff3c ab72 6fbd
00000050: f55b 26bd 4ce7 c13c a9f5 8fba 349d 2fbd
00000060: 1b17 23bd 69b5 10bc cafc 073d 8e19 423b
00000070: 0933 36bd 327d ca3c bd7f 153d 0ad0 4d3d
00000080: 0011 2a3d b41f 00bd 4fb1 cc3b 005a f23c
00000090: 2be0 41bc db9f 5bbd d9fc f23c 7243 2f3c
000000a0: 6522 6abd a542 d0bc a4b2 093c 23ba babc
000000b0: b602 443c 28ad 85bd f3c6 96bd ff7e 52bd
000000c0: 782d 61bc 92ea 23bd 9fff af3b 0d4d 373b
000000d0: 4699 533a a87e 2fbd eaba 36bd 7baa 013d
000000e0: 41a1 b63c cb6a 9a3c 7dd4 1fbd b832 55bc
000000f0: eef5 713d 5751 bcbc 0b91 493c dcaf 8fbd
00000100: 276f ed3a 6e77 f0bc 5f95 483b 56df 8bbd
00000110: e269 7abd 3e1e ebbc 4544 36bd c22b 06bd
00000120: 2619 c33c b14e 33bd 57ef 98bc 0399 e23b
00000130: a757 93bc 77c4 5d3d 666d e73c 9340 bfbb
00000140: 2068 8e3b 7725 453c 37d8 f63c f299 35bd
00000150: 8aad f9bc 7fb0 7f3c b623 403d 5216 683a
00000160: fe8b 6bbb b1df 523d da4b 86bd 79d6 3f3c
00000170: a873 33bd 68f3 8bbd 6ac5 64b8 ebf0 4f3c
00000180: 388e 03bd c542 633d d1a5 a23b 8f84 8bbc
00000190: d935 a1ba e77e 89bc 4a88 90bd 33fe 0c3d
000001a0: 0bd2 11bd bd2b 58bd 2dd3 163d 8e1f 29bc
000001b0: da07 6a3c c47c b53c 56cb 85bc b70d 80bd
000001c0: 1f79 b6bc ecdc 833c 7a45 c73c 31f1 2f3c
000001d0: 8b44 9f3c 5d71 e5bb e3e5 253b 7b7e 4dbd
000001e0: bf2f 79bd 773c ccbc 84fd 64bd cd77 583c
000001f0: 5d97 d73a b29f 02bd 95d1 3dbd 156d 643a
00000200: 6ec6 223d 1fe0 d73c 45a3 30bd 2f36 32bc
00000210: 49e7 41bd 4a25 95bc ce12 28bd 56d8 c63a
00000220: a675 3ebd 8955 01bd bbb6 e1bc 6fab 1fbd
00000230: 49a1 3c3c a81a 81bd 6931 52bb ca7b 033d
00000240: ee17 3f3d a313 ac3c 609b df3c bcc1 413c
00000250: 655e 963c e7ec c03c e106 0e3d 26a0 d13b
00000260: 7a59 55bb 7d39 2cbc 45a2 0fbc 5198 953c
00000270: 55f6 88bd 5748 433d e401 02bc d6c8 80bc
00000280: 403c dabc 7b5b 083d 2891 2fbd c3d2 333d
00000290: 3ae2 40bd 4a0a c3b9 80c0 143b aeb3 c1bc
000002a0: a994 d6bc bb30 b63c 81e0 1fbb 8b82 ac3c
000002b0: 3bcc 233d 52e2 463d 44aa 213c 153e 683c
000002c0: ae8f 7e3b 95c1 15bb c3e8 26bc 109e fb3c
000002d0: c26c 2c3d 66a7 a8bc aef3 02bd d94e 553d
000002e0: 8e2f 83bd 2f0e 95ba e618 b0bc c5b8 343d
000002f0: bae5 603d fc47 73bc 6368 093d 7d04 6dbd
00000300: 4502 303d f3b3 0abd c893 253b fe14 0a3d
00000310: 09af 3b3d 3771 30bd ca5b 49bd e2ee 073d
00000320: 6560 c33c 6823 8abc 33f2 24bd 83dd b73a
00000330: fcb0 12bd 42eb 06bc adc8 8d3c cb5d d3bc
00000340: 6392 64bd 8a8c 083d a4e0 283d 7e44 2cbb
00000350: b2fd 71bc c2f7 df3c cf8f 463d ee48 263c
00000360: 001c c4bc 31cd ab3c 4bae 2dbc a718 123d
00000370: 3936 3ebd 7007 f6bb bbe2 6dbc 9a46 c6bc
00000380: 966f 47bd 6e93 21bc 7bad 38bb 71d0 09bd
00000390: ba7b 1cbd 2f69 1ebd 3793 42bd 983f 84bc
000003a0: bf15 503d a234 f5bc aa43 2dbd a2cb 2dbd
000003b0: a697 083c ae88 003d 0ea7 28bd c1fe 1bbd
000003c0: 35c9 53bc 9eda 2f3d 1419 0a3d 352c 663d
000003d0: 1f8d c4bc e4c7 c63c 39ea be3c e2ca 85bb
000003e0: d149 24bd 9cd7 92bb 4ef4 1cbd 03db 34bd
000003f0: 078c 113c 256d 00bd 23ef 90bc 355c 71bd
0.046120126 -0.069853246 0.020303167 0.048449155 -0.022792922 -0.038106155 -0.029483063 0.04717804
-0.05817596 -0.010217839 -0.03087552 0.010760841 -0.02457209 -0.02236886 0.03937773 0.018422842
0.010154395 -0.052210853 0.031200917 -0.058458965 -0.04061504 0.023669861 -0.0010983247 -0.04287453
-0.039816957 -0.008832314 0.033200063 0.0029617283 -0.044482265 0.0247179 0.036498774 0.05024723
0.04152012 -0.031280234 0.006246723 0.029583931 -0.011833231 -0.053619247 0.029661583 0.010697233
-0.057161707 -0.025422404 0.008404408 -0.022793835 0.011963537 -0.065271676 -0.07362165 -0.051390644
-0.013743751 -0.040018626 0.0053710486 0.002796951 0.0008071851 -0.0428454 -0.04461185 0.031656723
0.022293689 0.018849751 -0.039021004 -0.013012581 0.059072427 -0.022988005 0.012302647 -0.070159644
0.0018114791 -0.029353824 0.003060661 -0.06829707 -0.061136134 -0.028700944 -0.0444987 -0.032756574
0.023815703 -0.043776218 -0.018668814 0.006915213 -0.017986132 0.05414244 0.028250407 -0.0058365553
0.0043459088 0.012032858 0.030132396 -0.044336267 -0.030478258 0.015606045 0.046909057 0.00088534236
-0.0035941596 0.05148286 -0.06557436 0.011708849 -0.04381147 -0.068335354 -5.4543292e-05 0.012691717
-0.032118052 0.0554836 0.0049636145 -0.017030982 -0.0012299373 -0.016784145 -0.07057245 0.03442211
-0.035600703 -0.052776087 0.036822487 -0.010322465 0.0142840985 0.02215422 -0.01633231 -0.06252616
-0.022274552 0.016096555 0.024325121 0.010738657 0.019441864 -0.0070020393 0.0025314025 -0.05016945
-0.06083655 -0.024931176 -0.055905834 0.0132121565 0.0016448308 -0.03189058 -0.04634245 0.0008713764
0.03974002 0.026351986 -0.043124456 -0.010877176 -0.04733971 -0.018206257 -0.04103356 0.0015170674
-0.046498917 -0.031575713 -0.027552953 -0.03898185 0.011513063 -0.063039124 -0.0032072908 0.032100476
0.04665368 0.021005457 0.027295768 0.011825975 0.018355558 0.023550464 0.03467453 0.006397265
-0.0032554553 -0.010511753 -0.008766715 0.018261107 -0.06687609 0.04767641 -0.007935021 -0.015720766
-0.026640058 0.033290368 -0.04286304 0.04390217 -0.047090746 -0.00037200964 0.0022697747 -0.023645248
-0.026193934 0.022240033 -0.002439529 0.021058341 0.03998969 0.04855568 0.009867255 0.014174958
0.0038842964 -0.002285098 -0.010187331 0.030715019 0.042095907 -0.020587634 -0.031970672 0.052077148
-0.06405555 -0.0011372025 -0.021496248 0.044121522 0.054906584 -0.014848705 0.033546817 -0.05786561
0.042970914 -0.03386302 0.0025265086 0.033711426 0.045821223 -0.04307672 -0.049159802 0.0331868
0.023849675 -0.016862586 -0.04027004 0.0014027808 -0.035813317 -0.008234801 0.017307604 -0.02580156
-0.055803668 0.033337153 0.04122986 -0.0026285942 -0.014769958 0.02733982 0.04847699 0.010149224
-0.023939133 0.020971866 -0.010600637 0.03566804 -0.04643843 -0.007508211 -0.014519389 -0.024203587
-0.0486904 -0.00986181 -0.0028179574 -0.03364605 -0.038203932 -0.03867453 -0.047503676 -0.016143605
0.05080199 -0.029932324 -0.042300858 -0.042430528 0.008336937 0.031380348 -0.04117494 -0.03808475
-0.012926389 0.0429331 0.033715323 0.056194503 -0.023993073 0.024265237 0.023305045 -0.0040830234
-0.04010946 -0.004481269 -0.038318925 -0.04415418 0.008883483 -0.03135409 -0.017692154 -0.058925826

module.conv3.bias f4 [64]
00000000: f026 9fbd 258b 3a3d 71ce aabc 8198 693d
00000010: b105 9cbd cc90 e83c f94b a5bd 0fba 73bd
00000020: 0f23 d4bc d0f1 97bd f8a6 69bd 1926 c8bd
00000030: dca6 9f3d 64f9 c0bc 07a3 08bd 810f 823d
00000040: defd 893d 72b3 b1bd ac24 783d 87e2 b8bd
00000050: b2d2 92bd 74a1 b83a 7c10 393b 364f 4f3d
00000060: 8724 9d3c 7ec2 5d3d e59d 08bd 518c fdbc
00000070: 6cce 613d fdda 83bd e5cd 91bd 8a30 7e3d
00000080: 128c 10bd 1272 44bd 0b38 343d 2f42 9c3d
00000090: f09d 55bd 7ef9 673d c0f1 95bd 6cb8 323d
000000a0: 5c32 90bd 59b5 5bbd bf3c 823d 950e 99bc
000000b0: 5461 b9bd 63dc 273d 4ddf f2bb c2f9 86bd
000000c0: 0245 303d 6be1 033d 1ce5 8b3d 1a65 903d
000000d0: 974d 61bd 6726 96bd 728e b9bd a546 bcbc
000000e0: f0cc 28bd 625c b03d 7894 88bd a496 a23d
000000f0: 6130 f73c 1848 53bd f2f0 31bd 9166 9e3d
-0.077710986 0.045542855 -0.020850392 0.057030205 -0.07618273 0.028389357 -0.08071131 -0.05950361
-0.025895623 -0.07419169 -0.057044 -0.097728916 0.07795498 -0.023556419 -0.0333586 0.063506134
0.067378744 -0.086768046 0.060581848 -0.09027582 -0.07169093 0.0014086203 0.0028238585 0.05061265
0.019182457 0.05414056 -0.033353705 -0.030950697 0.0551285 -0.06438253 -0.071193494 0.06205801
-0.03528983 -0.04796035 0.04399876 0.07629811 -0.052152574 0.05663442 -0.07321501 0.04363291
-0.07040855 -0.053639743 0.06359243 -0.018683711 -0.09051767 0.04098166 -0.0074118734 -0.06590606
0.04303456 0.032197397 0.068308085 0.070505336 -0.055005636 -0.073315434 -0.090603724 -0.022982905
-0.04121107 0.086113706 -0.06668943 0.07938889 0.030174436 -0.051582426 -0.043442674 0.07734407

module.conv4.weight f4 [128, 64, 3, 3]
00000000: b8fb aabc b034 c83c cb84 a7bb fe62 e5b9
00000010: 1a6e a0bc 485b fdbb 4f39 06bd b5ca 95bc
00000020: 16db 113d 81fa 0f3b 52c8 6f3c 0004 04bd
00000030: da59 03bd 4f34 f0bb 6819 0abd da3b b4bc
00000040: be4f 2f3a 7432 8ebc 83b9 bd3c be82 72bc
00000050: 80d4 4c3d 82d6 443a 61d6 a9bc b355 40bb
00000060: 1170 b33c baa0 ecbc 48f8 3a3c 82b1 82bb
00000070: 55b2 8cbc fc57 c93c 5e9a 233d 4be3 e3bc
00000080: 5fb4 053d 356f 093d 3b98 9f3c 43ed b0bb
00000090: 2d74 613c 0375 44bb 9698 48bb e0fe a9bc
000000a0: e66f d23b e396 32bd 7f4d 1c3d edb2 e5bc
000000b0: ab0d 38bc 2dd8 cf3b a434 913c e7aa 9a3a
000000c0: c637 f9bc 95a3 dbbc 2989 ad3c dca9 113c
000000d0: 8292 8d3b 6d5b 1d3c d14d 833c 6207 04bb
000000e0: d212 66bc b280 14bd b766 f73c 1ecd 9cbb
000000f0: c79f eabb 6600 93bc 8bfe b33c e51e 033d
00000100: d8b8 88bc 807a b6bc 975e 8c3b 9bfd 8dbc
00000110: b2d0 4f3b fed4 e2bc 8931 dbbc 3141 fcba
00000120: b191 f63c 6e95 093d c3c6 7ebc a5f7 29bd
00000130: 8dd6 c63a 16c0 4f3b 9686 edbc f36d 723c
00000140: 3d78 65bc cb51 14bd 7abc ac3c 7041 b23b
00000150: 8b52 40bd 8e65 59bd 9f79 b8bb b472 6c3b
00000160: bf57 81bb 3fe3 01bd b4b4 f43c f0c5 81bc
00000170: 17c6 f73c 1f10 d63c c689 093d 3a98 d63c
00000180: bb18 503c cc97 04bd 9aa0 163d a2d3 633c
00000190: 982e 553c 1f4b 90bc ee80 203d e1ec 98bc
000001a0: 2a1b 7b3c 755a 0f3c 2140 ef3c fbea 103d
000001b0: a14f d83c 68df 15bd fdc2 843c cd33 b23c
000001c0: d3c8 17bd 389d 81b9 8900 563c 83c2 8d3c
000001d0: 1ed7 1a3c 75ff fc3c 3a1c 0b3d 3645 7bbc
000001e0: 2f76 eabc 83f1 21bd 0e4c 16bd 1493 e03c
000001f0: 58c3 113d 8346 c53c 5088 c23c 5bef 233d
00000200: cd82 b0ba 48b3 64bc 347a b03c 9510 803c
00000210: 133e 8f3c f73c acbc eefa a73c 59f8 963c
00000220: 3cb1 eabc 3fbe 44bb fc5b 5cbc d20b 36bd
00000230: 9e70 023d 4e25 5b3d 9ad3 a43c c16a e23c
00000240: 4b2e a53c 8d10 65bc d9c4 f53c 7680 103d
00000250: c500 723b b9ee 8a3a 4cd6 1c3d 0047 bebc
00000260: e01d a53c 30ea f93b 5828 b93c 88fb 4f3a
00000270: 3f07 d4bc f83b 163d 4dc5 01bb 7820 da3c
00000280: ecda 9b3c 0363 cdbb a27f f73c 4ce3 0dbd
00000290: 8f8b 36bc 0472 65bc ed59 9bbc 146a d23c
000002a0: b950 a63c f3b9 043c e394 37bd 52dc 88bc
000002b0: 42b9 9d3b 4d50 a7bb 5174 d0bc 07ad bcbc
000002c0: 5a07 c43c b24a 9b3c e996 b23c 715c b23c
000002d0: 7a6a 9f3c e6a0 9cbb a59c a83c 0d50 8dbc
000002e0: c1ac 733c a9e5 973c 8d9e 193b 8919 42bb
000002f0: 9946 153d 998f df3c 77f9 23bd d88b 53bc
00000300: bd37 a2bb a761 91bc 438e 5abc 65de e23b
00000310: 01a7 263d b48b fe3b 3389 7b3b 9550 88bc
00000320: 363e 1b3d e1e6 22bd c3e6 5e3c 0f85 b8bc
00000330: 5716 94bc 6df0 44bd cb68 56bc df96 143c
00000340: f804 a4b9 4b02 7cbc c0e0 51bd a81c 803c
00000350: 0f8e c5bc eafb 823c 5edf 7dbb e668 ef3c
00000360: 91b6 aebc 0a64 9c3c a37e 433c ba78 b93c
00000370: 6c97 0abd e7e5 bf3c 4322 42bc eca0 03bd
00000380: 6edb 35bd 2e95 c43b f524 993c 22ca 22bd
00000390: 38e6 0fbc 6ff4 c8bc 7c69 15bc 3a13 18bd
000003a0: 1138 1dbd 5e86 b3bc faba 50bb ecae bfbc
000003b0: d5f7 82bb 6d22 42bd 350d fcbc ec01 cbbc
000003c0: 7b7e 023d 5e29 91bc 34a1 75bc 9651 703c
000003d0: e090 e9bb 9934 2abd 5060 8fbc 3f09 c2bc
000003e0: 2c7d 49bc 648e 82bc 01f6 703b 301a 283d
000003f0: 4b5c fd3c b66b 6f3b 8258 b73c 618c 8abc
-0.020871982 0.024439186 -0.0051122657 -0.0004375204 -0.01958375 -0.007731829 -0.032769497 -0.018285135
0.035609327 0.002196938 0.014635162 -0.032230377 -0.03206811 -0.0073304544 -0.033715636 -0.022001196
0.0006687603 -0.017358042 0.023159748 -0.014801679 0.050007343 0.0007508771 -0.020732107 -0.0029347956
0.021904023 -0.028885234 0.011411734 -0.0039884457 -0.01717488 0.024578087 0.039942138 -0.027818343
0.03264272 0.03355332 0.019481769 -0.0053993776 0.013760609 -0.002997697 -0.0030608526 -0.020751417
0.0064220307 -0.043600928 0.038159844 -0.02803942 -0.011233727 0.006342909 0.017725296 0.00118002
-0.030422103 -0.0268114 0.021183567 0.008890595 0.0043204436 0.009604317 0.016028317 -0.0020146002
-0.014042573 -0.036255546 0.030200345 -0.004785194 -0.00716016 -0.017944526 0.021971961 0.032011885
-0.016689703 -0.02227521 0.004283737 -0.017332843 0.0031710085 -0.027689453 -0.026757019 -0.0019245503
0.030098768 0.033589773 -0.015550318 -0.041495938 0.0015170142 0.0031700186 -0.02899484 0.014796722
-0.014005718 -0.036210816 0.021085966 0.0054399297 -0.04695372 -0.053075366 -0.0056297327 0.003607911
-0.0039472277 -0.03171086 0.029871322 -0.015841454 0.030245824 0.026130734 0.033578657 0.026195634
0.012701209 -0.032371327 0.036774255 0.013905438 0.013011597 -0.017613946 0.039185457 -0.01866764
0.015326301 0.008749594 0.029205384 0.035380345 0.026405158 -0.03659001 0.016206259 0.021753216
-0.037056755 -0.00024721934 0.013061651 0.017304664 0.009450702 0.03088353 0.033962466 -0.015336325
-0.028620807 -0.039536964 -0.036693625 0.027413882 0.035586685 0.024081474 0.02374664 0.04002319
-0.0013466716 -0.01395876 0.021542646 0.015632907 0.017485654 -0.021025164 0.020505395 0.018428968
-0.028648965 -0.0030020622 -0.013449665 -0.044444866 0.03184568 0.053502373 0.02012043 0.027638795
0.020163676 -0.013980997 0.03000109 0.03527876 0.0036926728 0.0010599709 0.038290307 -0.023227215
0.020155847 0.0076267943 0.022602245 0.00079339044 -0.025882361 0.036678284 -0.0019801438 0.02662681
0.019025289 -0.0062679066 0.030212227 -0.034640595 -0.011141672 -0.014004234 -0.018963778 0.025685348
0.020302163 0.008100974 -0.044819724 -0.01670662 0.004813344 -0.005106008 -0.025446089 -0.023031725
0.023929287 0.018956516 0.021800475 0.021772595 0.019459952 -0.004779923 0.020582506 -0.017250085
0.014872731 0.018542128 0.002344045 -0.002961727 0.03644428 0.027290152 -0.04003283 -0.012911759
-0.004950492 -0.01774676 -0.013339582 0.006923484 0.04068661 0.0077681188 0.0038381338 -0.016639987
0.037901126 -0.039770965 0.013604823 -0.022524385 -0.018077059 -0.04808085 -0.013086508 0.009069174
-0.0003128422 -0.015381406 -0.05123973 0.015638664 -0.02411559 0.015989263 -0.0038737874 0.029224824
-0.021327289 0.019090671 0.011932048 0.022640575 -0.033835813 0.023425056 -0.011848989 -0.03213589
-0.044398718 0.005999229 0.01869438 -0.03974355 -0.008782916 -0.024530618 -0.009119388 -0.03712771
-0.038383547 -0.021914657 -0.0031849728 -0.023398839 -0.003996829 -0.047396112 -0.030768016 -0.02478119
0.031858902 -0.01771992 -0.014992047 0.014667889 -0.007127866 -0.041554067 -0.01750198 -0.02368605
-0.01229791 -0.015937038 0.0036767724 0.0410406 0.030927798 0.0036532707 0.022381071 -0.016912641

module.conv4.bias f4 [128]
00000000: 4629 74bd a89c 24bd f8f9 2f3d 5a5b d83b
00000010: 208b 623d 8a68 c8bc dcf5 573c 0aa8 e83b
00000020: 3a33 a4bd cf57 89bd 572e 2dbb 8872 fbbb
00000030: 8581 b4bc 1668 19bd 2909 59bd f2fa 883d
00000040: a06c 723d 3a43 653d dd0a d13c fdd0 96bd
00000050: 0bd6 11bd d32d f23c 67bf 45bd 05da 103d
00000060: ec76 38bd a6c5 113d 9c22 debd f276 a53a
00000070: 5a8d 653d 9df0 d43c d87c 8fbd fde8 70bd
00000080: 5c14 58bd a694 043d 72a9 813d 1b45 91bc
00000090: 4844 773c c4a8 15bd b48a 243d cec7 41bd
000000a0: 58f7 093d 05d1 bd3c 51b4 93bd c43c 8c3d
000000b0: 676a fe3c fd94 02bd 88d2 363d 60e3 873c
000000c0: 1d9f 513b ab94 68bd afde 7bba 8d73 303d
000000d0: f683 97bd 0297 2abd c203 1a3d 8220 45bd
000000e0: c392 05bc 4736 06bc 51af 643a 23e2 113a
000000f0: e079 61bd 29b4 8e3c 59dc b03c 8698 dd3c
00000100: 4344 e73c d945 4fbd b798 213d c88a 86bd
00000110: 2a6f 8ebd f1ec 163d aff5 483d 6f10 abbd
00000120: 5478 85bd fe4e 89bd f9d2 0e3d 553e 26bd
00000130: 336b 843d 2cc2 58bd 95f2 b4bd d253 1b3d
00000140: 9694 43bd 30c4 eabc a556 bd3c b8bb 6fbd
00000150: 4441 b0bd b1d1 6f3d 7b29 aebd 1d3e 2b3d
00000160: 48a6 01bd 175c cfbd df8d fcbc 6b4b 07bd
00000170: b719 243d 1b76 6dbc c74b 8abd abe5 8b3b
00000180: bd79 47bb b9c8 2bbd f873 dbbc 3237 35bd
00000190: 47f7 6bbc d794 383d bfd7 413d 8b06 2c3d
000001a0: 06b5 163d 0c35 d43c 2397 dc3c a9e8 74bd
000001b0: d264 193d a491 74bd 7ced a6bc 2dcd c7bc
000001c0: 9095 febc a401 7c3d 4fe6 743d 3e99 12bd
000001d0: 61c5 623b 3fcf 67bd 5dd5 62bd 8482 8dbd
000001e0: 20d1 5fbb c7a6 6fbc 1219 7cbc 4f2a a6bd
000001f0: 9d06 89bd c5ee 123d cc5b 193d e7fe 35bd
-0.059609674 -0.04018846 0.042963 0.006602687 0.05530846 -0.02446391 0.013181176 0.00710011
-0.08017583 -0.06706201 -0.0026425326 -0.0076735653 -0.022034416 -0.03745278 -0.05298725 0.06688489
0.059185624 0.055972315 0.025517875 -0.0736408 -0.035604518 0.029562866 -0.04827824 0.03536417
-0.045035288 0.035588883 -0.10846445 0.001262395 0.056043006 0.02599364 -0.07006234 -0.058815945
-0.05275379 0.032368325 0.06331147 -0.017733147 0.015091963 -0.0365379 0.04017134 -0.04730969
0.03368315 0.023170957 -0.07212127 0.068475276 0.031056596 -0.031880368 0.044634372 0.016587913
0.0031985708 -0.056782406 -0.00096080726 0.043078948 -0.073982164 -0.04164792 0.03760124 -0.048126705
-0.0081526665 -0.008191652 0.0008723634 0.0005565008 -0.05504787 0.017419891 0.021589445 0.027050268
0.028230792 -0.05060372 0.03945228 -0.06569439 -0.069547966 0.03684706 0.049062427 -0.08352744
-0.065170914 -0.0670452 0.034869168 -0.04058679 0.06465759 -0.05291955 -0.08835331 0.037921734
-0.047749124 -0.028658003 0.023112604 -0.058528632 -0.086061984 0.058549587 -0.085040055 0.041807283
-0.03165272 -0.101249866 -0.030829368 -0.03303091 0.040063586 -0.014493491 -0.06752735 0.004269322
-0.0030437552 -0.04193947 -0.026788697 -0.04424209 -0.014402217 0.04506382 0.047324892 0.041998427
0.03679373 0.025904201 0.026927536 -0.059792195 0.037449665 -0.059709206 -0.020376913 -0.024389828
-0.031077176 0.061525002 0.059789952 -0.035790674 0.003460251 -0.05659413 -0.05537926 -0.069096595
-0.0034151748 -0.014627165 -0.015386837 -0.081135385 -0.066907145 0.03587224 0.03744106 -0.044432547

module.conv1T.weight f4 [128, 64, 3, 3]
00000000: 03d9 5f3e c75e 213e 9aaf a23d bb60 e93d
00000010: 2fae f13d c9b9 be3d 08f1 693c e6f6 913d
00000020: 6049 e23c 8088 f93d ec1a 13be 391e 963a
00000030: db79 93bd bf06 9c3c d647 95bd 7892 3e3d
00000040: 0c65 f93d 59f2 1f3e f073 9abd d24d 13be
00000050: 2ca3 e3bb 5c46 95bd c31f 03bd 069a 8ebd
00000060: 2f60 68bd b5fb 043d a593 343d 77c3 3a3e
00000070: b02b 2d3e d47c 6c3d 4d81 843e 72e4 053e
00000080: 5d9a 673e 5f7d b13d 071f 083e c9fe 163e
00000090: 0309 033d 07cb c93d a40d 8abc cfe3 09bd
000000a0: 4ca3 463e 24dd 653d a1f1 db3d a9de 183e
000000b0: 0e71 2c3e 3c69 403e 7686 723e 6926 023d
000000c0: 7ef8 223e e81b 573e 0f02 573e 927b ae3d
000000d0: 5af5 be3d 9b6b 813e 746c a73d 8c90 bb3a
000000e0: 28da fc3b 2ac9 d5bc a90d 873c 958e 7ebc
000000f0: efeb 313d 6882 173e 0282 093e cdf7 04be
00000100: 4ced 93bd 43f7 0e3d ce57 26be 5ad1 cd3c
00000110: d1d0 07be 047b 37bd 8391 7d3c f85d 493c
00000120: 35fc 43be 74cc 44bd c0d3 e9bd eb77 e6bd
00000130: 7ae7 82bd 03a9 adbd 9227 d0bd 710b e43c
00000140: 4937 d43d 04e8 51be 7a2f 25be 2afb 99bd
00000150: 8081 04be d0b9 f8bc d878 13be 0bd4 b2bc
00000160: 81ef 2e3d 0970 63bc 03f5 74bc c5bb 21be
00000170: 9256 54bd e2f6 d2bd 90b2 bebd 3518 f5bd
00000180: 159e 843c 07c7 553d 5cad 0abd b2ee 95bd
00000190: 3560 fa3d 17d6 1abb 93f1 c13d b294 fdbb
000001a0: e594 4c3d 0eb3 5f3d e699 c53d 8e04 4a3e
000001b0: c0a9 58be 1cab 8ebd 68c2 6bbd 59b5 06be
000001c0: 1fb3 91bc 37e2 92bd 766c a6bd 6ec2 a63d
000001d0: 1892 b73d 1354 47bd 6da3 893d 78ea 1b3d
000001e0: fedc 813b fd93 173b c63a fcbd d154 b33b
000001f0: 8849 cd3d 0d56 b63d 241d d2bd 2f92 e7bc
00000200: c860 d8bc d462 11be f554 0a3d 1c85 7bbc
00000210: 0acc a33d 3e6c 173e 8a44 923e 744d 04bd
00000220: 03fc f6bc cf8b 1dbe 2aa3 0dbd 12bd 46bd
00000230: 433b 19bd 6607 4c3d ef8d 0e3e fdcd 203e
00000240: 96b9 0ebd 8a5b 683c 3891 bc3d d3fd 6cbd
00000250: 69b2 fc3c eeb6 cbbd edba 7e3d 0b1f c53d
00000260: 8a5f 5e3e bf0c c53c bd25 2cba 37d4 b8bc
00000270: 76af b43c 3d8e 003d f45a c3bc c504 843d
00000280: 445c 003e c248 ac3d 1b75 22be 6126 9dbd
00000290: 14d0 45bd 2c76 24be bb13 15bc 7d59 7fbd
000002a0: 2541 04be 50ef c03d 6ddf 233e 9469 46bd
000002b0: a803 033e 56cb 4cbd 4c43 6d3b cca3 95bc
000002c0: 7c46 933c a204 a43c 6404 0e3e 7b93 233e
000002d0: 807a 4b3d 578f 883d 0318 18bc 0a55 0fbe
000002e0: 0ed7 a9bd 8324 a0bd a9a0 213c 8ee6 073e
000002f0: e466 a33e a1fa 073e f335 3e3e 8b02 123e
00000300: b83a 553d aea5 e63d 9d52 c53d 06c6 b9bd
00000310: 4e89 663d 2e2f 7abd c3b3 0dbe 621e 65be
00000320: bfb4 54bd 8a01 2bbc aad2 843c be5c 2cbd
00000330: 3027 b13c df19 ad3c 98c9 e73d 96bd 8abd
00000340: a4ef 0dbe b420 443d 36ce 263d c1d9 c13d
00000350: e378 1a3d 511a 0bbd 4e9f 7a3d 9508 b6bc
00000360: 69af 13be e5b6 0bbd 2249 273e 9ed0 95bb
00000370: 8297 123e 71a7 bf3d fe0c 203d 7eb8 723e
00000380: a2ad c33d bb1f 853e 9785 503e e662 243e
00000390: 9131 e63d 394f bb3d 01ce 7c3e c31a 893d
000003a0: 75a1 563d 9f16 8f3e a809 0fbd 8b71 f9bd
000003b0: 193e 95bc 6c20 d5bd 1d91 93bd 1718 01bd
000003c0: ac22 10bc b064 9ebd 4dc8 e2bc cc26 213e
000003d0: 89b8 723e 6cf9 263c 4203 0cbd d0b6 5b3d
000003e0: 497b d83d 52eb 743d 675d 503e 51d8 813e
000003f0: b94e 45be 46a7 86bd 2ae1 46bd 6300 d0bd
0.21860127 0.15758811 0.079436496 0.11395403 0.11800801 0.093127795 0.014278658 0.0712717
0.027622879 0.121842384 -0.14365739 0.0011453099 -0.072009765 0.019046186 -0.07289092 0.046526402
0.12177476 0.15619792 -0.075416446 -0.14385155 -0.006946942 -0.072888106 -0.032012712 -0.069629714
-0.056732353 0.03246661 0.044086117 0.18238626 0.16911197 0.057736233 0.258799 0.13075426
0.22617479 0.08666491 0.13293086 0.1474563 0.031991016 0.098531775 -0.016852207 -0.03366452
0.1939823 0.0561191 0.107394464 0.14928688 0.16840002 0.18790144 0.23684105 0.031774912
0.15915105 0.21006739 0.20996879 0.08519663 0.09324141 0.2527741 0.08174983 0.0014310046
0.007716436 -0.026096899 0.016486006 -0.015536924 0.043437894 0.1479584 0.134285 -0.12985153
-0.07222995 0.034903776 -0.16244432 0.02512424 -0.13263251 -0.04479505 0.015476587 0.01229047
-0.19139178 -0.048046544 -0.11417341 -0.11253341 -0.06391807 -0.08479502 -0.101637974 0.027837487
0.10362107 -0.20498663 -0.16131392 -0.07518609 -0.12940025 -0.03036204 -0.14401567 -0.021829626
0.042708877 -0.013881692 -0.0149509935 -0.15794285 -0.051840372 -0.103009954 -0.09311402 -0.11967508
0.01618866 0.05219176 -0.033856735 -0.07320918 0.12225381 -0.0023626143 0.09469905 -0.007738673
0.049946684 0.05461412 0.096484944 0.197283 -0.21158504 -0.0696623 -0.057558447 -0.13155116
-0.017785607 -0.07172053 -0.08126156 0.08142553 0.08963412 -0.048664164 0.06720624 0.038065404
0.003963112 0.002312898 -0.12315898 0.0054727574 0.100237906 0.08903132 -0.102594644 -0.028267948
-0.026413336 -0.14197856 0.033772428 -0.01535156 0.07997902 0.14787385 0.28567916 -0.032300428
-0.030149465 -0.15385364 -0.034579434 -0.048520155 -0.037410032 0.049811743 0.13921331 0.15703578
-0.034844957 0.014181981 0.09207386 -0.057859253 0.030846791 -0.099470004 0.062189985 0.096250616
0.21716133 0.02405393 -0.0006566903 -0.02256213 0.022056323 0.03138565 -0.02384708 0.06446222
0.12535197 0.08412315 -0.15864985 -0.07673336 -0.048294142 -0.16060704 -0.009098942 -0.062341202
-0.12915476 0.09420645 0.16003199 -0.04844053 0.12794363 -0.049998604 0.0036203442 -0.018266581
0.017977946 0.02002174 0.13868862 0.15974228 0.049677372 0.06667965 -0.009283069 -0.13997284
-0.082929716 -0.07819464 0.0098649645 0.13271543 0.31914437 0.13279201 0.18575267 0.14258783
0.05205795 0.1126207 0.09634898 -0.09070973 0.056283288 -0.06108015 -0.13838105 -0.22374871
-0.051930185 -0.010437379 0.016213734 -0.042080633 0.021625131 0.0211305 0.11317748 -0.06774442
-0.13860947 0.04788275 0.040724 0.094653614 0.037712943 -0.033960644 0.06118708 -0.02222089
-0.14422382 -0.03410997 0.16336492 -0.0045719882 0.14315608 0.09358109 0.03907489 0.2370319
0.09554602 0.2600077 0.2036346 0.16053352 0.11239923 0.0914597 0.24687959 0.066945575
0.05240007 0.27946946 -0.03492132 -0.1217986 -0.018218087 -0.104065746 -0.072054125 -0.031517114
-0.008797329 -0.07734048 -0.027683401 0.15737456 0.23703207 0.010191303 -0.034182794 0.05364114
0.1057039 0.05979473 0.2034813 0.2536035 -0.19268312 -0.065748736 -0.048554577 -0.10156324

module.conv1T.bias f4 [64]
00000000: 2902 f33d b9d0 033d 6785 6cbd d825 c03d
00000010: 96bd 503d 8d81 483d 31b1 96bc 0d32 c93c
00000020: 91b5 33bd cbc7 0cbd 5d8a 3abc 81a7 31bc
00000030: b50c bcbc 2276 4c3c 0af8 613d 87c2 fcbc
00000040: 584d 85bd 6de3 043c 9228 733b 241f 993c
00000050: f5c2 11bd 2aff 663d 10d5 afbc 9d95 87bd
00000060: d08c b8bb 90ae baba 051f a9bc 374d ca3c
00000070: 6156 023d 5809 23bc cb1e 153d 74a6 7fbd
00000080: 81e7 35bc 0291 003d 6741 bcbc 3974 223d
00000090: f490 8ebd 6e5f 5bbb 6ebd f33c ee41 b03d
000000a0: e90d 043d 950b 1e3d dfc2 883b 1b01 9f3d
000000b0: 0370 063d 8d83 63bd 4747 a83d 05d5 47bc
000000c0: 3c6e 5c3d 494f 073d 1a4c 69bc 7498 4a3d
000000d0: 135b 043e aa81 863a 5992 ca3c a568 883c
000000e0: e029 b7bd 20fd 903c 0f85 283d 6f40 0f3d
000000f0: 2085 6dbd 6593 f6bb 88f6 0e3d e3e4 14bc
0.118656464 0.032181475 -0.05774441 0.09382218 0.050962053 0.048951674 -0.018395038 0.024559999
-0.043874327 -0.034370225 -0.011385527 -0.010843159 -0.022955278 0.012479337 0.05516819 -0.030854477
-0.06508893 0.008110863 0.003710304 0.018691607 -0.035586316 0.056395687 -0.0214639 -0.06620333
-0.0056320205 -0.0014242698 -0.020644674 0.024695022 0.03182066 -0.009950958 0.03640632 -0.0624146
-0.011102558 0.03138829 -0.022980405 0.03966162 -0.06961241 -0.0033473629 0.029753413 0.08606325
0.03223983 0.038585264 0.004173621 0.07763883 0.032821666 -0.05554538 0.0821672 -0.012196784
0.053816065 0.033034597 -0.014239335 0.049461797 0.12925367 0.0010262032 0.024727987 0.01665146
-0.08943534 0.017698824 0.04114252 0.034973558 -0.057988286 -0.007524895 0.03490308 -0.009087774

module.conv2T.weight f4 [64, 32, 3, 3]
00000000: 1613 3a3e 4fe6 373e beb4 333d 0227 093e
00000010: da9d 143e 5018 963d a490 6ebd 736e cf3c
00000020: 3316 a83d 1a6b 3abd 9f93 79bd 180e 19be
00000030: ddcd ae3c adc7 6c3e a62f 3d3d 10a7 28be
00000040: 15e7 d73d 87be 86bd 3d5a 6abe 78fd 36be
00000050: 978f 3abe dadf b0bd fd1f 45be 4ea1 3dbd
00000060: e628 1dbe 9bb0 08be badf b8bd 77e6 adbe
00000070: 32c9 8dbe f3b9 7cbe 8a5f 60be bc5e 86bd
00000080: 7d3a 24be 8538 10bd 895c d4bd bfb8 33be
00000090: bba5 17be fb0d 67be 2e2a 18be 7ecb cbbe
000000a0: ec41 c7be b71c 03bf d5f0 d4be 49a4 b3be
000000b0: 12d9 bbbe fcaa 4ebe 9c6f 2ebe 0fa0 08be
000000c0: 05ef f4bd e219 70be 71ff 37be 86e7 1fbe
000000d0: e3e5 93be c696 48be f69a f9bd 2a0d f93a
000000e0: e6f3 40bd 3ee3 72bd 772f 6bbd 7a7a 16bd
000000f0: bb3c dd3c 8727 1dbd 9730 cbbd 2808 69be
00000100: b1e2 9ebe 3a6b 8bbe efb0 67be 44c4 55be
00000110: 4cc9 c3be 8a73 a6be 3f1e 06be 9f7d 9bbe
00000120: 818a d3bc e5c9 31be 4925 acbd 70ba 03be
00000130: 0cd4 44be a8cb 29bd ed0c 3cbe fd58 1fbe
00000140: 7b11 01be 9399 ebbd c05e 14be 9daa 5bbe
00000150: 374d 923d 17f4 323d 1a99 d63c 5dc7 a5bb
00000160: 07d2 523d 19a1 69bb 8842 8abe 3420 33be
00000170: 4808 71be 2fe9 3fbe 777f c6bd 38e0 dbbd
00000180: 1156 cdbc ba92 6c3c c659 adbd 678c d9bd
00000190: 756f a3bd 739d 19be 6dad a6bd 5f17 c83b
000001a0: fc59 0abe b1e9 1cbd 6fd8 3d3e 9817 11be
000001b0: 1b5f 0cbe 1c32 b23c 1ef4 adbd e878 a7bd
000001c0: a1e8 87bb 6b5d 71bc ccc8 263a b691 d63c
000001d0: a48c cabc 3a7b 33be f7b5 29be 5905 3ebd
000001e0: c482 2fbe 7129 74be 5819 31be e183 81bd
000001f0: b865 8abc a65b cbbd 36ae 5dbe 94f8 8dbd
00000200: 8442 febd a702 f9bd 35da 43be 12b2 e9bd
00000210: a712 27be c707 063d 26f7 0cbe 5941 84be
00000220: 3e33 53be 364c 8dbe 6d02 76be 5586 c8be
00000230: 6317 c9be 632c 54be 754c 89bd 60d6 0abe
00000240: cffc 33be 609c 43bd e3ac 90bd fec3 2fbd
00000250: 579a 09bd b6d1 69bb 3367 fe3d 59f6 9a3d
00000260: 002e 0e3d 4fb7 8ebe 86d8 83be 2d3a 6cbe
00000270: 5520 4dbe 8031 6abd 76ec 1ebe 0d96 25be
00000280: 0056 fdbd 5afd 2fbe a4ed d6bd 424c 003c
00000290: 35cc a7bd 0b1e 72bd ac0f c33c 15db a6bc
000002a0: b46b f2bc c9a0 323d 05e6 a4bd cbbd 873e
000002b0: 9985 563e beff 1f3e 8f96 0d3d 8eef b53d
000002c0: c9e3 2a3d 8be7 ef3a 53b7 c63c e4de c1bc
000002d0: 9b5e a6be 79af 94be 4081 7bbe e1f6 abbe
000002e0: 9781 bdbe 1ea0 b6be 3c87 5abe efec 93be
000002f0: 8739 9fbe 65ce 963d 3eeb aa3d 66d7 97bd
00000300: e125 463d d470 a43d afe5 7ebe 9604 ecbd
00000310: 906b 05bd bb99 c6be 8a1c 78be 9087 95bd
00000320: b220 aebd e76e 19be 09e2 75be 4131 43be
00000330: 17d9 3abe 6d50 16be 6311 7fbe 1b83 4bbe
00000340: 79b5 9cbd 2eea 44be 2e1c c1bc 2197 dd3c
00000350: 88a8 d2bd e3db 583d a810 1e3e a8d2 41bb
00000360: 4b43 53be 63cb ad3b da74 87bd 1846 12be
00000370: d3df dfbd 65c7 eabd 703a d6bc 99e9 a83c
00000380: b311 abb9 3c5e 9dbe eacd 97be ce69 72be
00000390: 9690 b5bd e193 cdbd aae5 12be ed96 53bb
000003a0: 4d28 9b3b bc11 ccbc cb42 bfbe 17db 7bbe
000003b0: 3102 a7be 69d7 27be 7fbc 0dbe 8234 3bbe
000003c0: 99fb bbbb 52a1 053e d746 72bd d45f a0be
000003d0: a796 cabe 1695 64be d5fa 5fbe 0040 9cbe
000003e0: 5887 9cbe 55b1 303c 49f2 abbd 5197 f5bd
000003f0: 6e84 7dbe b996 8cbe ac44 ccbd 33f1 a0be
0.18171343 0.1795895 0.04387354 0.13393787 0.1451334 0.07328856 -0.05824341 0.025321221
0.08207359 -0.045512296 -0.060931798 -0.14946783 0.021338398 0.23123045 0.04618802 -0.1646998
0.10542122 -0.06579309 -0.22885986 -0.17870128 -0.18218838 -0.08636446 -0.19250484 -0.04629641
-0.15347633 -0.1334862 -0.090270475 -0.33964893 -0.27692562 -0.24680309 -0.21911445 -0.06561038
-0.16037937 -0.03521015 -0.10369212 -0.17550944 -0.14809315 -0.22563927 -0.1485984 -0.3980369
-0.38917482 -0.5121569 -0.4158999 -0.35086277 -0.3668905 -0.20182413 -0.17034763 -0.13342308
-0.11959652 -0.23447374 -0.17968537 -0.15615663 -0.28886327 -0.19588766 -0.121877596 0.0019001116
-0.0471076 -0.059298746 -0.057418313 -0.036737897 0.027006498 -0.038367774 -0.09921377 -0.22757018
-0.31032327 -0.27230245 -0.22626089 -0.2087565 -0.38239515 -0.32510024 -0.13097475 -0.3036928
-0.02582288 -0.17362173 -0.08405549 -0.12864089 -0.19221514 -0.041453987 -0.18364306 -0.1556129
-0.12604325 -0.11503901 -0.1448927 -0.21451803 0.07143634 0.043689813 0.026196051 -0.0050591663
0.05146983 -0.0035649 -0.27003884 -0.17492753 -0.23538315 -0.18741296 -0.09692281 -0.10736126
-0.025065454 0.014439279 -0.084643885 -0.10622483 -0.07980243 -0.15001468 -0.08138547 0.0061063017
-0.13510889 -0.038308803 0.18539594 -0.14169157 -0.13708155 0.02175241 -0.08493827 -0.08177358
-0.0041476046 -0.014731745 0.00063623185 0.026192527 -0.024725266 -0.17527476 -0.1657332 -0.04639182
-0.17139727 -0.23843934 -0.17294824 -0.06323982 -0.016894206 -0.0992959 -0.21648487 -0.06932178
-0.124150306 -0.12158709 -0.19126208 -0.11410917 -0.16315709 0.03272226 -0.13766155 -0.25831106
-0.20625016 -0.27597207 -0.24024363 -0.39164987 -0.39275655 -0.20720057 -0.06704036 -0.1355834
-0.17576908 -0.047756553 -0.070642255 -0.042911522 -0.033594456 -0.0035677976 0.124220274 0.07566518
0.034711838 -0.27874228 -0.25751132 -0.23069067 -0.20031865 -0.057176113 -0.1551989 -0.16170521
-0.12369919 -0.1718649 -0.10494545 0.007830681 -0.08193246 -0.059110682 0.023811184 -0.020368138
-0.029592372 0.043610368 -0.08051685 0.26511988 0.20949401 0.15624902 0.034567412 0.08883582
0.04172114 0.0018303258 0.024257338 -0.023665853 -0.32494053 -0.29040125 -0.24561024 -0.3358679
-0.37012932 -0.35669035 -0.2134065 -0.28891703 -0.31098577 0.073635854 0.0834565 -0.07414131
0.048375968 0.08029333 -0.24892305 -0.11524312 -0.032573283 -0.38789162 -0.24229637 -0.07301247
-0.0850233 -0.14983712 -0.24012007 -0.19061758 -0.18246876 -0.14679118 -0.24908976 -0.19874232
-0.07651801 -0.19229957 -0.023573007 0.027049603 -0.10286051 0.052944075 0.15436041 -0.0029575024
-0.20631139 0.0053037866 -0.066140845 -0.14284551 -0.10931363 -0.11463813 -0.026150912 0.0206192
-0.0003262885 -0.30735958 -0.29649287 -0.23673174 -0.08865468 -0.10037971 -0.14345422 -0.0032286004
0.004735029 -0.0249108 -0.37355646 -0.24595295 -0.3261886 -0.16390766 -0.13841437 -0.18281749
-0.00573678 0.1304982 -0.05914959 -0.3132311 -0.39568064 -0.22322497 -0.21873029 -0.30517578
-0.3057201 0.010784467 -0.083958216 -0.11991752 -0.24757549 -0.27458742 -0.099740356 -0.3143402

module.conv2T.bias f4 [32]
00000000: e061 9b3d b9bc 31bd 1e4c d0bd 27aa 75bd
00000010: 8b44 1abe d92f 2dbe 70f6 043e 70bc b6bd
00000020: 3002 f2bd c9b6 5bbd c07a 25bd a1fc 46bc
00000030: 8062 87bb 3b1b c43b dabb 26bd 37f4 e0bd
00000040: 83db 5e3d 45be 90bd ae97 35bd c6f0 4d3d
00000050: 7d30 15be ea0a 30bd 4067 a6bd 2879 3f3d
00000060: c7c7 b33c 94ab 97bd 7fe6 2cbd 6a5a 76bd
00000070: 2c12 babd 0aaf 00be 4a0e 293d 174b 56bd
0.075870275 -0.04339287 -0.10170768 -0.059976723 -0.1506521 -0.16912784 0.12984633 -0.0892266
-0.118168235 -0.053641114 -0.040400267 -0.012145192 -0.004131615 0.0059846914 -0.040706493 -0.1098408
0.05440856 -0.07067541 -0.044334106 0.050278448 -0.14569278 -0.04297916 -0.08125162 0.046746403
0.021945847 -0.07405773 -0.042212006 -0.06014482 -0.09085497 -0.12566772 0.041273393 -0.052317705

module.conv3T.weight f4 [32, 16, 3, 3]
00000000: 13ba 80be 984e 5ebe 28bc 1cbd aff8 85be
00000010: 6f33 eabd abf7 c1bc 8dc8 37be 772d fabd
00000020: 153a 5dbe 2e18 19be 9faa 75be 4715 83be
00000030: c57a e6bd e1ce 82be 1c74 49bd 13f7 0cbc
00000040: e143 0f3d 4c8f b73d 0aac 38bd 5a0f ddbc
00000050: e646 313d a2ad a93d f65c afbc 3735 e53c
00000060: 5030 893d c51b 823b abeb 82bd db1e 86be
00000070: 44ec 4fbe caeb a4bd fca6 56be 8920 2fbe
00000080: 9c38 37bd 9690 03be d817 2fbe c39c 173d
00000090: 64d0 b9bd b120 4fbd 72e6 0b3e 62a4 363d
000000a0: bf42 65bd 3294 aa3d 474b 7ebd 85b7 f3bc
000000b0: d9e7 d2bd bd16 a9bd 49f7 fcbd e4ce 62bd
000000c0: 732e 3cbe 1368 e0bd 95f8 c23d 76b7 a1be
000000d0: 1f54 a4be e81e bcbc 9843 2ebe 581b 61be
000000e0: a746 d23b ad9a 5fbd d991 06be 33d8 603b
000000f0: a94a e2bc d91d 13be 56b7 19bd 9501 e9bd
00000100: 02db 90bd f760 833c 0bb1 2cbd 6c16 3dbd
00000110: 1326 24bb 08a6 9cbd ffb5 8abd 3065 3ebd
00000120: bea1 56bd 8bf3 473d 4e68 493d e1d0 cf3a
00000130: 1a1d 74bc 4b12 943d 9283 c53d e12b c5bd
00000140: 34bb 9c3d 4705 a2be 7000 19be 0286 48be
00000150: eaf6 afbe e4ca a1be 9181 c4be f136 70be
00000160: 3857 59be 6813 a2be 5b4f cdbd dc88 20bc
00000170: 1dda 64bc 5b8e c0bd a89a 4f3a 1706 043c
00000180: 7b9b b9bc bdb6 d13c 7fb7 583d a7b5 8ebe
00000190: f91b afbe 7830 b0be d50b 87be c307 6abe
000001a0: bd41 e4be af77 afbe 6f95 76be f732 6ebe
000001b0: a2ee 48be 43dd abbe 89a9 cdbd de6b c6be
000001c0: d28b 97be 777a 82be 723e 8abd d686 70be
000001d0: df1b db3a 78b9 7fbe 3fe1 92be d2d3 5abd
000001e0: b7fc 9dbe 7b07 c7bd 97e1 c6ba cdbf dbbd
000001f0: ec0f e73d c77f 81bd 6666 adbc 014a 91bd
00000200: 2ea5 c1bd 2115 e4bc 4472 9cbd 5ecc 8fbd
00000210: f101 36bb a7e0 963a 9f90 a6bd 3329 98bd
00000220: 567c 06be fa9f d8bd ad0f 84bd be87 cabd
00000230: 6b58 e8bd 6108 74bd 929f 4abe 1e95 e4bd
00000240: 8533 01be fe1c c8bd 939c 16be e9b7 993c
00000250: 0313 dfbd 4925 84be 8c15 3b3d f2ae 3c3e
00000260: d56b 013c efb0 1dbd 610c 0dbe 55ef 89be
00000270: a883 97bd a831 ffbd 723e 61bd 2413 9c3d
00000280: 0072 f33b 2dc1 a2bd a807 bbbb ad5d e6bb
00000290: 3582 acbd f308 d63d 4915 3d3d 9278 b9bc
000002a0: 165a 1b3c 3ef4 f73d f7cb af3d 0fae 1ebe
000002b0: 1bff 13be ff03 35be 2b7a 86bd 3994 d7bd
000002c0: fc16 a5be ba2a 303d 8382 a53d b934 5fbe
000002d0: ff52 3cbd c294 b23d 4a0d d1bd 80b6 233e
000002e0: 17fd 0b3e b09a 9ebd 4cdf 543d 26ab 2f3e
000002f0: 04c0 fc3d ff77 b3bd 4d19 0bbd 4d2b 3fbd
00000300: c373 b4bd 4670 d9bc 2478 67be 2857 1e3e
00000310: f91d 19be 323e 09be b613 4ebe 329f 43be
00000320: 0065 c4bd 44af cb3c e025 86bc 1263 41bd
00000330: a704 b6bd 8220 203e 33aa 3c3e bced 02be
00000340: 9f2a 3bbd e3f4 8e3d fe13 573d 7bb9 e43d
00000350: dd22 983c ff0e dc3d d668 2d3d 1630 1c3d
00000360: 5e84 02be 7caf a9bc 78fe d6bd 9cbe d13d
00000370: 1b2f 523c c244 f5bd 53ce 6b3c 589b b73d
00000380: 5ee9 b93d 4730 34be 8d4f 91be 17bd 5ebe
00000390: 06b2 86bb 4870 9dbd de65 df3c 3683 9d3c
000003a0: 4c6f c23d 5aab 253d 0616 59bd 13ec d1bc
000003b0: 2f84 79bd 6f1b c9bc fa98 753c 4e89 45bb
000003c0: 96e4 323d dc63 d2bc 8870 07be 28d4 20be
000003d0: 58ba 52be 7f56 75be 7145 82bc 8267 f7bd
000003e0: ee24 73bd 8995 8cbd 9158 d03b 197d 583c
000003f0: 3c59 85be 541b 9ebe 3f86 dcbd a35a 29be
-0.25141963 -0.21709669 -0.038265377 -0.26166293 -0.114355914 -0.023677668 -0.17947598 -0.12215703
-0.21604188 -0.1495063 -0.23990868 -0.2560217 -0.11253885 -0.2554846 -0.049182996 -0.008603829
0.034976844 0.089628786 -0.045085944 -0.02698486 0.043280505 0.08285071 -0.021406632 0.027979476
0.06698668 0.0039705955 -0.06392606 -0.26195416 -0.20304972 -0.08052786 -0.20962137 -0.17102255
-0.04473172 -0.12848124 -0.1709894 0.037014734 -0.090729505 -0.050568286 0.13662127 0.04459036
-0.055971857 0.08329047 -0.06208351 -0.029750595 -0.10298128 -0.0825629 -0.123518534 -0.055373088
-0.18377094 -0.109573506 0.095200695 -0.31585282 -0.3209543 -0.022963956 -0.17017972 -0.21983087
0.006417114 -0.05459087 -0.13141574 0.0034308552 -0.027623491 -0.14366855 -0.03752836 -0.11377255
-0.070730224 0.016037447 -0.04216103 -0.04616396 -0.0025047108 -0.076488554 -0.06772994 -0.04648322
-0.052400343 0.048816245 0.04917174 0.0015855097 -0.0148995165 0.072300516 0.09644236 -0.0962751
0.07652894 -0.3164465 -0.14941573 -0.1958237 -0.34368068 -0.31600106 -0.383801 -0.23458458
-0.21224678 -0.3165543 -0.100249015 -0.009798255 -0.013968018 -0.09402152 0.0007919469 0.008058093
-0.022657147 0.025599832 0.05290937 -0.27872965 -0.3420103 -0.3441198 -0.26376215 -0.22854523
-0.44581404 -0.34271 -0.24080442 -0.23261629 -0.19622281 -0.33567247 -0.10042102 -0.3875417
-0.29598862 -0.25484058 -0.06750192 -0.23488936 0.001671668 -0.24973094 -0.28687474 -0.053424664
-0.3085687 -0.09718224 -0.0015173432 -0.107299425 0.11282334 -0.063232 -0.021166991 -0.07094193
-0.09455334 -0.027842106 -0.07638982 -0.07021402 -0.0027772153 0.0011511043 -0.08133053 -0.07429733
-0.13133368 -0.10577388 -0.064483024 -0.09889172 -0.113449894 -0.059578303 -0.19787434 -0.11161254
-0.1261731 -0.09771155 -0.14708166 0.018764453 -0.10892298 -0.25809696 0.045674846 0.18426111
0.007899244 -0.038498815 -0.13774253 -0.26940408 -0.07398158 -0.12460643 -0.054991193 0.07620838
0.0074293613 -0.079470016 -0.0057077 -0.00703021 -0.084232725 0.10450926 0.046162877 -0.0226405
0.009481927 0.121071324 0.08583825 -0.15496086 -0.14452784 -0.17677306 -0.065662704 -0.10526318
-0.32244098 0.043009497 0.08081534 -0.21797456 -0.04597759 0.087197796 -0.10207613 0.15987587
0.13670765 -0.07744348 0.051970765 0.17155132 0.123413116 -0.08763122 -0.033959676 -0.046672154
-0.08811142 -0.026542794 -0.22604424 0.15462935 -0.1495284 -0.13402632 -0.20124707 -0.19103697
-0.09589577 0.024863847 -0.016375482 -0.04721362 -0.08887606 0.15637401 0.18424301 -0.12786001
-0.045694944 0.06980302 0.0525093 0.1116819 0.018571312 0.10745048 0.042336307 0.038131796
-0.12745807 -0.02071356 -0.10497755 0.10241434 0.012828614 -0.11976005 0.014392453 0.08965176
0.090777144 -0.17596541 -0.28381005 -0.2175182 -0.0041105775 -0.076874316 0.027270254 0.019227605
0.094938844 0.040446617 -0.05299952 -0.025625264 -0.060917076 -0.024549214 0.014990086 -0.0030141654
0.043675028 -0.025682382 -0.13226521 -0.15705931 -0.20578897 -0.23958777 -0.015902253 -0.120802894
-0.05936139 -0.06864459 0.006358214 0.013213419 -0.26044643 -0.30880225 -0.10767793 -0.16538481

module.conv3T.bias f4 [16]
00000000: ee1e 77b9 4c4d e43d 128f 343e 7acb c5bc
00000010: 0270 053d 4625 9a3c 399d 9cbd cac0 a7bd
00000020: cc55 7f3d c36e f6bd 204b 1c3d f2ae fabe
00000030: 9f26 0fbd c82e c7bc 2866 eabd 316c 953b
-0.00023567278 0.11147556 0.17632702 -0.024144877 0.032577522 0.018816601 -0.07647175 -0.081910685
0.06233768 -0.12032845 0.038157582 -0.48961598 -0.03494894 -0.0243143 -0.11445266 0.0045600166
