theta_run_birds/exp_dim10_files6_cropped/conv_autoencoder.pth (torch, 997545 bytes, 19 tensors)

conv1.weight f4 [16, 1, 3, 3]
000000 67 d3 7e 3d 30 58 59 bc 7a 84 8e bd 9a f0 c2 3d
       0.062213328 -0.013265654 -0.06958862 0.09518547
000010 f0 ac 3c be 09 45 6c be cb 61 4e be 0d 2e 41 3e
       -0.18425345 -0.2307321 -0.20154493 0.18865223
000020 9e b1 22 be 4b a7 4f be 91 4d d6 3d a6 f5 92 3d
       -0.15888068 -0.20278661 0.10464013 0.0717576
000030 ca bc e3 3c 32 16 38 3d 4d e9 b7 bd 41 f9 ac bd
       0.027799983 0.044943042 -0.089800455 -0.08445979
000040 bb e8 fd 3d df 1f 0e be a7 9f c9 3d 8c 7f 95 3d
       0.123979054 -0.13879345 0.098449044 0.07299718
000050 76 aa 9c 3c 2c 33 b8 3d 66 5d 40 3e d5 99 71 bd
       0.01912425 0.08994135 0.18785629 -0.058984596
000060 92 0d 51 be 3f d6 e4 bd 52 6d 82 3e e5 40 2f 3d
       -0.20415333 -0.11173677 0.2547403 0.042786498
000070 80 88 06 be 99 fb 98 3c a3 60 1f 3e f7 17 9e 3d
       -0.13138008 0.018674659 0.15564208 0.07719415
000080 e3 82 c6 3c 3b e0 80 3d d8 c5 25 be e7 f1 e6 3d
       0.024232334 0.062927686 -0.16188753 0.11276608
000090 81 c2 91 bd 69 22 7c be 54 b2 80 bd ac 19 2c be
       -0.07117177 -0.24622501 -0.062840134 -0.16806668
0000a0 d3 39 38 bd 3d 54 0b be 1a 27 a8 bd 40 66 1a 3e
       -0.04497702 -0.13606353 -0.08210583 0.15078068
0000b0 19 0c 24 3e df 72 e8 3c e5 ba 8d bc d4 fe 08 be
       0.1602024 0.028375087 -0.017301032 -0.13378459
0000c0 1b 4d 16 be ae ff e6 3d cc 26 62 bd 2c 4c d2 bd
       -0.14677851 0.11279236 -0.05521278 -0.10268435
0000d0 61 de 3e bc e4 45 ba 3d 87 a4 2c be 34 72 b4 bd
       -0.011649699 0.09095362 -0.16859637 -0.08810845
0000e0 2d 60 f6 3d c7 85 7d 3d d4 85 22 bd 55 31 84 be
       0.12030063 0.06189516 -0.03967841 -0.25818887
0000f0 28 7c c5 bd f8 81 04 3e 8e 19 e4 3d fc dc 31 3e
       -0.096428216 0.12940204 0.11137687 0.17369455
000100 a6 91 55 be 18 b3 1f 3c f8 0c 14 bd 2e 70 4d be
       -0.20856342 0.009747289 -0.03614518 -0.20062324
000110 98 70 37 bd a5 cd 26 be 06 f8 07 3e e2 f1 db 3d
       -0.044785112 -0.16289385 0.13278207 0.10739495
000120 72 ec f7 bd 99 8b 20 3e 61 c5 4a be 46 46 93 be
       -0.12105645 0.15678252 -0.19801857 -0.28764552
000130 a5 d4 2f 3e 01 a8 6c 3e ea bc 8b be cb 53 14 be
       0.17170961 0.23110963 -0.27292567 -0.1448509
000140 f4 2a 44 3e e9 7d 4c 3e b5 1d 36 3d 51 1b 8d 3d
       0.1915701 0.19969906 0.044461925 0.06889976
000150 48 6e e7 bd 53 b3 13 be a8 1f 25 3e e5 9e 00 be
       -0.11300331 -0.14423876 0.16125357 -0.12560613
000160 46 d6 12 be c2 25 34 be 81 d8 5d 3d fd 83 e8 3d
       -0.14339551 -0.17592528 0.054161552 0.113533
000170 13 b8 36 be 2c 06 7a be ec fc b4 3d 2a 3a 29 3e
       -0.17843656 -0.24416417 0.088373035 0.16526094
000180 ba e3 6d be 64 e2 4d be 63 3c 38 3e 88 f3 47 be
       -0.23231402 -0.20105892 0.17991786 -0.19526494
000190 51 26 a9 3d 30 ea af 3c a7 3f 0d be 6a a9 5f be
       0.082592614 0.021473974 -0.13793813 -0.2184197
0001a0 f1 87 ec 3d e5 cc 3f 3e d4 32 1d be c9 86 10 3e
       0.11549366 0.18730505 -0.1535142 0.14113916
0001b0 5b ac e7 3d a7 1a 94 bc e3 6f 08 3e ec f2 11 3e
       0.11312171 -0.018079115 0.13323931 0.14252824
0001c0 f8 8c 96 3e 43 cc 7e 3e 9e 01 e6 3c e2 aa 7f bd
       0.29404426 0.24882607 0.028076943 -0.062418826
0001d0 36 c1 77 3e e7 70 cb bd 58 39 77 be 38 ad 5f be
       0.24194798 -0.09933644 -0.24142969 -0.21843421
0001e0 85 b8 82 be d1 3d d8 3d e9 16 e6 bd 5a 0f 51 3e
       -0.25531402 0.105586655 -0.112348385 0.20416012
0001f0 e1 5b 35 3e 6f 65 88 3d a5 73 96 be ee b0 52 be
       0.1771083 0.06659972 -0.29385105 -0.20575306
000200 a5 72 8a be 1e 85 71 3e a2 4f b3 3c c1 ab 85 be
       -0.27040592 0.23585936 0.021888558 -0.261076
000210 4d f7 52 be d8 25 54 be f5 c5 96 bd f4 0c 14 be
       -0.2060215 -0.20717561 -0.07361976 -0.14458066
000220 97 75 42 be 26 fa ef 3c 3a 01 68 be e0 02 04 be
       -0.1899017 0.029294085 -0.22656718 -0.12891722
000230 a5 8e 90 bd 90 29 00 3d a9 8a a2 3c b5 1c 3d 3c
       -0.07058457 0.031289637 0.019841509 0.011542489

conv1.bias f4 [16]
000000 d9 7a 82 3e 42 b5 49 3e 07 37 0a bf 3a 2d b9 3e
       0.2548435 0.1969805 -0.53990215 0.36167318
000010 46 51 98 be 09 00 b9 3e 71 56 3a 3e 85 e1 11 3d
       -0.29749507 0.3613284 0.18197037 0.035615463
000020 c3 b4 ad 3d e6 a3 4c 3d 8e 96 44 be 80 2d ae bd
       0.08481743 0.049960993 -0.19198057 -0.08504772
000030 83 50 8c 3c f2 6f 44 3e 39 b8 90 3e f7 d7 a5 3e
       0.017128235 0.19183329 0.2826555 0.3239133

conv2.weight f4 [32, 16, 3, 3]
000000 bb f0 9d 3d 22 a8 cc 3a 0a 82 9c 3d f1 8f a1 3d
       0.07711931 0.0015614072 0.076419905 0.07888783
000010 51 08 4d 3d 4a 0c 5c 3d b8 f6 85 3d f0 1f ce 3d
       0.05005676 0.053722657 0.065411985 0.10064685
000020 2e 39 1d bd 41 a9 0b bd 90 d5 9b 3d 3b 2b c9 3d
       -0.03838461 -0.03409696 0.07609093 0.09822699
000030 0e 2b 6b bd 32 01 e9 bb 01 64 bd bc d1 31 1b 3d
       -0.057414107 -0.007110738 -0.023118975 0.037889306
000040 09 6f ee 3b a6 6c fa 3c ee 9c b2 3c cc 38 77 bd
       0.00727642 0.030569386 0.021803346 -0.0603569
000050 ae 5e 83 3c c8 2f 5f bd 9a 46 c0 bd c7 8a d9 bd
       0.016036358 -0.054488927 -0.09388466 -0.10622173
000060 34 28 b1 bd 3b e8 a8 bd 65 0c 71 bc a2 d8 9f bd
       -0.08650246 -0.082474194 -0.014712428 -0.07804991
000070 da 29 0c bc 6d 15 02 bc 7c 91 ad 3c 01 c6 b9 bd
       -0.0085549 -0.007939679 0.021187536 -0.090709694
000080 f2 df 76 bc 3c a6 6c bd 27 00 59 bc 4a c1 76 bd
       -0.015068041 -0.05777572 -0.013244665 -0.06024293
000090 c1 d4 ff 3c a4 5a 93 3d f0 03 bd 3c 3d 4e 0c 3d
       0.031229379 0.07195023 0.023073167 0.0342543
0000a0 bb e3 84 bc 07 58 86 bd ef c4 f3 bc a3 c8 4c 3d
       -0.016221872 -0.06559759 -0.029756991 0.04999603
0000b0 08 30 bd 3d 82 c1 d8 bc a9 19 16 bd b8 2c 44 bd
       0.09237677 -0.02645946 -0.036645565 -0.04789421
0000c0 78 13 be 3d 81 05 30 3c 11 2a 67 bc 6a 1f 8c bc
       0.09281057 0.0107435 -0.0141091505 -0.017104823
0000d0 d9 76 c2 3c de b8 a4 3d 59 69 86 bd 1f 17 30 3d
       0.023738312 0.08043073 -0.06563062 0.0429908
0000e0 a1 3c 71 3d e4 5c 81 bc 3d dd b3 bc 55 55 3f bd
       0.05889571 -0.015791364 -0.02195608 -0.04671224
0000f0 ff 85 17 3d 12 2f 7b 3c 8e 0e 89 3c e4 c6 d3 bb
       0.036993023 0.015331047 0.016730573 -0.0064629186
000100 40 ff 42 bd 59 0b a7 bc dd 3e 7a bd d3 51 32 bd
       -0.047606707 -0.020391153 -0.061095107 -0.043535065
000110 db 65 da bc f6 16 92 bd 4c 3b 39 bd 6a 3f 52 3c
       -0.026659897 -0.07133286 -0.045222566 0.012832502
000120 01 d7 ce 3c 58 cc 06 3d 39 90 74 bd 10 04 50 3d
       0.025249006 0.03290972 -0.059707854 0.050785124
000130 19 4c 0b 3d d7 1e 24 bd 88 e5 b9 bc fe c9 76 3d
       0.03400812 -0.040068474 -0.022692457 0.06025123
000140 01 4e 60 3d 1b 4d 4d 3d 1c 21 17 3a 21 a6 20 3d
       0.05476189 0.05012236 0.00057651266 0.039220933
000150 03 43 48 3d e7 40 14 3d 8c 3c 1c 3d 5f d4 00 bd
       0.048892032 0.03619471 0.03814368 -0.031452533
000160 f0 1c 5a bb e5 c0 85 bc e7 6f 50 3d e8 36 d6 3b
       -0.0033281408 -0.01632733 0.05088797 0.006537307
000170 cf 03 8c 3d 59 34 f8 3c 24 85 e7 3c 9a 92 de 3b
       0.06836664 0.030298399 0.028261729 0.0067923786
000180 56 18 b1 3c 91 0c 28 bd 32 49 8f bd a4 be 06 bd
       0.02161805 -0.04102761 -0.06996383 -0.032896653
000190 62 e0 21 3d 1f 2e 99 3c 22 6b 84 bd 0d 13 b2 bd
       0.03952063 0.01869875 -0.064657465 -0.0869504
0001a0 6c 34 93 3d 6c fd 2a bc 14 ef 72 bd 1e b4 49 3d
       0.07187733 -0.010436397 -0.059310034 0.04924404
0001b0 76 43 af bd 69 81 81 bd 92 07 a0 bd 2d 0b 82 bd
       -0.08557789 -0.06323511 -0.07813944 -0.06349788
0001c0 9b 33 86 3c 3c 04 17 3d 07 41 a3 3d 5d c9 56 bc
       0.01638203 0.036869273 0.07971387 -0.013109532
0001d0 18 b1 92 bd 1b ed 23 bd 40 37 00 3d bf 0d 4e bb
       -0.07162684 -0.040021043 0.03130269 -0.0031441299
0001e0 9d 8b 82 38 57 63 0a bd a9 56 cd 3c e0 66 50 3c
       6.224888e-05 -0.033786144 0.025065737 0.01271984
0001f0 8a 59 41 bc 0b c3 ef ba 2b e5 82 bc 57 1a 4d bc
       -0.011801133 -0.001829238 -0.015978416 -0.012518487
000200 c5 1d a1 3d a5 7a 2d 3d 7e 4c 26 3d 03 83 26 bc
       0.07867006 0.04235329 0.040600292 -0.010163072
000210 cd b8 c3 3c 3b 6a 09 3e cc 6d 5c 3d 4f 3b 19 3d
       0.02389183 0.1341943 0.053815648 0.037410077
000220 e1 26 f7 3d 92 6f dc 3d 47 fa 10 bd 83 2a 9c 3d
       0.120679624 0.10763468 -0.035394933 0.07625296
000230 42 ac 3b 3a 8f 3d a0 bc c3 43 fa 3d 9a 2d 4b 3d
       0.00071591523 -0.019560603 0.12219956 0.049604036
000240 a7 ec 87 bd 17 38 1a bd df a4 02 3d 2d 3d cf 3d
       -0.06636935 -0.037651148 0.031895515 0.1011909
000250 58 b3 8f bc f9 a1 06 bc 6d c9 8d bd 6d 79 e2 3c
       -0.017541572 -0.008217328 -0.069231845 0.027645791
000260 b6 6a c2 3d f5 0b df 3a 53 06 9c 3c 0e 77 be 3c
       0.0949301 0.0017017113 0.019045984 0.02325013
000270 1a 36 48 bd b4 1d 74 3d 1e 7f 4b bc af 82 7a bd
       -0.04887972 0.05959864 -0.012420444 -0.061159786
000280 77 b9 9f 3c b7 a9 01 3d 6e 6e 6f bd 59 47 b2 3c
       0.019497616 0.031655993 -0.058454923 0.021762537
000290 b1 69 fd 3c 3d ac 2b 3c 3c 37 fa 3c 6c bb 32 3d
       0.030934187 0.0104780765 0.030543916 0.04363577
0002a0 ae 8a c2 bd 0b b2 79 bd 3e aa 25 bd ac 69 7b 3d
       -0.09499107 -0.06096081 -0.04044556 0.061380073
0002b0 6d be 66 bd 8d b6 04 bd 5d 72 74 bd 98 17 86 bd
       -0.056333948 -0.032400656 -0.059679378 -0.06547469
0002c0 ce bc f6 3c 16 4b 62 3d c3 31 88 bb 52 9c 73 3d
       0.030119326 0.05524739 -0.0041563227 0.05947525
0002d0 1f 88 61 bb ba 5c 87 3d f3 75 10 3d b0 3a 3d 3d
       -0.003441341 0.06609483 0.035268735 0.046198547
0002e0 32 56 ab bd e2 a2 93 3c 08 cf 4a bc 69 ef 62 bd
       -0.0836605 0.018022005 -0.012378462 -0.0554041
0002f0 98 78 1e bc fa 3b 9c b9 81 3f 24 bd cb aa 87 3c
       -0.0096723065 -0.00029799325 -0.040099625 0.016560933
000300 b4 05 27 3c ae ca 4f 3d a3 1d 36 3d fd 65 76 3d
       0.010194231 0.0507304 0.044461858 0.060155857
000310 cf b1 12 bd 12 83 c9 3c 94 b2 b8 3c f5 6a 3c bb
       -0.035814103 0.024598632 0.02254609 -0.0028750275
000320 d4 4c c0 bc a6 1a 13 bd 11 71 01 3d 8e ec 51 bd
       -0.023474135 -0.035914086 0.03160197 -0.051250987
000330 24 17 91 3d 9a f4 81 bc 56 a8 07 bd 50 ed 0e 3c
       0.07084492 -0.015863705 -0.033119522 0.008723572
000340 2a 28 9c 3d 5c 80 6c 3c 75 f7 57 bd 93 fe 49 3d
       0.07624848 0.0144349 -0.052726228 0.049315047
000350 74 ce 4b bc 95 32 59 bd a3 4e 30 3d 0d d7 16 bd
       -0.012439359 -0.053026754 0.043043744 -0.036826182
000360 c2 d7 97 bc ee ff 72 3d 6e 64 ff bc b9 36 88 3c
       -0.018535499 0.059326105 -0.031175818 0.016627656
000370 36 be 89 bd b0 22 b6 bc 2b df ed bb b1 d5 57 3c
       -0.06725733 -0.022233337 -0.0072592697 0.013173507
000380 b8 ed 05 3c f4 e9 b0 bc fc 34 66 3d 61 2d 5f 3c
       0.008174352 -0.021595933 0.056202874 0.013621659
000390 2c ac a5 3d b8 4f 39 bd eb 66 5b bd fc f5 1b bd
       0.0808948 -0.04524204 -0.053564947 -0.038076386
0003a0 6f b8 77 3c ec df 5b 3b 0f 66 8d bb 27 4f 23 bd
       0.015119656 0.0033550216 -0.004315145 -0.039870407
0003b0 ce c0 80 3c fe 6c fe 3c db de ab bc 78 e3 9e bd
       0.015716936 0.03105783 -0.02098029 -0.0775823
0003c0 b6 40 97 bd f0 4e e0 3c a4 51 b7 bc f4 a7 62 3c
       -0.073853895 0.02738139 -0.022377796 0.013833988
0003d0 cc 43 a3 3c f4 b6 00 bd 33 4e 34 3d 94 5a 47 bd
       0.019929789 -0.031424478 0.04401989 -0.048670366
0003e0 ea 9f 90 3d 31 41 b0 bc 12 78 12 3d a6 01 0b 3d
       0.07061751 -0.02151546 0.03575904 0.03393712
0003f0 b7 a6 1d bd a9 90 c5 3b 45 26 8f bd 3c 65 9f bd
       -0.03848907 0.0060292077 -0.06989721 -0.07782981

conv2.bias f4 [32]
000000 06 a8 70 3c 99 e9 f6 3d b8 e1 53 bc 09 e1 a5 be
       0.014688497 0.12056274 -0.0129322335 -0.3239825
000010 24 5b 4c 3d 12 26 8e be 5d c6 9a 3d e8 07 cb be
       0.049891606 -0.2776342 0.07557366 -0.3965447
000020 4b 25 7c be 0d c5 22 bb c2 e9 b1 3d 0f f5 db 3d
       -0.24623601 -0.002483669 0.08687164 0.107401006
000030 83 58 1d bd 9d 5d 45 be 1f 2b 7b 3d 5f b5 a6 3d
       -0.03841449 -0.19273992 0.06132042 0.081400625
000040 c8 6c 32 3b ab 0c 10 bd aa b7 51 3d 15 5c fb 3c
       0.0027225483 -0.03516833 0.051200546 0.030683557
000050 f0 66 af be d7 22 ab be 63 e0 d5 be 88 4d d5 bb
       -0.34258223 -0.33425018 -0.41772756 -0.0065094866
000060 96 86 d0 bc be 8f 9e bd 67 c8 bc be b1 92 a2 be
       -0.0254548 -0.077422604 -0.36871645 -0.31752542
000070 c8 04 92 be 7c fb bb be 28 af 58 3c 78 86 b6 3d
       -0.28519273 -0.36715305 0.013225354 0.08912367

conv3.weight f4 [64, 32, 3, 3]
000000 61 d8 7b bc af a4 02 3d d7 b2 e8 bb 22 e2 1a bd
       -0.015371413 0.031895336 -0.0071013975 -0.037813313
000010 c3 93 b9 bc f5 da 02 bd 29 0e 81 ba fa 52 1d bd
       -0.022653466 -0.031947095 -0.0009846139 -0.03840921
000020 6a d4 c6 bc 77 1b 65 3c 36 29 2e 3d 32 25 33 3d
       -0.024271209 0.013983599 0.04251977 0.043736644
000030 ac 14 ba 3c a1 48 06 bd 14 60 29 3c 64 7d ec 3c
       0.022714935 -0.032784108 0.010337848 0.028868385
000040 c8 4b ea 3c 3a 5e 78 bd d0 72 ed ba 8b d0 1d bc
       0.028600588 -0.060636736 -0.0018115882 -0.00963224
000050 82 08 af bc 61 0a e8 3c c2 e0 05 3d b4 83 ac 3b
       -0.021366362 0.028325262 0.03268505 0.0052647237
000060 e1 41 32 bd 1a 94 74 3c 86 dc 39 bd a6 04 df 3b
       -0.04351986 0.014927888 -0.045376323 0.006805974
000070 4a a7 9e bc d3 22 9b bc b0 bb f1 3c 55 c5 b9 bb
       -0.019366879 -0.018937504 0.029508442 -0.0056692758
000080 3d 39 55 b9 b5 03 0b 3c 98 b3 f3 bc 70 91 7c bc
       -0.00020334586 0.008484771 -0.029748723 -0.015415534
000090 62 a3 54 bc 8c 41 b9 3a 4a 09 fc 3b 43 98 ea 3b
       -0.012978407 0.0014133914 0.007691537 0.0071592643
0000a0 db d6 d7 3c 93 5c cf 3c 49 d3 de 3c 3d a5 1d 3c
       0.026347568 0.025312698 0.027200358 0.009621915
0000b0 f3 1e c5 3c 2e d9 c2 3c 81 b2 72 bc c3 47 e8 bc
       0.02406261 0.0237852 -0.014813066 -0.028354531
0000c0 c9 a8 13 bd 6f 80 0d 3c 85 2e 27 bd 62 d9 32 bd
       -0.036049638 0.008636578 -0.04081585 -0.043664344
0000d0 0d 8a 1b bd f2 63 1d bd 4f 89 75 bc 16 be 41 bc
       -0.037973452 -0.038425393 -0.01498635 -0.011825105
0000e0 b3 1f 90 3c 93 47 de bc c9 79 02 bd 20 d9 01 3b
       0.01759324 -0.027133739 -0.031854425 0.0019813254
0000f0 76 a4 69 bc 9f da 76 bd c6 90 af 3c 97 09 94 bb
       -0.014260402 -0.060267087 0.021431338 -0.0045177448
000100 c4 67 65 bc 74 97 73 3c 27 cb ab 3c 6d 2f 1f 3d
       -0.01400179 0.014867652 0.020970894 0.038863588
000110 a6 b0 d5 3c 68 79 0e 3d d8 3c 10 3c bf 83 fb 3c
       0.02608521 0.03478375 0.008803569 0.03070247
000120 8b d3 a0 3b 6b 4e e0 3b c6 bb 77 bb 04 3b 30 bd
       0.0049080304 0.0068452857 -0.003780113 -0.04302503
000130 35 16 12 bd 62 3f 24 bd 1e 29 70 3c b8 6a 55 3d
       -0.03566571 -0.04009951 0.014658241 0.052103728
000140 ec b4 9f 3c 73 66 fe bb 97 cc 2c bc 36 a3 d6 3c
       0.01949545 -0.0077636777 -0.010546825 0.026200872
000150 ef b7 2b bd ba cb 5c bd d1 f7 2f 3d 2b e9 c3 ba
       -0.04192346 -0.053905226 0.042960946 -0.0014946809
000160 c5 d3 32 bc 6d a6 d8 39 c4 9d 2c 3d 9c ed 59 3c
       -0.010914748 0.00041322727 0.042142645 0.013301279
000170 01 99 5c 3d 58 73 11 bc 34 e9 b2 3d e2 18 0b be
       0.053856853 -0.008877598 0.08735886 -0.13583711
000180 8e 72 a7 bc eb 36 8f bc fa 50 48 3d d5 8e 47 3c
       -0.020440366 -0.017482242 0.04890535 0.01218005
000190 58 fe 94 3c 7c 68 0c 3c 35 07 33 3c 32 5f a8 3b
       0.018187687 0.008569833 0.010927011 0.0051383013
0001a0 9d 0e 83 3c 45 a1 aa 3c 6a db b6 3c 50 c2 ce 3c
       0.01599818 0.020828852 0.022321422 0.02523914
0001b0 e0 39 69 bd ee 37 65 3c 39 6d 72 3b 9b 1c 6c 3d
       -0.05693996 0.013990385 0.0036991371 0.057644468
0001c0 8a a9 08 3d 0a 93 53 bd 8c f9 b0 3c a7 26 01 3d
       0.03336481 -0.0516539 0.021603368 0.031531002
0001d0 e0 44 27 3d 16 74 04 be bc 28 c0 bc ae 87 96 bb
       0.04083717 -0.12934908 -0.023456924 -0.004593811
0001e0 e1 fc 3c bc a9 98 9a bd c1 c7 d7 bd c1 97 6c bd
       -0.0115349 -0.07548649 -0.10536147 -0.05776191
0001f0 2e 59 93 bc 49 b4 f6 bc 1f f5 5f 3d 85 cc 1f bc
       -0.01798686 -0.030115264 0.054677125 -0.009753351
000200 62 77 44 bc d6 7c a0 bd 65 15 97 bd ef ac 02 3d
       -0.011991354 -0.078363106 -0.073771276 0.031903204
000210 4d 9a 0d 3d a4 92 f3 bc 25 fb 8a 3c 48 31 b2 3c
       0.03457098 -0.02973301 0.016965458 0.021752015
000220 6c 0d 4f 3d 42 bd 07 3d c5 15 32 bc 24 95 5a bc
       0.05054991 0.033139475 -0.010869448 -0.013341222
000230 a4 ae 2c 3c 66 90 a0 3b 29 9e 01 bd 0d 92 a7 bc
       0.010539684 0.004900026 -0.031644974 -0.020455385
000240 49 dd 47 bc b7 77 a4 bc ca a7 18 3c 85 25 b0 3c
       -0.012198755 -0.020076616 0.009317348 0.021502266
000250 b3 99 72 3d 9a 13 7b ba 42 55 a2 ba ff 3c 94 bc
       0.05922861 -0.0009577811 -0.0012385028 -0.018095491
000260 20 60 27 bd 64 9a c5 bc ee cf 78 3c 27 b1 65 3d
       -0.040863156 -0.02412147 0.015186293 0.05607715
000270 96 44 6a bd b5 46 3e bd 3d c8 f2 bd c1 e5 8d bc
       -0.057194315 -0.04645415 -0.11854599 -0.01732147
000280 11 4f 9b 3b 7d 23 c9 bc fa 81 0b 3d 3f 09 73 3d
       0.00473965 -0.024553055 0.034059502 0.05933499
000290 2f 11 53 bb 4b cf be bc 60 5c 63 3d bc 7b 19 3c
       -0.0032206287 -0.023292204 0.055508018 0.0093678795
0002a0 6d 5d bb bc 73 6b 0f 3d c5 6f bb bc 04 bc da bb
       -0.022871697 0.03501458 -0.022880444 -0.0066752452
0002b0 03 6e 0f bd a4 e5 da bb a1 33 26 bd 83 0b 81 3d
       -0.035017025 -0.0066802073 -0.04057658 0.06301024
0002c0 dd d3 95 3d b6 a8 ed b9 86 e3 36 bc 7a de 3f 3d
       0.073158 -0.00045329862 -0.011162644 0.04684303
0002d0 e8 31 7c 3c d1 55 1d bd fd 43 6c bb 06 e4 e1 3c
       0.015392758 -0.03841192 -0.0036051266 0.02757455
0002e0 ef 38 91 3c 51 c5 40 bd 1e 16 34 bc e5 76 8b 3c
       0.017727343 -0.047063176 -0.010991601 0.017024467
0002f0 7f 59 dc 37 04 3e f7 bc 5f e1 a9 bc fa 1b e2 ba
       2.6267719e-05 -0.030180939 -0.020737348 -0.0017250769
000300 6b 0a b2 3c c8 10 5b 3c 6a 52 90 3c 92 a0 8c bc
       0.021733483 0.0133707 0.017617423 -0.01716641
000310 c1 2f 16 3d 15 64 4f 3d a8 2b 05 3b 6b 02 cb bc
       0.036666635 0.050632555 0.002032021 -0.024781426
000320 51 af 19 3d 9e a6 17 3d 41 0b 42 3c 85 13 67 3c
       0.03752071 0.037024133 0.011843503 0.014103775
000330 ca 7a 0e 3c 6d 3a 3a bd 11 71 55 bd a4 c7 70 bb
       0.008696267 -0.045465875 -0.05210978 -0.0036740089
000340 ef 60 e9 3c de fd a0 bc c8 f2 54 bd b6 c9 5a 3d
       0.028488604 -0.019652303 -0.051989347 0.053415023
000350 67 7b 92 bc b3 0d 01 bd 87 93 8f bd 30 e0 ed bc
       -0.017881108 -0.031507205 -0.070105605 -0.029037565
000360 2c 0b a8 3c 83 64 a5 3c 93 59 07 bd a3 05 61 bd
       0.02051314 0.02018953 -0.03304441 -0.054937016
000370 84 84 2f bd 21 78 d0 bc df db 1c 3d 68 fc 14 bd
       -0.042850986 -0.025447907 0.038295623 -0.036373526
000380 e0 a5 38 3d dc e9 12 bd 46 1f a7 3b f5 6d 6f bd
       0.045080066 -0.035867557 0.0051001636 -0.058454473
000390 7e 6c 12 3d da 95 df bc d1 1b 28 3c 5e aa b5 3b
       0.035747997 -0.027293134 0.010260538 0.005543991
0003a0 bb 99 28 3d 67 2d 87 3c 2f 55 aa bc c7 df b0 3c
       0.041162234 0.016501142 -0.020792572 0.02159108
0003b0 e1 24 53 3c 93 4f 57 3c 6a 74 af bc 53 be 48 3b
       0.012887211 0.013141531 -0.021417815 0.003063102
0003c0 c7 09 14 3c 29 92 4e bd 60 8b 12 3d 9c 8f 0c bd
       0.009035534 -0.050432358 0.03577745 -0.034316644
0003d0 58 f7 b3 bd c6 fe 0d bb 36 71 83 bd d5 a9 bc bd
       -0.087874115 -0.002166675 -0.06418078 -0.092120804
0003e0 64 cf 54 3d 50 60 10 bb c3 f2 bd 3b d9 e1 1b bc
       0.051955596 -0.0022030063 0.0057967617 -0.0095142955
0003f0 2f 44 0b 3d f4 e0 f0 3c 7e 3f 4f 3b 14 0d b5 bb
       0.03400057 0.029404141 0.0031623538 -0.0055252407

conv3.bias f4 [64]
000000 e3 47 da bd 44 d5 bc 3d bd 16 ee bd 2f 40 ec 3d
       -0.106582426 0.09220365 -0.11625431 0.115356795
000010 48 0f 87 3d 42 f7 f2 3d 34 8f c4 be 36 8e 00 bf
       0.065947115 0.11863567 -0.38390505 -0.50216997
000020 97 c5 48 3d 17 ea d1 3d 34 d1 6b bd c8 c7 a2 be
       0.04901656 0.10249727 -0.05757256 -0.31793046
000030 3b 00 b8 be 21 3a b1 be bc 22 e1 3d 73 d6 d3 3d
       -0.35937676 -0.3461466 0.10992953 0.10343637
000040 ec 32 e9 3d 3a 9f 40 3d b5 98 a8 be f2 9f c6 3d
       0.11386666 0.04702685 -0.32929006 0.09698476
000050 26 a1 c7 3d 7d d2 c2 3c 13 d0 c9 3d a3 7a 92 bd
       0.097475335 0.02378201 0.0985414 -0.07152297
000060 9d 8d 94 3d 95 8b 63 be 0c 58 25 be d1 4b 2c be
       0.07253573 -0.22221215 -0.16146868 -0.16825797
000070 3e b6 29 3d 53 2a a8 3d 29 d7 ce be 22 e5 a3 3d
       0.041433565 0.08211198 -0.4039853 0.08002688
000080 45 5d dd 3d f4 95 96 3d 9c 8c 70 be e2 c3 3f be
       0.108088054 0.0735282 -0.23491138 -0.18727067
000090 d5 99 30 3d 6a d3 ac be bc bc fc be b1 01 87 be
       0.043115456 -0.33755046 -0.49362743 -0.26368478
0000a0 63 89 73 be 30 fa 81 3d 61 00 dd be 51 d3 e2 3d
       -0.23782878 0.063465476 -0.43164352 0.11075462
0000b0 8e b8 db be 90 50 d6 be c8 da 59 bd ef 54 8e be
       -0.42914242 -0.4185834 -0.05318716 -0.27799174
0000c0 06 ef c6 bd 7d ce e3 bc f2 52 b7 be fe 59 56 be
       -0.09713559 -0.027808422 -0.3580547 -0.20932767
0000d0 b2 23 c5 ba 34 80 e1 be 78 51 8c be 5a c0 05 3e
       -0.0015040545 -0.44043124 -0.27405906 0.13061658
0000e0 15 f4 27 be a5 91 ed be 74 27 e1 be 2f a3 f7 3d
       -0.16401704 -0.4640018 -0.43975413 0.12091672
0000f0 3c 43 6b be 05 6e 51 be 26 ce b4 3d b0 88 b3 be
       -0.22974867 -0.20452125 0.08828382 -0.35065222

conv4.weight f4 [128, 64, 3, 3]
000000 32 77 e7 3b 45 c6 2e bc 8b ae eb 3c b6 23 c6 bc
       0.0070637697 -0.010667388 0.028769752 -0.02418695
000010 e6 e9 db bc ef f8 47 bb 9a a0 84 3c 0f 90 92 3a
       -0.02684493 -0.0030513366 0.016189862 0.0011181849
000020 36 d2 14 bc ce 76 8a bb 6e 3e 4c 3c 84 f0 2c bd
       -0.009083321 -0.0042255884 0.012466056 -0.04222156
000030 c5 d3 01 3c 1e f6 9a bc ef 00 1a 3c 2d 76 f2 3c
       0.007924025 -0.018916186 0.009399637 0.029597366
000040 8c dd 28 3d 7e 5c 61 3d e3 86 ab 3c 41 f3 3f bc
       0.04122691 0.055019848 0.020938342 -0.011715711
000050 8e 74 8b 3b 6c 2d b5 3b c0 44 c2 3a f7 ec 8d 3c
       0.0042558378 0.0055290964 0.0014821514 0.017324908
000060 3c df 05 bd b4 16 a4 bc 3b e1 fe bc f9 46 4c 3d
       -0.032683596 -0.020030357 -0.031113258 0.049872372
000070 5f d4 6d bd 71 42 e7 bb 5f 15 99 bc 3a f5 95 3c
       -0.05806386 -0.007057481 -0.018686948 0.01830541
000080 59 d0 6c bc 08 e8 ca 3c 53 8f f1 3c a8 28 90 3c
       -0.014453971 0.024768844 0.029487288 0.017597511
000090 f1 d8 ab 3c f1 1f 80 3d 77 76 48 bd 6c 70 f7 bb
       0.02097747 0.06256092 -0.048941102 -0.0075512435
0000a0 53 fc a4 bc 5e ba b6 3b df 3f 84 bc 07 80 36 3c
       -0.020139849 0.005576416 -0.016143737 0.011138923
0000b0 51 53 4c 3b 17 73 5a bc 05 73 e5 3c 7e db 98 3b
       0.003117759 -0.013333104 0.028008947 0.0046648374
0000c0 a1 cb 98 3b ab 4a ee 3c b8 fe 88 bd 82 ba cf 3b
       0.0046629463 0.029088339 -0.06689209 0.006339372
0000d0 06 30 ab 3c 8b 2b 9d bc a5 43 30 3c e8 fd b1 3c
       0.020896923 -0.019185802 0.010758315 0.021727517
0000e0 02 78 35 bc 46 d9 9a 3c f0 5d 5b bd 82 43 46 bb
       -0.011075975 0.018902432 -0.053556383 -0.003025264
0000f0 1e 9f 12 3c d7 62 e2 3c bc b0 d0 37 36 09 c8 b8
       0.008949069 0.027635021 2.487783e-05 -9.538459e-05
000100 27 61 6a bc 29 9b ee 3b 9c 1a 42 3c 00 d0 a9 bb
       -0.0143053895 0.00728168 0.0118471645 -0.0051822662
000110 3f 46 0c 3c 4e 29 1e 3b ad 22 3b bc a9 c3 21 bd
       0.00856167 0.0024133506 -0.011421842 -0.039493237
000120 04 c6 94 bc f6 53 c2 bc c1 7c 50 bd 4f 64 9f 3b
       -0.018160827 -0.023721676 -0.050900225 0.0048642526
000130 ba 15 f0 bc 39 63 99 bc ca f3 b3 3c bb 2a d4 ba
       -0.029307235 -0.01872407 0.021966834 -0.0016187051
000140 57 a0 2a bc 47 63 c1 bc b1 44 a2 3c 2f 3e 1e 3b
       -0.010414205 -0.02360691 0.019808145 0.002414595
000150 49 d1 85 3c 8c bc 2b bc 3a 13 aa 3c fb ca 7b bd
       0.016335147 -0.010481965 0.020761121 -0.061472874
000160 a5 49 22 3c 64 ea da bb 52 5e 18 3d 44 b5 0f bb
       0.009905254 -0.0066807736 0.037199326 -0.002192811
000170 d8 1f 83 bd 14 59 a5 bc f4 31 46 bd d3 0b 68 bc
       -0.06402558 -0.020184077 -0.048387483 -0.014162975
000180 a1 d9 0f bd f5 95 0e bd 38 00 fb 3a 75 c6 00 bd
       -0.035119656 -0.03481098 0.0019149845 -0.031439263
000190 74 47 ba 3c 7a c5 eb bc 9b f3 12 bc d4 90 4f 3a
       0.02273915 -0.028780688 -0.008969213 0.00079180044
0001a0 ad d2 e2 bc 92 d4 d5 3b a2 e9 3f bb a5 59 11 bb
       -0.027688349 0.0065255845 -0.0029283543 -0.0022178676
0001b0 91 79 9f 3c 8b bd 03 3c 35 af 26 bc f0 5c 68 bb
       0.019467147 0.008040796 -0.010173609 -0.0035455786
0001c0 7c d3 08 3c 39 71 fb bc 08 03 79 bd 35 e1 56 bd
       0.008351203 -0.030693637 -0.060793906 -0.052460868
0001d0 0c f7 0d 3d 72 f8 c0 3c cb 1b 4a 3c 7e e4 5c 3b
       0.03465943 0.023555968 0.012335728 0.0033705528
0001e0 47 60 91 3b 13 19 86 bc 43 cf 0a 3d 3a 8d fc bc
       0.004436526 -0.016369378 0.033889066 -0.03082906
0001f0 8d 25 c5 bc 59 60 93 bc 77 2f a8 bb 0a ec 36 bd
       -0.024065757 -0.017990278 -0.0051326114 -0.0446587
000200 b7 38 a7 bb 47 f5 de 3c 83 b6 a1 bc 62 f9 00 bd
       -0.0051031965 0.027216567 -0.019740349 -0.03148783
000210 99 3a 45 bc c6 b0 ec bb c9 6c ca bb 94 1d 9d bc
       -0.012037897 -0.0072232215 -0.006177519 -0.019179143
000220 59 c0 a4 bc 9a 4c 61 3c c0 e5 1a bd f5 48 41 bc
       -0.02011125 0.013751173 -0.037816763 -0.0117971795
000230 34 df 22 3c e2 f8 78 ba 93 b4 19 3c 8b 51 b6 ba
       0.009940911 -0.00094975356 0.009381431 -0.00139098
000240 59 4a 6d bd 7f b7 30 bd d5 18 3b bd ca b5 3b 3d
       -0.05793223 -0.043143746 -0.04567798 0.045827664
000250 fc 9a 9a 3c f4 e0 4b bd d0 bd ad 3d 72 86 cd 3c
       0.01887273 -0.04977508 0.084834695 0.025088523
000260 27 6a b8 3c 6e 23 b5 bd e1 d5 0e bd 62 5c 10 bd
       0.022511555 -0.08844648 -0.03487194 -0.035244353
000270 a6 26 bc 3c f8 ce 8b bb 5c 68 4f bd 98 f7 6d 3c
       0.022967648 -0.004266616 -0.050636634 0.014524363
000280 cd 2e 1d bc 88 66 88 3c 10 e1 6d bd a5 ac 03 bc
       -0.009593678 0.016650453 -0.058075964 -0.008036767
000290 6b 44 5f 3c 75 dd 17 3d e1 b5 e6 bc 9e d2 a2 3c
       0.013627152 0.037076432 -0.028162898 0.01987582
0002a0 8e fb ea bc db 10 b2 3c d3 98 e4 3c 55 d9 fb 3b
       -0.028684404 0.021736553 0.027904904 0.00768582
0002b0 6e 70 37 bc f7 bf e1 bc 7c 00 94 bc ec c4 52 3c
       -0.011196239 -0.027557356 -0.018066637 0.012864333
0002c0 95 bf 3d bd 81 ef 15 3c 11 3a 0d bc 1f 38 70 b9
       -0.046325285 0.00915134 -0.008619801 -0.0002290909
0002d0 66 80 b6 39 45 0c a0 bd df ba 5c bb d4 c3 54 3c
       0.0003480941 -0.0781484 -0.003368072 0.012986142
0002e0 85 7c 74 3c 2e 59 e4 bc ff 2d 20 ba 5d d7 57 3b
       0.014922266 -0.027874555 -0.00061103696 0.0032934763
0002f0 2b 8c bd bc 7f 21 9b 3d 22 90 f0 bc c6 6c 1c 3c
       -0.023138126 0.07574748 -0.029365603 0.009547418
000300 7c 47 6a 3c 50 09 c4 b9 6b 4d b5 bb c7 b9 87 3c
       0.01429927 -0.00037390972 -0.0055329106 0.016568078
000310 9b 98 ef 3b 5e 48 2e bc 18 87 49 3d 15 f0 ac 3b
       0.007311893 -0.010637371 0.0492011 0.0052776434
000320 5e 44 1c 3d 6a 8a 01 b9 44 d0 d4 bc 0f 3f 7c 3d
       0.038151138 -0.00012353962 -0.025978215 0.061583575
000330 5e ee ae 3c 18 d3 85 3c e1 2e 09 bc ad 90 ab bc
       0.021353897 0.016336009 -0.008372993 -0.02094301
000340 3a f2 80 bb dd bc 30 bd ea 86 bd 3c 29 8a 83 bc
       -0.0039351257 -0.043148864 0.023135621 -0.01605709
000350 3b 79 40 3c fd fa 57 3c c3 f3 93 3b 3f 23 7a 3c
       0.011747654 0.013182399 0.0045151426 0.015267192
000360 5b 35 a6 3c 71 8e 63 3d 1f 74 18 3d 5f 1e 2c bd
       0.020289114 0.055555765 0.037220117 -0.04202115
000370 af 80 6a bc e5 f8 cb bb 67 c1 b3 bc 5a 32 40 bc
       -0.014312907 -0.006224739 -0.021942807 -0.011730755
000380 62 e3 2a bb 3e 24 8c bd a4 3a 2d bd ba 58 98 3c
       -0.0026075472 -0.0684285 -0.042292252 0.018596996
000390 0d 7b 36 bd 21 0b 57 3b 25 f2 81 3c f6 aa 52 3c
       -0.044550944 0.003281303 0.015862534 0.012858143
0003a0 09 eb 26 bc 3f 4b b7 bc fe 14 65 3d a4 e1 51 bb
       -0.010187873 -0.022374747 0.055928223 -0.0032025361
0003b0 40 f1 9d bc 2d c2 39 bc 9e d4 1f ba ef 86 09 bd
       -0.019280076 -0.011337799 -0.0006097051 -0.03357595
0003c0 c1 95 8c 3d dc 60 f6 bc 29 6a d9 3c ee d8 b3 3c
       0.06864501 -0.030075483 0.026539879 0.021954026
0003d0 f1 f3 a5 bb a3 2f 45 bd 2d a5 4b 3b 01 d0 43 bd
       -0.0050644805 -0.048141133 0.0031073794 -0.04780579
0003e0 f2 25 30 bd f9 f1 02 3d ca 46 95 bc 17 db db 3b
       -0.043004937 0.031969044 -0.018222231 0.006709467
0003f0 e1 69 09 3d 1c 8c 0e 3c b0 86 d6 3c 56 b7 d3 39
       0.03354824 0.008700397 0.02618727 0.00040381652

conv4.bias f4 [128]
000000 de 6c ec bd 65 bf 90 bd 95 29 ef 3d 53 09 47 bd
       -0.11544202 -0.070677556 0.11677853 -0.048592877
000010 cb d2 8b 3b 77 ad 9e 3d e1 9d e8 bd c2 39 34 bc
       0.004267072 0.077479295 -0.11358238 -0.011000099
000020 45 b6 c9 3d 4a 86 dc 3d 1b c3 d7 bd 50 1b fc bd
       0.09849218 0.10767801 -0.1053526 -0.12309897
000030 24 f3 a3 3d 9b 66 2a 3d 63 a2 e3 bb f5 08 0c be
       0.0800536 0.04160176 -0.0069468482 -0.13675292
000040 77 b6 ce 3d 79 65 96 3d 0e 19 d8 3d 4b 9f cd 3d
       0.10093396 0.07343573 0.10551654 0.10040148
000050 67 39 78 3d 07 d1 85 3d 3e fc 2e 3d 40 2b 35 3d
       0.06060162 0.065340094 0.042721026 0.0442307
000060 2d 29 68 3d 24 fa e8 3d 40 d5 69 be 87 4a 94 3d
       0.056679893 0.113758355 -0.22835255 0.072407775
000070 de de a4 bd 58 8d a2 3d 6c 8e 9e 3d 8b 1c 0e bd
       -0.08050321 0.079371154 0.077420086 -0.03469519
000080 e9 55 0a 3d aa d3 c4 3d f6 73 c6 3c b5 a2 0d be
       0.033773337 0.09610684 0.024225216 -0.13831599
000090 75 c5 f1 3d 22 52 b1 3d 0c ca 00 3e 43 38 05 3e
       0.1180524 0.08658244 0.12577075 0.13009743
0000a0 2f 85 b0 3d 82 d4 10 3d 51 46 a0 3d ff ee 2a be
       0.08619153 0.035358913 0.07825912 -0.16692732
0000b0 bf 16 61 3d 5e 89 de 3d 71 53 0d be 02 46 99 3d
       0.054953333 0.108660445 -0.13801362 0.07484056
0000c0 1d 11 ad 3d 26 e1 c3 3d b4 1a b1 3d f5 47 94 bd
       0.0845053 0.09564428 0.08647671 -0.07240287
0000d0 86 a7 94 bd bd 18 5e be 87 20 12 3d f5 b9 06 be
       -0.07258515 -0.21689124 0.03567555 -0.13156874
0000e0 14 98 91 3d c7 f7 64 bd 34 4e 73 3d cb 36 96 3d
       0.07109085 -0.05590036 0.059400752 0.0733467
0000f0 11 db 90 3d 20 95 c6 bd bc b8 05 be 8f 3c e2 bd
       0.070730336 -0.09696412 -0.13058752 -0.11046707
000100 67 99 b3 3c 06 26 aa 3d 62 5a a9 3d 1b 1c e2 bd
       0.021923734 0.08308034 0.08269192 -0.11040517
000110 f2 f5 cd 3d 3b 84 db 3d 13 74 81 bd f5 ac f7 bc
       0.10056676 0.1071858 -0.063209675 -0.03023384
000120 77 28 47 bd d9 2f 36 3d a5 eb 94 3c 0c 73 0d be
       -0.048622575 0.044479225 0.01817877 -0.13813418
000130 7d 20 82 3d 1e d5 d1 3b 19 02 42 be 29 34 bb 3d
       0.06353853 0.0064035794 -0.18946113 0.09140808
000140 05 f2 66 3c aa 6a 7d 3b f6 55 c0 bd 07 6a 2a 3d
       0.014095788 0.0038668313 -0.09391396 0.04160502
000150 e5 72 01 3e 90 88 61 bc c3 df 37 3d 2e 13 47 3d
       0.12641485 -0.013765469 0.04489113 0.048602276
000160 69 ae 43 bd 6a be be 3d 26 1a dc 3d 02 6a 12 be
       -0.047773752 0.09313662 0.10747175 -0.14298251
000170 13 fc dc 3d c3 83 03 3e e7 28 0b be d0 2e 03 be
       0.10790267 0.12843232 -0.13589822 -0.12810826
000180 8c 41 ce 3d 6c bb a6 3d 56 0a 22 bd c8 22 2a be
       0.10071096 0.08141217 -0.03956064 -0.1661483
000190 27 16 fc 3d ac 15 38 bc 94 c4 a1 bd 6d 29 86 3d
       0.12308913 -0.011235636 -0.078988224 0.0655087
0001a0 2b 37 db 3d 19 cd af 3d 55 69 b1 3d 48 62 cb 3d
       0.10703882 0.08584041 0.086626686 0.09930855
0001b0 35 ac 2c 3d af 1c c7 3d f7 84 fc bd 7b 9c 14 be
       0.042156417 0.09722268 -0.123300485 -0.14512818
0001c0 f2 89 03 be 92 65 da 3d 36 0b 05 be 28 11 c2 3d
       -0.1284559 0.10663904 -0.12992558 0.094759285
0001d0 71 3d b5 3d 3a 9b d2 3d 89 8f 9b 3d 74 61 9c 3d
       0.0884961 0.10283513 0.075957365 0.07635775
0001e0 f1 c1 94 3d 01 bb c4 3d 6f 49 0d be 28 99 7c 3d
       0.07263554 0.09605981 -0.13797544 0.0616695
0001f0 e2 3b 1d bd 8b d2 18 bd 48 b5 22 be 15 d0 54 bd
       -0.038387187 -0.037310164 -0.15889466 -0.051956255

conv1T.weight f4 [128, 64, 3, 3]
000000 d4 0f 6b bd 65 09 c5 bd 5d 3e 89 3e b8 eb 2b 3f
       -0.05738814 -0.096209325 0.26805392 0.67156553
000010 6c a2 03 3f 17 9a 11 3f a0 48 39 be 4a 20 99 3e
       0.5141971 0.5687575 -0.1809411 0.29907447
000020 20 ad 4e 3f 47 5c 56 3d 3a 14 fe bd 2c 59 d1 bd
       0.8073292 0.052334096 -0.12406202 -0.10222086
000030 77 6d 69 3e fe b3 34 bd a4 09 41 3e c8 7f 0e 3e
       0.22795664 -0.044116966 0.18851334 0.13915932
000040 29 6f b9 3e a9 5c dc 3e 04 97 71 3d 64 a0 ef 3b
       0.3621762 0.43039444 0.05898191 0.007312821
000050 51 3f 05 be f4 da 93 3e 20 51 cd 3c ba f5 61 3e
       -0.13012435 0.28877985 0.025063097 0.22066393
000060 75 48 60 3d 50 3c b6 3e 20 52 89 bd 96 50 c3 bd
       0.0547566 0.3559289 -0.06705117 -0.09536855
000070 56 e7 cb be 4b cd 6c bd 86 69 80 3e 91 5a 80 3e
       -0.39824933 -0.05781297 0.25080508 0.25069097
000080 6c 4a 3e bd 3a c0 1e 3f 1f 89 1f 3f f1 6e 89 3e
       -0.046457693 0.62012064 0.62318605 0.26842454
000090 b8 78 69 be 46 90 8b bb fb a0 40 3e ac c1 ae 3d
       -0.22799957 -0.004259142 0.18811409 0.08533034
0000a0 28 8b 90 3e 43 05 d8 bc ab 81 ff 3e 67 be 7b 3f
       0.28231168 -0.026369696 0.49903616 0.98337406
0000b0 eb 07 2f 3d c9 2b ed be f0 62 79 3e 4a 0a 16 bf
       0.04273216 -0.46322468 0.24354148 -0.5860945
0000c0 ca ae 14 3e 28 4f 90 3e 3d 47 29 be 6e e3 e3 3e
       0.14519802 0.2818539 -0.16531081 0.44509453
0000d0 33 bc 83 3d 2a 27 52 3e f9 67 42 be 54 ff cb be
       0.064323805 0.20522752 -0.18984975 -0.39843237
0000e0 0c 93 20 3e 95 3d 91 3e 8f 53 cd 3e 04 b9 1c 3e
       0.15681094 0.28367296 0.40102813 0.15304953
0000f0 6f 94 01 3f f8 07 89 3f 8f 09 91 be b7 b9 2a be
       0.50617117 1.0705557 -0.28327605 -0.16672407
000100 9f 78 94 bc 33 11 f6 bd 19 84 c4 3e 8d 1b d1 3e
       -0.018123923 -0.12014999 0.38382033 0.40841332
000110 45 0e da 3d eb 53 d3 3e 8f ec 19 3f ed 72 e8 3e
       0.10647253 0.41274962 0.60126585 0.4540018
000120 2c 64 c0 be 89 ff 41 be 23 d6 9b 3d f2 f5 3e 3f
       -0.37576425 -0.18945135 0.07609203 0.7459403
000130 b6 34 5d 3f 2b 2d 65 3e 6f 8b 79 3e 96 b5 ba 3e
       0.86408556 0.22380511 0.24369596 0.36466664
000140 fc 64 b0 be 23 e4 18 3f 9f 2d b4 3e 46 3c e0 3d
       -0.34452045 0.5972311 0.35191056 0.10948996
000150 c7 9e ef 3e 51 cd db 3e d3 bb 10 3f d6 e8 26 bf
       0.46800825 0.4293008 0.56536597 -0.6519903
000160 ec ae 17 bf 7a a8 64 be d2 de 28 be 92 27 2a 3e
       -0.59251285 -0.22329894 -0.16491249 0.16616657
000170 bd cb 7f be 6a 9a 94 3e ff 00 b0 3e 85 b0 ba 3e
       -0.24980064 0.2902406 0.3437576 0.364628
000180 65 4b 21 3e ec fd 45 3f d8 04 80 be 58 4f 43 be
       0.15751417 0.7734058 -0.25003695 -0.19073236
000190 4c 39 18 3c a2 2f 3b be 60 15 ca 3e 9a 9a 23 3f
       0.009291004 -0.18279889 0.39469433 0.6390778
0001a0 c5 ac 9a 3e 64 b6 f6 3d b3 6e ab 3e a4 9d b3 3e
       0.30209938 0.12046507 0.33482894 0.35081208
0001b0 03 3f f2 3e e1 7d 1a 3f 16 70 a0 3e be 1b d4 3e
       0.473137 0.60348326 0.31335515 0.41427416
0001c0 14 55 e1 3e 58 85 38 3e 96 1e 87 bf 85 f3 60 be
       0.44010222 0.18019617 -1.0556209 -0.21967895
0001d0 9e a9 b3 3e 6f 80 03 bf 82 b3 01 be de 6c 33 bc
       0.35090345 -0.5136785 -0.12666133 -0.010951249
0001e0 05 34 1a 3f e1 1e 0c 3f f1 bd d6 3e ab 05 d7 3d
       0.60235626 0.5473462 0.4194179 0.10499128
0001f0 a7 01 66 3e ef 3a 4f 3e 84 19 66 be 5b 4b 0f be
       0.22461568 0.20237325 -0.22470671 -0.1399359
000200 8e d8 2c 3d 88 4b 38 3e 84 9c 01 3f 6b 83 40 3e
       0.04219871 0.17997563 0.5062945 0.18800132
000210 f2 ee 91 3e ec e8 fa 3e 06 3d 48 3e ef dd 4f bd
       0.28502613 0.4900583 0.19554529 -0.05074876
000220 94 57 72 be 32 b9 25 be 16 c5 c8 3c 60 81 c9 3e
       -0.23666221 -0.16183928 0.02450804 0.39356518
000230 7d 3a 02 3f 18 f2 55 3e 18 c0 82 3e 1c 5d 97 3e
       0.50870496 0.20893133 0.2553718 0.29563224
000240 10 73 e4 be b8 6c bf 3e 49 87 57 be 7c 9b 30 3e
       -0.44619036 0.37387633 -0.21047701 0.17246813
000250 f3 8e 85 3e 95 a7 10 3e b4 6d 42 3e f2 6f dd 3e
       0.26085624 0.14126427 0.18987161 0.4324947
000260 bb 39 08 3f 28 f3 8b bd 3a 65 d7 3c 3f a6 83 3d
       0.5321309 -0.06833488 0.026293386 0.06428193
000270 e0 24 fc 3d 12 d8 17 be 3c a4 09 3d 7d e5 fd 3d
       0.12311721 -0.14828518 0.03360389 0.12397287
000280 94 e7 db 3c 83 de b4 3c 4f 92 e6 bb ee 30 99 3e
       0.026843823 0.022078758 -0.0070364843 0.29920143
000290 62 2e 92 3d f8 bc 81 3e 41 e5 eb 3d 71 9a 58 3e
       0.07137753 0.25339484 0.11518336 0.21152665
0002a0 11 22 8f 3e fe c7 ef 3e 9d 45 95 3e 88 b9 8e 3e
       0.27955678 0.4683227 0.29154673 0.27875924
0002b0 c5 a0 95 3e 27 be 88 be 37 b0 9f 3e 67 82 32 3f
       0.2922422 -0.26707575 0.3118913 0.6973023
0002c0 15 32 bb 3e 27 b2 39 bd f5 43 7f bd e4 72 d7 3e
       0.36561647 -0.045335915 -0.06232067 0.42079842
0002d0 b9 b1 b5 be 0c 4c 6e bd a0 f2 7b bd 2f 7c 9d 3e
       -0.35487154 -0.058177993 -0.061510682 0.30758807
0002e0 79 5e 3f bc cc a7 f2 3d bc b4 91 3e 72 38 4c 3e
       -0.011680239 0.11848411 0.28458202 0.19943407
0002f0 3e 41 86 3a 5d f6 97 3e 06 5d 00 bf 34 58 cb 3e
       0.0010242832 0.29680148 -0.5014194 0.3971573
000300 4a 16 44 3d 60 86 28 3d a0 9e 25 3e 13 87 b7 be
       0.04787282 0.041143775 0.16173792 -0.3584524
000310 37 f5 f2 3e ae 49 74 3e 8f e4 a6 be 12 a9 20 be
       0.4745271 0.23856232 -0.3259625 -0.15689495
000320 62 6e 5b be bb af 92 bd 79 17 d8 bc c2 31 4c bd
       -0.21428826 -0.07162424 -0.02637838 -0.04985214
000330 79 f9 83 3e 25 b9 16 3f fc fb 2f 3d 4e e5 59 3e
       0.2577627 0.5887626 0.04296492 0.21278879
000340 33 4b b4 3e c9 bb 83 be f0 d8 a2 3e 47 05 99 3e
       0.35213622 -0.25729206 0.31806135 0.2988684
000350 71 27 02 be 4e 51 bf 3e d2 6a 43 3e db 1e 76 3e
       -0.12710358 0.37366718 0.19083717 0.24035208
000360 dc 0f 82 be 57 6a 42 3d 74 0d b2 3c 54 37 39 3d
       -0.25402725 0.047464695 0.02173493 0.04521878
000370 7e 80 db 3e 2e 25 13 3e 82 b7 49 3f 86 af 78 3f
       0.4287147 0.14369652 0.78795636 0.9714283
000380 36 c8 dd 3e 21 90 15 bf b7 3c bc 3c b1 d0 86 bd
       0.4331681 -0.5842305 0.02297817 -0.065827735
000390 d1 59 be 3e 2d 61 13 3f 3a 93 02 3e f9 c1 fc 3e
       0.371779 0.57570153 0.12751475 0.4936674
0003a0 03 ac e2 3e dc 13 1d bd 78 bf a5 be 3d 5e a5 3d
       0.4427186 -0.038349018 -0.32372642 0.08074615
0003b0 7f 51 44 3d 43 0e 60 3e 1e 50 37 3d 08 5f 5c 3e
       0.047929283 0.2188044 0.04475414 0.21520627
0003c0 c9 a2 b1 3d 88 e4 f1 3e ed d8 b0 bd d5 49 44 be
       0.08673627 0.47244668 -0.08635125 -0.1916879
0003d0 e7 19 05 3e e7 56 22 bd b0 10 69 3e 46 13 68 3e
       0.12998162 -0.039633658 0.22760272 0.22663602
0003e0 4e 33 3c 3d 96 70 65 3d ca ff d9 3e f0 e2 a5 bc
       0.045947365 0.056015573 0.42577964 -0.020249814
0003f0 d4 06 35 bf 52 c3 05 bd a5 72 d7 be 53 64 be 3d
       -0.70713544 -0.032656975 -0.42079654 0.09296479

conv1T.bias f4 [64]
000000 4e 38 be bd 03 f8 c2 3c 08 96 87 3b 5e f4 2d bc
       -0.09288083 0.023799902 0.004137758 -0.010617344
000010 be c4 cb bc f1 51 73 3d fb 27 df 3c 5d 66 8a bd
       -0.024874087 0.059404317 0.027240744 -0.067578055
000020 1f b1 cd bd 54 b4 07 be 90 d3 fe 3d 38 ff bd 3d
       -0.10043549 -0.13252383 0.12442696 0.09277195
000030 7a ac e2 bd 07 6b 36 bc db 19 44 3e ad 61 a3 3d
       -0.110680535 -0.011133916 0.19150488 0.079776146
000040 04 3c ed 3b bf c2 4b bd 07 dd 37 3d 3b ed a4 3d
       0.0072398204 -0.04974627 0.044888522 0.080530606
000050 ae 3c 14 3c 0d 63 88 bd 69 b2 08 3c 7a 80 4d 3c
       0.00904767 -0.066595174 0.008343318 0.012542838
000060 88 01 32 3d c3 fb f9 3d 41 ad af bd c8 2a 10 3d
       0.04345849 0.12206223 -0.085779674 0.03519705
000070 6d aa 2d bc 5a c8 98 3d 98 c3 36 3d a8 06 1b 3e
       -0.010599715 0.07460089 0.044620126 0.15139258
000080 18 76 39 3d b3 79 35 3e 4b b4 76 bc 06 0f 84 3d
       0.04527864 0.17722206 -0.015057634 0.06448178
000090 91 c6 0a 3d 5e 04 45 3e f7 14 94 3b 8d 1b 0b 3e
       0.033880774 0.19239947 0.0045191008 0.13584729
0000a0 b8 59 0e bc 45 61 a7 3d b5 80 c9 3d df 3b 29 3e
       -0.008688383 0.081728496 0.09839002 0.16526745
0000b0 79 6e e9 3d fc d4 a1 3c 6a 74 05 bc 19 72 95 bd
       0.11398024 0.01975488 -0.008145431 -0.07297153
0000c0 31 b4 eb 3d 96 cf 27 bd d0 f4 85 3d 45 86 14 3d
       0.11508978 -0.040969454 0.06540835 0.036260862
0000d0 64 fd cf 3d 37 86 1f 3d 21 6e 19 bc b7 8b a1 3d
       0.10155752 0.038946357 -0.009364636 0.078879766
0000e0 ab 60 24 be f0 2d 84 3d 2a 33 9a ba 3b fd 9a 3d
       -0.16052501 0.064540744 -0.0011764516 0.07567831
0000f0 fa fc 85 3d b3 5c 67 3d 5e 80 3a bd 73 71 70 3d
       0.06542392 0.05648489 -0.045532577 0.058701944

conv2T.weight f4 [64, 32, 3, 3]
000000 67 53 d2 3c 2c d3 2b 3e a1 db 67 3e c6 e6 13 bf
       0.025674535 0.16779774 0.22642376 -0.5777401
000010 23 bb 94 be e5 7e c1 be 1c 03 84 bf a6 db 5c 3e
       -0.29049024 -0.37792125 -1.0313449 0.21568164
000020 01 e9 92 bf d4 6b 9c 3e ff dc 01 3f ee 48 77 3f
       -1.1477357 0.30551016 0.5072784 0.96595657
000030 45 d7 3b be a1 35 20 be 22 43 e8 bd 0a da a3 3e
       -0.18343838 -0.15645458 -0.113409296 0.32002288
000040 d7 1f 88 3e 1c 97 79 3e c7 b7 03 be 9b 86 8c be
       0.26586792 0.2437405 -0.12863074 -0.27446446
000050 27 4c ef be 13 23 14 bf f9 3c 53 bf 17 c8 1f bf
       -0.46737787 -0.5786602 -0.8251491 -0.6241469
000060 0e fe b4 3e 87 7a b0 3e 76 88 5d 3e 44 ba 9a bd
       0.35350078 0.3446848 0.21634087 -0.075550586
000070 09 20 26 bc e2 20 fd be 65 6f 18 be e1 77 6b be
       -0.010139474 -0.4943915 -0.14886244 -0.22994949
000080 89 8b 04 bf 43 1f 3c bd a7 b9 9b 3e b5 f3 ac bd
       -0.51775414 -0.04592825 0.3041508 -0.08444921
000090 e6 4b f1 bd e5 0e 27 bf 32 c8 e9 3e de 23 13 bf
       -0.117820546 -0.652571 0.4566055 -0.57476604
0000a0 4e 18 72 bf ad 89 27 bf d0 96 d0 3d 3a 55 2a be
       -0.94568336 -0.6544445 0.10185015 -0.16634074
0000b0 e7 75 37 3e f5 e9 91 3e 45 f0 3a 3d e6 a8 01 bf
       0.1791607 0.28498808 0.045639295 -0.50648344
0000c0 33 e9 da be 57 14 55 be fd f9 e9 be 58 7a 7f be
       -0.42756042 -0.2080854 -0.45698538 -0.24949014
0000d0 fd 67 62 be 12 e3 e6 bd 4c 51 43 bf 0d 52 0e bf
       -0.22109981 -0.11273779 -0.76295924 -0.5559395
0000e0 26 09 84 bc 8a 05 cf be 1b ce 64 be df 3a 62 bd
       -0.016117644 -0.40433913 -0.22344248 -0.055231925
0000f0 c9 41 d3 3e 45 b4 1d bd 21 d5 d7 3e 4f aa 28 3f
       0.41261128 -0.038501997 0.42154792 0.6588487
000100 18 94 76 3e 57 e9 7b 3b 3c 7f 7b 3f a4 71 a4 3f
       0.24079931 0.0038438642 0.9824102 1.284718
000110 64 d6 67 3f a3 a3 07 3f b2 c1 2d 3f 02 ca 82 3e
       0.9056151 0.52984065 0.6787368 0.25544745
000120 dc b1 af 3d 29 05 27 be da 2a 32 bf 89 55 0b bf
       0.08578846 -0.16310562 -0.69596636 -0.5442739
000130 d4 2d 0c bf dd c3 34 bf ab 80 79 3d ee 06 59 3e
       -0.5475743 -0.70611364 0.060913723 0.2119405
000140 23 16 50 3e 5d 6a 69 be 0d 25 32 be 64 17 b3 be
       0.20320944 -0.2279448 -0.17396946 -0.34978783
000150 d1 9c b7 be ef dd 03 bf 9c 59 b4 be 1e 3d 1c 3f
       -0.3586183 -0.5151052 -0.35224617 0.6103076
000160 46 b5 e9 3e f3 64 09 3f 37 c4 96 bd 55 87 99 be
       0.45646113 0.5366966 -0.07361644 -0.29986063
000170 e2 78 15 be 22 62 9d be 47 09 8a be 03 d9 f9 be
       -0.14596894 -0.30738932 -0.26960203 -0.4879838
000180 5d 25 c1 bc b6 f5 ed bb bf 52 5f be 57 fd 13 3e
       -0.023577387 -0.007261957 -0.21808909 0.1445211
000190 1c 12 df bd 6c bb ca 3e 04 ad dd 3e 12 a5 9e 3e
       -0.10892126 0.39596117 0.43296063 0.30985314
0001a0 22 d1 89 bd bd b8 a0 3e d6 62 ae 3d 0f 53 9a be
       -0.06729342 0.31390944 0.08514945 -0.30141494
0001b0 20 d5 8b bd dc e0 f9 3d 0f a1 69 bf 6c b0 92 be
       -0.0682776 0.12201092 -0.9126138 -0.28650224
0001c0 03 27 bf 3e 12 41 97 be e5 e6 80 3e c5 15 0d 3f
       0.3733445 -0.29541832 0.2517616 0.5511134
0001d0 c8 88 2c 3e 41 de 2b be f2 71 13 bf 5e fe e5 be
       0.16849053 -0.16784002 -0.5759574 -0.4492063
0001e0 59 cb 93 be 39 cf 27 bf d8 1d 60 bf 62 fc 88 3d
       -0.2886608 -0.6555057 -0.8754554 0.06688763
0001f0 3b d2 28 3e 8e 30 8d 3d b8 09 df bd f8 2e e0 bd
       0.16486447 0.06894027 -0.108905256 -0.109464586
000200 f6 57 05 bf 8b bf 8e be 11 fc b6 3d 51 17 36 3d
       -0.5208734 -0.2788051 0.089347966 0.04445583
000210 1f a2 05 bd ed 9a 50 3e 6d e5 8b 3e 80 82 a7 3e
       -0.032625314 0.203716 0.27323475 0.3271675
000220 d9 96 cb 3e 4c 90 02 3e 07 7b 10 3f fe 46 e6 3e
       0.39763525 0.12750357 0.56437725 0.44976038
000230 62 24 bd 3e db 0e fe 3e 83 54 d9 3e ad dd bb 3e
       0.3694182 0.4962071 0.4244729 0.36692563
000240 29 b7 56 3e 80 c2 17 3e 99 cc 4c 3e bb 10 a1 be
       0.20968308 0.1482029 0.19999923 -0.31458077
000250 d6 98 4f be 1b f5 e3 be 96 0b 2e 3c 44 4e 61 be
       -0.20273146 -0.44522938 0.0106228795 -0.22002512
000260 f4 06 e4 bb 63 5f 95 be 02 cf d1 be d5 99 43 bf
       -0.0069588367 -0.29174337 -0.40978247 -0.76406604
000270 dd 60 a1 be 93 f0 cc bd ce f0 a5 be 5b df 4b 3f
       -0.31519213 -0.100068234 -0.32410282 0.7963769
000280 c6 39 37 3f b8 87 22 3f ec 34 91 3f 16 df a3 3f
       0.7157253 0.6348834 1.1344275 1.2802455
000290 95 34 38 3e d5 4f ea 3e 41 a9 57 3f c4 73 a8 3e
       0.17988808 0.45764032 0.84242636 0.32900822
0002a0 43 a2 2f be 35 2c 08 be 20 c8 c7 be 17 82 81 3f
       -0.17151742 -0.13298114 -0.3901987 1.0117825
0002b0 2b 30 1f 3f 6a 4c ee 3e c5 60 7c 3e 33 10 0e 3f
       0.62182873 0.46542674 0.2464629 0.5549347
0002c0 23 37 f0 3e 28 bf 17 3d 8d 26 a9 3d d8 36 91 be
       0.46917066 0.037047535 0.08259306 -0.28362155
0002d0 47 93 1b 3f 1a e0 60 3e 04 d4 9b bd dd 7c 78 3e
       0.607716 0.21960488 -0.07608798 0.24266382
0002e0 99 15 19 3e b9 39 79 be 70 f3 e5 bd 3b 7e ff bb
       0.14949645 -0.24338426 -0.11228073 -0.0077970303
0002f0 0f c1 87 be c2 c8 dd 3e a2 c1 19 3e b9 10 48 bf
       -0.2651448 0.4331723 0.15015271 -0.78150517
000300 ac 84 37 3d b6 a6 be 3e 9c cd d1 3d cf ac 80 3f
       0.04480426 0.37236565 0.10244295 1.0052737
000310 6a e1 58 3f 1b ee d1 3e d2 a3 5c 3f d5 62 ea 3e
       0.84718955 0.41001973 0.8618747 0.45778528
000320 d1 89 93 3f 8d cb a9 3e ed 65 e8 3e f8 52 37 be
       1.1526433 0.3316311 0.45390263 -0.17902744
000330 b5 5d cc bd 2b 90 2a bc 78 a2 8a be 00 4f fe bd
       -0.09978811 -0.010410349 -0.2707708 -0.12417412
000340 81 2a 70 bc e2 89 97 be d5 b5 1a bf 13 db 38 bf
       -0.014658571 -0.29597384 -0.60433704 -0.7220928
000350 c2 72 0c bf c3 c7 06 3f 03 22 04 3f 12 88 a1 3e
       -0.54862607 0.5264856 0.516144 0.31549126
000360 68 0d 2f 3d 18 14 aa bd b4 c6 3e bf 00 90 e2 3d
       0.042737395 -0.08304614 -0.74521947 0.11062622
000370 55 40 12 3f 94 cc af 3e 6d c9 2f bf 12 87 28 bf
       0.5712941 0.34335768 -0.68666726 -0.658311
000380 6c a4 df be cd b0 5b 3e 11 14 1c bf 8a f6 d9 be
       -0.4368013 0.21454163 -0.6096812 -0.42570907
000390 7e 89 5f be 08 f7 c5 be dd de 7a be 49 0b 78 bd
       -0.21829793 -0.38665032 -0.24499078 -0.060557637
0003a0 4b ad d0 3e a5 b2 02 be c2 a2 92 3e cc b7 c6 3e
       0.40757212 -0.1276346 0.286398 0.388121
0003b0 dd 30 e8 3d 0f e2 a2 3e 2b d6 e9 3e 75 5f e7 3e
       0.11337445 0.31813094 0.4567121 0.45190015
0003c0 6f e2 29 bf d7 f5 47 bf 5f 10 4e be 68 08 16 be
       -0.66361135 -0.78109497 -0.20123433 -0.14651644
0003d0 8f 54 f7 be 85 d6 93 be 30 10 23 bf b8 92 47 bf
       -0.483067 -0.28874603 -0.63696575 -0.7795825
0003e0 1f 8e 42 bf 82 c5 0c 3f d5 fd 05 3f 7b 67 9e 3e
       -0.7599811 0.54988873 0.5234044 0.30938324
0003f0 26 39 2a 3f 38 03 21 3f ba 44 46 3f 14 cd cc be
       0.6649345 0.62895536 0.7744862 -0.40000212

conv2T.bias f4 [32]
000000 ba 80 bd bc 40 0f 73 be 0d eb e1 bd 35 3f 2a be
       -0.02313267 -0.23736286 -0.110311605 -0.16625674
000010 32 86 19 be 91 41 07 bd b6 a6 a1 bc 2d 4b 45 3e
       -0.14992598 -0.033021513 -0.019732814 0.19266959
000020 65 b9 5e 3e 25 92 b9 3d 68 bb 89 be 42 20 21 be
       0.2175041 0.09061078 -0.26900792 -0.15734962
000030 94 9c d1 3e ce 9b 01 be 19 d8 d7 bd e0 41 af bf
       0.40939772 -0.12657091 -0.10539264 -1.3691978
000040 94 92 7f bd df d3 2b 3d 07 39 5c 3e 83 e8 00 be
       -0.062395647 0.041950103 0.21506129 -0.12588696
000050 0b 52 57 3e 9f 7b 40 be ee 11 01 3f 2c 51 4c bd
       0.2102739 -0.18797158 0.50417984 -0.0498821
000060 4b c2 72 be 21 e7 7d be 00 84 16 bf fd 11 f8 bd
       -0.2370693 -0.247952 -0.58795166 -0.12112806
000070 44 0f c4 3d 0c 2b e6 3e f3 51 37 3d 14 7e 07 bf
       0.09573224 0.44954717 0.044755887 -0.52926755
