theta_run_birds/exp_bs2048_filesmany_tight/conv_autoencoder.pth (torch, 997865 bytes, 19 tensors)

module.conv1.weight f4 [16, 1, 3, 3]
00000000: 365a 973c 0e4b b93d e314 193e c6ea 20be
00000010: 3f53 2f3e 7c49 933d 248f 523e dacf 99bc
00000020: 19af 053e d0b2 2bbd 231c 1cbd 24e5 3e3d
00000030: 2ce3 05be e319 1bbe 09e3 553e d013 86bd
00000040: 0d87 033d ad68 12be ef49 253d fab1 3d3d
00000050: a9dd f4bc 20f4 453e fcbf 293e b4be 1dbe
00000060: bc26 063c 5fc6 203e 445e 213d 1121 27be
00000070: f3d6 c1bc 0739 033e 4e27 f7bc 353f a03d
00000080: eb62 84be cbe7 89be af30 0a3d fae7 1bbe
00000090: fe82 bb3d a044 8abe 2361 a8bd 3541 a3be
000000a0: a1be a0be 536e 503e c135 973d 0329 cfbd
000000b0: 09c7 3e3d 1305 8c3c b7eb e6bd 1544 00be
000000c0: c21c 9f3c 4bed afbd b19c a63c 3fc7 f43d
000000d0: ae6c 9cbe 9b86 5fbe 47df c4bc 9865 153d
000000e0: df12 98be c474 86be f5d4 343e 1b6a 763e
000000f0: b2a5 a23d 6e61 4f3d 04e0 96be dfad 093e
00000100: 7dfd f0bd 9866 7bbe 9fef b83c 129d eebd
00000110: aa54 5dbe 900b 6fbe 7a49 103e 2cfd 95bd
00000120: 1e01 47be d597 2bbc 35cd 983d bbc1 04be
00000130: b201 3a3e 53a2 93be 4943 14bd 2202 e0bc
00000140: 47f6 253e 068a 9abd 927c 0bbe 375d d93d
00000150: db67 a03d 30b2 c33d e3fa 7dbe a23d c33d
00000160: e719 cc3d 71b8 87be fb24 67be 0749 963d
00000170: ad1a 56be 6f18 88be be09 053e 876d 773e
00000180: aa80 503e ae04 e3bd 0a2c a4be 0dd1 453e
00000190: e494 a2bd ed42 a9be 9dd8 01be 8af8 263e
000001a0: d99a 0d3e d861 4bbd 1069 f9bd 146b d43d
000001b0: 23f2 373d 2926 353e 5ea2 373e d789 a43c
000001c0: 571a 67bd bab8 c4bd e435 42be 8492 323e
000001d0: 8d50 3e3e d012 9f3d a08f 2b3e fbd2 27bc
000001e0: a89f 533d f925 afbd 0f25 a33d 073d 23bc
000001f0: 73fe 813d a46f 213e 3374 80be 005e 32be
00000200: cce5 aebd 28b9 483e 2e4d e33d 0a8c 88bc
00000210: 02f4 dfbc a597 053e 6ec2 3f3d 523b 143e
00000220: a73b 8abe 6aa6 7cbd 0ee1 95be 4e04 873d
00000230: a0df c3be 4aa3 4e3e 58e1 40be 93f7 6f3d
0.018475633 0.09047519 0.14949374 -0.15714559 0.171216 0.071917504 0.20562416 -0.01877587
0.13055076 -0.041918576 -0.03811277 0.046605244 -0.1307494 -0.15146594 0.20887388 -0.06546748
0.032111216 -0.14297743 0.04035371 0.04631231 -0.029890852 0.19331408 0.16577142 -0.15404779
0.008187946 0.15700673 0.03939654 -0.16321208 -0.023662066 0.12814723 -0.03017011 0.07824556
-0.25856718 -0.26934657 0.033737835 -0.15225211 0.09155844 -0.27005482 -0.08221652 -0.31885687
-0.31395438 0.20354585 0.073832996 -0.10115244 0.046576533 0.017092263 -0.11275428 -0.12525971
0.019422892 -0.08590182 0.020338388 0.11952066 -0.30551666 -0.21828692 -0.024032248 0.03647384
-0.29701898 -0.2626096 0.17659362 0.24063914 0.0794176 0.050630026 -0.29467785 0.13445233
-0.11767099 -0.24550855 0.022575198 -0.116510525 -0.21614328 -0.23344254 0.14090529 -0.07323679
-0.1943402 -0.010473211 0.07461015 -0.12964527 0.18164709 -0.2883478 -0.03619698 -0.027344767
0.16207229 -0.07545857 -0.13621739 0.106134824 0.07832309 0.09555471 -0.24802737 0.0953324
0.09965878 -0.26507905 -0.225727 0.073381476 -0.20908614 -0.2658114 0.12991998 0.24162875
0.20361581 -0.11084877 -0.3206485 0.19318028 -0.07938555 -0.33058873 -0.12680288 0.16305748
0.13828601 -0.049653858 -0.12178242 0.10371986 0.044908654 0.17690338 0.17933032 0.020085258
-0.056421604 -0.09605546 -0.1896587 0.17438704 0.18585415 0.0776726 0.16754007 -0.010243173
0.051665932 -0.085521646 0.07966053 -0.0099632805 0.063473605 0.15765244 -0.25088653 -0.1741867
-0.08539924 0.19601882 0.11098705 -0.016668338 -0.027338032 0.13046129 0.046816282 0.14475754
-0.26998636 -0.061682142 -0.29273266 0.06592618 -0.3825655 0.20179477 -0.18835962 0.058585715

module.conv1.bias f4 [16]
00000000: b99a 26be bc01 a1be e4c3 0e3e aa3c e8be
00000010: 306c 99be 50bb f3be 6d62 d6bc 8942 83bd
00000020: e753 883e 76a8 db3e cfdc c9be e04d 123e
00000030: 26e5 a03e 4749 a1be 82f2 9f3e 161b 07bf
-0.1626996 -0.31446636 0.13941914 -0.45358783 -0.29965353 -0.47603846 -0.02616998 -0.06409175
0.26626512 0.42901963 -0.39426276 0.1428752 0.31424826 -0.3150122 0.31239706 -0.52775705

module.conv2.weight f4 [32, 16, 3, 3]
00000000: 56b3 30bd cc49 bf3a b9b3 3ebd 1a63 6dbd
00000010: b23a 423d 92e8 9ebc 44c4 ba3a b58c 893d
00000020: c106 1d3c 1db0 debd e89f 113d d7d1 703d
00000030: ea0e 603d 941b 803d 663b b73b 2945 b3bd
00000040: 4bcd 84bb 6e5b 85bd 92bf dbbb aa74 993c
00000050: 0f4f 193d 3bb3 1abd 5692 abbd 0b42 77bd
00000060: 3a7a e63b 5151 8cbc b927 2bbd c9e5 c4bc
00000070: 2d3e 3e3d 952b f6bc b4f9 a1bb 65c8 543d
00000080: d848 66bd 7684 33bd 827a 8fbb ed7c a0bc
00000090: a09d a2bc bafd c53b cc2b 113d 3848 0f3d
000000a0: c678 a7bd 544e 70bd 45f7 ad3b 4524 953a
000000b0: 852a 93bd 752a d3bc 913c 873c 5bd8 3f3d
000000c0: e6ad 223c 640a a1bd 92bc b7bd fcf4 2bbd
000000d0: addd cdbd 3ac7 e3bd 4ddc 7cbd 1698 81bd
000000e0: 9d30 1dbd 4a7e a3bd 052d ccbb 3db7 8b3c
000000f0: 46e4 ceb9 ec4c 8abd 1671 823d d577 2e3d
00000100: b7a7 1e3c fd7c b8bc 9234 d8bc faf3 123d
00000110: 7961 8fbd 5a40 a6ba b557 bebc 8e01 4b3c
00000120: bfec 3d3d 8ea8 8d3d 23d9 943d 8783 d9bc
00000130: 1e51 fcbc 83fa 6e3d 2260 47bd 11bf 65bd
00000140: 014f 473d 6b1c 36bd 42e0 49bd 9638 043c
00000150: b67b 2cbb cbf8 b9bc d670 2e3d b727 1f3d
00000160: 14f5 81bd 2534 8c3d ee84 143d be8c bdbd
00000170: d58b 30bd cd0d 8ebd 15e1 7cbd e045 79bd
00000180: d47c daba a339 443d ba6b c6bd ad42 8b3d
00000190: afeb 773d f567 86bd 7996 73bd 288c ee3b
000001a0: 5a3d 03bd 3ac8 e33a 9898 16bd ed3c 29bd
000001b0: 98c0 c43c e518 983d 652f 97bd bfcd 763d
000001c0: abef a3bd 10ba ef39 648f 41bc 9bb0 c6bd
000001d0: bccd cebb 49c4 8fbd a412 dc3b 52b6 b23c
000001e0: 6112 253d 30c5 82bd 636d 8abd b940 5fbd
000001f0: 73ba 2e3d d4ad a0bc c63b 9b3d bbaf 1b3d
00000200: 0bf4 edbc 98db 5a3d dabf 29bd fcbf 8d3d
00000210: 1c00 133d db81 023c a592 04bd b9fa 873d
00000220: 61c2 4a3c 6ed3 843d 3766 80bd 0b9a 22bd
00000230: b0ea be3c 5d82 04bd 1399 97bd 539c 70bd
00000240: 6313 c63c 1f73 59bc 80a4 76bd 800e 77bc
00000250: fada 49bd 7e96 0cbc eeaa e3bc d159 ae3b
00000260: 8f5c ccbc 8e35 6ebd c235 5b3d 3913 f5bc
00000270: 5a21 01bd 4c36 86bd 47a8 0d3c d3c4 b73c
00000280: 30fe acbd da25 aebd 9f96 88bd 857b 48bd
00000290: ecd1 79bc 0644 02bd e7ef 05bc 6626 173d
000002a0: d7c1 d2bc b806 593d 147d 3d3b ded4 90bd
000002b0: 223d 5a3c 6b49 2abd 6ca2 1c3d 840e 94bd
000002c0: 00eb 7abd a6b1 6ebd f39b 2f3d 3059 a2bb
000002d0: c275 debc a44f 18bd 6336 253c b22f 70bd
000002e0: 5551 4abd 47e1 15bd 0a5d 273d 40a8 9ebc
000002f0: 487b c43c 8d55 2dbd c62e 76bd c90f adbd
00000300: c1a1 12bd 48f1 5dbc 8a34 80bb c268 fbba
00000310: db3f e5bc 2222 29bd d99c c4bc 860a cabc
00000320: be8d 9f3b 582d 823c 8228 ecbc 0468 38bc
00000330: b6ef cabc 4642 c73a 75d9 ac3c c550 bcbc
00000340: d5c7 6e3c 9c4d 20bd 4703 6abc 49d7 073d
00000350: 94ca 8dbc c8af 07bd 146a 00bd 5170 3f3d
00000360: 6b1c 4e3d b89c 853d c5d3 48bc 4503 6d3c
00000370: 597e cd3c fa57 93bb a273 7f3c 6b23 583d
00000380: 121c 123a c375 5f3c e576 e23c a045 5c3d
00000390: dafa 363d bdc2 b13c 3dc7 3b3c 945d 693c
000003a0: fe16 afba 7563 66bc d2b5 663c 8a2a e7bc
000003b0: c9cb 3fbc e86d 05bb 7346 e738 5574 74bd
000003c0: 577b 063d 5a53 dbbb 4d62 7dbd b07d 97bc
000003d0: 0810 8cbc 2392 73bd 5494 8c3c ffc3 303d
000003e0: bbf3 073d 0c13 edbb 7f01 653d 061a cabc
000003f0: 341a 8d3d e228 9d3d 1b9a 973d dc57 383c
-0.043139778 0.0014594137 -0.046558116 -0.05795584 0.047419257 -0.019398008 0.0014249166 0.06716291
0.00958413 -0.10873435 0.03555289 0.05879387 0.054701723 0.0625526 0.0055917976 -0.08753426
-0.004052793 -0.065115795 -0.0067061866 0.018732388 0.03742891 -0.037768584 -0.08377521 -0.060365718
0.0070336135 -0.017128618 -0.04178593 -0.024035351 0.046446014 -0.030050078 -0.004943097 0.051948924
-0.056221813 -0.043827496 -0.0043786177 -0.01959082 -0.019850552 0.0060422095 0.03544216 0.034980983
-0.081773326 -0.05866845 0.005309018 0.0011378607 -0.07185844 -0.025777081 0.016508373 0.046837192
0.009929156 -0.0786331 -0.08971514 -0.041981682 -0.10052047 -0.11121984 -0.061733533 -0.06327836
-0.03837644 -0.07983072 -0.0062309527 0.017055148 -0.0003946146 -0.06752953 0.06369226 0.04259475
0.009683541 -0.022520537 -0.026392255 0.035877205 -0.07001013 -0.0012683973 -0.023235181 0.012390507
0.046368357 0.06916915 0.07267978 -0.026551975 -0.030800398 0.058344375 -0.048675664 -0.05609042
0.04865933 -0.044460695 -0.049286135 0.008070132 -0.0026318855 -0.022701642 0.042588077 0.038856234
-0.06345573 0.06845883 0.036259584 -0.0925536 -0.043102104 -0.06936226 -0.061738092 -0.060857654
-0.0016669282 0.04790653 -0.09688516 0.06799827 0.0605275 -0.06562797 -0.059469674 0.0072798915
-0.03204093 0.0017378398 -0.03676662 -0.04131787 0.024017617 0.07426623 -0.07382087 0.06025481
-0.080046974 0.0004572426 -0.011813972 -0.097016536 -0.0063111465 -0.0701986 0.0067160893 0.021815453
0.04030073 -0.06385267 -0.06759145 -0.054505084 0.04265828 -0.019614138 0.0757976 0.038009387
-0.029047033 0.053432077 -0.04144273 0.06921384 0.035888776 0.00796553 -0.032366414 0.066396184
0.012375445 0.064856395 -0.06269496 -0.039697688 0.023305267 -0.032350887 -0.074022435 -0.058742832
0.024179166 -0.013272076 -0.060215473 -0.015079141 -0.049281098 -0.008580802 -0.027791467 0.0053207655
-0.02494648 -0.058156542 0.053518064 -0.029916393 -0.031525947 -0.06553325 0.0086460775 0.02243272
-0.0844692 -0.08503313 -0.06669354 -0.048945922 -0.015247803 -0.031803153 -0.008174873 0.036901854
-0.025727196 0.052984923 0.0028913664 -0.07071851 0.013320239 -0.041573923 0.038240835 -0.07229331
-0.06125927 -0.058274888 0.042873334 -0.0049544796 -0.02715576 -0.037185326 0.010083768 -0.058639236
-0.04939397 -0.036591794 0.040860213 -0.019367337 0.023984566 -0.042317916 -0.0601032 -0.084502764
-0.03579879 -0.013546295 -0.003912513 -0.0019181 -0.02798455 -0.041292317 -0.024000572 -0.024663221
0.004869192 0.015890762 -0.02882791 -0.011255268 -0.024772506 0.0015202246 0.021099785 -0.022987733
0.014574011 -0.039136514 -0.014283008 0.033164296 -0.01730851 -0.033126622 -0.031351164 0.046737973
0.05032007 0.06524032 -0.012257521 0.014466112 0.025084661 -0.0044965716 0.015591534 0.052768152
0.0005573641 0.013638916 0.027644584 0.053777337 0.044672824 0.021699304 0.011461076 0.014243502
-0.0013358293 -0.014061798 0.014081435 -0.028218526 -0.011706301 -0.0020359699 0.000110280605 -0.059681255
0.03283247 -0.006693286 -0.061861325 -0.01849255 -0.017097488 -0.05946554 0.017160572 0.043155666
0.033191424 -0.0072349366 0.05590963 -0.024670612 0.068897635 0.076738134 0.0740244 0.011251416

module.conv2.bias f4 [32]
00000000: dd99 ef3d df7e 073e 9ded 43be 9227 28be
00000010: 3744 8fbe 9d1e 0f3c c7b7 ca3d dae9 403d
00000020: 669c 63bd 9a21 9f3d 767f f53d d68f afbc
00000030: 97ad a0be e4c0 22be cbbe 3fbe 8eb8 123e
00000040: 9624 00be b031 33bd 2e5c b0be 5485 a3bd
00000050: 9a73 4a3e 0a52 433d 39b7 cfba b8d9 afbe
00000060: ece6 3ebe 013d 343e 5ece 01be 5386 0d3e
00000070: afe5 9abd 381b 3abe 815c fd3d 79e6 343d
0.11699269 0.13231991 -0.19133611 -0.16421345 -0.2798173 0.008735326 0.09898334 0.04709802
-0.055569075 0.07770081 0.11987202 -0.021430891 -0.3138244 -0.15893894 -0.18725125 0.14328215
-0.12513956 -0.043748558 -0.34445328 -0.07984415 0.19770661 0.04768566 -0.0015847451 -0.34345794
-0.18642777 0.17601396 -0.12676379 0.13820772 -0.0756334 -0.18174446 0.12371159 0.04416511

module.conv3.weight f4 [64, 32, 3, 3]
00000000: b016 47b9 4321 ac3c 5a40 d0bc cebd 2bbd
00000010: 5360 c4bd 000c 2e3c e3c3 18bc e4ba 54bd
00000020: 76cd 31bd 5d7e 0ebd 5a13 cebc 0445 1b3d
00000030: 1745 30bd 1810 b2bd dd10 a5bc eefc c8bc
00000040: f3ec d8bd 82ef aebc 8439 283d 86b2 1d3d
00000050: bcb8 aabc f892 49bd b52d 9bbd 98e2 c73c
00000060: 5fba 9fbd 5e09 98bd 2bc8 50bc ff2d 53bc
00000070: 2adb 32bd 95a4 0dbd 9db6 ac3b f27c 463d
00000080: f9c9 22bd 076c 253d 595c dfbc 2958 bc3c
00000090: 971e 55bc 7483 2d3b f716 82bc e1a1 b2bd
000000a0: caa0 243d e148 94bc 0684 163d 2306 45bd
000000b0: a18f 0ebd 0319 703b d36f 803c cee1 58bc
000000c0: d7b7 55bd 1f01 d2bc bff0 26bc 6221 6dbd
000000d0: 4f67 8abd 5a10 203d 9ad7 b93b cf59 fd3c
000000e0: b8f4 22bd c105 f4bd 10a4 94bd de10 b8bc
000000f0: 0dcc a03d 5449 6cbd 8347 84bc 6436 0ebd
00000100: 59f1 c93c 5845 aebc 0289 183d b266 0bbd
00000110: 4725 5cbc 6a20 94bd d574 27bd d4b0 36bd
00000120: d899 003b 31a1 02bd cf47 1f3b 944a a03c
00000130: 0b32 ddbc c830 693c 5536 5a3a 23cd 93bd
00000140: dc6d 453c 3374 e43c 4e64 f73c 7e60 94bc
00000150: 23d7 0dbd 7bc3 43bc 8ad1 78bc 950f c53d
00000160: 4496 6f3c 951a 31bc e2b8 4c3d 3f48 c33c
00000170: 1a59 35bd df69 f53c 9132 2abd b680 5fbd
00000180: 62f7 67bd 1191 66bd babe 8dbb f165 b5ba
00000190: 483e 3938 a345 553d 1261 b2bc 0a90 84bc
000001a0: 3044 e4bc f95e 00bd 25d2 10bd 1539 02bc
000001b0: e10a e33c db0c 6ebd b03d 133d cf7f 30bd
000001c0: 3047 28bc 9328 c23c c19e c13c 30a5 01bd
000001d0: 440a 40bb d85f 8fbb da6b 8abc d977 7f3c
000001e0: 00be b7bd 88fb 5fbd ca8e b23c dc20 363d
000001f0: d872 b3bb 8170 db3c 1698 dd3c a404 4f3c
00000200: 9fbf 183d a4db afbd 5bc2 adbd d3a7 b23c
00000210: 3573 4c3d e2a0 aebd bbc2 c83c 9f73 1b3d
00000220: 800f 6cbd bdbb a23b 8af3 aabd 8d1d 1f3d
00000230: 3153 bfbc cbfc f63b 176f 173c e578 60bc
00000240: 7bc0 5b3d 51a9 dabc 6743 e33c 1bef 9d3b
00000250: 624a 293d 3b9f 26bd 6587 25bc 0cf5 b7bc
00000260: bf74 103c 6946 6c3c 0c19 acbd f5e7 853c
00000270: 5ed2 033d 74f6 8cba 1a45 353c 9924 9abd
00000280: 5dfb 0ebd bb93 37bc 1bbf 8b3c 5470 a63c
00000290: 4412 a9bc bda0 063d cb1f 923c 1bdc 77bc
000002a0: 59c9 66bd 7c42 c1bd b892 b8bc ee5a f3bc
000002b0: eb90 ed3c 8aa6 f93c 20e0 07be 23ba d3bd
000002c0: 8b7e 8dbc 5419 88bc fe5e c5bd bfec 133d
000002d0: 9e9b 85bb dd9d 89bc 6e4c 8f3a 5fe9 07be
000002e0: 286e cfbd 8be2 06bd 4d98 e2bd 1094 8abd
000002f0: 3e92 d53c d33b 1e3c 1175 b0bc 8445 063d
00000300: 8033 52bd 482f 42bd be8c a63c 65d5 013c
00000310: e0e0 d03b b861 96bc 0223 ef3c 0912 11bd
00000320: 6d62 133d 31f2 013a ec8d 1bbd 8fc9 84bd
00000330: 352d bbbc e2c0 293c 9197 bdbc 5e1f 85bc
00000340: b734 553d 20fb 4e3d 65c4 83bc 754d c6bc
00000350: a074 ddbb c671 813c f692 28bd 8806 b03c
00000360: 57d4 33bd 0f16 19bc 101a 593c d71f 3ebd
00000370: 7c6f aebd 1a91 ebba b1c3 9cba 558b 333d
00000380: aa23 a3bc df56 9ebd 5594 1d3d ba9d 5d3c
00000390: 16ea f1bd 167e 7fbd 84b6 3dbd d832 eebc
000003a0: 45eb 11bd 58f1 fe3c 5d24 34bd 0c08 d7bb
000003b0: 41fe 17bd 935c 323c 8ca0 2b3d 94f1 abbb
000003c0: a28e 1c3d 0697 2ebd 7e22 ae3c 0e1e bebd
000003d0: 8547 093d 1047 803d f658 b6bd 867b a6bd
000003e0: 1318 3a3d 435f e8bc 59b2 9fbc a45a 993c
000003f0: 8316 863b 093c 123b ba04 553c ff86 0d3c
-0.0001898657 0.021011954 -0.02542131 -0.04192906 -0.09588685 0.010622978 -0.009324047 -0.051936045
-0.043408833 -0.03478848 -0.025155712 0.037907615 -0.04303464 -0.08694476 -0.020149643 -0.024534669
-0.105920695 -0.02135444 0.041070476 0.03850033 -0.020840041 -0.049212426 -0.07577077 0.02440004
-0.07799219 -0.07423662 -0.012743036 -0.012889384 -0.043666042 -0.034580786 0.0052707926 0.048459
-0.039743397 0.040386226 -0.027265714 0.022991257 -0.0130077815 0.0026476057 -0.015880091 -0.08722282
0.040192403 -0.018101158 0.036747 -0.048101556 -0.034804944 0.0036636002 0.015678322 -0.01323743
-0.052177276 -0.0256353 -0.010189234 -0.057893164 -0.06757986 0.039078094 0.0056714537 0.030926613
-0.039784163 -0.1191516 -0.07257855 -0.02246898 0.078514196 -0.05768712 -0.01614738 -0.03471984
0.024651216 -0.0212733 0.037240036 -0.034033485 -0.013436622 -0.07232745 -0.040882904 -0.04460223
0.0019622948 -0.031892005 0.0024304276 0.019566812 -0.027001401 0.014232822 0.0008324136 -0.07216861
0.012050118 0.02788744 0.030199196 -0.018112417 -0.034629 -0.011948462 -0.015186677 0.09622113
0.014623228 -0.01080956 0.049981005 0.02383816 -0.044274427 0.02995771 -0.04155213 -0.054566108
-0.056632407 -0.05629069 -0.004325715 -0.0013839585 4.416544e-05 0.052068364 -0.021774802 -0.016181964
-0.027864546 -0.031340573 -0.03535666 -0.00794818 0.027715148 -0.05811773 0.0359475 -0.043090638
-0.010270879 0.023700988 0.02363527 -0.031651676 -0.0029302994 -0.004375439 -0.01689713 0.015592539
-0.089717865 -0.05468324 0.021796603 0.04446493 -0.005476337 0.026787044 0.02705006 0.012635384
0.03729212 -0.08586815 -0.08484336 0.02180854 0.049914557 -0.0852678 0.024506917 0.03795206
-0.05763197 0.004966228 -0.08347233 0.03884654 -0.023355098 0.0075374595 0.0092427945 -0.0137006985
0.05365036 -0.026692064 0.0277421 0.0048197634 0.041330703 -0.040679198 -0.010103081 -0.022455715
0.008816897 0.014421084 -0.08403215 0.016345957 0.032183044 -0.0010754601 0.011063838 -0.07526512
-0.034907687 -0.011204655 0.0170589 0.020317234 -0.020638593 0.032868136 0.017837426 -0.015128161
-0.056344364 -0.09436509 -0.022530898 -0.029706445 0.028999766 0.03047492 -0.1326909 -0.10338237
-0.017272254 -0.01661364 -0.09637259 0.03611445 -0.004077389 -0.016798908 0.0010932812 -0.13272618
-0.101284325 -0.032930892 -0.11064205 -0.06766522 0.02607071 0.009657818 -0.021540197 0.03278114
-0.051318645 -0.047408372 0.020330783 0.007924412 0.0063744634 -0.018357143 0.029191498 -0.03541759
0.035982538 0.0004957049 -0.037977144 -0.06483757 -0.022848705 0.010360928 -0.023143562 -0.016250309
0.052052226 0.05053246 -0.01608486 -0.024206856 -0.0067582875 0.015801322 -0.041155778 0.02148749
-0.043903675 -0.009343638 0.013250843 -0.046417084 -0.08517358 -0.0017972321 -0.0011960176 0.04383405
-0.019914467 -0.07731413 0.03847154 0.0135263745 -0.118122265 -0.062376104 -0.04631664 -0.029076979
-0.03562476 0.031120941 -0.04397999 -0.0065622386 -0.03710771 0.010886329 0.041901156 -0.005247304
0.038221963 -0.042624496 0.021256682 -0.09283076 0.033515472 0.06263554 -0.08903687 -0.08129029
0.045433115 -0.028365737 -0.019494222 0.018719979 0.004092039 0.0022313616 0.013001615 0.008638143

module.conv3.bias f4 [64]
00000000: c94e 243d 694f 17be f624 193e 7746 9dbd
00000010: b206 6fbe 1ba9 f0bd 7b12 1f3e 07af b5be
00000020: cd75 83bd ab66 a2be 279c 0f3e 4f18 e93d
00000030: 27a6 6f3d fc88 f93d bb0a 54be 6be1 a0be
00000040: f1e9 04be 135c 27be 84e5 963d 3ea8 c83d
00000050: 434e 64be 5717 38be aa78 203e c2dd 043e
00000060: 2649 8ebe 0733 febd a077 163e 75bb 9dbd
00000070: c043 103e 8111 68be e994 bb3c 0cf0 a8be
00000080: 6066 913d 2d36 48be 138f ea3d a3aa f4bd
00000090: bac3 813d 2475 5dbe 7cf6 9d3d 4454 8cbe
000000a0: 130b 463d e5ff b4be ca3c dd3d af12 4dbe
000000b0: 7f0a d4bd 9094 a53d 3cd2 13be dbc7 98be
000000c0: c5ae 5d3d 48a8 b2bd 33df c63d 19a3 aebd
000000d0: dd51 023e 8658 f8bd 9374 11be f146 3bbe
000000e0: 520a efbb a1b7 b1bd c6bc 973d 5cc8 053e
000000f0: d01e 063e d884 b83c 1345 70be e7ab a5be
0.040114198 -0.14776386 0.14955506 -0.07679456 -0.23342398 -0.11751004 0.15534393 -0.35485098
-0.06418953 -0.31718954 0.14024411 0.113815896 0.058508065 0.12184331 -0.20707218 -0.3142198
-0.12979867 -0.16343717 0.073679954 0.09797715 -0.2229548 -0.17977653 0.1567103 0.12975219
-0.27790183 -0.124120764 0.14694071 -0.0770177 0.14088345 -0.22662927 0.022898154 -0.3299564
0.070996046 -0.19551916 0.114530705 -0.11946609 0.0633616 -0.21626717 0.07713029 -0.2740804
0.048350405 -0.35351482 0.1080261 -0.20026658 -0.103535645 0.08084977 -0.14435667 -0.29839978
0.05412175 -0.08723503 0.097105406 -0.08527202 0.12726541 -0.121262595 -0.14204626 -0.18288781
-0.0072949314 -0.086776026 0.074090526 0.13064712 0.13097692 0.022524282 -0.2346385 -0.32357714

module.conv4.weight f4 [128, 64, 3, 3]
00000000: 3a25 ad3c 6cd3 b9bc 3961 33bd 96a8 743c
00000010: cf63 89bd d485 5a3d 8396 da3c 43cb 993b
00000020: 591f a83c 7322 c9bb 4cfc 09bd fd5a c4bd
00000030: 44a5 003c 5328 af3c 803e d1bc 3c7d 94bb
00000040: 3583 d13c 04aa 1fbd e949 13bd 3fd8 f83a
00000050: 4e1e 89bd 0866 f0bb 2d20 4ebd bf14 70bc
00000060: 2879 31bc a3f5 08bd a6d6 8bbb ce6e b8ba
00000070: bb1a d8bc a9b3 bbbc bf1e 3bbc bd8d 48bc
00000080: 139a 1a3c 600b 223d 18b0 3cbc 00cf a1bc
00000090: 40f9 cebc 8cf7 1cb8 dd60 2dbd 987b c0bc
000000a0: a2ec b8bb c515 febb 99eb 0cbd 9a22 bfbc
000000b0: 5b3b 623c 6c61 2ebb c200 2dbd f1b2 a6bc
000000c0: a30d 743d c0cd d43b 7177 8fbc 932d c2bb
000000d0: 19b6 193d 89b8 f4ba a043 b33d 495a 833c
000000e0: 06f6 6bbc 5d34 0ebd c04e d03c 29be 243d
000000f0: 7e95 2dbc b8bb ccbc ef24 4abd 715d f93b
00000100: a575 66bd ac32 65bd ddab f93c 4790 a23c
00000110: 4170 63bd 67d4 f83c c80f b23b 4c38 e5bc
00000120: de28 9b3c f2ee c53c ee24 32bc eba0 9c3a
00000130: bfe9 3ebd 7bd6 2c3c 0a56 d93c 8205 9dbc
00000140: 13a9 58bc 8ebe 4e3c a124 24bd f181 58bd
00000150: e9b7 fe3c 4274 0abd 4dcd 4ebb 2b6d 863c
00000160: c801 6abc 51fb 4abc 7497 623d 4309 7e3c
00000170: 8d8e 8fbc b18a 00bd a570 043d 12df a5bd
00000180: 0509 763c bee0 033d 212c 24bd e268 fdbc
00000190: eae2 00bd 6b48 6abd 700e 88bc ad9c 01bd
000001a0: 96e3 6ebd 6196 013c 8197 2b3c cd26 233d
000001b0: ad3c 273d 38ad ac3b 9105 98bd c46d 4bbd
000001c0: 377b a5bc e7e5 02bd 7fe5 523d 7e6b cdbc
000001d0: 73e0 b13c 3287 df3b ac15 85bd bedc a7bc
000001e0: 139e 1dbd 6a0b a9bc ddc9 29bd b89f 973c
000001f0: 58e6 453a 8786 c6bb c008 413c 5771 f7bc
00000200: 30f7 7bbd 49aa 06bd 704a 373a c98f 08bd
00000210: 45cc 60bc 728c b03b 13e7 853c d62a f93c
00000220: 94a3 41bd 01de a4bd 3101 6d3d bf7f 00bd
00000230: 40ea b9bb 1f51 313d a6ae da3c 2344 193c
00000240: 686f 04bd 94f4 f6bc 8024 d4bc 476e 1c3d
00000250: b64e f9bb ec93 223d 5e93 cabb a0f5 adbc
00000260: 6ea8 7ebd 03e5 b23c 0395 a5bc 3c4c b9bc
00000270: 682a f93c 801f d83c f1bc 15bc bdff 94bb
00000280: b253 0fbd eaa2 2bbd 0715 89bc 39ca 06bd
00000290: bf55 71bd 5b99 c5bb 8887 af3c e63f ac3c
000002a0: 0fd5 2f3c 6c5e 033c 6e06 3abb f054 49bd
000002b0: be1a 86bd b3a0 42bd 0026 9fbc c17c a2bc
000002c0: cfec 0cbd 3703 b1bb aad9 8a3c 2ea9 0fbd
000002d0: d98f 93bd a6cc 07bd a0d0 88bb 6a0f fd3c
000002e0: 771d 99bc 931f 1cbd 9033 4ebc 934a 313c
000002f0: 32f4 96bc 49e0 c1bc eeee 88bc d87d 013c
00000300: 10bd 583d 005c febc c860 66bc d4d1 8cbc
00000310: b757 0dbb 527d 28bb f7c9 10bd 8d44 c7bc
00000320: 40f9 143b ab09 c6bc 7d67 b8bc d8fa 26bd
00000330: cf92 07bc 2fce a9bc 76d7 02bd 45f6 423c
00000340: f905 86bd 324e 94bc 8e7e 693c c6a9 9abc
00000350: 605a 263c c9ac 44bd 6bcc 9fbb f0ac 9439
00000360: 0f6e 2a3c 9264 afbc 6fef 13bd cffb b33a
00000370: 8b44 543c 2c8f 7bbd a98e 1c3a d83e 4dbc
00000380: 1da5 843c 23bd 263d ee0e 953c 3879 013d
00000390: bc3a f6bc 757f bc3c 73e9 c8bc f42d e43c
000003a0: 3dce 83bc 35e7 eaba d1d0 0ebd dfb7 1bbd
000003b0: 8949 7fbd 337e e7bc 18b3 65bd 7122 01bd
000003c0: 2e02 b6bc 33c3 dbbc d9be 10bd 389c 94bc
000003d0: 577f 14bd 9e59 863b 0509 113d 29b0 953c
000003e0: f368 14bc e8cf 19bc 57db a1ba c131 803b
000003f0: a324 9d3c 2d81 66bd 708f 42bd dea4 59bd
0.021135915 -0.022683822 -0.04379389 0.014932772 -0.0670849 0.053350285 0.026683098 0.00469342
0.02052276 -0.00613814 -0.033687875 -0.09587667 0.007851902 0.021381533 -0.025542498 -0.0045315307
0.02557526 -0.0389805 -0.035959158 0.0018985345 -0.06695233 -0.007336382 -0.050323654 -0.014653384
-0.010832109 -0.033437382 -0.0042675314 -0.0014071108 -0.026379934 -0.022912817 -0.011420905 -0.012240824
0.009436148 0.03956163 -0.011516593 -0.019752026 -0.025265336 -3.7423844e-05 -0.042328704 -0.023496434
-0.005643443 -0.00775406 -0.03440437 -0.023331929 0.013808097 -0.002660836 -0.04223705 -0.020348998
0.059583317 0.006494254 -0.017513009 -0.005925843 0.037527177 -0.0018670718 0.08753133 0.016034262
-0.014401918 -0.034717906 0.025428176 0.040220413 -0.010594724 -0.024991855 -0.04935163 0.007610016
-0.05626454 -0.055956528 0.030477459 0.019844187 -0.055526976 0.030374719 0.00543401 -0.027980946
0.018940385 0.02416179 -0.010873063 0.0011949813 -0.046609636 0.010549183 0.026530284 -0.019167665
-0.013223904 0.012618674 -0.040073995 -0.052858297 0.031093555 -0.03380228 -0.0031555474 0.016409477
-0.014282651 -0.01238902 0.05532022 0.015505138 -0.017524028 -0.031382266 0.03233399 -0.08099188
0.015016799 0.032196753 -0.040081147 -0.030933801 -0.031466402 -0.05719797 -0.016608447 -0.03164356
-0.05832251 0.007909388 0.010473133 0.039831925 0.04082935 0.0052696727 -0.07422937 -0.049665228
-0.020200355 -0.031957533 0.051488396 -0.02507567 0.021713471 0.0068215365 -0.06498274 -0.020491
-0.03848083 -0.020635325 -0.041452277 0.018508777 0.00075492775 -0.0060585174 0.011781871 -0.030205412
-0.061515033 -0.03287724 0.0006991988 -0.03334025 -0.013720577 0.005387836 0.016345536 0.030415934
-0.04727514 -0.080501564 0.057862464 -0.03137183 -0.0056736767 0.043290254 0.026694607 0.009354624
-0.032332808 -0.03014592 -0.02589631 0.038191106 -0.00760826 0.03969185 -0.0061821183 -0.021235287
-0.062172346 0.021837717 -0.020212656 -0.02261936 0.030415729 0.026382208 -0.009139285 -0.004547088
-0.034991927 -0.041903414 -0.01673366 -0.0329077 -0.058919664 -0.0060302443 0.021426931 0.021026563
0.0107319495 0.008018117 -0.002838518 -0.04915327 -0.065480694 -0.047516536 -0.0194273 -0.019834878
-0.034405526 -0.0054019946 0.016949493 -0.03507345 -0.07205171 -0.033154152 -0.0041752607 0.030891139
-0.018690808 -0.03811605 -0.012585536 0.010821003 -0.018426988 -0.023666518 -0.016715493 0.007903539
0.05291468 -0.031049728 -0.01406116 -0.017189898 -0.0021567175 -0.0025709462 -0.03534886 -0.02432468
0.0022731572 -0.024174532 -0.022510285 -0.040766567 -0.008274748 -0.020728199 -0.03194376 0.011899536
-0.06544108 -0.018103693 0.014251364 -0.018879782 0.010153383 -0.048016343 -0.0048766634 0.00028357608
0.010402217 -0.02141026 -0.036117014 0.0013731661 0.012955795 -0.061415836 0.0005972186 -0.01252719
0.016192013 0.04070772 0.018195596 0.031609744 -0.030057304 0.023009995 -0.02452538 0.027853943
-0.016089553 -0.0017921688 -0.03486711 -0.03801715 -0.062325988 -0.028258419 -0.056079 -0.031526987
-0.022217836 -0.026826477 -0.035338257 -0.018140897 -0.036254253 0.0041000387 0.035408992 0.018272476
-0.009058225 -0.009387948 -0.0012348694 0.003912181 0.019182509 -0.056275535 -0.047500074 -0.053135745

module.conv4.bias f4 [128]
00000000: 2837 fabd 0006 963d 10ee 2dbd b6a2 463d
00000010: f8ee e2bd d504 1abe 2159 9ebd fcf9 d3bc
00000020: 76ec f8bc 657d 013e 373c 3abe eaa8 00be
00000030: 7b93 f4bd 5efb e03d b42d be3d c9e0 bebd
00000040: 9a66 a43c 010e bfbd 572a 9bbd 5604 8f3d
00000050: c63d f33d 1e5f 92bd 6a1f b93d 4edb bf3c
00000060: d51f c03d f9f7 ce3d bbff ef3c 0c1d 543d
00000070: d347 b83d 2c02 67bd 07c8 ce3d 4453 893d
00000080: 1224 b83d 9cc2 01be b2ab 7ebd bfca a23d
00000090: 9979 96bd 2951 93bd fcde bebb 9d6b 853d
000000a0: 39a9 993d 7946 0fbe 5dec 173e 5a94 c6bd
000000b0: a506 0e3e 7bcd d83d 934f f93d 4651 9abd
000000c0: 6145 d8bd 3301 44bc a2c4 abbd 3022 b83d
000000d0: 9471 8ebd f2c7 38be 593c 883d 376e bc3d
000000e0: 934d e63d baba 14be c145 023e b380 83bd
000000f0: b59d 4bbd b4b6 9fbd 2805 e6bc b4bc efbd
00000100: e36f dbbd ff7f 85bd d384 a2bc 485b ce3d
00000110: a908 e2bd a12d 18be b75e ba3d 5f4d bbbc
00000120: 5271 afbd 5d9a b33d 6b3a bd3d ffcb 573d
00000130: 6f4d 833d 39bd 8d3d d47b a4bb 2a10 893d
00000140: f67e 0a3d 5ee6 313c 59f2 a23d 6648 dfbc
00000150: 8095 c3bd b1a0 043c ee38 6f3d 15c1 203d
00000160: 0f17 ba3d 1465 ee3d accc 433d acdd 853d
00000170: 8221 a6bc 6fae 5fbd 5608 b7bc bc70 b9bd
00000180: 8d13 3ebe 8b26 0b3e d11a 08be ff17 d03d
00000190: 00b6 a43d 6cb8 cfbd f807 aabc 8a57 b53d
000001a0: d715 603e 3941 b63d e70c 2f3d 399f a83d
000001b0: e56a 543c 9d14 a83d 4b13 ab3d 1f9a 8fbd
000001c0: 0fb9 f23d f64b cc3d 43dc 39bd d98e a93d
000001d0: 3f04 9d3d 1298 f7bd 1f98 25bd 0d1b 0ebc
000001e0: 11ec e63d 2142 d73d 4995 f9bd 67ca ebbd
000001f0: 9c4c a23d efda 70bb 42de c53d 3a12 89bd
-0.122175515 0.07325363 -0.042463362 0.048495017 -0.11080736 -0.15040906 -0.07731844 -0.025876038
-0.03038619 0.1264549 -0.18187033 -0.12564436 -0.11942192 0.109854445 0.09286061 -0.09320218
0.020068455 -0.09328843 -0.07576435 0.06983249 0.11877017 -0.071470484 0.09039195 0.023420002
0.093810715 0.10105891 0.029296746 0.051785514 0.089980744 -0.056398556 0.10096746 0.06705335
0.08991255 -0.12671894 -0.06217546 0.07948827 -0.07347412 -0.071932144 -0.0058249217 0.06514666
0.0750298 -0.13991727 0.14836259 -0.096962646 0.13869722 0.10586067 0.12173381 -0.07535033
-0.10560108 -0.011963177 -0.08387114 0.08990896 -0.06955257 -0.18045023 0.066521354 0.09200709
0.11245265 -0.14524356 0.12721922 -0.06421032 -0.049710948 -0.0779852 -0.02807863 -0.11705914
-0.107147 -0.06518554 -0.019838726 0.10076004 -0.11036808 -0.14861156 0.09100097 -0.022864042
-0.08566536 0.08769677 0.09239658 0.05268478 0.06411254 0.06920857 -0.0050196443 0.06692536
0.033812486 0.0108581465 0.079563804 -0.027256202 -0.09549999 0.008094952 0.0584039 0.039246637
0.09086429 0.11640373 0.047802612 0.06536421 -0.02027965 -0.054609712 -0.022342842 -0.090547055
-0.18562146 0.13588922 -0.1329148 0.10160827 0.08042526 -0.101425976 -0.020755753 0.088545874
0.21883331 0.08899159 0.042736914 0.08233494 0.012964939 0.08207057 0.08353289 -0.07011818
0.118517034 0.09975426 -0.045376074 0.08279199 0.076668255 -0.12089552 -0.040428277 -0.008673442
0.11275495 0.1051066 -0.12186677 -0.115132146 0.07924768 -0.0036751588 0.09661533 -0.066929296

module.conv1T.weight f4 [128, 64, 3, 3]
00000000: 639f 313b 7998 12be 00b9 51bd 6c06 b9be
00000010: d123 f1bc df3a a4be b453 7d3e 7fbc 503e
00000020: 6d10 46be 8385 85bd a9a7 193d 2138 053d
00000030: db71 26be 64e0 3f3e 6646 66bd 5a65 a43e
00000040: 320b 853e 3b50 f2bd fb33 5cbd 8c24 003e
00000050: 70ab 63be 787a 4abd b6fe 0a3f 71f5 08be
00000060: e622 94bd 10a6 173f c1ab bebd fbd9 a2be
00000070: 4ee4 c3bb 00e6 2cbe 8cb6 25be 5d93 a93d
00000080: 5f72 c4bd 5e21 093e 8634 923d bcfc be3d
00000090: a4b0 90be bb8a 02bf 5e0e 9b3b fc88 8d3e
000000a0: 586f ee3d 365f 2e3e 814d de3e 87fb 553e
000000b0: 681b 93bc 2d7b 8cbd 35b4 c7bd 8969 a03d
000000c0: 9304 7a3e 1243 993e 1374 0e3e f47f 983e
000000d0: cf1e 323f 446b 14be ef46 97be f2f5 cfbe
000000e0: 098d 2d3e 5cd7 b73d a030 293e dfec 413e
000000f0: 6142 df3e 3188 5f3d 7309 1a3d 35b2 d4bc
00000100: 84a6 20be 88ba 8f3e 5772 babd c1f6 1d3e
00000110: a76a c8bb 9b75 c93e accd 753e 7507 febe
00000120: d70c 00be c814 b43c b824 10be 6afe 3fbd
00000130: 97f1 7e3e a2c5 383e 7053 803e 6c6b d13d
00000140: 0bc9 fdbd 8109 4e3c c9c9 d23c d023 833d
00000150: 8528 953e aae7 c53e 0f0a da3d e0f3 e83e
00000160: f353 0e3f 0bc5 c83d 2fa8 0ebe 06e3 2d3e
00000170: 23ba adbe c375 3cbe 6805 613e 6ece 643e
00000180: cc88 a63c 2c07 0d3e d6cb 81be 0ad5 69be
00000190: 7e7e 1a3d 0a9d c83d 7522 053e 4842 0f3d
000001a0: cec0 253e a577 a03e 7186 ab3d d7c5 a3be
000001b0: b616 19bd 9433 37be 4824 64be 55d2 14bd
000001c0: d584 723d b269 8c3c daae 72be 7435 0a3e
000001d0: 50da 22bd 4a61 5f3c 99bf 87bd b486 a23e
000001e0: 373d 8c3e 0c30 283d 9908 2b3e 2b9c 133f
000001f0: 43f6 fd3e c28f d03c 8b60 4b3c aed1 8b3d
00000200: b032 8abd ea52 4fbd 5e0e 8f3e 9d74 423d
00000210: 4be3 e23e 6843 013f cdbf 1b3e 79f5 edbc
00000220: a0ae 28bd d9ec 483e 828e 6ebe 85a7 8c3d
00000230: 65db 6d3d efdd 323e 72e8 563e 9b42 f9bd
00000240: 7cc3 71be 720b 62be 1f05 2d3d 8b1e 363d
00000250: e6f9 9e3e b30f b3bc 7697 3e3e 42f9 093e
00000260: ed64 b1bd 7e44 96be b648 b4bd 4756 37be
00000270: 2538 22be 640b a63d c749 443d 3a70 cf3e
00000280: 1dd1 ad3e 197a 92be d937 09be 3cdd 8dbe
00000290: b0d3 af3b 6792 aa3d 8da4 c63d 994e d83c
000002a0: f148 773e 656f 8e3e 3e3f 2b3e b007 773d
000002b0: 8564 5b3e 12e0 6fbe 1aff 0c3e feb7 153e
000002c0: 48c4 dfbd 5802 ca3e 01a2 3f3b 17c1 80be
000002d0: 04dc de3c dc8b 2d3e d516 943e e1a9 1dbd
000002e0: 58bf 033e 49ae 03bd f21e 853e 572e 9ebc
000002f0: ee77 38be 583f 88be 501e 41bd fe23 323e
00000300: 1e6a d93e 5cd8 373e 92d7 833d da64 fe3e
00000310: aede f53e 7338 c43b 3322 06bf 1c2f 06be
00000320: e32f 9d3d e754 f2bd 4015 d93d 578a 3ebe
00000330: 935d e63e 0e03 a73e 5a9b 44be e7ff a1be
00000340: a6f4 57be 703e c3bd 7181 2e3e 47de 723e
00000350: 55e6 eb3d 06d4 cfbc 0be5 0f3e b9ab 90be
00000360: f35c 32bd 1a54 2fbc a24f 6bbe e37a d33d
00000370: f4fa a43e e69d 15be a3f1 1ebd c980 5b3d
00000380: 36b7 76bd 5fd8 efbd 1c2d b03d b85e 2cbe
00000390: c637 a2bd 940e d53d cf04 2c3e 1f36 113e
000003a0: 5feb 95bd c30f dabd b80a 3ebe 5c87 eb3d
000003b0: f1f6 123e 9bbe 38be 84b2 a6bc bd20 9dbb
000003c0: 262f c03d 1282 0c3e dd87 b1bc 5487 88bd
000003d0: 9ec8 783e 9775 c8bd c068 e8bb 0113 d63e
000003e0: f797 39bc c96b 1f3f a504 3a3f 07e3 9b3b
000003f0: 19cf 4ebe 600f c13d 3349 a3be 5f9c 1dbe
0.0027103059 -0.14315976 -0.05120182 -0.36137712 -0.029436024 -0.32076165 0.24738961 0.20384406
-0.19342203 -0.06519606 0.03751341 0.03252423 -0.1625437 0.18737942 -0.05621948 0.32108575
0.25985104 -0.11831709 -0.05376051 0.12513942 -0.22233367 -0.0494332 0.5429491 -0.13374878
-0.07233219 0.59237766 -0.09310103 -0.3180693 -0.005978144 -0.16884613 -0.16182917 0.082800604
-0.09592127 0.13391635 0.07138924 0.09325549 -0.28259766 -0.50992936 0.0047319373 0.27643573
0.11642331 0.17028508 0.43418506 0.20896731 -0.017957404 -0.068594314 -0.09751169 0.07832629
0.24415807 0.29933983 0.13911466 0.2978512 0.6957826 -0.14494044 -0.29546306 -0.4061733
0.16948332 0.089766234 0.16522455 0.18938015 0.4360533 0.05457324 0.037606668 -0.025963882
-0.1568852 0.28072 -0.0910384 0.1542616 -0.0061162296 0.39347538 0.24004239 -0.49615064
-0.12504898 0.021982566 -0.14076507 -0.046873488 0.24896847 0.18044141 0.25063658 0.10225567
-0.123918615 0.012575508 0.025730984 0.06403315 0.29132476 0.38653308 0.1064645 0.45498562
0.55596846 0.09803208 -0.13931344 0.16981134 -0.33931074 -0.18404298 0.21974719 0.22344372
0.020328902 0.13772267 -0.25350827 -0.22835174 0.03771829 0.09795578 0.13001426 0.03497532
0.1618683 0.31341282 0.08375252 -0.31986877 -0.037375174 -0.17890769 -0.22279465 -0.0363334
0.05920871 0.017140243 -0.23699513 0.13496953 -0.03975898 0.013634035 -0.06628341 0.31743395
0.27390453 0.041061446 0.16702498 0.5766017 0.49601945 0.025459174 0.012413154 0.068271026
-0.06747949 -0.050616182 0.2794065 0.047474492 0.44314036 0.5049348 0.15209885 -0.029047715
-0.04118216 0.196216 -0.2329655 0.06867889 0.05807056 0.17467473 0.20987108 -0.12170907
-0.23609728 -0.22074679 0.042241212 0.04446272 0.31050032 -0.021858072 0.18612465 0.1347399
-0.08661828 -0.2934913 -0.08802931 -0.17904006 -0.1584173 0.08107641 0.047921922 0.4051531
0.33948603 -0.28608778 -0.1340021 -0.2770785 0.0053658113 0.08328705 0.09699354 0.026404666
0.24148919 0.27819362 0.16723344 0.060310066 0.21425064 -0.2342532 0.13769189 0.14620969
-0.109261096 0.39454913 0.002924085 -0.25147316 0.027204521 0.16947883 0.2892367 -0.038492087
0.1286596 -0.032148633 0.26000172 -0.019309206 -0.180145 -0.26610827 -0.04714805 0.17396542
0.42463773 0.17953628 0.06437601 0.4968632 0.48021454 0.0059881746 -0.52395934 -0.13103908
0.07675149 -0.118326 0.10599756 -0.1860746 0.44993266 0.32619518 -0.19199887 -0.3164055
-0.2108942 -0.095333934 0.17041565 0.23717605 0.11518542 -0.025369655 0.14052217 -0.28256014
-0.043545675 -0.010701204 -0.22979596 0.10326173 0.32222712 -0.14611015 -0.03880466 0.053589616
-0.060233317 -0.117111914 0.08602354 -0.16833007 -0.07920794 0.10403171 0.1679871 0.14180802
-0.07320284 -0.106475376 -0.18558776 0.11500427 0.14352013 -0.1804146 -0.020348795 -0.0047951625
0.09383993 0.13721493 -0.02167123 -0.06666437 0.2429528 -0.097880535 -0.0070925653 0.41811374
-0.011327735 0.6227384 0.72663337 0.0047572884 -0.20196189 0.09426761 -0.31891784 -0.15391682

module.conv1T.bias f4 [64]
00000000: 9aad 7a3b 9315 75bd 8c66 dfbd 39d0 083e
00000010: e8f0 80bc 20a5 80bd 4c78 15bd ffd0 d2bd
00000020: d23f cfbd 9f69 99bd da39 dfbb 69e1 e7bc
00000030: d900 b3bd 2cd4 5fbe 31a8 dabc 131c abbd
00000040: 69fa 283d dfb2 033d 50dd 34bc 1735 abbd
00000050: d9dc f9bc bd1b 37bd cfd1 1bbd d8ea ceb9
00000060: 4c33 39be f22b 2cbc 4001 8fbd ee05 37be
00000070: 6963 debc c83b 30bd f75d a4bd 17a4 b2bd
00000080: 43df 2ebd e8ae 04bd b832 dcbc c394 a4bd
00000090: 10d4 c7bd ba08 f6bc ceea 82bd a2d4 7ebc
000000a0: 9d1f 833c 089a 64bd 3e30 d63c 3b61 e73c
000000b0: ea63 6bbd 087e 45be 62db a9bd b766 42be
000000c0: dd15 a3bc d27b 3c3c c6df 0ebd 27f2 28bd
000000d0: 1a31 93bb 0622 36be 0054 43be 9fc9 86bd
000000e0: d490 0cbe b2f6 b4bc 15d4 8dbd c53a a33c
000000f0: b216 50be 6481 afbc d865 ac3c 4d04 8abd
0.0038250447 -0.059835028 -0.10908231 0.1336068 -0.015739873 -0.06281495 -0.036491677 -0.10293769
-0.10119595 -0.07490849 -0.0068123164 -0.028305726 -0.08740396 -0.21858281 -0.026691528 -0.08354964
0.041254435 0.032153007 -0.011039093 -0.083597355 -0.030500816 -0.044704188 -0.038041886 -0.00039466354
-0.18085974 -0.010508524 -0.0698266 -0.17873356 -0.027147012 -0.04302576 -0.08025735 -0.08722704
-0.042693388 -0.032393366 -0.026879653 -0.080361865 -0.097572446 -0.030033458 -0.06392442 -0.015553625
0.016006285 -0.05581096 0.02614605 0.028244605 -0.057468332 -0.19286358 -0.08293797 -0.18984495
-0.019907886 0.01150413 -0.034881376 -0.04124656 -0.0044919373 -0.17786416 -0.19075012 -0.06581425
-0.13727123 -0.02209029 -0.06925217 0.019925484 -0.20321158 -0.021424003 0.021044657 -0.067391016

module.conv2T.weight f4 [64, 32, 3, 3]
00000000: 94c0 023e ed40 3b3e 249f 203e a92c 823e
00000010: bb9a e13e b7ef 403e fe7a 2d3e 33cb 993e
00000020: f2de 083e 2948 9a3e 3939 1b3e 6fa5 cfbd
00000030: 0090 a53e b84d 1d3f 72f3 983e 5a22 cbbb
00000040: e298 283e b4f9 823c c41d ea3d e95b 783e
00000050: 4a7b a63e b93b a6bc 7614 26bd 3b91 f0bd
00000060: 23f2 953d 091c 3e3d 73f2 46bb fb3e 2c3e
00000070: 1d7e a13d a443 b1be 4d61 dc3d f308 263e
00000080: 2745 f4bd 276b f53d 6423 2f3e 2401 f03c
00000090: 03e5 123d d8b5 233e 0241 bb3d 6675 fbbd
000000a0: a11a 4bb9 55d6 59be 268e 93bd a260 fb3d
000000b0: d03f 353d 7706 013e 2334 a43e def0 843e
000000c0: 6c9e a73e 3aef 9c3e 8f79 d83b 9a69 393f
000000d0: 1890 563f 46f3 183f ef05 3c3d b295 503e
000000e0: b466 3c3e 63d0 493d f46b 263e edbc 473e
000000f0: a73d dfbc 3f2c 903d b76d e03d 6f5c be3d
00000100: e7e9 59bd 6382 2cbd 754a 88be 8fa6 5fbd
00000110: 6e54 a63d e9d7 9d3c 10cb 263e 4f73 f43d
00000120: 2bf8 ba3d d82a 023d 03be 2dbe c5b0 a73e
00000130: d26d cf3e 6763 103e fc21 aa3e 9e79 203f
00000140: 3a21 a73e 2841 c2bd 45a1 db3e 2085 b43e
00000150: e956 833e c039 ca3e 4e28 e1bd 63e3 f83e
00000160: a5f3 0a3f 3ca7 833e 10ba 163c 9a52 9c3e
00000170: 3db0 0fbc b6bb b13e 44d9 fc3e 9216 b1bd
00000180: 439e 6f3e 99d8 c33e 5bf7 a53d 940b d03d
00000190: 5584 a73e b1cb e53e 7901 883e 809e da3e
000001a0: 9fac b43d dceb 543e ca97 573e 534f 7b3e
000001b0: c549 c03d ef7b 813e 77b2 4b3d fb66 2b3e
000001c0: 3afc e63e 6660 5abe b000 aa3e b153 e23e
000001d0: 27b6 8e3d 3e7a c13d 25b7 1c3f 1a41 c23e
000001e0: f9c8 693e 4ed2 ae3e 08b0 0b3d 446d 113e
000001f0: 5425 a53e 2282 1b3e 4882 ab3e 0112 e23e
00000200: 5855 883c 76af ac3e ea0d 0b3f bce3 f13d
00000210: 3207 a93e 87c6 093f f019 bb3d b9b8 c03e
00000220: 46ac 923b 50bd 63bc ea3d c33e 206c db3e
00000230: 1b01 943e 78b3 c03e a4c6 973e 609b c9bb
00000240: dea1 8d3e 7c59 883e a19d 893e f736 1d3e
00000250: 4c7f 083e 18d0 c8bd 7dd3 e83e b9d1 0c3f
00000260: dee0 833e ff01 bcbd 35f0 7bbe cea3 59be
00000270: 2ae0 e23e ed9d c13e 9113 c43d 6f86 023f
00000280: d19d 493f 7b87 ec3e 5e62 45bd 3312 3c3e
00000290: 9583 0abe 48e0 ec3e e816 bb3e ab57 0ebe
000002a0: 80dc f33e 31b7 0b3f 3e1e 233e b7b3 893d
000002b0: d417 633e c238 96bd 3128 3c3e a67c a03e
000002c0: 9a90 f9bd fec2 3a3e aab2 c23e b91f 193e
000002d0: d571 7a3e e41b f33d 818c 823e 4de2 c53c
000002e0: ff92 15be 6112 31be a8cd d83e b828 b73e
000002f0: f236 233e 9779 203c d93c d33e 5108 b03d
00000300: ac90 b13e 8471 823e 5825 04be 7792 8d3e
00000310: 4d9b b93e efe1 b23d de42 073e 7666 b73d
00000320: febc 893e 4d7b 9b3e 3f9a a93e abeb 44bb
00000330: 086e 9e3e 563e e43e a343 253e 8207 54be
00000340: a316 803d 951e 983e e064 3e3e 337b bf3e
00000350: 3d57 813d 5011 e93e 9905 223f 93af 8a3e
00000360: 95e9 7ebd 6c2b c23e ad93 023d d244 a53e
00000370: 41cd e83e 77c7 1e3e cd0a e83d 7147 a63e
00000380: f52b 3fbe 0dd2 973d 043d 9b3e 0731 913e
00000390: deae b33e ec5f 893e ce0a 39be 0822 b43e
000003a0: 4c9a 7f3e 7112 573e fd2f 623e a015 053e
000003b0: 54a7 e6bd 356d 883e f59b 8a3e 3b1d 7fbd
000003c0: c54b d53c 5b3a 223e ee6a f4bd f1c9 c4be
000003d0: 9cc3 c13e 30f7 693e 572f 993e 9242 a93e
000003e0: ef1c 823d d0da ea3e 047d 1f3f d828 473e
000003f0: ed8d 63bd bcb0 863e d307 a33d 6166 14be
0.12768775 0.18286486 0.15685707 0.25424698 0.44063362 0.18841444 0.16941449 0.3003784
0.13366297 0.3013318 0.15158547 -0.10138976 0.32336426 0.61446714 0.29873234 -0.0061991634
0.1646457 0.015988208 0.114314586 0.24253811 0.32515937 -0.02029215 -0.040546857 -0.117464505
0.073215745 0.046413455 -0.0030356913 0.168209 0.07885382 -0.34621918 0.10760746 0.16214351
-0.11927252 0.11983328 0.17103344 0.029297419 0.035862934 0.15987337 0.09143259 -0.12278251
-0.00019369509 -0.21273167 -0.07204847 0.122742906 0.04425031 0.12600122 0.32071027 0.25965017
0.32738054 0.30651265 0.006606288 0.7242676 0.8381362 0.59746206 0.045904096 0.20369604
0.18398553 0.049271 0.16252118 0.19505663 -0.027251078 0.07039689 0.109584264 0.09294974
-0.053201582 -0.042116534 -0.26619306 -0.054602202 0.081215724 0.019267993 0.162884 0.11936056
0.091293655 0.03177914 -0.16967015 0.32752052 0.40513474 0.14100419 0.33229053 0.62685573
0.32642537 -0.09485084 0.42896476 0.35257816 0.25652245 0.39497185 -0.10994016 0.48610982
0.5427802 0.25713527 0.009199634 0.3053177 -0.008770046 0.34713525 0.4938451 -0.08646883
0.23400216 0.38251188 0.0810382 0.10158458 0.3271815 0.44881967 0.26563624 0.4269905
0.08821987 0.20793098 0.21053997 0.24541979 0.093890704 0.25289866 0.049730744 0.16738503
0.4511431 -0.21325836 0.3320365 0.44204476 0.069683366 0.09447144 0.61216956 0.37940294
0.22830571 0.34144825 0.034103423 0.14201838 0.32255042 0.1518636 0.33497834 0.4415436
0.016642258 0.33727616 0.54318106 0.11811015 0.33013302 0.53818554 0.091358066 0.37640932
0.004476103 -0.013900116 0.38133174 0.4285593 0.28907093 0.37636924 0.29643738 -0.0061525553
0.27662557 0.2663077 0.26878074 0.15352999 0.1332981 -0.09805316 0.45473853 0.5500751
0.25757498 -0.09180068 -0.2460335 -0.21253893 0.4431165 0.378158 0.095740445 0.5098638
0.78756434 0.46197113 -0.048189513 0.18366317 -0.13526757 0.46264863 0.36540914 -0.1390063
0.47629166 0.545764 0.15929505 0.06723731 0.22177058 -0.073350444 0.18374707 0.313451
-0.12185784 0.18238446 0.38026935 0.14953507 0.24457486 0.11870554 0.2549782 0.02415576
-0.14606856 -0.17292167 0.42344403 0.35773253 0.15938929 0.009794614 0.4125736 0.08595336
0.34680688 0.2547723 -0.1290487 0.27650806 0.36251298 0.087345 0.13209102 0.0895509
0.26902002 0.3036751 0.33125493 -0.0030047696 0.30943322 0.4457881 0.16139083 -0.20705989
0.062543176 0.29710832 0.18593168 0.3739868 0.063154675 0.4552102 0.6328979 0.27087077
-0.06223448 0.37923753 0.031879116 0.32279068 0.45469096 0.15505777 0.11330185 0.3247638
-0.18669112 0.07413111 0.3031999 0.28357717 0.3509435 0.26830995 -0.18070528 0.35182214
0.24961203 0.21003129 0.22088619 0.1299653 -0.11262384 0.26645818 0.2707211 -0.062283736
0.026037106 0.15842573 -0.11934458 -0.3843532 0.3784455 0.22848201 0.2991893 0.33058602
0.06353175 0.45870066 0.62300134 0.19449174 -0.055555273 0.26306713 0.07960477 -0.1449218

module.conv2T.bias f4 [32]
00000000: 9e6e e7bd 8378 5a3e 5853 743e ce9e e73d
00000010: ea29 b63e 3c0a 063d 1ff2 123d 1973 86bd
00000020: b834 f23d 5531 d0bd 4243 ff3a 0a20 ad3d
00000030: b765 003e d0a3 9f3e 6d7d c53d f4e8 cebe
00000040: 6a9d c4bd 0b2f 493d b297 bb3d 8e25 973d
00000050: 0d60 333e 3efc a73c 8187 c4bd 0ad3 943e
00000060: 36f5 ecbd 7ee6 4c3c 59dd 19bd b93e 8cbc
00000070: c373 a03d 0914 77be fd32 01bf c22f f3bc
-0.113003954 0.21335034 0.23859918 0.113095865 0.35578853 0.032724604 0.035875436 -0.06564922
0.118264616 -0.10165659 0.0019475 0.084533766 0.12538801 0.31179667 0.09643064 -0.40412104
-0.09600337 0.04911713 0.09159793 0.0738021 0.17517109 0.02050602 -0.09596158 0.2906726
-0.11570208 0.0125061255 -0.03756461 -0.017119752 0.0783458 -0.24128737 -0.50468427 -0.029685859

module.conv3T.weight f4 [32, 16, 3, 3]
00000000: 99e0 efbd af28 a0bd 8974 eebd 8f7c b6be
00000010: cb98 2cbe 8990 65bc c23f 2d3e 54ae 0e3e
00000020: 8410 013d 6212 8abe 4c1c 05be aab8 423e
00000030: 9923 eabd 984f a5bd 96b1 86be d10f 233d
00000040: 9a84 80bd 794b dcbe 34ff 1bbe 1113 05be
00000050: 0bbb 84bd 2341 ddbe 7eed a2be abb5 023e
00000060: 6a37 503e a01a 1abc 1b95 913e 2d75 30be
00000070: 4b2b da3e 57b2 89bc 6859 08be 76cc 93be
00000080: b3ff 0ebd 6bc8 d6be eca1 a2be c0f3 213d
00000090: d967 75be 5c8a 2ebc bd72 343e b069 17be
000000a0: e2eb 6e3d 687d 08be 470b 4b3e e9a0 083e
000000b0: c848 5abd 1319 3ebd 7023 8abe e8ab 133d
000000c0: b240 92be 293a 98be a29b 56bc 8090 073e
000000d0: e363 b03c 94d7 193e ad1d 5ebe a588 b6bd
000000e0: 9616 ce3b a948 0cbf ffa6 54be 3dc8 9d3e
000000f0: 3a93 d0bd 4002 febe 4fb9 1b3e 1210 c03d
00000100: 4055 cd3e 3631 a43e 21de 9b3e 99ed 103f
00000110: ee51 ed3e 9296 9b3e 63b9 923d 3a6e c53e
00000120: dc5b 5fbe cd03 7abd 9772 7c3d aeac 783a
00000130: a989 d7bd e1b7 203e 52e3 5a3e 7977 2b3e
00000140: 0ce3 d93d 659d a8be e381 babe 3c5c 00be
00000150: 3842 b2be 8c55 80be a771 97be 2753 a23e
00000160: fb55 a0bc f81b 993d 4a94 f3be e3ec 13be
00000170: e235 b43d 2da3 9abe 1566 3fbe ba47 31bd
00000180: a960 b53d d4c3 a33d 02a7 9cbc 30c5 7e3e
00000190: e30c 03be 8008 84be 3424 2abf 4c1f 25bf
000001a0: be61 64bd 85fb 51be 40e6 9ebe 53fd 07bd
000001b0: cf7d 303f 453a e63e 0c49 d7be 94b0 3cbf
000001c0: 56b7 63bf a184 68bd e1b1 6dbe 2c0f c2bd
000001d0: c004 33bd bdbf 81bd 1fa2 173e cf13 8f3d
000001e0: 0b69 833d 29c6 b53d 355e 193e 8773 903e
000001f0: e397 cf3e c2b7 1b3e ccd3 9cbe ee97 05bf
00000200: 71e4 1bbe cdde 73be 2056 d6be c80d babb
00000210: b552 653a 24ec 98be 3d85 d2bd 10b7 c2be
00000220: 1b99 8b3b 909b 983e d823 19be c8f9 0d3e
00000230: 888b 503e 19a5 753e 8207 6339 ac55 033e
00000240: aef1 bc3d 7730 11be b66c c1be 90b0 eebd
00000250: 0275 1fbe a82e 31be c80b 50bd 411b 333f
00000260: 038b 393e a211 02bf 1073 4abf ea0f efbe
00000270: 176c efbe cf4c f9be d4a9 78be a1b3 2a3f
00000280: 95eb 17bf 51fd 07bf d4ef dfbe 5524 a2be
00000290: 0bf8 683d 05c9 c4be f605 97bd 0dd9 42be
000002a0: bf4f a7be 0852 cd3e ddfe 053e def1 e53d
000002b0: 7de0 f7be be67 abbe 22a9 1d3b 6440 e9be
000002c0: eea3 e0be f6eb 123f 1dc3 b33e ae23 75bd
000002d0: 15e7 b2bd 6cae 91be b80c c4bd 257e 3f3b
000002e0: 7543 c0be 3412 9dbe fbd8 203f fafb fc3d
000002f0: 243b a73d d110 3dbd 5fb3 9ebe ff77 babe
00000300: 1969 c9bd 6c12 83be 43a7 86be 9506 833e
00000310: 6c4b e33e 17b5 98bd db0b 6dbe 2ef5 1dbf
00000320: f2c4 cebe 6c87 073e 7dd3 86be 3b0d 53be
00000330: 83a1 17be 4531 d63e a9f5 343d ff4c 173b
00000340: 6820 c4bc 4445 dfbd 4540 e93d 602c 943e
00000350: a341 b63c 6e0b bb3c f4e1 6f3e b725 923e
00000360: 1ca6 11bb 00ad 37be 3b0f 0ebe 6749 2ebc
00000370: f5ff 45bd 591b 0ebe 866d 5f3e d748 ed3e
00000380: d514 bcbc 0427 a73d f64c cf3d e885 a63d
00000390: 6cdd 723e 296e 25bc 0e29 993c 04cd a73e
000003a0: 39fb 803e 12c7 a9bd 4e4e d6bd 539e 0dbe
000003b0: 29f4 183d bb7d cdbb f218 97be aa70 d7bd
000003c0: 15bb 903e 5ba3 8f3d fa9a 68bd 1ef8 30be
000003d0: 489f b7be abe8 c4be 9882 dc3d 450b 39be
000003e0: 55ed 18be 8e42 4a3e 54c9 833e 7e22 f1be
000003f0: 8656 c53c c736 b33d d989 f73d ebd0 dbbe
-0.117127605 -0.0782026 -0.11643321 -0.35641906 -0.16855161 -0.014011511 0.16918853 0.13933688
0.03150989 -0.2696715 -0.12999076 0.19015756 -0.11432571 -0.08071822 -0.26307362 0.039810006
-0.06275292 -0.4302633 -0.15234071 -0.12995555 -0.06480988 -0.43213758 -0.31821817 0.12764613
0.20333639 -0.009405762 0.2843407 -0.17232199 0.42611155 -0.016808672 -0.13315356 -0.2886693
-0.034911823 -0.41949782 -0.31764162 0.0395391 -0.23965396 -0.010653105 0.17621894 -0.1478641
0.058330424 -0.13329089 0.1982852 0.13342632 -0.053292066 -0.04641063 -0.26980162 0.036052614
-0.28564984 -0.29731873 -0.013098629 0.13238716 0.021532005 0.15023643 -0.21691008 -0.089127816
0.0062893135 -0.5479837 -0.20766829 0.30816832 -0.10184331 -0.49611092 0.15207408 0.09378065
0.40104103 0.32068795 0.30442908 0.56612545 0.4635157 0.30388314 0.07164266 0.3856066
-0.21812385 -0.06103878 0.06163272 0.00094861805 -0.105243035 0.15695144 0.21375778 0.16744794
0.10639009 -0.32932582 -0.3642722 -0.12535185 -0.34816146 -0.25065267 -0.29578897 0.31704065
-0.019572249 0.07476038 -0.47574073 -0.14445834 0.0879934 -0.30202618 -0.18691285 -0.043281294
0.08856327 0.079963356 -0.019122604 0.24879909 -0.12797885 -0.25787735 -0.6646149 -0.6450088
-0.055757277 -0.20506103 -0.31035042 -0.033200573 0.6894197 0.4496633 -0.42047918 -0.73706937
-0.88951623 -0.05676711 -0.23212387 -0.0947555 -0.0437057 -0.06335399 0.14807938 0.069862
0.0641652 0.08875687 0.14977343 0.2821314 0.40545568 0.15206817 -0.30630338 -0.5218495
-0.15223862 -0.2381546 -0.41862583 -0.0056779124 0.0008747981 -0.2986766 -0.102793194 -0.3803029
0.004260195 0.29806185 -0.1495508 0.13864815 0.20365727 0.23988761 0.00021651204 0.1282565
0.09225784 -0.14178644 -0.37778252 -0.116547704 -0.15571979 -0.17302954 -0.050792485 0.6996346
0.18119435 -0.50808156 -0.7908182 -0.4669183 -0.46762154 -0.48691413 -0.24283534 0.6668034
-0.59343845 -0.53120905 -0.43737662 -0.31668344 0.056877177 -0.38434616 -0.07374184 -0.19028111
-0.3267803 0.40101647 0.13085504 0.11227773 -0.48413458 -0.33477587 0.002405711 -0.4555694
-0.43875068 0.573913 0.35109797 -0.05984848 -0.08735482 -0.28453386 -0.095727384 0.0029219475
-0.37551466 -0.3067795 0.62831086 0.12352748 0.08165577 -0.046158615 -0.30996224 -0.36419675
-0.09834499 -0.25599992 -0.26299486 0.2559096 0.4439348 -0.07456415 -0.23149054 -0.6170224
-0.40384632 0.13235253 -0.26333228 -0.20610516 -0.14807706 0.41834465 0.044179592 0.0023086665
-0.023941234 -0.10901883 0.113892116 0.28940105 0.022248095 0.022832599 0.23426038 0.285444
-0.0022224253 -0.17937088 -0.13872997 -0.010637618 -0.048339803 -0.1387762 0.21819124 0.46344635
-0.022959152 0.081617385 0.10122101 0.08131009 0.23717278 -0.010097065 0.018696334 0.32773602
0.25191668 -0.08289923 -0.10464154 -0.13829927 0.037342224 -0.0062710918 -0.2951122 -0.10519536
0.28267732 0.070135795 -0.056788422 -0.17282149 -0.3586371 -0.38458762 0.10767096 -0.18070705
-0.14934285 0.19751951 0.2573954 -0.47096628 0.02408911 0.08750682 0.12086839 -0.4293283

module.conv3T.bias f4 [16]
00000000: cd43 b73e 9592 55be 1653 d23e 5c1f f9bd
00000010: cc27 27be d8ec 15bd b36f f53c 2754 663e
00000020: 5a1e ed3d 71d7 90bd 562b dc3d 00c7 f53d
00000030: 5fc8 dcbd 904f 773e 85d7 1bbe 4c53 6bbd
0.35793915 -0.20856698 0.41079015 -0.121641845 -0.16323775 -0.036602825 0.029960489 0.22493039
0.11578055 -0.07072342 0.10750453 0.12000847 -0.10780405 0.24151444 -0.15218933 -0.057452485
