theta_run_birds/exp_bs2048_files1_tight_pruned/conv_autoencoder.pth (torch, 997865 bytes, 19 tensors)

module.conv1.weight f4 [16, 1, 3, 3]
0	0xbe7f08a7	-0.24905644
1	0x3dfde3e7	0.123969845
2	0x3e48b4f5	0.1960028
3	0x3e996faa	0.29968005
4	0x3e8bffd7	0.27343628
5	0xbdc71f6c	-0.0972279
6	0xbe3d10f2	-0.18463495
7	0x3e8693fe	0.26284784
8	0xbd8fcfb0	-0.07022035
9	0x3d62ca16	0.055368505
10	0xbe77e303	-0.24207692
11	0xbe2f6703	-0.1712914
12	0xbea12195	-0.31470934
13	0x3bb6e07f	0.0055809612
14	0xbd58e906	-0.052956603
15	0xbe258884	-0.16165358
16	0x3d75cad1	0.060007874
17	0x3e9cf52b	0.30655798
18	0xbdfb708b	-0.12277325
19	0xbe92587b	-0.2858313
20	0x3ea0c3d7	0.31399414
21	0xbe07b853	-0.13253908
22	0x3e3d0977	0.18460642
23	0x3e036817	0.12832676
24	0xbd2b9e14	-0.041898802
25	0xbe0ec49f	-0.13942192
26	0x3e8a9965	0.27070156
27	0x3e8c7bc8	0.27438188
28	0xbe46315e	-0.1935477
29	0xbd96d276	-0.07364361
30	0xbe95597c	-0.29169834
31	0xbe66e3df	-0.22547863
32	0xbe5c689a	-0.21524277
33	0x3e396ef1	0.18108727
34	0xbe5a7bf9	-0.21336354
35	0x3cddf7f9	0.027095782
36	0xbcd9d5cf	-0.02659121
37	0xbe374bc4	-0.17899996
38	0x3e214865	0.15750273
39	0xbe728506	-0.23683557
40	0xbe28317c	-0.16425127
41	0x3e38d567	0.18050157
42	0x3e8827fb	0.26593003
43	0xbd0a283a	-0.03372977
44	0xbe3cc5ca	-0.18434826
45	0x3e024571	0.12721802
46	0xbe56a964	-0.20963055
47	0x39d8b162	0.0004133089
48	0x3d1d53e7	0.038410094
49	0x3e0aa67e	0.13540074
50	0x3e987e41	0.29783824
51	0xbe3cb4b9	-0.18428315
52	0x3dcb8d7f	0.099390976
53	0xbe245cb1	-0.16050984
54	0x3d14d056	0.036331497
55	0x3b59a855	0.0033211906
56	0xbda3d702	-0.07999994
57	0xbcb605fc	-0.02221965
58	0xbd87c8f4	-0.06630126
59	0xbd99a483	-0.07502081
60	0x3dad594b	0.08464297
61	0xbdaec24c	-0.08533153
62	0xbdab08fb	-0.08351322
63	0x3dcc4330	0.099737525
64	0x3dd8ee63	0.10592344
65	0xbe038028	-0.12841856
66	0xbe8efeef	-0.27928874
67	0xbea1fbf8	-0.3163755
68	0x3dbd61dd	0.092471816
69	0xbc97fb9f	-0.0185526
70	0xbe5c3bc0	-0.21507168
71	0x3e093172	0.13397768
72	0xbea5cf8f	-0.32384917
73	0x3e96d805	0.29461685
74	0xbeb0f87d	-0.34564582
75	0xbe69a24e	-0.2281582
76	0x3deecd2c	0.11660227
77	0x3e55bc2b	0.20872562
78	0x3d894d06	0.06704144
79	0x3e3dc62f	0.18532632
80	0xbeab93f9	-0.33511332
81	0x3d2e0763	0.042487513
82	0x3e17bbeb	0.14817779
83	0x3e8df65d	0.27727023
84	0xbe868591	-0.26273778
85	0xbe2e362c	-0.17012852
86	0xbcd0dd56	-0.025496166
87	0xbdfb667f	-0.12275409
88	0xbe827d03	-0.25486
89	0xbe819e26	-0.2531597
90	0xbe530e26	-0.20610866
91	0x3e3be8c7	0.18350516
92	0x3e946d3b	0.28989586
93	0x3e31e436	0.17372212
94	0xbdc1df00	-0.09466362
95	0xb82ba224	-4.0920582e-05
96	0xbe82823e	-0.25489992
97	0xbe25b7de	-0.16183421
98	0x3e79960a	0.24373642
99	0x3e9d671f	0.30742738
100	0x3e49c84c	0.19705313
101	0x3d82c0d6	0.06384437
102	0x3df1b41a	0.1180193
103	0x3e83c776	0.25738114
104	0xbe38857c	-0.1801967
105	0xbdfffb6d	-0.124991275
106	0x3d92d52e	0.07169567
107	0xbe10b928	-0.14133132
108	0xbdc3c93f	-0.09559869
109	0xbe9c44d3	-0.3052126
110	0x3e128112	0.14307049
111	0xbcbea8fd	-0.02327394
112	0x3dc8fe9a	0.098141864
113	0xbda72f86	-0.08163361
114	0xbd159bc9	-0.03652552
115	0x3ea8103a	0.3282488
116	0xbe9512f8	-0.29116035
117	0x3de74922	0.11293246
118	0xbdf5a781	-0.119948395
119	0xbe4fed50	-0.20305371
120	0x3e9d7335	0.30751958
121	0xbd0d2758	-0.03446135
122	0x3e530ef9	0.2061118
123	0x3e6ba710	0.23012948
124	0x3e70d167	0.2351738
125	0x3e747c3b	0.23875515
126	0xbd952d89	-0.07284076
127	0xbd99dc1d	-0.075126864
128	0x3c19426d	0.009354216
129	0xbd0a594c	-0.033776566
130	0xbe63dee2	-0.22252992
131	0xbe3f23b9	-0.18665971
132	0xbe523415	-0.2052768
133	0x3d17761c	0.036977872
134	0xbe06ce0a	-0.13164535
135	0xbd88653f	-0.06659936
136	0xbe125b1b	-0.14292566
137	0xbe9c404e	-0.3051781
138	0x3ea207fc	0.31646717
139	0x3d8f0482	0.06983282
140	0x3e6fc8df	0.2341647
141	0xbd6c37bc	-0.05767034
142	0x3e2d7bc1	0.1694174
143	0xbe70ed15	-0.2352794

module.conv1.bias f4 [16]
0	0x3dac0b58	0.08400601
1	0xbd74a79b	-0.059730154
2	0x3e9d6d55	0.30747476
3	0xbe548f8a	-0.20757881
4	0x3e610a19	0.21976508
5	0x3e936c76	0.28793687
6	0x3da34d1c	0.07973692
7	0x3e462eae	0.19353744
8	0x3e346100	0.17615128
9	0x3eaa18f6	0.3322217
10	0x3d76a9a5	0.06022038
11	0xbe4fc668	-0.2029053
12	0xbea327bb	-0.3186625
13	0xbd64b570	-0.055837095
14	0x3e4e51da	0.20148411
15	0x3eafd379	0.34341028

module.conv2.weight f4 [32, 16, 3, 3]
0	0x3d35a155	0.04434331
1	0xbd9a300a	-0.07528694
2	0xbb9e1174	-0.004823858
3	0xbd9cd7ef	-0.076583736
4	0xbd97ae99	-0.07406349
5	0xbd75157e	-0.05983495
6	0xbd63a336	-0.055575572
7	0xbd96cc6d	-0.0736321
8	0xbd3495ad	-0.044088054
9	0xbd886eef	-0.06661784
10	0x3d19b5c1	0.03752685
11	0x3d20e7d2	0.03928358
12	0xbd9221c5	-0.07135347
13	0x3d26335f	0.040576335
14	0xbc61561c	-0.01375344
15	0x3da00e45	0.07815222
16	0x3d368740	0.04456258
17	0xbcd23ffd	-0.025665278
18	0x3da2560f	0.079265706
19	0x3d97ba82	0.074086204
20	0xbcaa3f1d	-0.020782048
21	0x3d4dc35f	0.05023515
22	0x3c132f9f	0.008983522
23	0x3d1a058c	0.037602946
24	0xbca958be	-0.020672198
25	0x3d1c6e99	0.03819141
26	0x3d864342	0.06555797
27	0x3d4202ff	0.04736614
28	0xbd2532a0	-0.040331483
29	0xbcd05f57	-0.025436087
30	0x3c27de82	0.010245921
31	0xbbc3a3a3	-0.0059704348
32	0x3d7d93bf	0.06190848
33	0xbd448c6a	-0.04798547
34	0xbce0bb46	-0.027433049
35	0xbd43b2ae	-0.047777824
36	0x3d793aa7	0.06084695
37	0x3d2be122	0.04196275
38	0x3ce9bb70	0.02853176
39	0x3d94c01b	0.07263204
40	0x3d9d481f	0.07679772
41	0x3d7807e5	0.060554404
42	0x3ca84222	0.020539347
43	0xbcbad0a7	-0.022804571
44	0x3c474eb6	0.012164762
45	0x3dae6b05	0.08516506
46	0xbc855184	-0.016274221
47	0xbbb369c3	-0.0054752543
48	0x3da3ae49	0.07992227
49	0x3c459fee	0.012062056
50	0xbd5c6edd	-0.053816665
51	0xbd60a12c	-0.054841205
52	0xbd649f42	-0.055815943
53	0x3d8cd90d	0.06877337
54	0xbd215675	-0.039389092
55	0x3c62db71	0.013846264
56	0xbd72f4d2	-0.05931551
57	0x3c986c88	0.01860644
58	0x3d04fbe9	0.032466803
59	0x3cd0b21d	0.025475556
60	0x3d98562f	0.07438313
61	0x3d6a309a	0.057175256
62	0x3c9912e2	0.018685762
63	0xbcb26155	-0.021774927
64	0x3d9689ad	0.07350478
65	0x3c1b66dd	0.009484974
66	0xbd1bf304	-0.038073555
67	0xbb8be67f	-0.0042694206
68	0x3db0edc2	0.08639099
69	0x3cacb7c7	0.021083726
70	0xbbed8d85	-0.0072495365
71	0x3d30bd60	0.043149352
72	0x3a94b759	0.0011346146
73	0x3d76b3fb	0.060230237
74	0x3d74d722	0.05977548
75	0xbd807717	-0.062727146
76	0x3d52a8ab	0.051430386
77	0xbd4725e8	-0.048620135
78	0xbb5647bd	-0.0032696568
79	0xbd2c9b80	-0.042140484
80	0x3cacc566	0.02109022
81	0x3c7a4aa0	0.015276581
82	0x3da4bbec	0.08043656
83	0x3da31894	0.07963672
84	0xbd7b9ecf	-0.06143075
85	0x3d4aecf9	0.0495424
86	0x3d99922b	0.074985825
87	0xbd8791f7	-0.066196375
88	0xbd4d482b	-0.050117653
89	0xbd5d5cc6	-0.054043554
90	0x3cb5330b	0.022119066
91	0xbccb2b72	-0.02480099
92	0xbd6416db	-0.05568586
93	0xbd868211	-0.06567777
94	0x3da52592	0.080638066
95	0xbd0c2379	-0.034213517
96	0xbd495c6c	-0.049160406
97	0xbd950877	-0.07277005
98	0xbad47b08	-0.0016210983
99	0xbc6b120c	-0.014347564
100	0xbcec35a5	-0.028834173
101	0xbc020fde	-0.007938353
102	0x3cae6cde	0.021292146
103	0x3d34ca33	0.044138145
104	0xbc1d5cfa	-0.009604687
105	0xbcbbdbc2	-0.022931937
106	0xbd4cc357	-0.049990978
107	0xbd81a52f	-0.063303344
108	0xbb310471	-0.0027010704
109	0x3db28d08	0.08718306
110	0xbda83788	-0.08213717
111	0xbd9e0a37	-0.07716792
112	0x3d7a511c	0.06111251
113	0x3cdfe23a	0.027329553
114	0xbd80a3e5	-0.062812604
115	0x3d1ec283	0.03875972
116	0xbd3be491	-0.045872275
117	0x3d8ace1f	0.06777596
118	0xbd9b1cec	-0.07573876
119	0x3ae7b2dd	0.0017677207
120	0xbc57335b	-0.013134803
121	0xbd4f83da	-0.050662853
122	0xbdb998d0	-0.0906235
123	0x3d707987	0.058709648
124	0xbbf84a41	-0.007577211
125	0x3c2370b6	0.009975603
126	0x3cc437d4	0.023952402
127	0x3c00b5a4	0.0078558065
128	0x3a426aae	0.0007416409
129	0x3d8bcf19	0.0682661
130	0xbc8bb33a	-0.017053235
131	0x3d6b00c4	0.057373777
132	0x3d8fbbae	0.07018219
133	0x3a2b39e7	0.00065317604
134	0x3d4d5abc	0.05013536
135	0x3d63640e	0.05551534
136	0xbd7c6425	-0.061618943
137	0xbd3934d7	-0.045216408
138	0xbd2feb0a	-0.04294876
139	0xbcfb6a25	-0.030690262
140	0xbc321b16	-0.010870716
141	0x3d8e3868	0.069443524
142	0x3d90758e	0.07053672
143	0x3d55c61b	0.05219088
144	0x3cf652ea	0.030068833
145	0xbcc4fe93	-0.024047172
146	0x3d0dcace	0.034617238
147	0xbd21f4d1	-0.039540116
148	0xbd559403	-0.052143108
149	0x3d24a28e	0.040194087
150	0x3c8c18ad	0.01710161
151	0xbd37faf6	-0.04491707
152	0xbd84b1e8	-0.064792454
153	0x3d999b1f	0.0750029
154	0x3d558089	0.052124534
155	0xbd93325d	-0.071873404
156	0x3d005204	0.031328216
157	0xbca23dd0	-0.019804865
158	0xbd8e065f	-0.06934809
159	0xbdd26cbf	-0.10274648
160	0xbdc13fbc	-0.094359845
161	0xbd3e5d18	-0.0464755
162	0x3d2884b1	0.04114217
163	0xbbf12efc	-0.0073603373
164	0x3d5a47d4	0.053291157
165	0xbd409dda	-0.04702554
166	0xbd627ebe	-0.055296652
167	0x3c64458b	0.013932596
168	0x3cede614	0.029040374
169	0xbd15fda5	-0.036618847
170	0xbd1bcb61	-0.038035754
171	0xbd6a77fb	-0.05724333
172	0xbd4ffb9a	-0.050777055
173	0xbd825a71	-0.063649066
174	0x3939d993	0.00017724028
175	0x3dbdb8bb	0.0926375
176	0xbd3eaa80	-0.04654932
177	0xbd00a5b2	-0.03140802
178	0x3d0bcd9d	0.034131635
179	0xbdbd343d	-0.09238479
180	0xbd96f6e7	-0.07371312
181	0x3d8edaab	0.06975301
182	0x3d4a1460	0.049335837
183	0xbbeecdd0	-0.0072877184
184	0xbd62a6ed	-0.055334974
185	0xbbcd431a	-0.0062641026
186	0xbcd36d3d	-0.025808925
187	0xbd3d82c1	-0.046267275
188	0xbc3a576b	-0.011373381
189	0xbd7abccc	-0.061215207
190	0xbc97b4e5	-0.018518874
191	0x3ce38e83	0.027777916
192	0xbbbfe2ba	-0.0058558853
193	0xbd87084c	-0.065933794
194	0x3db17a94	0.08665958
195	0x3d56e5a8	0.05246511
196	0xbca67aa0	-0.020322144
197	0xbc205c1c	-0.009787586
198	0x3d774f8e	0.060378604
199	0xbcf2b8e8	-0.029629186
200	0xbd8772af	-0.06613671
201	0xbd3c77b7	-0.046012606
202	0x3d75d1aa	0.060014404
203	0x3dc32187	0.09527879
204	0xbc8b8c03	-0.017034536
205	0x3d36a03c	0.044586405
206	0xbd87c3f6	-0.066291735
207	0x3ca7f8c2	0.02050436
208	0x3d98dd96	0.07464139
209	0xbd64b646	-0.055837892
210	0xbcb48fe6	-0.022041272
211	0xbd764553	-0.060124706
212	0x3c472c86	0.012156611
213	0x3d91df33	0.0712265
214	0xbd0653df	-0.03279483
215	0x3c95f411	0.018304856
216	0x3d09480f	0.033515986
217	0x3ce3a2b9	0.027787553
218	0xbd639f25	-0.055571694
219	0x3d742bd0	0.059612095
220	0xbd0de76f	-0.03464454
221	0x3db283de	0.08716558
222	0x3d83bd91	0.06432641
223	0x3ca87374	0.020562865
224	0x3cce770d	0.025203252
225	0xbcd55b54	-0.026044525
226	0x3b03f161	0.0020132887
227	0x3db461d7	0.08807724
228	0x3d945b2f	0.072439544
229	0x3d93b2a1	0.07211805
230	0x3ce70a03	0.028203016
231	0x3db8d9f9	0.0902595
232	0x3d4ba5d7	0.049718704
233	0x3d5d9c8e	0.05410438
234	0xbd019684	-0.031637684
235	0x3d49a30c	0.04922776
236	0x3d6a7ace	0.057246022
237	0x3d83e6fe	0.06440543
238	0x3b261b9d	0.0025346049
239	0xbd6da4f2	-0.058018632
240	0xbd341447	-0.04396465
241	0xbda1c700	-0.07899284
242	0x3ce90286	0.028443586
243	0x3bd90f7c	0.0066241603
244	0x3c3e6ad0	0.011622146
245	0xbd66c131	-0.056336585
246	0xbbc4a80b	-0.0060014776
247	0xbd2c3271	-0.042040292
248	0xbc27961d	-0.010228661
249	0x3d82874b	0.06373461
250	0xbd5eadd6	-0.054365
251	0x3d9e41a1	0.077273615
252	0x3c682515	0.014168997
253	0x3ce70993	0.028202808
254	0xbd85be71	-0.065304644
255	0xbd678f22	-0.056532986

module.conv2.bias f4 [32]
0	0xbcfa9d36	-0.030592542
1	0x3d44d91f	0.048058625
2	0xbba4d0da	-0.00502978
3	0x3dc3560d	0.09537897
4	0xbc824ed1	-0.015906723
5	0xbca2e25a	-0.019883323
6	0x3d5859c4	0.052819982
7	0x3d8c6b5f	0.06856417
8	0x3d94c059	0.0726325
9	0xbd9525c8	-0.07282597
10	0x3d2e7a24	0.04259695
11	0x3d52913f	0.05140805
12	0xbd386077	-0.04501387
13	0x3cb67610	0.022273093
14	0xbc25a625	-0.010110413
15	0xbcdee17c	-0.027207129
16	0xbd5abe06	-0.053403877
17	0x3d891ac7	0.066945605
18	0xbd2c3485	-0.042042274
19	0xbd34323a	-0.043993212
20	0x3d38dc06	0.045131706
21	0xbd86dff7	-0.06585687
22	0xbda2eadd	-0.07954953
23	0x3cd7ae6e	0.026328292
24	0xbdd4c694	-0.10389438
25	0xbd4b3efd	-0.049620617
26	0x3da3b6ff	0.07993888
27	0x3d2bb8b8	0.04192421
28	0x3c9d7863	0.019222444
29	0x3d1e31ef	0.03862184
30	0xbd845354	-0.06461206
31	0x3cd16b47	0.02556385

module.conv3.weight f4 [64, 32, 3, 3]
0	0x3d599387	0.05311921
1	0x3d80ac6b	0.06282886
2	0xbcf573ce	-0.029962447
3	0xbb2b3fc2	-0.0026130532
4	0xbb401f3b	-0.002931549
5	0xb909873c	-0.00013115717
6	0x3d34697f	0.04404592
7	0xbd3224b0	-0.04349202
8	0xbc6e2c7c	-0.014536973
9	0x3c718340	0.014740765
10	0x3d7dd765	0.061972994
11	0xbc9a09bc	-0.01880347
12	0x3d82008a	0.06347759
13	0xbc8eee11	-0.017447503
14	0x3ba15911	0.0049239476
15	0x3d0376cf	0.032095727
16	0x3b1ac482	0.0023615663
17	0x3aec1533	0.0018011689
18	0xbc9da85c	-0.019245319
19	0xbd09777a	-0.033561207
20	0x3bb38580	0.005478561
21	0xbcdc2397	-0.02687244
22	0xbc7a41cf	-0.015274479
23	0xbd203327	-0.039111283
24	0x3c8222ea	0.015885789
25	0x3d40a1d5	0.047029335
26	0xbc3e1b93	-0.011603254
27	0xbd61951a	-0.055073835
28	0x3be62194	0.007023046
29	0x3d52b8db	0.051445823
30	0x3cc2d87a	0.023784865
31	0xbd4122ca	-0.047152318
32	0xbd467c72	-0.048458524
33	0xbd3a7087	-0.04551747
34	0xbd26e2cf	-0.040743645
35	0x3b19f82e	0.0023493874
36	0xbd0f0aab	-0.034922283
37	0xbc49b846	-0.012312001
38	0x3d58d915	0.0529414
39	0xbd7373bb	-0.05943654
40	0xbd36cf61	-0.044631366
41	0x3ba30160	0.004974529
42	0x3c980ec8	0.018561736
43	0xbc2cf827	-0.010557211
44	0x3c8642ca	0.01638927
45	0xbd1cd624	-0.038290158
46	0xbd179f89	-0.03701738
47	0xbd57348a	-0.05254034
48	0xbce7ecbb	-0.028311124
49	0xbd86f85a	-0.06590338
50	0x3cdc0111	0.026855977
51	0x3ba50b68	0.00503676
52	0xbcfa65a7	-0.03056605
53	0xbd397fb0	-0.045287788
54	0xbd1ebc88	-0.038754016
55	0x3cdabd7b	0.02670168
56	0xbcd4b82e	-0.02596673
57	0x3d1c487a	0.038155057
58	0xbc76eedf	-0.0150716
59	0x3cd724c8	0.026262656
60	0xbd24d6c6	-0.040243886
61	0xbd666778	-0.05625102
62	0xbbbb95e8	-0.0057246573
63	0x3d5d0482	0.053959377
64	0x3d360aaf	0.044443782
65	0x3c88375e	0.016627964
66	0xbcc424f0	-0.023943394
67	0x3d4eb918	0.050469488
68	0xbb264e7b	-0.0025376368
69	0x3d6b5492	0.0574537
70	0xbce0fd6e	-0.027464595
71	0x3b3b64a5	0.0028593924
72	0x3d80dae7	0.06291752
73	0x3d42230f	0.047396716
74	0xbd069022	-0.0328523
75	0x3d6f1a72	0.05837483
76	0x3d10a502	0.035313614
77	0x3d07ba91	0.033136908
78	0x3d1d7f75	0.03845163
79	0xbc6883f9	-0.014191621
80	0x3bdbae96	0.006704162
81	0xbce4656f	-0.027880399
82	0x3d7a3a6b	0.061090868
83	0x3cef556e	0.02921554
84	0xbd6efd05	-0.058346767
85	0x3d353554	0.04424031
86	0xbc35040d	-0.011048329
87	0x3bfe1753	0.0077542453
88	0xbd17ba32	-0.037042804
89	0xbcba76fd	-0.022761816
90	0x3d188357	0.03723463
91	0x3cca7136	0.024712186
92	0xbc69219f	-0.014229207
93	0xbbbc4faa	-0.0057468014
94	0x3c1e0498	0.00964465
95	0xbcb1ba52	-0.02169529
96	0xbc9ae796	-0.018909257
97	0xbcb82fe1	-0.022483768
98	0xbd012482	-0.031528957
99	0x3d200503	0.03906728
100	0x3d9884e5	0.074472226
101	0x3d87eb2c	0.06636652
102	0x3c30910f	0.010776772
103	0x3d03b14d	0.03215151
104	0xbce0eda9	-0.027457075
105	0x3d2bb38e	0.041919284
106	0x3d8b285b	0.067948066
107	0xbcf5d5ff	-0.030009268
108	0xbc7aa4dd	-0.0152980955
109	0x3cfb6cdb	0.030691555
110	0x3c9267bc	0.01787173
111	0xbd172318	-0.036898702
112	0x3a689836	0.0008872779
113	0xbbd8cbcf	-0.0066160928
114	0xbd0d4a9a	-0.034494974
115	0x3cb016f7	0.021495325
116	0xbd38c6d7	-0.045111503
117	0x3d17290a	0.036904372
118	0xbd3f4214	-0.046693876
119	0x3d11a7be	0.035560362
120	0x3d8b6170	0.06805694
121	0xbd120df2	-0.03565783
122	0x3ca773ee	0.020441022
123	0x3cf0a897	0.029377265
124	0x3d5cd1f5	0.053911168
125	0xbc52baab	-0.012861888
126	0x3d3dd0d0	0.046341717
127	0xbc708a80	-0.0146814585
128	0x3b1d3fe8	0.002399439
129	0x3d0bc580	0.034123898
130	0x3d36c472	0.04462094
131	0x3c95a2c2	0.018266086
132	0x3b1755e5	0.0023091969
133	0x3cf76b35	0.030202487
134	0x3d593962	0.05303324
135	0x3c897bc5	0.01678265
136	0x3b7d633d	0.0038663887
137	0x3d458075	0.04821821
138	0x3d07556a	0.03304044
139	0x3c84cadc	0.016210012
140	0xbd0e3b7e	-0.034724705
141	0x3cb7c607	0.022433294
142	0xbd0ccc91	-0.034374777
143	0x3d32acce	0.04362183
144	0x3d4c3d9f	0.049863454
145	0xbd8ba235	-0.06818048
146	0xbd33bec7	-0.04388311
147	0x3b1c3a8c	0.0023838608
148	0x3cc1fcc1	0.023680093
149	0xbd87798e	-0.066149816
150	0xbd1bf22b	-0.038072746
151	0xbc80b27e	-0.015710112
152	0xbd3499c2	-0.044091947
153	0x3d42a1f5	0.047517736
154	0xbbdcdc6e	-0.0067401445
155	0xbd413939	-0.047173712
156	0x3b93ee26	0.0045144735
157	0x3c3cff62	0.011535497
158	0x3b56b0b8	0.0032759141
159	0x3d41e7c0	0.047340155
160	0x3c917a75	0.017758587
161	0xbc238d06	-0.009982353
162	0xbd54abb9	-0.05192158
163	0x3c584ba8	0.013201632
164	0x3d26a974	0.040688947
165	0xbb210894	-0.0024571763
166	0x3a211b89	0.00061457657
167	0x3cd28c08	0.025701538
168	0x3d3e3b39	0.046443198
169	0xbbe692af	-0.007036529
170	0xbd034673	-0.032049607
171	0x3b1dc90d	0.0024076134
172	0xbbb2322e	-0.005438111
173	0xbc464eb7	-0.012103728
174	0x3d492a76	0.04911276
175	0xbd718404	-0.05896379
176	0xbcf669ae	-0.030079689
177	0x3ce9381f	0.028469143
178	0xbd1ce9bd	-0.038308848
179	0xbcee3375	-0.029077271
180	0x3d7f2d78	0.06229922
181	0xbbfd39d3	-0.0077278404
182	0x3b79e0fb	0.0038128484
183	0xbbfbb714	-0.0076817367
184	0x3d020948	0.031747133
185	0x3c44678a	0.011987576
186	0x3c65f1f9	0.014034742
187	0x3d6e8c44	0.058239236
188	0x3c8a4b23	0.016881531
189	0xbd0cb610	-0.034353316
190	0x3c3e4389	0.011612781
191	0xbc20d043	-0.009815278
192	0xbc084e94	-0.008319516
193	0xbd5d9573	-0.054097604
194	0x3d4b0860	0.049568534
195	0x3cf75a38	0.030194387
196	0x3ce2b8c4	0.027675994
197	0xbb33d443	-0.002743975
198	0x3c8a5a6f	0.016888825
199	0xbd198b7b	-0.037486535
200	0xbd35f924	-0.044427052
201	0xbd5a7779	-0.053336594
202	0x3d34b0ae	0.044113807
203	0xbd1e08fa	-0.03858278
204	0xbd8c6228	-0.06854659
205	0xbd49d6fa	-0.049277283
206	0x3c3cfa98	0.011534356
207	0x3d2d9cbe	0.04238581
208	0xbc1e7657	-0.009671769
209	0xbd801dd4	-0.06255689
210	0xbd501314	-0.050799444
211	0x3c3af9a5	0.011412059
212	0xbcf4b678	-0.029872164
213	0xbcf6ea7b	-0.030141106
214	0xbd529dc5	-0.051419992
215	0x3ce5ec57	0.028066797
216	0x3c2a7519	0.010403895
217	0x3d1b56fd	0.037924755
218	0x3c2b25b1	0.010445998
219	0xbd480270	-0.04883045
220	0x3bd8a1e5	0.006611096
221	0x3d04eb5b	0.032451015
222	0xbb4c4c72	-0.0031173495
223	0xbccbe64e	-0.024890091
224	0xbb74c6cc	-0.0037349937
225	0xbc94cc8e	-0.018163946
226	0x3d21c870	0.039497793
227	0xbd6faa44	-0.058511987
228	0xbc8a673f	-0.016894935
229	0x3c340d9f	0.010989576
230	0x3d248264	0.040163413
231	0xbd32e4f7	-0.04367539
232	0x3d657266	0.056017302
233	0xbce42593	-0.027849948
234	0xbb0b84a3	-0.0021288774
235	0xbd328770	-0.043586195
236	0x3ce63494	0.028101243
237	0x3ceadb9b	0.02866917
238	0x3cfb8c62	0.030706588
239	0x3d2c33f2	0.042041726
240	0xbcb56be2	-0.02214617
241	0xbd0525ef	-0.03250688
242	0x3d2c1d48	0.042020112
243	0x3d90a69f	0.070630305
244	0x3b4f14b8	0.0031598043
245	0xbd332bab	-0.043742817
246	0x3cb9c19a	0.022675324
247	0xbd3a4214	-0.045473173
248	0xbd1615d6	-0.036641918
249	0x3d17c7a5	0.03705563
250	0x3d1cb66e	0.038259916
251	0x3a4e2545	0.000786383
252	0x3d4ec70d	0.0504828
253	0x3d064918	0.03278455
254	0xbcf0c743	-0.02939189
255	0xbd78fb9e	-0.060786836

module.conv3.bias f4 [64]
0	0x3d6a773c	0.057242617
1	0xbd72cfc4	-0.059280172
2	0xbd814924	-0.063127786
3	0xbb460e21	-0.0030220824
4	0x3cf90184	0.03039623
5	0x3bc25561	0.005930588
6	0x3c57a557	0.013161979
7	0xbcd1a4b9	-0.025591241
8	0x3cb08fae	0.021552887
9	0xbd806e53	-0.06271043
10	0x3d5d4170	0.054017484
11	0xbd08e599	-0.033422086
12	0x3c40b3ea	0.011761645
13	0xbd9899a1	-0.074511774
14	0x3ced664f	0.028979449
15	0x3d4065b0	0.046971977
16	0x3d225a51	0.039636914
17	0xbd01012d	-0.031495262
18	0xba5b4b9e	-0.0008365455
19	0x3cb5fcee	0.022215333
20	0xbc5716f5	-0.013128032
21	0x3d0f67c7	0.03501108
22	0xbc13ea97	-0.009028099
23	0xbd98c5db	-0.07459613
24	0x3d85eeb7	0.06539672
25	0xbca36e49	-0.019950049
26	0x3b11a757	0.0022224986
27	0x3d3a0462	0.045414336
28	0xbb73b25a	-0.0037185163
29	0xbd5e388b	-0.054253142
30	0x3c029bdb	0.007971729
31	0x3d475491	0.048664633
32	0x3d5da006	0.05410769
33	0x3d9897d8	0.07450837
34	0x3d5c43cf	0.053775605
35	0xbcc502cf	-0.02404919
36	0x3d15b1d8	0.03654656
37	0x3cfc6faa	0.030814964
38	0xbcecc393	-0.02890185
39	0x3d0edb6f	0.034877237
40	0xbc539533	-0.01291399
41	0x3d86c7f8	0.0658111
42	0xbd4a9686	-0.049459957
43	0x3d8ced62	0.06881215
44	0xbd17c6a3	-0.03705467
45	0x3cbd669f	0.023120223
46	0x3c5e0436	0.013550809
47	0x3c0720d6	0.008247575
48	0x3c9e22b5	0.019303659
49	0xbd96768f	-0.07346832
50	0x3d7781ec	0.060426638
51	0x3cf81677	0.03028415
52	0xbc0f5a9a	-0.008749628
53	0xbca1857c	-0.01971697
54	0x3c0b107b	0.008487816
55	0xbdabd89c	-0.08390924
56	0xbcf62d9b	-0.030051043
57	0x3d46f7b5	0.048576076
58	0x3d72e1dd	0.05929743
59	0x3d20bf35	0.03924485
60	0xbca1625f	-0.019700227
61	0x3937557a	0.00017484082
62	0x3c9a111b	0.018806985
63	0x3d5a5bcb	0.053310197

module.conv4.weight f4 [128, 64, 3, 3]
0	0x3c45bf9f	0.012069612
1	0x3add1abb	0.0016868928
2	0x3cab2d7b	0.02089571
3	0xbd224b1c	-0.03962241
4	0xbccff1d0	-0.02538386
5	0xbcfa7189	-0.030571716
6	0x3c23a55f	0.009988158
7	0x3c83432e	0.016023245
8	0x3c57aca3	0.013163718
9	0xbc8df29d	-0.017327601
10	0xba1e2218	-0.0006032302
11	0xbc23734e	-0.009976221
12	0xbcf34410	-0.02969554
13	0xbc9d25dd	-0.019183094
14	0xbd13a1a4	-0.036042824
15	0x3aadd7fa	0.0013263219
16	0x3cf6d455	0.030130545
17	0xbc6ecb5b	-0.014574851
18	0x3c9c875c	0.019107513
19	0xbcf0c2e4	-0.029389806
20	0x3c4874f1	0.012234912
21	0xbb5ba1b8	-0.003351314
22	0x3c2afe1a	0.010436559
23	0x3b8720d6	0.0041237874
24	0x3ce2523d	0.027627105
25	0xbd22be49	-0.03973225
26	0xbc85eb06	-0.01634742
27	0xbbf5b156	-0.0074979467
28	0xbbcca9d9	-0.0062458334
29	0xbcda08b5	-0.02661548
30	0x3d113646	0.03545215
31	0xbcd45dbf	-0.025923608
32	0x3be8e715	0.0071076252
33	0xba388f2f	-0.0007040379
34	0x3bd6d571	0.006556206
35	0x3cec5b1a	0.028852034
36	0x3cdcf8d7	0.026974125
37	0x3c914e11	0.01773742
38	0xbd461e92	-0.048368998
39	0xbc9905ac	-0.018679462
40	0xbd252372	-0.040317006
41	0x3cc2cd15	0.023779431
42	0x3cf9f541	0.030512454
43	0xbcbe2a13	-0.023213422
44	0x3cef35c9	0.029200451
45	0xbd5b92d6	-0.05360683
46	0x3be2b753	0.0069188266
47	0xba681e82	-0.00088546437
48	0x3c1c3918	0.009535097
49	0x3cc52029	0.024063187
50	0xbd309a53	-0.043115925
51	0x3cd30ce4	0.025762983
52	0x3d26c1e1	0.04071224
53	0x3cf13a8a	0.029446859
54	0xbb269897	-0.002542054
55	0xbd0de87b	-0.03464554
56	0xbd2c052c	-0.04199712
57	0xbc86bf53	-0.016448652
58	0xbc3024f9	-0.0107510025
59	0xbc43e3fa	-0.011956209
60	0x3d0dc740	0.034613848
61	0xbbeffacf	-0.0073236
62	0xbcca7ddb	-0.024718216
63	0x3c96b681	0.018397572
64	0x3d1999f1	0.037500326
65	0x3c0f6db9	0.008754187
66	0x3c8e1c65	0.017347524
67	0xbc63e424	-0.013909373
68	0x3d05326b	0.032518785
69	0xbbcd19de	-0.006259187
70	0xbd01f628	-0.031728894
71	0xba5414eb	-0.0008090275
72	0xbc014ddb	-0.007892097
73	0xbd25c4af	-0.040470775
74	0xbcd6624a	-0.026169915
75	0xbc6abe3f	-0.014327585
76	0xbd07ad46	-0.03312423
77	0x3c6c5494	0.014424462
78	0x3d1c5dd1	0.038175408
79	0x3bdbd8a1	0.006709174
80	0xbb859637	-0.004076745
81	0xbbdfd5cd	-0.006830907
82	0x3c9c74b8	0.019098625
83	0x3c86310b	0.016380807
84	0x3ca143a0	0.019685566
85	0x3c842073	0.016128754
86	0xbc2387ae	-0.009981079
87	0x3c988241	0.018616797
88	0x3c6a5d05	0.014304404
89	0x3cb4d131	0.022072406
90	0x3cb4d2a1	0.022073092
91	0x3c8e71b0	0.017388195
92	0x3beb5b95	0.0071825483
93	0xbc26f9ef	-0.010191425
94	0xbbaab31d	-0.0052093402
95	0xbd0d6517	-0.034520235
96	0x3ca300b9	0.019897806
97	0x3ccbe10f	0.02488759
98	0xbce3ecb9	-0.02782284
99	0xbcfb25cd	-0.030657673
100	0x3cb21a80	0.021741152
101	0xbce298b8	-0.027660713
102	0x3ca32b58	0.019918129
103	0x3cb243c9	0.021760838
104	0xba372822	-0.0006986876
105	0xbcb3d6c5	-0.021952996
106	0xbb07fc7c	-0.0020749858
107	0xbca47e45	-0.020079741
108	0x3cd38fd8	0.025825426
109	0xbbfd116d	-0.0077230246
110	0xbbb31c9f	-0.0054660584
111	0x3c90182d	0.017589653
112	0xbcbf9086	-0.023384344
113	0xbd174d7b	-0.036939126
114	0xbbfde69c	-0.007748438
115	0xbd1f68c8	-0.038918287
116	0x3d0681e0	0.032838702
117	0xbcd67248	-0.02617754
118	0xbb16ef5d	-0.0023030855
119	0x3c8da1ec	0.017289124
120	0x3cf00dbe	0.029303428
121	0xbce4229d	-0.027848536
122	0xbb6bff4a	-0.0036010318
123	0xbc32ca9d	-0.010912565
124	0x3bb4e6db	0.005520684
125	0xbc7cceec	-0.015430193
126	0xbbb481bb	-0.005508629
127	0x3c660372	0.014038907
128	0x3ce7166c	0.028208934
129	0xbccddd0a	-0.025129814
130	0xbcf7c576	-0.030245524
131	0x3c6e942a	0.014561692
132	0x3c6e3aea	0.014540413
133	0x3cb7244c	0.022356175
134	0xbc06b413	-0.008221644
135	0x3cd6c62f	0.026217548
136	0x3c25a947	0.01011116
137	0xbcfb24d6	-0.030657213
138	0x3c1d8eef	0.009616598
139	0x3d12bc7e	0.03582429
140	0x3c902483	0.017595535
141	0xbc5a5292	-0.01332535
142	0xbd2bf518	-0.041981786
143	0x3bbb454c	0.005715048
144	0xbcb671a6	-0.022270989
145	0x3d118d07	0.035534885
146	0x3cff7a21	0.031186165
147	0x3d1b08bb	0.037850123
148	0x3c8b75cd	0.017023945
149	0xbd331f39	-0.043730948
150	0x3b840ccd	0.0040298463
151	0xba013477	-0.00049287773
152	0x3caedcf4	0.021345593
153	0xbc8312d0	-0.016000181
154	0x3c9f7be9	0.019468265
155	0x3d02d2a0	0.03193915
156	0xbca69e81	-0.020339252
157	0xbc597d63	-0.013274523
158	0xbd4d8abc	-0.050181136
159	0x3bb8fcfb	0.005645392
160	0x3b71b4dc	0.0036881482
161	0xbc2322ed	-0.009957057
162	0xbb952358	-0.0045513324
163	0xbcf297b6	-0.029613357
164	0x3bd3ecec	0.0064674523
165	0x3c8b4d13	0.017004525
166	0x3d2ce7b5	0.04221316
167	0xbc847242	-0.016167764
168	0x3c58f23d	0.013241348
169	0x3cf4d574	0.029886939
170	0x3c8ea3b5	0.017412046
171	0x3cfff65a	0.0312454
172	0xbc92b711	-0.017909558
173	0x3c97ce42	0.018530969
174	0xbcd538e8	-0.026028112
175	0xbc64200f	-0.013923659
176	0x3910b61b	0.0001380075
177	0x3adad30f	0.001669498
178	0x3d05c4f8	0.032658547
179	0xbd40136e	-0.04689353
180	0xbc58c438	-0.013230376
181	0xbcaf982f	-0.021434871
182	0xbafc1f72	-0.0019235446
183	0xbcc2568f	-0.023722915
184	0xbd13ee1e	-0.036115758
185	0x3ce5f025	0.028068611
186	0x3c79c58d	0.015244854
187	0xb87a36c6	-5.9655657e-05
188	0x3c57b079	0.013164633
189	0xba4330a5	-0.0007445908
190	0x3ba87d8d	0.00514192
191	0xbcab0d38	-0.020880327
192	0x3c113ce8	0.008864619
193	0xbcfa735e	-0.03057259
194	0xbb77a386	-0.0037786677
195	0xbc12749f	-0.008938937
196	0x3b3abe3d	0.0028494739
197	0x3cf6e72d	0.03013953
198	0x3cbb5908	0.022869602
199	0xba97f843	-0.0011594373
200	0x3d6d0920	0.05787003
201	0x3d784c31	0.060619537
202	0xbcc86c7a	-0.024465788
203	0x3d301d49	0.04299668
204	0xbc8edf9d	-0.017440611
205	0x3a40d2a8	0.0007355609
206	0x3d306115	0.043061335
207	0x3cb21c62	0.02174205
208	0x3cb58cca	0.02216186
209	0x3b814d1d	0.00394596
210	0xbc39cf81	-0.011340977
211	0x3c90cc65	0.017675588
212	0x3ca0ad9c	0.019614033
213	0x3c1f3083	0.009716156
214	0x3cf02a40	0.029317021
215	0xbb820a0c	-0.003968483
216	0x3c8a1078	0.016853556
217	0xbc9417bb	-0.018077722
218	0x3c610b11	0.013735549
219	0xbc0fad6c	-0.008769374
220	0xbd086e4e	-0.03330832
221	0x3c6d331d	0.014477518
222	0xbbef0bc0	-0.007295102
223	0x3c84af89	0.016196983
224	0xbbdc417b	-0.006721673
225	0xbca6e27a	-0.020371664
226	0x3cad98de	0.021191057
227	0x3c219ac6	0.009863561
228	0xbd442abd	-0.04789232
229	0x3d3e7df1	0.046506826
230	0x3bf93be0	0.0076060146
231	0xbd44c0b6	-0.048035346
232	0xbc4049b5	-0.011736323
233	0x3d1673b1	0.036731426
234	0xbc5aedfa	-0.013362402
235	0x3c7c1a7d	0.015387175
236	0xbcf231ca	-0.029564757
237	0x3d04304c	0.032272622
238	0x3c83ceaf	0.016089765
239	0xbd1c3df0	-0.038145006
240	0x3c5b67b8	0.013391428
241	0xbd347034	-0.044052318
242	0x3c71ed58	0.01476606
243	0xba85d9c7	-0.0010211997
244	0x3d1bcbce	0.03803616
245	0x3c759449	0.014988967
246	0xbcc3869c	-0.023867898
247	0xbcb7984a	-0.022411484
248	0xbd162647	-0.036657598
249	0x3a181919	0.00058020797
250	0xbc49a5aa	-0.012307564
251	0x3ce48b4d	0.027898455
252	0x3c607172	0.0136989225
253	0x3c348aba	0.011019403
254	0x3c9e0391	0.01928881
255	0x3d03866f	0.032110628

module.conv4.bias f4 [128]
0	0xbc3368ac	-0.010950249
1	0xbd51c265	-0.05121078
2	0x3cf549e2	0.029942457
3	0x3c8e91f6	0.017403584
4	0xbb55a7c7	-0.0032601224
5	0x3d64bdd6	0.055845104
6	0x3d41f437	0.047352042
7	0xbca1f98e	-0.019772317
8	0xbb224fb2	-0.002476674
9	0xbbbef31c	-0.0058273207
10	0x3c22296c	0.009897571
11	0x3d425709	0.047446284
12	0x3d3a2905	0.045449276
13	0x3d3c9f58	0.0460504
14	0xbc911374	-0.017709471
15	0xbd5098ab	-0.050926846
16	0xbcc7537b	-0.024331799
17	0xbc741af4	-0.014899004
18	0x3c8cb0f7	0.017174227
19	0x3cef9039	0.029243575
20	0xbd4eee9a	-0.050520517
21	0xbcf156b1	-0.029460283
22	0x3c1874ee	0.009305222
23	0xbbeb233d	-0.0071758316
24	0x3ccc5a45	0.024945388
25	0xbd18ce0b	-0.037305873
26	0xbc31c2dc	-0.010849681
27	0xbd25a83a	-0.040443636
28	0xbcff5c4b	-0.031171938
29	0xbca5a0fa	-0.020218361
30	0x3cc6ea43	0.024281627
31	0x3d102bd1	0.035198037
32	0x3d16c47d	0.03680848
33	0xbb81f637	-0.0039661187
34	0xbbeaeb44	-0.007169159
35	0xbc8eb5a0	-0.01742059
36	0x3d386b37	0.045024123
37	0xbd55764f	-0.05211478
38	0xbcba2f85	-0.022727737
39	0xbcb5b62b	-0.022181591
40	0x3d062243	0.03274752
41	0x3cff791e	0.031185683
42	0xbcefda29	-0.029278832
43	0xbb9325e5	-0.0044906014
44	0x3d280bdd	0.04102694
45	0xbc854fec	-0.016273461
46	0x3a99c019	0.0011730223
47	0xbbd316e0	-0.006441936
48	0x3c36cb8a	0.011156926
49	0xbcaec920	-0.021336138
50	0x3bdcef7a	0.006742415
51	0x3d033ade	0.032038562
52	0x3c304f9d	0.010761169
53	0x3d410cce	0.047131352
54	0xbd60c889	-0.054878745
55	0x3d4bb905	0.049736995
56	0x3c0fd11a	0.008777881
57	0xbd212689	-0.03934339
58	0xbd03c699	-0.03217182
59	0xbcdc0762	-0.02685899
60	0xbc93db9a	-0.01804905
61	0xbd276ae4	-0.040873423
62	0x3b5e9206	0.0033961548
63	0x3d333d3b	0.043759566
64	0x3c4e2b8c	0.012583625
65	0x3d389d5d	0.04507195
66	0x3d422c65	0.04740562
67	0x3d28894d	0.041146565
68	0x3c9d6c35	0.019216636
69	0x3d1a86e3	0.037726294
70	0x399b3117	0.0002960048
71	0xbd48c453	-0.049015354
72	0xbd6481f1	-0.055787984
73	0xbd0eb295	-0.034838278
74	0x3d39f451	0.045399014
75	0xba80f7d8	-0.0009839488
76	0x3cfe5296	0.03104524
77	0x3c614276	0.013748756
78	0xbd036e6a	-0.03208772
79	0xbcf1f128	-0.029533938
80	0x3c55b5a8	0.0130437985
81	0xbca83bd5	-0.020536343
82	0x3d0c7504	0.034291282
83	0xbc935a3d	-0.017987365
84	0xbb999d8c	-0.0046879705
85	0xbc25a9f2	-0.010111319
86	0xbd0bfca8	-0.0341765
87	0x3aceabba	0.0015767731
88	0x3d3761e5	0.044771094
89	0x3cc46395	0.023973266
90	0xbcae99bb	-0.021313539
91	0x3d4eb07f	0.05046129
92	0xbc89ea24	-0.01683528
93	0xbcceba65	-0.025235364
94	0x3d1f7362	0.038928397
95	0x3d2c5105	0.042069454
96	0xbd2c4dd2	-0.042066403
97	0x3d2e5064	0.042557135
98	0x3c050493	0.008118766
99	0xbcd4b851	-0.025966795
100	0xbd11d528	-0.035603672
101	0xbc2f6d44	-0.010707203
102	0x3d2e8bc5	0.042613763
103	0xbcb9a4fa	-0.022661675
104	0xbc15151f	-0.009099274
105	0xbd54ac3f	-0.05192208
106	0xbd1b2431	-0.03787631
107	0xbbe0008a	-0.0068360018
108	0xbcc5c98c	-0.024143957
109	0x3d06e5f2	0.032934137
110	0xbc50ebd1	-0.0127515355
111	0xbd5bf72d	-0.053702522
112	0xbd7e91a9	-0.06215063
113	0x398b7513	0.00026599373
114	0xbccac23d	-0.024750823
115	0x3d41c706	0.047308944
116	0x3d658174	0.05603166
117	0xbd52be6f	-0.051451143
118	0x3d28e018	0.041229337
119	0x3a9df54b	0.0012051252
120	0x3d49207b	0.04910324
121	0xbcdf2bbf	-0.02724254
122	0x3d32e4d8	0.043675274
123	0xbd37954e	-0.044820122
124	0xbca34430	-0.019929975
125	0xbd4efed3	-0.050535988
126	0x3c7a7dc5	0.015288775
127	0x3a2f0aae	0.00066773116

module.conv1T.weight f4 [128, 64, 3, 3]
0	0x3dda72b1	0.10666407
1	0x3c0dddea	0.0086588655
2	0xbe20cc16	-0.15702853
3	0xbc8c7302	-0.017144684
4	0xbddd0b43	-0.107931636
5	0xbbaa5d45	-0.005199107
6	0x3d40ffbc	0.047118887
7	0x3c1aef4f	0.00945647
8	0x3dc8348b	0.09775647
9	0x3d842df8	0.0645408
10	0xbd2d2426	-0.042270802
11	0xbd96d645	-0.073650874
12	0x3d9a61b3	0.07538166
13	0xbcabc118	-0.020966098
14	0x3d8798fa	0.06620975
15	0x3d3e0d4b	0.046399396
16	0x3de82382	0.113348976
17	0x3dd23d2b	0.10265573
18	0x3d8032a0	0.06259656
19	0xbd523ab4	-0.051325515
20	0xbb93d078	-0.0045109354
21	0x3c2bf6b1	0.0104958275
22	0xbd1198d7	-0.03554615
23	0x3bcdc0f0	0.0062791035
24	0x3db92e80	0.09042072
25	0x3e0f020c	0.13965625
26	0x3da1ad62	0.07894398
27	0x3cd26595	0.025683204
28	0xbd3697d7	-0.0445784
29	0x3a5acfc5	0.0008347
30	0xbba27a51	-0.004958429
31	0xbc7280a7	-0.014801181
32	0x3d43e9d4	0.047830418
33	0x3d96a36e	0.073553905
34	0x3d8e032a	0.06934197
35	0x3d8bc030	0.06823766
36	0x3e0826c9	0.13296045
37	0x3e26de72	0.16295794
38	0xbe3bb419	-0.1833042
39	0xbc8263af	-0.015916673
40	0xbdf7a209	-0.12091453
41	0xbdeb327c	-0.114842385
42	0x3d0a99ab	0.033837955
43	0x3dec3eda	0.115354255
44	0x3da846f5	0.08216659
45	0x3d6e01c7	0.058107164
46	0xbd55f076	-0.052231275
47	0xbd80d256	-0.062901184
48	0x3d212dce	0.039350323
49	0xbd008de2	-0.03138531
50	0x3e1e0d7e	0.15434834
51	0x3debc903	0.11512949
52	0x3d9d1e60	0.07671809
53	0x3dbb240a	0.09137733
54	0x3dfc4566	0.12317924
55	0xbd004ec3	-0.031325113
56	0xbe222c51	-0.15837218
57	0xbc194de6	-0.009356951
58	0xbde427ab	-0.111403786
59	0x3d8b90c9	0.06814725
60	0x3d1c26cf	0.03812295
61	0x3db6ddc9	0.08929021
62	0x3deee902	0.116655365
63	0x3ddf4dbf	0.10903501
64	0x3da957ba	0.08268686
65	0x3d401966	0.04689922
66	0x3e110d4e	0.14165232
67	0x3d10020e	0.03515821
68	0x3afaadc5	0.0019125274
69	0x3e00e0a0	0.12585688
70	0xbbb96f3f	-0.0056590135
71	0x3d90ee49	0.07076699
72	0x3d8dfb70	0.069327235
73	0x3c655682	0.013997676
74	0xbdc262cb	-0.094914995
75	0x3cd8440b	0.026399633
76	0xbd5fa05e	-0.054596297
77	0x3ddba473	0.107247256
78	0x3e033032	0.12811354
79	0x3d21b999	0.03948364
80	0x3da9eddb	0.082973205
81	0x3d20b793	0.03923757
82	0xbcdbf6ec	-0.02685114
83	0x3cdfb91b	0.027309945
84	0xbcec5dd3	-0.028853333
85	0x3d5840f3	0.052796315
86	0x3de8f0da	0.11374064
87	0x3e099b59	0.13438167
88	0x3e218088	0.15771687
89	0x3dc16fb0	0.09445131
90	0x3d9a148d	0.07523451
91	0xbc13915e	-0.009006826
92	0xbd310312	-0.04321582
93	0x3cb38294	0.02191285
94	0xbb67dbe5	-0.003537887
95	0x3e3c821e	0.18409011
96	0x3dd112cc	0.10208663
97	0x3dc59bc4	0.096488506
98	0x3e321df9	0.17394246
99	0x3de6f736	0.112776205
100	0xbdbdf77f	-0.09275722
101	0xbe1249f1	-0.14286019
102	0xbc2dc0da	-0.010605061
103	0xbdd03e4b	-0.101681314
104	0x3d7ac752	0.061225243
105	0x3d4fd8b6	0.05074378
106	0x3e01fa83	0.12693219
107	0x3d95a28d	0.07306395
108	0x3cf16a06	0.029469501
109	0xbda6276f	-0.0811299
110	0xbdb5c29e	-0.08875011
111	0xbbb19b1d	-0.0054201023
112	0xbd6e5caf	-0.05819386
113	0x3e0d958a	0.13826576
114	0x3dac5bdb	0.084159575
115	0x3de15a47	0.11003547
116	0x3e0ffeaf	0.14061998
117	0x3de7f3e6	0.11325817
118	0x3b1225d7	0.0022300386
119	0xbc529f13	-0.012855309
120	0x3daba1c2	0.08380462
121	0xbdcbff19	-0.099607654
122	0x3d55df66	0.052215002
123	0x3de256ea	0.11051734
124	0x3d69ad97	0.057050314
125	0x3d9c2d77	0.07625859
126	0x3db3639f	0.087592356
127	0x3d1ef499	0.038807485
128	0xbd9ed63b	-0.07755705
129	0x3da83cc1	0.08214713
130	0xbd2ed3fe	-0.04268264
131	0x3d45a6e1	0.04825485
132	0x3cedd545	0.029032359
133	0x3cdb73dd	0.026788646
134	0x3de137eb	0.10996994
135	0x3d2adc1c	0.04171382
136	0xbcec61cb	-0.028855225
137	0xbd2a422b	-0.04156701
138	0xbcb7eb5c	-0.022451095
139	0xbd0b4e02	-0.03400994
140	0x3de4ce42	0.11172153
141	0x3d61187f	0.054955002
142	0x3daec412	0.08533491
143	0x3dca8768	0.09889108
144	0x3e044dd8	0.1292032
145	0x3b92cdcd	0.0044801
146	0xbdb14ae1	-0.0865686
147	0xbd7071cd	-0.05870228
148	0xbdd8ee43	-0.1059232
149	0x3e13aea4	0.14422089
150	0x3ce6a9a2	0.02815706
151	0x3db07dc7	0.0861774
152	0x3e1abe63	0.1511169
153	0x3d899a70	0.0671891
154	0xbd2a9125	-0.041642327
155	0xbcd866aa	-0.026416142
156	0x3cc21c4a	0.02369513
157	0x3b93cfef	0.0045108716
158	0x3d876abf	0.06612157
159	0x3d34abde	0.044109218
160	0x3d7208fd	0.059090603
161	0x3ddfade7	0.10921841
162	0x3d955983	0.07292464
163	0x3d983c84	0.074334174
164	0x3de8e794	0.11372295
165	0x3cccf823	0.025020665
166	0x3cca8a52	0.02472416
167	0x3d9192bb	0.07108065
168	0x3dc4a2a7	0.09601336
169	0x3dec7369	0.1154545
170	0x3dc0d175	0.09414951
171	0x3d57c32f	0.052676376
172	0xbcc2d3ad	-0.023782576
173	0xbd0a5107	-0.03376868
174	0x3dc59105	0.09646801
175	0xbd79aee9	-0.060957823
176	0x3cc8cffc	0.024513237
177	0x3e04a2c8	0.12952721
178	0x3d470f69	0.04859868
179	0x3df6c24d	0.12048779
180	0x3d25974b	0.040427487
181	0xbd558c06	-0.05213549
182	0xbde9f08b	-0.11422833
183	0x3cb84bb3	0.022497034
184	0xbd86f91c	-0.065904826
185	0x3d934307	0.07190519
186	0x3dce5322	0.1007445
187	0x3dae51c0	0.08511686
188	0x3d81eeef	0.06344401
189	0x3d0d3d2f	0.034482177
190	0xbdebb329	-0.115087815
191	0xbe06fde2	-0.13182786
192	0xbc6b143e	-0.014348088
193	0xbc9a290c	-0.0188184
194	0x3d88f219	0.066868015
195	0x3cb66c4e	0.02226844
196	0x3d6040c7	0.054749276
197	0x3da1e61e	0.079052195
198	0x3de37619	0.1110651
199	0xbced8317	-0.028993173
200	0xbd9e134e	-0.07718526
201	0xbda018c4	-0.07817224
202	0xbdcdad50	-0.10042822
203	0xbcc08e13	-0.023505246
204	0xbc65ef5a	-0.014034117
205	0x3e00166d	0.12508555
206	0x3db0d9c5	0.08635286
207	0x3df4afc7	0.11947589
208	0xbcc8c0be	-0.02450597
209	0xbcfc41d1	-0.030793102
210	0x3d532747	0.05155113
211	0x3c98be05	0.018645296
212	0x3cd3a7de	0.025836881
213	0x3de6185b	0.11235114
214	0x3dea168b	0.11430081
215	0x3da5928e	0.08084594
216	0x3c5f207b	0.013618584
217	0x3c94ad3d	0.018149013
218	0x3b3dcc7e	0.0028960998
219	0x3d73c576	0.059514485
220	0x3da12d5a	0.07869978
221	0x3e1f0a75	0.15531333
222	0x3e04b6bf	0.12960337
223	0x3cc9d7a5	0.02463896
224	0x3e077ff7	0.13232408
225	0x3dde8e59	0.108669944
226	0x3bc04a1f	0.005868211
227	0xbd0056d2	-0.0313328
228	0xbd419b7a	-0.047267415
229	0xbdae89ee	-0.08522402
230	0x3b0c4c39	0.0021407737
231	0x3d33f847	0.043937948
232	0x3d9e6e0b	0.07735833
233	0x3e2a9831	0.16659619
234	0x3d87ff83	0.06640532
235	0xbd547c20	-0.051876187
236	0xbd48c67d	-0.04901742
237	0x3d800c48	0.062523425
238	0xbddaf55a	-0.10691328
239	0x3d9afe80	0.07568073
240	0x3d554b78	0.052073926
241	0x3e132e39	0.14373101
242	0x3e2eeac2	0.1708174
243	0x3dcc245f	0.09967875
244	0xba94036f	-0.0011292527
245	0xbdcda21e	-0.10040687
246	0xbb067ae0	-0.0020520017
247	0xbd825b20	-0.06365037
248	0xbd5245b7	-0.051336017
249	0xbc0b1114	-0.008487958
250	0x3dd739bf	0.10509061
251	0x3dae9fcf	0.08526575
252	0xbe55df7e	-0.20886037
253	0x3bf8bc65	0.0075908178
254	0x3db1b8bc	0.086778134
255	0xbcd8861a	-0.026431132

module.conv1T.bias f4 [64]
0	0xbd85a3cc	-0.065253824
1	0xbd0f47cf	-0.03498059
2	0x3d14052e	0.036137752
3	0xbd062dfa	-0.03275869
4	0x3d934687	0.071911864
5	0xbc9f09d4	-0.019413866
6	0xbd85e065	-0.065369405
7	0x3c9d6394	0.019212522
8	0xb7d2838f	-2.5095213e-05
9	0xbc9d2671	-0.01918337
10	0xbcbf9b41	-0.02338946
11	0xbd2fbbb5	-0.04290362
12	0x3c9b70c4	0.01897467
13	0xbd500176	-0.050782643
14	0xbcd76d4c	-0.026297234
15	0xbd52c7fb	-0.051460247
16	0xbd995e02	-0.07488634
17	0x3cf15713	0.029460466
18	0x3c13e0b8	0.009025745
19	0xbceb098c	-0.028691076
20	0xbda9c2d0	-0.08289111
21	0xbac819d0	-0.0015266482
22	0x3bc7d7c9	0.0060987216
23	0x3d53df6b	0.05172674
24	0xbdb97a8e	-0.090565786
25	0xbca36707	-0.019946588
26	0xbd0e8eb6	-0.03480407
27	0xbcc3dcd8	-0.023909017
28	0x3d92db52	0.07170738
29	0xbb8c039e	-0.004272892
30	0xbd6dc27a	-0.058046795
31	0xba9c0af7	-0.0011905123
32	0xbc8ae757	-0.016956015
33	0xbdca0e63	-0.09866025
34	0x3cf9838a	0.03045823
35	0xbd252ad5	-0.04032405
36	0x3cb75465	0.02237911
37	0xbc9f93c9	-0.01947965
38	0xbd63aed2	-0.055586644
39	0xbd8e0d4f	-0.06936132
40	0x3c029203	0.007969382
41	0xbd60e5c6	-0.05490663
42	0xba3ba67b	-0.00071582914
43	0xbda39150	-0.079867005
44	0x3bdc7c75	0.0067287036
45	0x3c8e4e26	0.017371248
46	0xbd931069	-0.07180864
47	0xbd329039	-0.043594573
48	0xbd0931d9	-0.033494804
49	0xbc7422d3	-0.014900881
50	0xbd3c8910	-0.04602915
51	0x3c74fbb8	0.014952593
52	0xbd134bad	-0.035960842
53	0x3d21c53f	0.03949475
54	0x3d9fc020	0.07800317
55	0xbce6e98e	-0.02818754
56	0xbbda26d3	-0.0066574602
57	0xbda1d5e1	-0.07902122
58	0x3bfc7533	0.007704401
59	0xbc714d74	-0.014727939
60	0xbd7f8b6f	-0.062388834
61	0xbd44cf91	-0.048049513
62	0xbd0beb09	-0.034159694
63	0xbd020910	-0.031746924

module.conv2T.weight f4 [64, 32, 3, 3]
0	0x3db9c26f	0.090702884
1	0x3e0c8f46	0.1372653
2	0x3d996cc2	0.07491447
3	0x3dcc0099	0.099610515
4	0x3e459f57	0.19299065
5	0x3e58e869	0.21182407
6	0x3dfa155f	0.122111075
7	0x3df46a68	0.11934358
8	0x3e2ed8d4	0.17074901
9	0x3e8367bf	0.2566509
10	0xbd8270f1	-0.06369198
11	0x3b0c2739	0.0021385683
12	0x3d2d6e65	0.04234161
13	0xbd91197f	-0.07084941
14	0x3c85c62d	0.01632985
15	0x3e0efa86	0.13962755
16	0x3d4719ac	0.048608467
17	0x3dde7d54	0.10863748
18	0xbdf49e93	-0.11944308
19	0x3de06dc2	0.10958435
20	0x3da064ec	0.07831749
21	0x3df3f659	0.119122215
22	0x3e0ca60e	0.1373522
23	0x3cc7d36b	0.024392804
24	0x3dbcc80f	0.09217846
25	0x3e29a7fc	0.16567987
26	0x3c5d5ae9	0.013510444
27	0x3c1b806b	0.009491066
28	0x3e5a51d9	0.21320285
29	0x3e3fb9e9	0.18723263
30	0x3e2cc7db	0.16873114
31	0x3e0a34c2	0.13496688
32	0x3db73cda	0.089471534
33	0x3db368e4	0.08760241
34	0x3e19df60	0.15026617
35	0x3e081ab2	0.13291433
36	0x3da0342d	0.07822452
37	0x3dd5e189	0.10443408
38	0x3e2a42b0	0.16627002
39	0x3cd891ce	0.026436713
40	0x3d8220e3	0.06353929
41	0x3d8a5f37	0.06756442
42	0x3def8432	0.11695136
43	0x3d764db0	0.060132682
44	0x3e055d85	0.13023956
45	0x3de7cbc8	0.11318165
46	0x3d8e2541	0.06940699
47	0x3e231262	0.15924981
48	0x3d1d7e40	0.03845048
49	0x3dce6fa6	0.10079889
50	0x3e732c80	0.23747444
51	0x3e0687a5	0.13137682
52	0x3d8ca171	0.0686673
53	0x3d739670	0.05946964
54	0xbb60b2a3	-0.0034286163
55	0x3e271492	0.1631644
56	0x3dd86c27	0.105675034
57	0x3e23aabd	0.159831
58	0x3e11a921	0.14224674
59	0x3df6519c	0.120272845
60	0x3e17ae96	0.14812693
61	0x3b5f3e6e	0.003406431
62	0xbc9d6f4e	-0.019218113
63	0x3dc67571	0.09690369
64	0x3cc2341d	0.02370649
65	0x3c521434	0.0128222
66	0x3ddb0918	0.10695094
67	0x3e46fc9e	0.19432303
68	0x3d9a4a79	0.07533736
69	0x3e246ed7	0.16057907
70	0xbc5f6c88	-0.013636716
71	0x3e2ef893	0.17087011
72	0xbd905efd	-0.070493676
73	0xbdead7da	-0.11466952
74	0xbd061fc0	-0.032745123
75	0x3e31bc35	0.17356952
76	0xbe050e7c	-0.12993807
77	0xbdd687ce	-0.104751214
78	0x3e2d0929	0.16898026
79	0xbb3f0eb2	-0.0029153046
80	0xbdc9b3f2	-0.09848775
81	0x3e644845	0.22293194
82	0x3dc64f79	0.09683127
83	0xbb0e7872	-0.0021739271
84	0x3e089507	0.133381
85	0x3dc9c2e8	0.098516285
86	0x3ce407e0	0.027835786
87	0x3d81eca5	0.063439645
88	0x3e03300c	0.12811297
89	0x3e0415a7	0.12898885
90	0xbe245dce	-0.16051409
91	0x3e11976c	0.14217919
92	0x3e24aa4e	0.16080591
93	0x3db6dcbf	0.08928823
94	0x3d8cc720	0.068739176
95	0x3dc6a755	0.09699885
96	0x3db4b52b	0.088236175
97	0x3df8be98	0.12145728
98	0x3ddec17b	0.10876747
99	0xbdf8a11d	-0.12140105
100	0x3e0ca27f	0.13733862
101	0x3dc7400d	0.097290136
102	0x3dadf09f	0.084931605
103	0x3e496627	0.19667874
104	0x3e0739c3	0.13205628
105	0x3df35d2d	0.11883006
106	0x3e0a67fd	0.13516231
107	0xbc44a651	-0.012002544
108	0x3e12b09a	0.1432518
109	0x3dcdd2fc	0.10050008
110	0x3e58f464	0.21186978
111	0x3d999332	0.074987784
112	0x3d3a0c8a	0.045422114
113	0x3dd1b24a	0.10239084
114	0x3d71f67e	0.059072964
115	0x3e4d6013	0.2005618
116	0x3db08649	0.08619363
117	0xbe23d2e6	-0.1599842
118	0x3e0f9ead	0.14025374
119	0x3db77b45	0.08959059
120	0x3e1c407c	0.15258974
121	0x3c65cfe8	0.0140266195
122	0x3e4244e7	0.18971597
123	0x3c4e31b6	0.012585094
124	0x3d64b9ac	0.055841133
125	0x3e16bdc6	0.1472083
126	0x3d2c4a7d	0.042063225
127	0x3de843cd	0.11341057
128	0x3da093da	0.078407004
129	0x3df7ab32	0.120932
130	0x3dc8996c	0.09794888
131	0x3e16cf0c	0.1472742
132	0x3da5efca	0.08102377
133	0x3d9656be	0.073407635
134	0x3e1ee050	0.15515256
135	0x3d4a8cd1	0.0494507
136	0x3e12a836	0.1432198
137	0x3db106c3	0.08643868
138	0x3df3abfa	0.11898036
139	0x3e0ba8b6	0.13638577
140	0x3de8a06f	0.11358725
141	0x3e008495	0.12550576
142	0x3dccfc75	0.1000909
143	0x3e39afe2	0.181335
144	0x3e1ddcf0	0.15416312
145	0x3e0d6ccf	0.13811038
146	0x3bcc3d69	0.0062329066
147	0x3e1a2151	0.15051772
148	0x3e285f11	0.16442515
149	0x3cb6b537	0.022303207
150	0x3e4a3f87	0.19750796
151	0x3dbdaaef	0.092611186
152	0x3e026d83	0.12737088
153	0x3e22ea15	0.15909608
154	0x3dba08f2	0.090837374
155	0x3e1dfd0f	0.15428565
156	0x3d776155	0.060395557
157	0x3e117874	0.14206105
158	0x3e18a0ab	0.1490504
159	0x3dc8e410	0.098091245
160	0x3d226574	0.039647534
161	0x3cd6181a	0.02613454
162	0x3dd324c6	0.10309748
163	0x3e219c59	0.15782298
164	0x3e1b0fc9	0.1514274
165	0x3d40f901	0.04711247
166	0x3e2303a0	0.15919352
167	0x3e4c99c5	0.19980533
168	0x3d7b017d	0.061280716
169	0x3e12b385	0.14326294
170	0x3e15d740	0.14632893
171	0x3d9e1284	0.07718375
172	0x3d7e9498	0.06215343
173	0x3e24c69c	0.16091388
174	0x3d81391a	0.063097194
175	0x3dc8fd61	0.09813953
176	0x3de2364e	0.11045514
177	0x3c3678d1	0.011137203
178	0x3d9a9d2c	0.075495094
179	0x3df25179	0.11831946
180	0x3d9513bf	0.07279157
181	0x3df9353e	0.12168358
182	0x3e413c2f	0.18870614
183	0x3ddb8419	0.10718555
184	0x3de248d3	0.11049046
185	0x3d9c1a2f	0.076221816
186	0x3db07552	0.08616127
187	0x3e432c5e	0.19059893
188	0xbcd6d68d	-0.026225353
189	0x3c410f1f	0.01178339
190	0x3e03e858	0.12881601
191	0x3ccb44bf	0.024813054
192	0x3d5ac2b8	0.053408355
193	0x3da9f1cc	0.08298072
194	0x3d8ad94a	0.06779726
195	0x3d303fcf	0.043029603
196	0x3ddf720a	0.10910423
197	0x3d26d508	0.040730506
198	0xbd15a10e	-0.036530547
199	0x3df71453	0.120644234
200	0x3d85690c	0.06514177
201	0x3c59e56b	0.013299326
202	0x3d8a94a8	0.06766635
203	0x3dd3b9f1	0.103382
204	0x3da28fbd	0.07937572
205	0x3dd1978c	0.102339834
206	0xbd48c3af	-0.049014743
207	0x3e281d77	0.1641749
208	0x3e1eea40	0.15519047
209	0x3d1f5313	0.038897585
210	0xbddb7ea2	-0.10717513
211	0x3e30ab90	0.17252946
212	0x3e42b209	0.19013228
213	0x3da0ba57	0.078480415
214	0x3bf60150	0.0075074807
215	0x3dd5eddc	0.10445759
216	0x3d2dae45	0.042402525
217	0x3dfb0f8a	0.12258823
218	0x3dd7f456	0.1054465
219	0x3cf8f5ef	0.030390708
220	0x3df6a33f	0.120428555
221	0x3e3c09b8	0.18363082
222	0x3cd78768	0.026309684
223	0x3dca9580	0.09891796
224	0x3e1d01e3	0.15332751
225	0x3d82340c	0.063575834
226	0x3e2f2d30	0.17107081
227	0x3d8b6466	0.06806259
228	0x3df16f8d	0.11788855
229	0x3decd505	0.11564068
230	0x3dd37d60	0.10326648
231	0x3e02be63	0.1276794
232	0x3daa10e6	0.08304004
233	0x3d9eba9f	0.07750439
234	0x3d98d07b	0.074616395
235	0x3ddb8450	0.10718596
236	0x3e15de24	0.14635521
237	0x3c0d0fb7	0.008609704
238	0x3e10bfd8	0.14135683
239	0x3dac2cc9	0.084069796
240	0x3db9a135	0.09063951
241	0x3d8407c5	0.064467944
242	0x3e0a7814	0.13522369
243	0x3e6f3b9a	0.2336258
244	0x3dc28687	0.09498315
245	0x3dea5a71	0.114430316
246	0x3dad11d8	0.08450669
247	0x3e3cdb8b	0.18443124
248	0x3e0e1a86	0.13877305
249	0x3c71af8c	0.014751326
250	0x3db82eb5	0.08993284
251	0x3d6f2530	0.058385074
252	0x3dc80916	0.09767358
253	0x3dad988e	0.08476363
254	0x3e2f0622	0.17092183
255	0x3d837a2b	0.06419786

module.conv2T.bias f4 [32]
0	0xbdc02051	-0.09381164
1	0x3d560b63	0.052256953
2	0x3bdeda47	0.006800923
3	0xbd9d79ac	-0.07689223
4	0x3d3d2d7d	0.04618596
5	0xbd3e182b	-0.046409767
6	0xbd2a7972	-0.041619726
7	0xbdb08c10	-0.08620465
8	0x3ddf8366	0.10913734
9	0xbd5bcefa	-0.053664185
10	0x3c67166b	0.014104466
11	0xbd2aceee	-0.04170125
12	0x3bb17666	0.0054157255
13	0xbd9025c2	-0.07038452
14	0x3c89571b	0.016765168
15	0xbc1ece1b	-0.009692694
16	0x3d1dd60f	0.03853422
17	0xbd1da4bc	-0.03848718
18	0xbdf81181	-0.121127136
19	0xbd843b58	-0.064566314
20	0xbcfa1c02	-0.030530933
21	0xbd9d04c8	-0.076669276
22	0x3cc7de7b	0.02439808
23	0xbd158604	-0.03650476
24	0x3d6b06b9	0.057379458
25	0x3c7b83db	0.015351261
26	0x3b368c2c	0.0027854545
27	0x3c0ce3d3	0.008599239
28	0xbc36dde4	-0.011161301
29	0xbde4a9e5	-0.11165217
30	0xbd1c7506	-0.03819754
31	0xbbf73723	-0.0075444146
