theta_run_birds/exp_dim2/conv_autoencoder.pth (torch, 833705 bytes, 19 tensors)

conv1.weight f4 [16, 1, 3, 3]
000000 1f 1b f1 3b 99 b5 77 bd 0e b4 c0 3c 43 94 31 be
       0.0073579694 -0.06047592 0.023523357 -0.17341714
000010 3a 6f 0b 3e bb 19 65 3e d3 23 0f 3e 5f d9 34 3e
       0.13616648 0.22373097 0.1397851 0.17661045
000020 b7 0d 98 be 64 66 19 3e f1 09 a0 be c8 4f 1c 3e
       -0.29697964 0.14980465 -0.31257585 0.15264809
000030 8a 25 a9 bc b4 80 0e 3d 53 e0 46 be 1e c5 19 be
       -0.020647783 0.03479071 -0.1942151 -0.150166
000040 49 03 a7 bd 6c 31 e0 bd 32 9e 28 3c b2 bb 40 bd
       -0.081549235 -0.109469265 0.010291623 -0.047054
000050 98 b1 27 3e 6f 83 0e bd 7a 29 4e 3e 9a 3b 37 be
       0.1637634 -0.034793314 0.2013301 -0.1789383
000060 2d 71 d0 3c ad 2a 2e 3e db 7e 69 bd 50 2e 84 be
       0.025444591 0.17008467 -0.057005744 -0.25816584
000070 f3 f7 ad be dc b5 1d be 35 b4 76 3e 8a af 85 be
       -0.33978233 -0.15401405 0.24092181 -0.26110488
000080 6b 4f 61 3e 47 13 48 3e cf be 22 be d4 d6 56 be
       0.22002952 0.19538604 -0.158931 -0.20980388
000090 47 ba f4 3d c6 16 33 be 07 82 70 3e c2 9c 51 3e
       0.11949592 -0.17489156 0.23487101 0.20469955
0000a0 45 82 c3 bd da e3 57 be df 86 9b be 71 89 db 3d
       -0.09546331 -0.21083012 -0.30376336 0.10719574
0000b0 37 57 84 bc 6f 35 84 be 9f 17 45 3e e6 db 74 3e
       -0.016154869 -0.25822017 0.19247292 0.2391201
0000c0 ab 08 1b be 17 0d 49 be 89 31 3a bd 13 aa 54 bd
       -0.15140025 -0.196339 -0.045457397 -0.051920008
0000d0 20 ec 3b 3e cb 6b 31 3e 92 9f 74 bd 19 6d 7a be
       0.18351793 0.17326276 -0.05972249 -0.2445568
0000e0 6c 37 3d 3e 67 b4 8e be f5 47 1b be cf c2 33 bc
       0.18478173 -0.2787201 -0.15164168 -0.010971739
0000f0 08 5c 76 3e 7d 81 93 bd a7 ab 85 be 54 c0 12 be
       0.24058545 -0.07202432 -0.26107523 -0.1433118
000100 e6 59 0b bd cf c8 0d 3e 2b 6b 8a be 80 03 58 be
       -0.03402128 0.13846134 -0.27034888 -0.21095085
000110 bd 25 c4 3b 6c c5 9d be b5 6b 38 3e af 5b 3d 3e
       0.005985944 -0.30814683 0.18009837 0.18492006
000120 34 9c b5 3d 9b 64 cf bd 01 6b 12 3e ff d8 c3 3d
       0.08867684 -0.10126611 0.14298631 0.09562873
000130 18 b7 3f be 4a d1 72 3d d1 92 1c 3e f9 fb 9c be
       -0.18722188 0.059281625 0.15290381 -0.3066099
000140 e0 ae 15 3d 1f d8 79 be 11 eb 9e be f7 e1 38 3e
       0.036543727 -0.2439885 -0.31038716 0.18054949
000150 b2 77 32 3e 9f 7f e2 bd 74 8b 22 3e 04 67 cd 3b
       0.17428473 -0.11059498 0.1587351 0.006268384
000160 99 e4 db bd a5 57 cd 3c e6 f3 02 3e 51 1a 43 3e
       -0.10736961 0.025066206 0.12788352 0.19053008
000170 a8 47 85 3d 65 50 07 be c4 92 8b be f6 45 78 3e
       0.06507808 -0.13214262 -0.2726041 0.24245438
000180 42 8d 11 3e 39 af fb bb 20 bd 61 be 9f 24 3e 3e
       0.14214042 -0.0076808003 -0.22044802 0.18568657
000190 61 29 01 be 16 d1 a4 be a2 eb 7e be 95 69 0b 3e
       -0.12613441 -0.3219077 -0.24894574 0.13614495
0001a0 3e 6f a0 be 3f 49 54 3e c6 32 5c 3e 65 ed ea 3d
       -0.3133487 0.20731066 0.21503744 0.11471061
0001b0 57 86 5b 3e 9b 9d 18 3d e9 ab 05 be 64 e1 9a be
       0.21437965 0.03725968 -0.1305386 -0.30250084
0001c0 82 44 4c be 9e a2 a1 3d 76 f4 2e be 06 cb 19 bd
       -0.19948009 0.07892345 -0.17085442 -0.037547134
0001d0 ec 92 82 bd a8 50 e3 3c 2e 4a 18 be b4 85 40 be
       -0.063756794 0.02774842 -0.14872047 -0.18801004
0001e0 11 68 70 be 00 d1 53 3e 2d bd 25 3e 2b cd 21 3e
       -0.23477198 0.20685196 0.16185446 0.15800922
0001f0 ed 61 37 be 37 4f 8d bd 10 34 e2 3d ce 74 03 3e
       -0.1790845 -0.06899875 0.110450864 0.12837526
000200 50 13 25 3e 49 47 9f bd c5 57 f5 3d dc db 5d be
       0.16120648 -0.077772684 0.11979631 -0.21665901
000210 3b e3 fa bd 81 d9 86 be 76 8c 93 bd e0 fe 13 3d
       -0.12250372 -0.26337817 -0.07204525 0.03613174
000220 d3 fb 28 be 02 2e 3e be 2f 61 98 3e 30 99 80 be
       -0.16502313 -0.18572238 0.29761645 -0.25116873
000230 3a 7c a0 be 8d 54 15 be 1b 4c 02 3e e9 d5 85 be
       -0.31344777 -0.14583035 0.12724344 -0.26139763

conv1.bias f4 [16]
000000 7c 94 41 be 30 36 89 3e 28 72 90 3e d4 8e 98 be
       -0.18904299 0.26799154 0.28212094 -0.2979647
000010 22 b5 32 3e 59 90 b8 bd 3f b7 b4 3d 62 19 af 3d
       0.17451909 -0.09011907 0.08824014 0.08549763
000020 60 1f 94 bd 4a 9c a8 3d af 69 b9 be 1f b7 8a 3d
       -0.07232547 0.08232935 -0.36213443 0.06773209
000030 48 be 88 3e 4c cc 7c be a9 06 84 3e 29 d3 a6 3e
       0.26707673 -0.24687308 0.2578633 0.32582977

conv2.weight f4 [32, 16, 3, 3]
000000 fa 66 12 bd 0a de 3a 3d 70 31 92 bd 3a ff 57 bd
       -0.035742737 0.04562191 -0.07138336 -0.052733637
000010 59 31 5c 3d 60 b7 7a bb 0e e7 96 3d 08 dc 0a bd
       0.053758 -0.0038256273 0.07368289 -0.033901244
000020 6e d5 d8 bc 9b 41 61 3d ea 97 a6 3d b4 2f 56 3d
       -0.026468959 0.054994207 0.08134444 0.052291587
000030 2b 72 58 bd 12 0e f4 bd ca f5 48 bd 34 6b 36 bd
       -0.052843254 -0.11916746 -0.049062528 -0.04453583
000040 aa c9 10 3d 24 36 6c bd d8 bc d6 bb 2f eb f6 bc
       0.03534857 -0.05766882 -0.0065532736 -0.030141441
000050 5b 49 5e bb f3 48 02 3d 6d 11 71 bd 75 19 1e 3d
       -0.0033918235 0.03180785 -0.05885451 0.038598496
000060 9e c7 46 3c e9 20 0d 3d 59 80 ca bb 99 07 84 bd
       0.012132553 0.034455214 -0.006179851 -0.06446762
000070 cb 24 8d bd a2 b9 7b 3d 4a 42 a3 bc 18 d0 7a bd
       -0.06891783 0.06145633 -0.01992907 -0.06123361
000080 53 bc 00 bd 31 ee ba bd 58 3e c4 bd 54 5d 67 bd
       -0.0314296 -0.09127463 -0.095822036 -0.05648549
000090 6e 21 ad bb 0b a5 08 bd 35 7c 90 3d e7 de 39 3c
       -0.005283526 -0.033360522 0.070549406 0.011344648
0000a0 da db 92 bc 8c 31 33 3d 1e 59 4b bd 0b f9 b2 39
       -0.017927099 0.043748423 -0.049645536 0.00034136357
0000b0 8e 45 25 bd 29 b0 1e bd 42 09 c8 bb 1e 9e 0b bd
       -0.040349536 -0.03874222 -0.0061046192 -0.03408634
0000c0 eb 90 5a bc 3d cf 03 3d b3 44 9a bc ce 5a 23 bd
       -0.013340215 0.03218006 -0.018831586 -0.03988152
0000d0 0b c0 08 bd 65 78 44 bd f4 8c 82 bd be 3b 1c bd
       -0.03338627 -0.04796638 -0.06374541 -0.038142912
0000e0 ed 65 48 3d 9d 34 a6 bc 20 52 af 3d f3 50 4f ba
       0.04892533 -0.02028876 0.08560586 -0.0007908486
0000f0 de 1e c4 bd 7b a2 09 3d 53 8a 71 bd 08 46 8a 3d
       -0.095762 0.03360222 -0.058969807 0.06751639
000100 01 4b 06 bd d9 10 b0 bc 8a 2a b8 bc 5a 95 15 bd
       -0.032786373 -0.021492409 -0.022481222 -0.036519386
000110 66 bb 7b 3c 32 5f 63 3c 00 a8 04 3d e8 f3 43 bd
       0.0153645035 0.013877677 0.03238678 -0.04784003
000120 3f 0b 0e bd 31 3a 67 bc 36 f9 89 3d e9 e1 a2 bd
       -0.034678694 -0.014112995 0.06736986 -0.07953245
000130 15 6e 6b bd f8 07 6a ba f3 ea 7f bd 91 d9 1c 3d
       -0.05747803 -0.0008927579 -0.062479924 0.038293425
000140 97 83 03 3d 93 f0 f3 3c fc 22 89 3c 93 05 99 bd
       0.032107916 0.0297778 0.016740315 -0.07471766
000150 82 4d 18 3d 94 d7 0b bd 56 e6 73 3d cd 86 07 bd
       0.037183292 -0.03414114 0.059545837 -0.03308754
000160 88 8c 03 bc c4 27 c8 39 da 47 33 bd 3c f5 2b 3d
       -0.008029111 0.000381766 -0.043769695 0.04198192
000170 58 da 3e 3d 3a 7c d8 3c 2e d0 c3 bd bc b1 6c 3c
       0.046594948 0.026426423 -0.095611915 0.014446672
000180 b3 50 cc 3b 6c 99 5a bd 60 12 33 bb 1f e0 7c 3d
       0.006235206 -0.05336897 -0.0027324185 0.061737176
000190 96 c4 7e bd d8 23 c5 bd 04 f5 6b 3d 4a b2 72 3d
       -0.062199198 -0.09625977 0.057606712 0.05925206
0001a0 c3 4f 12 3d 5e dd 2e 3d cf 2a de bd ac f9 18 bc
       0.035720598 0.04269158 -0.10848009 -0.00933687
0001b0 33 b3 9c 3c 30 54 0e 3d 72 10 02 3d 6f 86 6f 3d
       0.019128418 0.034748256 0.031753965 0.058477815
0001c0 55 8b 70 bd 4e de 93 bd e6 20 fc bb 9f 77 ca bc
       -0.058726627 -0.07220136 -0.0076943515 -0.024715243
0001d0 4a 05 c9 bc 6c 28 97 3c 25 47 00 3d 54 53 99 bd
       -0.024538655 0.018451892 0.03131785 -0.07486597
0001e0 2d b8 cd bc 95 1b 19 bd 94 d3 0a 3d 4a d3 1a bb
       -0.025112236 -0.03737982 0.033893183 -0.0023624473
0001f0 ec 80 92 3b 7a f7 5a bd 61 bd 1e bc aa 72 04 bd
       0.004470935 -0.05345867 -0.009688706 -0.032335915
000200 8f 97 0d 3d 80 09 b1 bd 0a 40 0c be 3e 05 d6 bd
       0.034568366 -0.0864439 -0.13696304 -0.104502186
000210 d0 33 9c bd bb b1 c7 3c 56 8a 3a 3d 21 50 71 bd
       -0.0762707 0.02437674 0.045542084 -0.058914308
000220 4f aa 8b 3c 53 9f 50 3d c4 07 3f 3d 2e ac 0d 3d
       0.017048983 0.050933193 0.046638265 0.03458803
000230 17 e6 be 3b f4 62 9d bd 15 bc eb 39 84 bb 29 3d
       0.0058257687 -0.076848894 0.00044962825 0.041438594
000240 8d 2e d5 3c 0a 9f a5 bd b7 56 4f 3d 7c 0e 02 bd
       0.026023174 -0.08086975 0.050619807 -0.031752095
000250 3b 50 90 3d 8a ba 96 bc 6a 4a e7 3c 1b c4 75 bd
       0.07046553 -0.018399496 0.028233726 -0.060001474
000260 70 89 c3 3c bb 80 e0 bd 74 7a 18 be b9 69 91 bd
       0.023869246 -0.109620534 -0.14890462 -0.07100243
000270 22 9d 0b bd 3c d6 30 bc 37 94 a7 3c 63 2c da 3c
       -0.0340854 -0.010793265 0.020456417 0.026632493
000280 15 e0 bd 3c 25 c9 66 bd 37 34 66 bd df 18 5e bd
       0.02317814 -0.05634417 -0.05620214 -0.054222938
000290 24 ed bd bd 0d 54 52 bc 97 4a 0b 3d bf 1a 70 bd
       -0.092737466 -0.012837422 0.03400668 -0.058619257
0002a0 0e a3 9b bd fe 39 2f 3d 58 e6 22 bb 87 e7 be 3c
       -0.075994596 0.042779915 -0.0024856534 0.02330376
0002b0 1f d2 ff 3c d1 cd 0c 3c 19 f6 77 bd 51 57 82 bd
       0.031228123 0.008593992 -0.06053743 -0.063643105
0002c0 0c ab 9f 3d 60 f5 8e bd 8b d3 35 bb 3f 6a b2 bc
       0.077962965 -0.06980395 -0.0027744498 -0.021779178
0002d0 d6 91 6f bd 5b 10 f7 bd 02 c1 05 3d c3 10 ea bc
       -0.05848869 -0.120636664 0.03265477 -0.028572446
0002e0 10 aa 88 bd 09 d9 96 3c a5 27 de 3b 4a 9b 02 bc
       -0.06673062 0.018414037 0.0067796283 -0.007971594
0002f0 f5 11 52 3d db fa b5 bd e7 4e 15 bd f3 10 8d 3c
       0.051286656 -0.088857375 -0.0364522 0.017219996
000300 a5 b0 7e bc f1 39 8d 3d d3 d7 be bd 12 54 8d 3d
       -0.015545045 0.06895817 -0.09318509 0.06900801
000310 87 06 6a bd 05 63 a0 3c 1d 7b 5e 3d 08 82 aa bd
       -0.05713513 0.019578466 0.05431663 -0.08325583
000320 41 4f 12 3d 5b 4e aa 3b e8 b7 e2 b8 7b b5 d9 bd
       0.035720114 0.005197329 -0.00010810775 -0.10630318
000330 5f c8 d9 bd d4 b7 59 3d dc 9a 4c 3d ed 7e aa bd
       -0.10633921 0.053153828 0.049952373 -0.083249904
000340 e3 a8 49 bd 9d 7d e3 bc 4a 37 07 3c 41 52 8a bd
       -0.04923333 -0.027769858 0.008252928 -0.0675397
000350 87 b0 45 bd bd bf 80 3d c4 4f 1e bd 93 ca 40 3c
       -0.048264053 0.06286571 -0.03865029 0.011767047
000360 a1 30 2a bd 28 20 93 3d b8 a2 6d 3c c3 ae 99 bd
       -0.041550282 0.07183868 0.014504127 -0.07504036
000370 01 a1 44 bd 12 4d 8e 3d 2a f9 19 bc 45 ae e1 bc
       -0.048005108 0.06948294 -0.009397784 -0.027548919
000380 e5 18 04 bb 97 fd 83 bd 67 a2 1d 3d 7c 37 11 3d
       -0.002015644 -0.06444853 0.038484957 0.035453305
000390 91 37 76 bd 68 81 50 3d 71 e5 75 ba 7e 72 2e 3c
       -0.060111586 0.05090466 -0.0009380198 0.010647414
0003a0 e5 58 74 3d 34 65 9c bd 98 a9 91 3d 9e 98 94 bd
       0.05965509 -0.076364905 0.071124256 -0.07255672
0003b0 d1 b7 55 bd e1 85 fe 3c f6 23 7c bc 85 70 24 3d
       -0.052177254 0.031069698 -0.015389433 0.04014637
0003c0 af 37 55 bc 0e 42 7c 3d f8 b7 98 bd 34 72 7c bd
       -0.013013764 0.061586432 -0.07456964 -0.06163235
0003d0 e6 73 5d bd ac 8f 38 ba 46 17 cb 3c 20 82 4b bc
       -0.054065607 -0.0007040452 0.024791371 -0.012421161
0003e0 1a 57 86 bd ed fa 32 3d 61 3b 8a bd bd 9a 18 bd
       -0.06559582 0.043696333 -0.06749607 -0.037256945
0003f0 71 ce 18 be b1 d5 33 be 62 69 04 bd 26 a6 b9 bc
       -0.14922501 -0.17561986 -0.032327063 -0.022662234

conv2.bias f4 [32]
000000 6c cc 02 3e 7f 4d c1 bd 18 bc 22 bc e7 81 06 3c
       0.12773293 -0.09438609 -0.00993254 0.008209682
000010 0d c3 64 3d 5d a7 40 3e fa 15 9d 3d b4 0d 89 bd
       0.055850077 0.18813844 0.07670207 -0.06692067
000020 c8 15 8e bd 70 3f 48 bd dc c6 26 bd b0 ff c0 3d
       -0.06937748 -0.048888624 -0.04071699 0.094237685
000030 a0 55 1e bc 00 c6 0b 3d 68 ce 61 bc 81 83 a0 bd
       -0.009663969 0.034124374 -0.013782121 -0.078375824
000040 90 59 0a 3d 8b 84 f5 3d 84 19 14 be bf db 6b be
       0.03377682 0.11988171 -0.14462858 -0.23033045
000050 5f d1 9f 3c 72 d1 29 3d a4 72 05 be 82 47 05 3e
       0.019509016 0.04145951 -0.13032013 0.1301556
000060 79 1c cd 3b b2 02 53 bc a5 ce 3e bc 4f e6 a1 3d
       0.0062594977 -0.012879061 -0.011645948 0.07905256
000070 ad 17 f9 3c e8 2c bf bd f1 8e ae 3d cd 5c d2 bd
       0.030406797 -0.09334737 0.08523358 -0.102716066

conv3.weight f4 [64, 32, 3, 3]
000000 be 94 46 3c 58 96 37 3d 05 20 21 bd 9d 94 e5 bb
       0.012120424 0.044821113 -0.039337177 -0.0070062415
000010 89 0b fb bc a6 b2 2b 3c fe 8c 99 bc d5 b1 91 3c
       -0.030645149 0.010479605 -0.018743988 0.017784992
000020 1f cf 2e bd b3 5c 57 3d 35 5e 92 bd 5b 99 56 bd
       -0.042677995 0.05257864 -0.07146875 -0.052392345
000030 e8 09 d6 ba bd c3 4c 3c d9 57 fe 3c 03 19 5a bc
       -0.0016329857 0.0124978395 0.031047748 -0.013311627
000040 1e b3 5b 3d ef 1d 4b bb b0 53 52 bb c8 32 ed bc
       0.053637616 -0.0030993184 -0.0032093339 -0.028954878
000050 87 27 70 bb b0 af 08 3d 2f d6 a8 3a e3 b5 10 bc
       -0.0036644654 0.033370674 0.0012881214 -0.008832428
000060 ec 96 8c 3d 85 59 31 bd d2 31 5e 3b 80 9d fe bb
       0.068647236 -0.043298263 0.0033904207 -0.0077702403
000070 ab 43 2c bd fb 0b d6 bc 97 93 22 3d cc b3 9d bd
       -0.04205672 -0.02612876 0.039691534 -0.07700309
000080 3c 01 62 bd f0 f7 c7 bc c4 26 e6 bc 76 53 74 3c
       -0.05517696 -0.024410218 -0.028094657 0.014912477
000090 d4 e0 dd bc 64 eb 2f bd ad 4f 75 3c fa 54 1c 3d
       -0.027084745 -0.042949095 0.0149726095 0.038166977
0000a0 7a 29 a9 bb 6d 6d 7f bd 01 b6 61 bd c4 38 0e 3d
       -0.005162415 -0.062360216 -0.055105213 0.034722105
0000b0 bc 43 b0 bd db c4 c8 bd 46 90 51 3b 59 84 c7 bd
       -0.08606669 -0.09803172 0.0031976863 -0.0974204
0000c0 01 84 99 3c 15 b4 27 3d c8 29 09 bd bb 13 b0 3c
       0.018739702 0.040943224 -0.03348711 0.021493783
0000d0 21 9d 02 bd e4 c6 0f 3d f9 45 1d 3c 6d b8 23 3d
       -0.03188813 0.035101786 0.009599202 0.039970804
0000e0 dd bc 23 3d b8 00 9d bc 9d a8 61 3a b0 c0 db 3c
       0.039975036 -0.019165382 0.0008608194 0.026825279
0000f0 7f e5 25 3d 02 a9 30 3d e6 76 26 bd 83 01 8b 3a
       0.040502068 0.04312993 -0.040640734 0.0010605309
000100 a1 ce 1b bd 4c c4 09 3c d1 9b ac bd 1a f6 ed bb
       -0.038038854 0.008408617 -0.08428157 -0.0072620036
000110 00 bd 27 3c 9f 85 d5 3c 22 5b a9 3c 13 b9 ea 3c
       0.010237932 0.026064692 0.020673338 0.028652703
000120 89 07 82 bd 5d 6c 96 bc f4 eb 14 bd 14 c5 09 bd
       -0.063490935 -0.018362219 -0.036357835 -0.033635214
000130 35 23 d1 3c f2 c7 2c bd b5 c1 f1 bc aa a6 88 bb
       0.025529483 -0.04218287 -0.029511312 -0.0041702585
000140 88 70 57 bd 53 22 e2 bc 02 12 37 3a f2 5a 86 bd
       -0.052597553 -0.027604258 0.00069835794 -0.06560315
000150 3f a4 eb 3c 91 e5 0f bc 19 43 a8 bd c7 f8 d0 bb
       0.028764842 -0.00878276 -0.08215923 -0.006377313
000160 b6 09 72 bc 66 98 84 3b 98 f2 29 bd 0a 38 69 bc
       -0.014772823 0.0040464876 -0.04149112 -0.014234552
000170 76 24 2d bc 1d 70 f9 3c 77 4d b9 bd c9 aa 4e 3b
       -0.010567775 0.030448968 -0.09047978 0.0031534901
000180 72 0b 0e 3c 69 b7 39 3d d2 1a 43 3d d3 b9 95 3d
       0.008669721 0.04534093 0.047633 0.07310834
000190 63 b1 7c 3c 84 c6 70 3c 01 ef d2 bc 6a 60 0f bd
       0.015423152 0.014695767 -0.025748732 -0.035004057
0001a0 dc c9 66 bc b7 42 9c bc 3d 8f 33 bc aa ca 63 bc
       -0.014086213 -0.01907478 -0.010959444 -0.013903299
0001b0 85 3f e7 bc 90 48 46 3d 3d 88 04 bd da 7a 82 3d
       -0.02822853 0.048409045 -0.03235649 0.06371088
0001c0 e8 16 6a bd a2 7b 93 bd a6 fe 6a bb af 52 53 3d
       -0.05715075 -0.072013155 -0.0035857349 0.051592525
0001d0 08 47 b1 3c 0a 3d df bd 84 51 77 3d 6a 05 3d 3d
       0.021640316 -0.10900314 0.060380474 0.04614774
0001e0 e1 38 48 bc 86 9c c6 3d a1 53 f4 bb c2 26 59 bd
       -0.012220592 0.09697823 -0.0074562584 -0.053015478
0001f0 ef 2c 9f bd b5 1b 3a bb d8 5f 7d bd 4c c4 a7 bd
       -0.07772242 -0.0028397862 -0.06185898 -0.081917375
000200 6a ec 06 bd 45 60 2c 3d 3f 38 02 bc a1 8e 35 bd
       -0.032940306 0.042083997 -0.00794798 -0.044325475
000210 39 75 f7 bc 4b 7d e7 3c 77 52 85 bd 5f c6 51 bd
       -0.030207263 0.028257987 -0.065098695 -0.051214572
000220 51 13 04 bc 9a 9b 17 3d 0e 44 a0 bd 90 d9 c8 3b
       -0.008061246 0.037013628 -0.078254804 0.006129451
000230 a2 79 ff 3c 88 e8 c1 3c 19 ef 16 3c a3 c2 92 bd
       0.031185929 0.02367045 0.009212279 -0.0716603
000240 0d ab 0d 3d 84 b1 18 3c b2 5f 3f bd 88 1c 1c 3d
       0.034586955 0.009319667 -0.04672212 0.038113147
000250 79 eb f7 3c 2e b0 4c bd a2 ee 02 3d e8 c7 05 3d
       0.03026365 -0.049972706 0.03196586 0.03266135
000260 ef e3 8c 3c bc 40 1e bd 98 27 34 3c e8 36 49 3d
       0.017198531 -0.038635954 0.010995768 0.04912463
000270 fa 24 30 3d 19 25 3f bd 6f da ed bc c7 c0 d7 3a
       0.043004014 -0.04666624 -0.029034821 0.001646065
000280 c0 d6 25 bc e7 26 c1 bd a3 b7 e1 bc 45 10 78 bd
       -0.010122001 -0.09431248 -0.027553385 -0.06056239
000290 97 f4 32 bd 23 d9 56 3d f5 12 f6 bc b7 23 95 bc
       -0.04369029 0.05245317 -0.030038336 -0.018205507
0002a0 37 b3 65 3d b7 52 7c bc 46 ea ed 3c 67 bf 4f 3b
       0.056079116 -0.01540058 0.029042374 0.0031699778
0002b0 f7 1d 45 bd 78 c2 5f bd f1 96 0b 3d 88 21 ac bc
       -0.04812428 -0.05462882 0.034079496 -0.021012083
0002c0 13 cd d8 3c a0 b8 e4 3c c6 90 b3 b9 cf 2a 25 bd
       0.026464975 0.027920067 -0.00034249405 -0.04032403
0002d0 19 10 81 3c b5 af 04 bb d9 18 0a bd f9 65 6f 3d
       0.015754746 -0.002024633 -0.033715103 0.058446858
0002e0 b7 de ac 3c e6 66 1a bd ee 63 75 bd 2b 85 b0 3a
       0.021102292 -0.037695788 -0.059909754 0.0013467422
0002f0 e5 f5 91 bc cd 3e 81 bd ab 0e 47 bc a0 28 9e 3c
       -0.017817447 -0.063108064 -0.012149493 0.01930648
000300 16 96 86 bd 61 80 b2 3c 17 d0 4c bb 28 bb 4a 3c
       -0.06571595 0.021789731 -0.003125196 0.012373723
000310 19 b9 66 bd 62 d3 7d bd 06 15 1e bd bf db 03 bd
       -0.056328867 -0.06196917 -0.03859427 -0.032191988
000320 52 6b 3a 3c 4d 45 28 bd 60 fa d4 bc 4a 66 e0 3b
       0.011378126 -0.041081715 -0.025998294 0.0068481313
000330 7f 8b 97 bc 97 46 1a bc e2 13 ff 3c cf b7 95 bd
       -0.018499134 -0.009416244 0.03113741 -0.07310449
000340 d5 20 0d 3c 87 ef e8 bc 30 6b 7b bd 58 b3 da 3c
       0.008613785 -0.028434528 -0.06138152 0.026696846
000350 74 29 06 3d 5f 9f 9b bb f6 c8 61 bd 71 49 90 bc
       0.032754377 -0.004749223 -0.055123292 -0.017613145
000360 0b b7 b2 bd 73 3f 8a bd 67 60 ed bc b3 01 71 bd
       -0.08726319 -0.06750383 -0.028976632 -0.05883951
000370 96 59 9d 3c cb 50 ec bc 07 ee c3 3c 0e 1b 85 3c
       0.019207757 -0.028847119 0.023917211 0.016248252
000380 73 25 c5 bc 50 86 91 39 97 2c e7 bc 02 95 55 3c
       -0.024065709 0.00027756626 -0.028219504 0.0130360145
000390 b5 c7 8c bd 70 51 0d 3c 49 4a 56 bd 78 90 91 bc
       -0.068740286 0.008625373 -0.052316938 -0.017769083
0003a0 98 a2 8b bc fb 32 2d bc 4f 6b ae bc 50 7f 6c bd
       -0.017045304 -0.010571237 -0.021291403 -0.057738602
0003b0 e9 dc 0f 3c b5 57 5b 3d 4f 75 4a bc 2a 88 12 3d
       0.008780696 0.05355044 -0.01235707 0.035774387
0003c0 55 68 0e bd 8c 98 2e 3d 90 b1 52 3b 2d 55 e5 bb
       -0.034767468 0.04262595 0.0032149293 -0.006998679
0003d0 0e 0c 32 3d 83 e0 39 bc 44 1d 49 bc a6 c0 7a 3c
       0.043468527 -0.011345032 -0.012275044 0.01530472
0003e0 3c 4e 41 bc 1b 10 8b 3b 9a 2d f1 bc 0d c9 2e bd
       -0.011798438 0.0042438633 -0.02944069 -0.042672206
0003f0 53 8e d9 3c e2 48 fe 3c 53 f7 0f 3d 1b 40 04 3d
       0.026557123 0.031040613 0.035147976 0.0322877

conv3.bias f4 [64]
000000 c2 9b b8 bd 04 dd c2 3d 54 ee ad 3d 9b 45 c5 bb
       -0.090140834 0.09514812 0.08492723 -0.0060202605
000010 12 c9 5a 3d cb a5 8c 3c 96 5e d3 3d 02 6b 16 3c
       0.05341441 0.0171689 0.10320775 0.009180786
000020 f1 a7 63 3d 78 40 43 be 53 21 4d 3d b1 57 83 bc
       0.055580083 -0.19067562 0.05008061 -0.016033025
000030 8e f2 79 be 35 1f 51 bd fe 6d 66 3d 60 2d ad bc
       -0.24408934 -0.051055152 0.05625724 -0.0211398
000040 cb af ed 3c 53 7e f8 bb 53 60 d8 3d 3a 1e d5 3d
       0.029014489 -0.0075834184 0.105652474 0.10406156
000050 f2 b2 14 3c 17 79 c2 3c f1 f2 50 3d e8 7a 33 3c
       0.009075867 0.02373938 0.051012937 0.010954596
000060 51 0f ca 3d eb 58 06 3d 21 b5 05 3e fe 09 f5 3d
       0.098662026 0.032799643 0.13057376 0.119647965
000070 a0 13 5e 3d e3 de 31 3d 59 63 a9 3d 68 08 37 bc
       0.054217935 0.043425452 0.08270902 -0.011171438
000080 f1 31 80 3d 15 4a d0 bd dd fa 29 3d 5e da 2b 3d
       0.062595256 -0.1017038 0.041499007 0.041956298
000090 99 20 2e be 15 ca 9c bc 5e 73 55 ba bd 00 17 be
       -0.17004623 -0.019139329 -0.0008142496 -0.14746375
0000a0 a2 13 b6 bb 5c db ac 3c 3c 28 90 bd e5 71 8e 3c
       -0.0055565396 0.021100692 -0.07038924 0.017388294
0000b0 e9 cb ac bc d7 df 63 3d 03 36 09 3d 4f d4 6c 3d
       -0.021093326 0.055633392 0.033498775 0.05781966
0000c0 e6 db 80 3d 2a 71 55 3c 68 b6 79 3c 0b 33 9c 3d
       0.06291942 0.013027469 0.015241243 0.07626923
0000d0 6e 5b e2 3d a7 d8 b1 3d 55 11 0f 3d 90 35 81 3d
       0.11052595 0.08683901 0.03492864 0.06309044
0000e0 ee 76 46 bb 77 ed 49 bd b1 d3 28 3d 2c 58 71 3d
       -0.003028329 -0.04929873 0.04121751 0.058921978
0000f0 5e fa cf 3c 2a d6 f4 3c 7a da e1 3b 6f a1 29 bd
       0.025387939 0.029887278 0.0068924995 -0.04141372

conv4.weight f4 [128, 64, 3, 3]
000000 b0 95 d2 bb b7 7d 05 bd 86 0f 4e 3c 08 14 8c bc
       -0.0064265355 -0.032590594 0.012576943 -0.017099395
000010 8b 69 51 3d e4 4b 60 bd e5 40 aa bd 92 52 59 bd
       0.051126044 -0.054759875 -0.08313159 -0.05305726
000020 c6 b6 9e bd 23 be 40 3b 3c c9 46 bc c7 ce 27 3d
       -0.07749705 0.0029410205 -0.012132939 0.040968683
000030 f5 a3 24 be b9 58 7b bd 7a d8 c1 bd 82 43 8d bd
       -0.1607817 -0.06136391 -0.09465118 -0.06897642
000040 37 e2 ec bb 42 0d 83 bd b0 a8 98 3d 4f 38 66 bc
       -0.0072291153 -0.06399013 0.074540496 -0.014051511
000050 9a fe f6 3c 32 b6 1c bd 60 c5 34 bd 07 06 7a bd
       0.0301507 -0.038259692 -0.044133544 -0.061040904
000060 5b bc 1c bc 45 b3 b1 3c 7a ed fa 3c 4a 7f 3f 3d
       -0.009566392 0.021691928 0.030630816 0.04675225
000070 3d f6 28 3d 5d 7c 4f 3c 74 2d c9 bc 97 b2 80 bd
       0.041250456 0.012663928 -0.024557807 -0.06284063
000080 3d a9 d5 bc 1f 5d 18 3a 57 4e 77 3d 88 15 81 3c
       -0.026081676 0.0005812216 0.060377445 0.015757337
000090 91 98 84 bc 8f ae 08 bd 3c 05 b9 bd 6b 9d 16 bd
       -0.01618603 -0.033369597 -0.090342015 -0.03677122
0000a0 cd 81 99 bd c8 41 ba bc 9a 8f 41 bd fe d9 fe ba
       -0.07495461 -0.022736445 -0.04725609 -0.0019443629
0000b0 0e d4 da 3c e2 b4 a4 bc 5d c3 84 bd e7 be 6c 3d
       0.026712444 -0.020105783 -0.06482575 0.057799246
0000c0 c1 30 5c bd d6 9d 26 bc 6b 51 22 bd f1 b3 07 bd
       -0.053757433 -0.010169467 -0.039628427 -0.03313059
0000d0 2e 2d b4 bc db 17 8b 3c de 8e f2 bc 1f c5 3e 3c
       -0.0219942 0.016979149 -0.02960914 0.011643677
0000e0 00 a0 42 3c b2 c9 c2 bd d1 14 8a bd d0 41 8e bd
       0.011878967 -0.095111266 -0.06742252 -0.069461465
0000f0 b2 fe 80 bc 49 3f e8 bc ae 96 1a bd 5c 62 9c 3c
       -0.015746448 -0.02835049 -0.037741356 0.01908987
000100 63 a7 64 3d 8b c9 7f 3c c6 cd 48 3d aa 96 9a bd
       0.055823695 0.015612016 0.049024366 -0.07548268
000110 eb 55 96 3c 61 06 3b bd fd d4 95 bd f9 5d e9 bd
       0.018351516 -0.04566038 -0.07316015 -0.11394877
000120 0d 50 63 3d 92 45 bf 3c e8 4f 3b bd 85 33 bb 3c
       0.055496264 0.023348603 -0.0457305 0.022851715
000130 92 d3 8f 3c c1 9f 06 3d 07 3c 2d bd 71 24 8e bd
       0.01755694 0.032867197 -0.042293575 -0.069405444
000140 a9 f1 3e bd f6 5f f9 3c c9 6c 20 3d 56 42 fc bb
       -0.046617184 0.030441266 0.039166246 -0.0076983375
000150 b2 82 29 3a 15 30 b1 bd 71 7b b5 bc da 61 99 bc
       0.00064663135 -0.08651749 -0.022153588 -0.018723417
000160 0c ae b7 bc 28 dd fc bc 4a b7 92 3d 44 cb 3b ba
       -0.02242186 -0.030867174 0.07163866 -0.0007163773
000170 8c 50 78 bd bc 5d 7d bb 94 18 65 bb 82 21 99 bd
       -0.06062369 -0.0038660606 -0.0034957277 -0.07477094
000180 ab f1 ea ba 94 cb 69 ba b4 53 c0 3c 95 8a 52 3d
       -0.0017924806 -0.000891858 0.023477413 0.051401693
000190 65 f7 ad ba c1 40 5d 3c 6b 7c fc 3b 6c 1f 78 bd
       -0.0013272582 0.013504208 0.0077052615 -0.06057684
0001a0 55 7d fb bc f4 5e fc bc 67 81 cb bd 84 80 42 3d
       -0.030699411 -0.030806996 -0.09936791 0.047485843
0001b0 93 cc d0 3c c9 17 2b bc 26 12 c2 bc b6 79 ab bd
       0.025488174 -0.010442683 -0.023690294 -0.08372824
0001c0 97 4c 10 3c c3 67 83 bc 15 cb 56 bc 4c f1 81 3c
       0.008807323 -0.016040688 -0.013109942 0.01586213
0001d0 e3 7d 1c bd a2 ae 31 bc 1a 2c 33 bb c6 50 96 bc
       -0.038205992 -0.010844858 -0.002733952 -0.018349063
0001e0 93 d8 aa bc 8e b7 07 3d 87 f3 76 bc 40 7f 39 bd
       -0.020855224 0.033134036 -0.01507271 -0.04528737
0001f0 3b 5d f6 3c fa cc d0 bc 7b 40 f3 bc 6b dc 46 3b
       0.030073753 -0.025488365 -0.029693833 0.0030343782
000200 5e a4 ed bc 73 ae 45 3d 32 3e 2d bc 0f 97 1e 3d
       -0.02900904 0.04826207 -0.010573911 0.03871828
000210 76 43 2c bd 91 50 9e bc 7e ed 62 bd 1b c3 1f 3d
       -0.042056523 -0.019325526 -0.05540227 0.039004426
000220 ff d9 0b 3a 17 4c a9 3c 43 6e a7 bc 66 9b 75 3c
       0.0005334913 0.020666165 -0.02043832 0.014990663
000230 d6 f0 3a bd 16 3d 28 bc 4a 0b 9e bc ec 35 ee bc
       -0.045639835 -0.01026847 -0.019292492 -0.029078446
000240 ae 82 b2 bc aa 01 c2 bd da 45 07 bd e8 d3 d1 bb
       -0.021790829 -0.09472974 -0.0330256 -0.006403435
000250 df 51 fb 3b a2 ac e8 3c ab 69 c6 3c 2c e4 a5 bc
       0.007669672 0.02840263 0.024220308 -0.020250402
000260 07 93 5c 3c a6 90 2d 3c f9 df 2e 3d 09 18 52 ba
       0.013462788 0.010593569 0.042694066 -0.0008014446
000270 ca 9f 7b bd ba 73 94 bb 41 e6 44 b8 bc e8 92 3c
       -0.061431684 -0.0045303972 -4.6944482e-05 0.017933242
000280 4f 7c 44 bc 1a 91 97 bc ac 50 30 bd 81 2b cb 3c
       -0.011992528 -0.018501807 -0.043045685 0.024801018
000290 97 69 62 3c e3 77 85 3c c8 b5 f7 3b a1 68 74 3d
       0.01381912 0.016292518 0.007559512 0.059670094
0002a0 b9 1a 30 bd 24 db 0f 3c 4f 20 8d 3c 40 b3 4a bd
       -0.042994235 0.008780275 0.01722732 -0.049487352
0002b0 d7 dc b3 3a 1b b6 96 bc 7c f5 5b bd c3 25 33 bd
       0.0013722432 -0.018397382 -0.05370091 -0.043737184
0002c0 cf 5d c9 3c 3d e9 64 ba 83 9e b1 3b 30 2b bd 3c
       0.024580864 -0.0008732265 0.0054205074 0.023091882
0002d0 72 47 3f 3c 14 74 f7 3c 8c 93 19 bc 8d 56 39 bd
       0.011674749 0.030206718 -0.009373557 -0.045248557
0002e0 62 a0 23 bc 56 92 c6 bc c1 1a 0f bd ba c3 44 3d
       -0.009986969 -0.0242397 -0.034937624 0.048038222
0002f0 cb 10 e6 bc a6 7f 15 3d ec f1 0c 3c a6 57 78 bc
       -0.02808418 0.03649869 0.008602601 -0.015157616
000300 b3 72 c9 ba 0d b1 99 bc 1d f1 95 bd 01 a7 5f bc
       -0.0015369266 -0.018761182 -0.07321379 -0.013650657
000310 55 b6 4f bc 58 08 6d bd 86 94 5d bd 9b e5 d1 bc
       -0.012677749 -0.057869285 -0.05409672 -0.02562218
000320 df e2 cd bd 94 78 72 3d a0 40 bf bd 2b 77 9b bc
       -0.10053038 0.059197024 -0.09338498 -0.018977722
000330 0a b7 ce bb 19 f0 66 3d 98 51 e5 bc 5b 04 8a bd
       -0.006308441 0.05638132 -0.027993008 -0.06739112
000340 25 c9 4f bd 99 6d 4a bd 6c 7c 49 3d 47 91 3f 3a
       -0.050728936 -0.049420927 0.049190924 0.000730772
000350 a9 27 89 bb 00 f0 ec 3c 5e 82 bd bc 64 d6 77 bb
       -0.004185636 0.028923035 -0.023133453 -0.0037816996
000360 5b b7 bd 3c 5d 86 aa ba e4 ca 61 3c f9 6d 91 bc
       0.02315872 -0.0013010014 0.013781283 -0.017752634
000370 55 1c dc 3c 3a bf fd bc 1d 8e 99 bc 24 f6 fd 3b
       0.026868979 -0.030974973 -0.018744523 0.0077502895
000380 6b 18 2f bb e7 71 c0 bc 6b 84 60 ba f2 e9 f9 bd
       -0.0026717435 -0.023491813 -0.00085646537 -0.12202825
000390 f2 fe 9e 3c 75 ae 4b bd bb 68 d8 bb 6e 38 4c 3b
       0.019408677 -0.049726922 -0.0066042817 0.0031161564
0003a0 04 e5 93 bd 70 90 5c 3d a4 32 ca bc a9 67 61 3c
       -0.07221416 0.053848684 -0.02468235 0.013757625
0003b0 5b bc 82 bd bf 20 0d bd e9 2d 86 3c ac 0a ad bc
       -0.06383582 -0.034455057 0.016379314 -0.021123253
0003c0 c3 1e a5 bd 3a d4 f9 bc 31 0a c9 bc 17 03 ef bc
       -0.08062508 -0.030496705 -0.024540992 -0.029176278
0003d0 d7 3a d5 bc 02 9a 39 bd 53 12 b5 bd df 7c 0f 3d
       -0.026029034 -0.04531289 -0.08841386 0.035031196
0003e0 77 e4 a2 bb 5f fd 34 3c 64 25 3d 3c c2 c9 ae bb
       -0.004971083 0.0110467365 0.011544559 -0.00533411
0003f0 6b df b6 bb 6d 92 77 3d 2c 74 02 bc 29 a2 be bc
       -0.0055808327 0.060442377 -0.007962268 -0.023270683

conv4.bias f4 [128]
000000 fa da c9 bc 69 12 57 bd 71 6c a5 bd 51 36 ec 3c
       -0.024640549 -0.05250779 -0.08077324 0.028834494
000010 1f 23 7a bc 52 ab bb bd b4 26 c1 3d 79 b0 ad bc
       -0.015267163 -0.09163536 0.0943121 -0.021202313
000020 5b f5 8c bd 76 d2 d2 bd 95 e5 11 3d 19 0d fa 3d
       -0.06882735 -0.102940485 0.035619337 0.122095294
000030 28 18 99 3d af 50 e3 bd ac fe ea bd bf 16 0d 3d
       0.074753106 -0.110993735 -0.11474356 0.03444552
000040 dc 98 3c 3c 7b 12 b9 3c cf fb b2 bd 0c 55 87 3d
       0.011511054 0.02259182 -0.08739435 0.06608018
000050 98 12 26 3d 28 59 83 3b 4a 8b 06 bd 3d 52 cf bd
       0.040545076 0.004008431 -0.03284768 -0.101231076
000060 11 75 1d 3d 10 8f 99 bd 62 b0 03 3d bd 37 5e bd
       0.03844172 -0.0749799 0.032150634 -0.054252375
000070 4e ad 34 3d 71 16 26 ba dc 20 47 3d 87 1f db 3c
       0.04411059 -0.00063357415 0.04861532 0.026748432
000080 f6 19 40 bb 16 c3 ca bb e1 cc c8 bd c4 20 4f 3d
       -0.002931235 -0.006187807 -0.098047026 0.050568357
000090 91 7e ca 3c af 5e 4b 3d 0d 22 cc bd fa e9 92 3d
       0.024718555 0.049650844 -0.09967432 0.07173534
0000a0 10 1c 00 bd 3d 06 12 bd 0e 81 7c bd 72 5d 77 bd
       -0.031276762 -0.03565048 -0.061646514 -0.06039185
0000b0 7e 5a b1 3c 43 5b a2 bd a5 d3 d8 3d 51 01 80 3d
       0.021649595 -0.07927563 0.10587243 0.06250251
0000c0 c9 d5 e2 3d 3b ff b6 3c 07 6f 04 bc c8 d4 66 3d
       0.110759325 0.0223385 -0.008083112 0.056355268
0000d0 ab 44 06 bb 4b d1 5f bd 4b 7d 75 bd 04 c1 04 be
       -0.0020487707 -0.054642957 -0.05993394 -0.12964255
0000e0 57 44 b5 3d fc 8d e1 3d b9 09 2d 3c e7 9d 92 3b
       0.088509254 0.110134095 0.0105614 0.00447439
0000f0 88 40 45 bb ea 9a ac bd bb 85 9a bd 77 14 54 3c
       -0.0030098278 -0.08427985 -0.07545038 0.012944332
000100 d4 ca 4b 3d a3 5e 28 bd 73 aa 75 3d a6 9b ab 3d
       0.04975398 -0.041105878 0.059977006 0.08379297
000110 c1 d3 6e 3c 89 e5 ac 3c b1 a3 58 3d 05 3d ab bb
       0.014576853 0.021105545 0.052890483 -0.00522578
000120 83 f3 b8 bb 7c 93 39 bd ca 8d 16 3d 15 4f a3 bd
       -0.0056442632 -0.045306668 0.036756314 -0.07974068
000130 33 07 bb 3d 04 08 ac 3d d7 5c c9 bd 77 6e e9 3d
       0.091322325 0.08399966 -0.09832161 0.113980226
000140 7b 21 9a bd c7 84 a4 bb 6f bd 0f be c8 75 45 bc
       -0.07525917 -0.005020711 -0.14037107 -0.012052007
000150 95 62 c2 3c ac 76 f5 3c b0 88 64 bb c3 82 1f ba
       0.023728648 0.029963814 -0.003487151 -0.00060848537
000160 85 21 bb bc 79 6c 01 be ac 18 78 bd 21 3d f5 bd
       -0.022843132 -0.12639035 -0.060570404 -0.1197455
000170 15 70 58 3c 35 71 94 bd 04 62 a6 bc 4e c9 0d ba
       0.013210316 -0.07248155 -0.02031041 -0.000540872
000180 89 78 c2 3d b0 0e da bd 6f d2 a3 bd ba c3 69 bd
       0.094956465 -0.10647333 -0.079991214 -0.057071425
000190 3b 55 d7 3c cd 19 e9 3c 45 2c 1e bb 97 3a 60 bd
       0.026285758 0.028454686 -0.0024135273 -0.054743376
0001a0 7b f8 39 3d 3b dc 3b bd aa b3 5c 3c bb f3 19 3c
       0.045402985 -0.045864325 0.01347057 0.009396489
0001b0 4d c6 a7 bc ba 12 16 bd 2f e3 b5 3d c2 70 1f be
       -0.0204803 -0.036638953 0.088812225 -0.15570357
0001c0 0a 96 88 3c 53 be 1f 3d 9a 02 99 bd 85 fe c3 3d
       0.016673107 0.038999867 -0.07471199 0.0957003
0001d0 18 eb 80 3b fd b4 0d bd 7c 36 6e bd 2d 90 8a 3d
       0.0039342754 -0.034596432 -0.05815743 0.067657806
0001e0 c7 8d 30 bc 0b 46 fb bd c5 b1 14 be 38 0c 66 b9
       -0.01077599 -0.12269219 -0.14520939 -0.00021939061
0001f0 ae 8c 34 3d f0 22 be 3c 4d b1 d1 3d c7 70 8f bd
       0.044079475 0.023210019 0.102388956 -0.070039324

conv1T.weight f4 [128, 64, 3, 3]
000000 f7 72 c0 3d 82 a9 c1 bc 26 1a e4 3d 83 32 cc bd
       0.09396928 -0.023640398 0.111378 -0.09970572
000010 92 dc 35 3e cb ef 17 be 9b b1 78 3e 8e 00 a2 3e
       0.17759922 -0.14837568 0.24286501 0.31641048
000020 66 0a 92 3e 98 cf a5 3e 45 68 89 3e 4d 0d 37 3e
       0.28523558 0.32384944 0.26837364 0.17876168
000030 09 2b b5 3d 6c 01 b0 bb 86 10 b0 bc 04 21 6e 3e
       0.08846099 -0.0053712633 -0.021492254 0.23254782
000040 66 d0 95 3e 86 5d ba 3e f1 bb 14 3e d9 d3 2d 3c
       0.29260558 0.36399478 0.14524819 0.01060959
000050 27 93 68 3e 55 06 4d 3e fe 7d 07 3e 09 32 06 3f
       0.22712384 0.20021947 0.13231656 0.524201
000060 08 1f 11 3e 5d 1a 62 3e 71 db 4a 3e 24 83 84 3e
       0.14171994 0.2208037 0.19810273 0.25881302
000070 89 e3 1d 3e 8b 7c 90 3d e9 29 8d 3d 84 5d eb 3c
       0.15418829 0.07055005 0.06892759 0.028731115
000080 4f 9c 9c 3d e5 d7 7b 3e 7b 8b 95 3e d9 99 77 3e
       0.07647001 0.24594076 0.29207978 0.24179782
000090 91 7b 0b 3c 03 aa 86 3e 40 b5 11 3d 5b 85 28 3e
       0.008513347 0.26301584 0.035573244 0.16457121
0000a0 7d 8a 3e 3e e1 10 1e 3e 70 4a 71 3e 6e 42 5d 3e
       0.18607517 0.15436126 0.23563552 0.21607372
0000b0 e3 29 8b 3e 69 f8 c9 3d 4c 06 39 3d c7 59 83 3b
       0.27180395 0.098618336 0.04517202 0.004008505
0000c0 05 35 84 3e 20 ed 98 3e 98 bd 2b 3e ad 41 33 3e
       0.258217 0.29868412 0.16771543 0.17505522
0000d0 75 55 13 3e 08 ea 54 3e 82 46 3c 3e a7 31 5e 3e
       0.14388068 0.20792401 0.18386272 0.21698628
0000e0 16 29 bd 3c f4 61 ac 3d b6 9f 65 3d 97 12 75 3d
       0.02309088 0.084171206 0.056060515 0.05983218
0000f0 af 03 8c 3e 95 0b 8e 3e 51 7b 9d 3e 19 31 67 3d
       0.2734656 0.2774321 0.30758145 0.056443308
000100 c5 2a 3c 3d ed 40 2e 3e 28 ab 36 3e 58 6c 9a 3e
       0.045939226 0.17016955 0.17838728 0.30160785
000110 5a 67 d7 3e 70 b7 57 3e da ef 56 3e ff a9 41 3e
       0.42071038 0.2106607 0.20989934 0.18912505
000120 be 75 2f 3e 99 b4 2f 3e c4 48 8e bd 84 58 77 3e
       0.17134759 0.17158736 -0.06947473 0.2415486
000130 ef 19 60 3e 7a ad 17 3e 48 16 62 3e cd 38 68 3e
       0.21884893 0.1481227 0.22078812 0.22677918
000140 f8 f5 46 3e f9 93 b5 3e 8e 24 5f 3d 54 68 ab bc
       0.19429767 0.35464457 0.05447822 -0.020923771
000150 0c 5e 1e 3e 74 cd 0e 3e bb 9b 05 3e 11 3a 50 3e
       0.15465564 0.13945562 0.13047688 0.2033465
000160 b7 fb 75 3e ed 39 b4 3d e2 2c 4a 3e c2 cc 98 3e
       0.24021803 0.08800111 0.19743684 0.29843718
000170 77 06 04 be 35 e5 4b 3e 57 3d 77 3e 04 2a 3e 3e
       -0.12893091 0.19911654 0.24144493 0.18570715
000180 16 97 94 3e 68 a2 43 3e 36 eb 5d 3e 2c e4 f6 3e
       0.2902152 0.19104922 0.21671757 0.48220956
000190 ee 09 be 3e 2d 60 cc 3e a3 ed 34 3d 5c 21 1e 3d
       0.3711695 0.39917126 0.04417194 0.038606033
0001a0 1c 1c 0b 3e d2 15 a0 3d ea 88 76 3e b0 ae cc 3d
       0.13584942 0.07816662 0.24075666 0.099942565
0001b0 a1 79 bf 3e 66 77 f6 3e a0 0b 64 3e bd f7 23 3e
       0.37397483 0.4813797 0.2227006 0.16012473
0001c0 90 c8 2e 3e 9d b5 8d 3d ca 03 91 3e 33 9b b0 3e
       0.17068696 0.069194056 0.28323203 0.34493408
0001d0 95 a4 95 3e 81 13 26 3d d4 b8 a3 3d 42 89 2a 3d
       0.2922713 0.040545944 0.079942375 0.041634806
0001e0 4f d9 65 3e 61 3b 43 3e 7a 31 39 3e 09 4c 50 3e
       0.22446178 0.1906562 0.1808528 0.20341505
0001f0 32 fe b1 3e ec 4a 79 3e 85 ba ce 3d 0d 56 37 3e
       0.34764248 0.24344987 0.100941695 0.1790392
000200 a6 b7 c3 bd fb 3a 65 3e c7 5c 81 3e f5 bd 23 3e
       -0.095565125 0.2238578 0.25266096 0.15990432
000210 04 70 6b 3e 8e 85 52 3e c6 c3 79 3e 29 59 cb 3e
       0.2299195 0.2055876 0.24391088 0.3971646
000220 2c 30 52 3e fc 24 49 3e 57 bb e9 3d 89 80 8a 3d
       0.20526189 0.19643015 0.11412685 0.067627974
000230 bd c8 08 3e 04 c2 69 3e 12 00 6f 3e 1c 2d db 3e
       0.13357826 0.22827917 0.2333987 0.42807853
000240 cb 20 3f 3e 3f c5 42 3d 02 2b 95 3d a2 fb 51 3e
       0.18664853 0.04755139 0.07283594 0.20506147
000250 50 1f 98 3e 3f 4c 18 3e 1e 4c 8d 3e a0 df 99 3e
       0.2971139 0.14872836 0.27597135 0.30053425
000260 d3 57 7b 3e 21 2d 32 3d c1 64 1e bd ce 4c 53 3d
       0.24545221 0.04350007 -0.038670305 0.05158692
000270 e8 a6 c1 bc 89 7a b6 bd 70 9f 5b 3d f4 e2 4a 3e
       -0.023639157 -0.089100905 0.05361885 0.19813138
000280 8e 5d ae 3e c5 8d 88 3e 06 57 49 3c 74 bc c9 3c
       0.34055752 0.26670662 0.012288814 0.024625994
000290 65 af 67 3b 2f 27 76 3e e8 60 a6 3e 49 b3 92 3e
       0.0035352346 0.24038385 0.3249581 0.2865241
0002a0 f2 dc 72 3e f6 55 6a 3e 50 a7 93 3e 08 24 7b 3e
       0.23717096 0.22884354 0.28838587 0.24525464
0002b0 0e a2 15 3e 1e b5 5f 3d a6 b0 b3 3b 60 b7 10 3d
       0.146126 0.054616086 0.0054837046 0.03533113
0002c0 56 49 c2 3c 19 d5 78 3e a5 15 9d 3e 3c a5 b3 3e
       0.02371661 0.2430004 0.30680576 0.35087
0002d0 d0 98 8b 3e 5a 06 40 3e ee 85 8a 3d 7f 55 53 3d
       0.27265024 0.18752423 0.06763826 0.051595207
0002e0 c9 53 36 3c 1f 73 18 3d d6 75 a8 3e 70 8b c3 3e
       0.011128374 0.037219163 0.32902402 0.3819232
0002f0 65 a3 bb 3e 00 e5 03 3e 01 94 8e bc ea a4 76 bd
       0.36648098 0.12880325 -0.017404558 -0.060215868
000300 3c b0 b2 bc 4a a5 63 3e 60 0a fd bb 2a 79 56 3e
       -0.02181255 0.22231022 -0.007722184 0.20944658
000310 11 58 39 3e f8 2c a5 3e 6b 89 99 3e f6 a0 23 3e
       0.18100001 0.3226087 0.29987654 0.1597937
000320 e1 a8 a0 3c dd 5f 64 3e e3 b8 8b 3e 3b 7b 4a 3e
       0.019611778 0.22302194 0.27289495 0.19773571
000330 37 9e 83 3e c4 50 58 3e de 15 85 3e 04 b9 2e 3e
       0.25706646 0.2112456 0.25993246 0.17062765
000340 56 cd b6 3d 87 f1 8d bd 18 1d 4a 3e b9 39 30 3e
       0.089258835 -0.06930833 0.19737661 0.1720952
000350 68 7a ea 3d 21 f2 44 3e 8d dc 8a 3e 00 4e 79 3e
       0.114491284 0.1923299 0.27121392 0.24346161
000360 c1 26 65 bd b6 94 a9 3a a3 59 d6 bd 0b bf b0 3e
       -0.05594516 0.0012937996 -0.104663156 0.34520754
000370 01 5a d0 3e f4 62 86 3e d1 22 35 3e 4c c7 9a 3e
       0.40693668 0.2624737 0.17689063 0.30230176
000380 01 cb b9 3e 81 07 47 3d 70 4d ee 3c de 97 f9 ba
       0.36287692 0.04859114 0.02908966 -0.0019042452
000390 1f 5e 9f 3e 7a 81 9e 3e dd e3 6c 3e 43 37 70 3e
       0.31126496 0.30958158 0.23133798 0.2345858
0003a0 1f 80 74 3e 3f ca 70 3e 0e bf 80 3e 9c 21 02 3e
       0.23877 0.23514651 0.25145763 0.12708133
0003b0 3a ed f1 3c 57 d6 46 3e bf 7c 83 3e a7 6f df 3d
       0.029532064 0.19417702 0.2568111 0.10909968
0003c0 24 f4 99 3e 06 00 8c 3e ec 36 d9 3e 93 06 52 3e
       0.30069077 0.27343768 0.42424715 0.2051032
0003d0 58 05 57 3c 87 8b 25 bd 78 f4 6f 3e 15 f0 87 3e
       0.013123833 -0.040416267 0.23433101 0.26550356
0003e0 6d ca ff 3d 2b fd 8e 3e a3 b4 7d 3e df 9c 98 3e
       0.124897815 0.27927527 0.24775939 0.29807183
0003f0 2e 55 a3 3e 93 db 64 3e cf 51 ef 3d 07 b7 a2 3d
       0.31900924 0.22349386 0.116855256 0.07945066

conv1T.bias f4 [64]
000000 ba 74 12 3e fe db 15 3e 5d 78 80 bc a9 2d 00 3e
       0.1430234 0.14634702 -0.015682394 0.12517418
000010 ea 96 65 3d 4b af a4 3d 2a bd cc 3d ab 03 9e 3d
       0.056052126 0.08041247 0.09997018 0.07715543
000020 1b db 95 3d b1 96 34 3d 4c 03 d4 3d d5 e3 3c 3d
       0.07317182 0.044089023 0.10352191 0.046115715
000030 fe c5 de 3d 2d 41 9a 3d cc c7 98 3d 3c 60 61 3d
       0.10877608 0.075319625 0.07459983 0.055023417
000040 45 b1 d7 3d 1f 8c d1 3d 6e 71 cf 3d 1a a6 f0 3d
       0.10531858 0.10231804 0.10129057 0.11750431
000050 94 78 ed 3d 20 94 56 3d c2 f2 fd 3d 1a 13 5b 3d
       0.11595264 0.052387357 0.12399818 0.053485014
000060 45 18 1a 3e d4 13 4a 3d 63 42 a6 3d d1 c5 13 3e
       0.1504832 0.049335316 0.08118131 0.1443093
000070 23 8c 01 3e 11 9d 13 3e 3f 5f bb 3d f1 d0 50 3e
       0.12651114 0.14415385 0.09149026 0.20392205
000080 f8 67 d7 3d 0f 5d 98 3e f6 65 5d 3e 5c 72 b9 3c
       0.10517877 0.29758498 0.21620926 0.022637539
000090 84 94 61 3d 4a 0e 17 3e 90 a9 55 bb be 19 47 3e
       0.055073276 0.14751545 -0.0032602288 0.19443414
0000a0 9e 8b f3 3d 06 da 84 3d bb 81 5b 3e 92 91 b6 3d
       0.11891864 0.06486897 0.21436207 0.08914484
0000b0 73 a6 94 3d 91 56 93 3d f2 e3 b9 3d be 6e 67 3d
       0.0725831 0.071942456 0.0907668 0.056502096
0000c0 de 10 77 3d 36 bc d3 3d 45 1f af 3d 31 e7 fa 3d
       0.06031882 0.10338633 0.08550886 0.122511275
0000d0 0a 06 a3 3d cc 2b 90 3d b7 83 a0 3d d9 87 cb 3d
       0.07960136 0.070396036 0.078376226 0.0993802
0000e0 28 80 08 3e e1 05 37 3e cf 16 1b 3e ed 5f 0a 3d
       0.13330138 0.17873336 0.1514542 0.03378289
0000f0 3e 91 91 3d 43 91 1d 3e 10 78 1f 3e 7c fa e7 3d
       0.07107781 0.15387444 0.15573144 0.11327073

conv2T.weight f4 [64, 32, 3, 3]
000000 62 31 ae 3d 5f b1 f2 3d 76 b4 eb 3d 1c 12 84 3e
       0.08505513 0.11850237 0.115090296 0.25795066
000010 dc dc 03 3f 67 68 72 3e a2 b6 3b 3e aa 16 cf 3e
       0.5150888 0.23672639 0.18331388 0.4044698
000020 fe 86 b2 3e 10 6b 47 3e f0 52 8d 3e 4e 97 8f 3e
       0.34868616 0.19474435 0.2760234 0.28045124
000030 70 59 98 3e 75 b6 9f 3e 4d f2 33 3e 7f 41 0e be
       0.29755735 0.3119389 0.17572899 -0.13892172
000040 4e 78 1e bd a9 3a 1f bd 19 a5 7c 3e 87 d9 90 3e
       -0.03868895 -0.038874302 0.24672355 0.2829096
000050 ba 6c b1 3e 9f 61 29 3e 3e 3d 64 3e 5d d5 cd 3d
       0.34653264 0.16541146 0.22288987 0.100504614
000060 08 82 01 bd b1 c4 2b 3d bc 1a 2e 3d b4 d3 0f 3e
       -0.031618148 0.041935626 0.042505965 0.14045602
000070 55 0c 2e 3e 2d a2 8c bd 6d ba 0e 3e e5 59 4e 3e
       0.16996892 -0.0686687 0.13938303 0.2015148
000080 06 97 60 3e 6d c9 9b bc be b4 17 3e b9 0b a7 3d
       0.21932611 -0.019016946 0.14815041 0.08156533
000090 0a a4 8a 3e ab ca ce 3e 39 8c a9 3e 2c 50 f6 3d
       0.27078277 0.40388998 0.33114794 0.1202701
0000a0 8c fe 50 3e ba be 96 3c eb 0f 1a be ad b8 89 bc
       0.20409602 0.018401492 -0.15045135 -0.016811693
0000b0 cf 16 8f 3c 4e 13 80 3d b0 a0 bb 3d 3f 5b 2f 3e
       0.01746693 0.06253682 0.09161508 0.17124651
0000c0 30 e6 8b 3e ec 7d a1 3e a7 9b f1 3d 36 31 7f bc
       0.27324057 0.31541383 0.117972665 -0.015575698
0000d0 d8 2c 48 3d 47 d5 5c 3c cd 23 5f 3e 91 2f 94 3e
       0.04887089 0.013478584 0.21791 0.2894254
0000e0 6b ae 39 3e a4 8a 87 3e df 2e b6 3e f7 07 a4 3d
       0.18132941 0.26472962 0.35582635 0.08009332
0000f0 f7 d0 05 be f7 6a 23 be 57 85 01 bc 1f 0c cc 3d
       -0.13067995 -0.15958773 -0.007905326 0.099632494
000100 b1 07 b0 3d 5a ac 26 3e 45 7f 20 3e 75 33 bf 3e
       0.08595217 0.16276684 0.1567355 0.37343946
000110 14 c1 04 3e 39 d1 1e bc 96 54 f7 3d 55 a1 04 bd
       0.12964278 -0.009693437 0.1207668 -0.03238042
000120 5f 18 19 3e b3 82 a7 3e b4 d6 9b 3e 8a 5d 8b 3e
       0.14950703 0.32716903 0.30437243 0.27219802
000130 f0 67 ea 3e ba bb 80 3e 3b 6e 5c 3d 42 13 2c 3e
       0.45782423 0.25143224 0.05381606 0.16804221
000140 d7 73 09 3e 53 c7 05 bd 59 dd 5a 3b 1d f6 7e bd
       0.13423096 -0.032660794 0.0033396094 -0.06224643
000150 57 a7 75 3e 13 a7 d2 3e a2 db 9a 3e 82 0c a7 3d
       0.23989616 0.41143093 0.30245692 0.081566826
000160 37 7a d9 3d 8e a2 ea 3c c9 8e 1a 3e 8a bc 99 3e
       0.10619014 0.028641965 0.1509353 0.30026656
000170 3d 25 0c 3e 45 29 93 3e 57 6c a5 3e 8b d8 37 3e
       0.1368608 0.28742424 0.3230922 0.17953698
000180 38 8b 1a be d7 1d c6 bb 5a e2 18 be 9c 85 0d 3e
       -0.1509217 -0.0060460377 -0.14930096 0.13820499
000190 9a aa 50 3e 3e fd fc 3d e1 f4 7b 3e bc 50 ff 3e
       0.2037758 0.123529896 0.24605133 0.49866283
0001a0 9f fc 95 3e 72 4b 73 be fd 54 1e be 0d 43 87 bd
       0.29294297 -0.23759249 -0.15462108 -0.06604586
0001b0 6f 6a 3f 3e 1e b1 ac 3e 11 81 80 3e d7 3d 45 3e
       0.18692945 0.3372888 0.2509847 0.19261871
0001c0 50 c4 d0 3e 2f b0 a1 3d 15 7f 56 be bb cd 9f bd
       0.40774775 0.078949325 -0.20946915 -0.07802912
0001d0 92 24 ce bd 87 e4 c2 bd 02 5a 87 3d 4d 9d 4d 3e
       -0.10065569 -0.095162444 0.066089645 0.20079537
0001e0 aa 5d b5 3e 56 7a ef 3e 86 5c 5e 3e ba ca 3c 3d
       0.35423023 0.46773022 0.21714982 0.046091773
0001f0 f3 35 be 3c f0 3a bb 3d fc 78 a6 3d ca 6b 42 3e
       0.023219084 0.09142101 0.08128545 0.18986431
000200 37 de 73 3e 6f 17 a3 3e 02 1d 00 3f fd ed bd 3e
       0.23815237 0.31853816 0.5004426 0.37095633
000210 8f 2d ae bc 5d 5d 28 3a b2 b9 02 bd 4a 9e 2e 3e
       -0.021261958 0.00064226036 -0.031915374 0.1705257
000220 69 cf ba 3e d3 82 d5 3e 98 55 4d 3e 41 7d b2 3e
       0.36486366 0.41701373 0.20052183 0.34861186
000230 47 f2 48 3e da ad ce bc 57 02 ac 3c 0e 23 e7 bd
       0.19623671 -0.025229383 0.02099721 -0.11285983
000240 94 03 c9 3d d2 33 bf 3d 3e 8a 69 3e ea 45 52 3e
       0.098151356 0.09336056 0.22806641 0.20534483
000250 6b f5 c2 3e f2 61 3a 3e 30 44 b1 bd 89 c4 c6 3d
       0.38077864 0.18201426 -0.08655584 0.09705455
000260 5a ac 04 3d 84 a5 80 3e ee 7d d7 3e d6 52 bf 3e
       0.03239093 0.25126278 0.42088264 0.37367886
000270 0c 88 9d 3e d0 29 f2 3e 20 f8 44 3e 8b 07 76 bd
       0.30767858 0.47297525 0.19235277 -0.060065787
000280 ce 4d 8f 3c 8d 7b 57 3d 33 97 0c bd 42 b8 8a 3e
       0.017493155 0.05260806 -0.034323882 0.27093703
000290 28 cc 72 3e 92 06 6a 3e 5a 4a a5 3e 55 3e ec 3c
       0.23710692 0.22854069 0.32283288 0.028838316
0002a0 2f f4 23 3e 83 82 62 3d 96 38 25 3d 0b 7c 5e 3e
       0.16011117 0.055300247 0.040337168 0.21727006
0002b0 8e 26 49 3e e3 45 54 3d 4f 9b 18 be dc d4 21 be
       0.19643614 0.05182446 -0.14902996 -0.15803856
0002c0 d8 3c 10 bd 8c 46 03 3e 7f dc 12 3e 34 49 b7 3d
       -0.035214275 0.1281988 0.14341925 0.08949509
0002d0 62 4e eb 3d c3 12 46 3e 24 78 5c 3e 2c 6a 71 3e
       0.1148956 0.19343095 0.21530205 0.23575658
0002e0 40 eb 93 3e 74 23 4f 3e a3 ca 90 3c 5a 6d ac 3c
       0.2889042 0.20228368 0.01767475 0.021048237
0002f0 16 22 28 bc 73 d7 0c 3e c2 79 7a 3e fa 66 7a 3e
       -0.010262033 0.13754062 0.2446051 0.24453345
000300 13 09 37 3e 06 05 c0 3e 77 0f 64 3e f4 b8 cc bd
       0.17874555 0.37503833 0.22271524 -0.099962145
000310 a8 69 97 3c 65 8f 74 bd 58 a0 48 3e a4 39 b0 3e
       0.018482998 -0.059707064 0.19592416 0.34418976
000320 3b e8 83 3e 31 b5 62 3e 43 00 de 3e c6 0b 03 3e
       0.25763115 0.22139432 0.43359575 0.1279746
000330 e6 04 e3 3c a0 ba a4 3e 93 2b 9b 3e b7 87 2a 3e
       0.027712297 0.32173634 0.30306682 0.16653334
000340 5c 67 a7 3e bb 36 05 3e 3b 0c 81 3e 92 cb d2 3e
       0.32696044 0.1300916 0.25204644 0.41170937
000350 0a 75 23 3e 28 14 49 be 98 6e a9 bd 05 8a c2 bd
       0.15962616 -0.19636595 -0.08273047 -0.094989814
000360 e6 74 96 3e f0 2c f9 3e 7a 12 7b 3e c4 82 eb 3c
       0.2938606 0.48667097 0.24518767 0.028748877
000370 c7 09 e9 3d c4 e2 37 3e e9 2d 24 be 7b c9 0f be
       0.11378818 0.17957598 -0.16033138 -0.14041702
000380 8c c7 0f be b0 6c 49 bd 15 53 89 3d d3 f5 17 3e
       -0.14040965 -0.049175918 0.067053 0.14839868
000390 78 84 9c 3e 8c d6 cb 3e 13 8d 18 3e 7b 34 a4 ba
       0.30569816 0.39812124 0.14897566 -0.0012527847
0003a0 43 0e 7a bc cb 00 ad 3d a4 0d b0 3e 78 c2 1a 3f
       -0.015262189 0.08447417 0.34385407 0.60452986
0003b0 b1 7f b5 3e 00 22 af 3d 9d e1 ac 3d b4 39 31 3e
       0.35448983 0.08551407 0.0844147 0.17307168
0003c0 48 dc ba 3d 35 a8 3d 3e f5 64 83 3d 83 1f 03 bb
       0.091240466 0.18521197 0.064157404 -0.0020007796
0003d0 2c 43 f9 3d bc 0d 2b 3e f5 80 52 3e 34 9d a6 3e
       0.12171015 0.16704458 0.20557006 0.3254181
0003e0 12 ab 24 3e d5 1c 1c 3d 4a 5d 11 3d 6c ae 89 ba
       0.16080883 0.038113434 0.035489358 -0.0010504252
0003f0 fd 06 23 3e 5d ff 04 3e d4 02 17 bd b2 e8 52 be
       0.15920635 0.12988038 -0.03686793 -0.20596579

conv2T.bias f4 [32]
000000 80 53 99 3d a8 3d 83 3d ae 7c 31 3c 66 63 7f 3e
       0.074866295 0.06408244 0.010832949 0.24940261
000010 d3 71 8e bd be 6f ad bd ee da ac 3d 78 8d 75 be
       -0.06955304 -0.08468579 0.08440195 -0.23979747
000020 92 14 d8 be 39 8f e8 bd 1a 73 7e be 69 7c 23 be
       -0.42203194 -0.113554426 -0.24848595 -0.15965427
000030 4b 01 51 bd 26 30 b8 bd 0c d5 d5 3b 27 73 22 bc
       -0.051026624 -0.089935586 0.0065256413 -0.00991515
000040 5e 4c 82 3b ea 4e f4 bd c3 2a a8 be 1e 8e 8c 3e
       0.003976389 -0.11929114 -0.32845125 0.27452177
000050 3d 7c 6c bd 79 b0 bb bd f5 a6 85 be a7 f5 ec bd
       -0.05773567 -0.09164519 -0.2610394 -0.11570292
000060 0b 1f 02 bf bc 19 c0 bd 2a 4d 3a bd ee 73 9d bd
       -0.5082862 -0.093799084 -0.045483746 -0.076881275
000070 3d 38 a2 3e 74 04 3f be 56 33 1e be 3f 22 a7 bd
       0.3168353 -0.18654042 -0.1544927 -0.08160829
