theta_run_birds/exp_dim10_files6_cropped_epochs200/conv_autoencoder.pth (torch, 997545 bytes, 19 tensors)

conv1.weight f4 [16, 1, 3, 3]
0	0x3d4cd722	0.050009854
1	0xbc29f6e2	-0.010373803
2	0xbd56b6d6	-0.05242046
3	0x3dacbbf2	0.08434285
4	0xbe2bef18	-0.16790426
5	0xbe5d8491	-0.21632601
6	0xbe2872d4	-0.16450053
7	0x3e1e72a5	0.15473421
8	0xbe20cbbd	-0.1570272
9	0xbe1c9d66	-0.15294418
10	0x3d9e5b3a	0.07732244
11	0x3d51d89a	0.051231958
12	0x3c43fbc5	0.011961882
13	0x3d15ff67	0.036620524
14	0xbd4d8553	-0.050175976
15	0xbd9f5e3e	-0.07781647
16	0x3dabc3de	0.08386968
17	0xbdc763a9	-0.097358055
18	0x3da6d473	0.0814599
19	0x3d9b9962	0.07597615
20	0x3ce8b6aa	0.028407414
21	0x3dab63fb	0.08368679
22	0x3e1f2272	0.15540484
23	0xbd30c886	-0.043159984
24	0xbe235cc6	-0.15953359
25	0xbdb5bca8	-0.08873874
26	0x3e53f6f7	0.20699678
27	0x3cc69fd3	0.024246132
28	0xbdba3447	-0.09092002
29	0x3bb12467	0.005405951
30	0x3dd358a4	0.10319641
31	0x3d762e46	0.060102724
32	0x3cbbca2a	0.022923548
33	0x3d3d1fd2	0.046172924
34	0xbdb43d5f	-0.08800768
35	0x3d9b93e7	0.075965695
36	0xbd4b4cc2	-0.04963375
37	0xbe42ea11	-0.19034602
38	0xbd1c8328	-0.038211018
39	0xbdcbff48	-0.099608004
40	0xbd38ec42	-0.045147188
41	0xbde09272	-0.10965432
42	0xbdbb9222	-0.09158732
43	0x3de93776	0.113875315
44	0x3e010b69	0.12602009
45	0x3c7dfb61	0.015501828
46	0xbc94d421	-0.018167557
47	0xbdbd1cee	-0.092340335
48	0xbdaac2bb	-0.08337923
49	0x3dc5a3e8	0.09650403
50	0xbd325ef9	-0.043547604
51	0xbdc29ab1	-0.09502161
52	0xbc60ae28	-0.013713397
53	0x3d9af471	0.07566155
54	0xbe0cfde8	-0.13768733
55	0xbdadf25b	-0.08493491
56	0x3dcb3668	0.099224865
57	0x3d406443	0.046970617
58	0xbd0501ca	-0.03247241
59	0xbe641474	-0.22273427
60	0xbd9b6d05	-0.07589153
61	0x3dcca6ef	0.099927776
62	0x3dade7dc	0.08491489
63	0x3e06f2d7	0.13178574
64	0xbe08f0e7	-0.13373147
65	0x3c11135f	0.008854716
66	0xbd2661ea	-0.040620722
67	0xbe38aa22	-0.1803365
68	0xbd13ef76	-0.03611704
69	0xbdfee68e	-0.124463186
70	0x3db9dd5c	0.09075424
71	0x3da3b5df	0.079936735
72	0xbd921f3e	-0.07134865
73	0x3dfa3266	0.12216644
74	0xbe27dc15	-0.16392548
75	0xbe6ae8e3	-0.22940402
76	0x3e08530e	0.13312933
77	0x3e3edd34	0.1863907
78	0xbe6dda4d	-0.23227806
79	0xbe0306aa	-0.12795511
80	0x3e1698ef	0.14706777
81	0x3e156e71	0.14592911
82	0x3d38e321	0.045138482
83	0x3d643b22	0.055720456
84	0xbdbc05de	-0.091808066
85	0xbddedd33	-0.10882034
86	0x3de5e33c	0.11224982
87	0xbdc2f44a	-0.09519251
88	0xbddfb886	-0.10923867
89	0xbdf7bd87	-0.12096696
90	0x3d0ba88c	0.034096286
91	0x3db12804	0.086502105
92	0xbe19e8d7	-0.15030228
93	0xbe3e2daf	-0.18572114
94	0x3d8ab99d	0.06773684
95	0x3e0d805f	0.13818501
96	0xbe38cf0f	-0.18047737
97	0xbe1c4b4a	-0.15263095
98	0x3e01e194	0.12683707
99	0xbe178d1b	-0.14799921
100	0x3d7554f0	0.059895456
101	0x3cf9b833	0.03048334
102	0xbe181e04	-0.148552
103	0xbe408557	-0.18800865
104	0x3da02935	0.078203596
105	0x3e1d7cef	0.1537969
106	0xbe0b5a7d	-0.13608737
107	0x3debebc7	0.1151958
108	0x3dc159b9	0.09440941
109	0x3cb8f60b	0.02257826
110	0x3df1047f	0.11768436
111	0x3e009e86	0.12560472
112	0x3e825a09	0.25459316
113	0x3e4e07f8	0.20120227
114	0x3d2879c7	0.04113176
115	0xbc8034fd	-0.015650267
116	0x3e618064	0.22021633
117	0xbd962507	-0.07331281
118	0xbe439b79	-0.19102277
119	0xbe21d6f3	-0.15804653
120	0xbe4c27ce	-0.1993706
121	0x3dabba46	0.08385138
122	0xbd92d1c9	-0.071689196
123	0x3e25a395	0.16175683
124	0x3e08bf97	0.13354336
125	0x3d631aeb	0.055445593
126	0xbe97b2ff	-0.2962875
127	0xbe24146c	-0.16023415
128	0xbe8e5fcb	-0.2780746
129	0x3e5d9a98	0.21641004
130	0x3cde8d77	0.027167065
131	0xbe86e241	-0.26344493
132	0xbe4e1938	-0.20126808
133	0xbe2b3355	-0.167188
134	0xbd7949cc	-0.060861394
135	0xbe24d83f	-0.16098116
136	0xbe7d8924	-0.24759346
137	0x3cec06ed	0.028811896
138	0xbe6eb53a	-0.2331132
139	0xbe3132c8	-0.17304528
140	0xbd066867	-0.03281441
141	0x3cfc0cca	0.030767817
142	0x3c623a54	0.013807852
143	0x3c325e70	0.0108867735

conv1.bias f4 [16]
0	0x3e863e97	0.26219627
1	0x3e5aa53a	0.21352091
2	0xbf0a4acf	-0.540204
3	0x3ec35216	0.38148564
4	0xbe74c4e8	-0.23903239
5	0x3ec2b35e	0.3802747
6	0x3e4377d8	0.19088686
7	0x3cbffc07	0.023435606
8	0x3db8fb8c	0.09032354
9	0x3d40e7a3	0.047095906
10	0xbe49b301	-0.19697191
11	0xbcdde828	-0.02708824
12	0xbc53ef54	-0.012935478
13	0x3e4d6710	0.20058846
14	0x3e9d18a6	0.30682868
15	0x3eacb644	0.33732808

conv2.weight f4 [32, 16, 3, 3]
0	0x3d6ea638	0.058263987
1	0xbbcb6518	-0.0062071197
2	0x3d55aa27	0.052164223
3	0x3d8b08e9	0.06788809
4	0x3d8dc5b5	0.06922475
5	0x3d5ec9e2	0.05439175
6	0x3db4e642	0.08832981
7	0x3dc98439	0.098396726
8	0xbd5e0b38	-0.054209918
9	0xbd37cb27	-0.044871476
10	0x3d9c6014	0.07635513
11	0x3df09a00	0.11748123
12	0xbd6df704	-0.0580969
13	0xbbadabed	-0.005300036
14	0xbcb971eb	-0.022637328
15	0x3d163749	0.036673818
16	0xbb7518b2	-0.0037398753
17	0x3ba83a65	0.0051339143
18	0x3cbaafb0	0.022788852
19	0xbd68dd90	-0.056851923
20	0x3c603d6a	0.013686517
21	0xbd43b2f0	-0.04777807
22	0xbdba3898	-0.09092826
23	0xbdd8eb35	-0.10591737
24	0xbdd3fad7	-0.10350578
25	0xbda67504	-0.08127788
26	0xbcb168c1	-0.021656396
27	0xbd924b11	-0.07143224
28	0xbca31ee5	-0.019912193
29	0xbbbd55c2	-0.0057780454
30	0x3c434505	0.011918311
31	0xbdce75d4	-0.10081068
32	0xbc8356d5	-0.016032616
33	0xbd67ed37	-0.05662271
34	0xbbb658ce	-0.0055647856
35	0xbd8da6d3	-0.06916585
36	0x3d96e483	0.07367804
37	0x3d59e18e	0.05319362
38	0x3bf5f406	0.0075058965
39	0xba6d0396	-0.0009041367
40	0xbc8e3558	-0.01735942
41	0xbdd0ae31	-0.101894744
42	0xbd5a50cd	-0.053299714
43	0x3d51e76d	0.051246095
44	0x3dca133f	0.09866952
45	0xbcaeee2e	-0.021353807
46	0xbd62961e	-0.055318944
47	0xbd0ed171	-0.034867708
48	0x3dc6b679	0.09702773
49	0x3c227ab6	0.009916952
50	0xbc642e99	-0.013927125
51	0xbccd3832	-0.02505121
52	0x3d310751	0.043219868
53	0x3da09da6	0.07842569
54	0xbd1928dc	-0.037392482
55	0x3d331297	0.0437189
56	0x3d40bee6	0.047057055
57	0xbccaea67	-0.024769975
58	0xbc7b9690	-0.015355721
59	0xbd676f12	-0.05650241
60	0x3cd24cfb	0.025671473
61	0x3c8c1891	0.017101558
62	0x3ca67e46	0.020323884
63	0x3b1dccff	0.0024078486
64	0xbcb054ce	-0.021524813
65	0xbc6ed31b	-0.014576699
66	0xbd4bffdb	-0.04980455
67	0xbd2a2372	-0.04153771
68	0xbbb4d764	-0.0055188406
69	0xbdab15f9	-0.083538
70	0xbd486021	-0.0489198
71	0x3c8c60b8	0.017135963
72	0x3cb9a513	0.022661721
73	0x3d0eb813	0.034843516
74	0xbd64a788	-0.055823833
75	0x3d938231	0.072025664
76	0x3cc664b3	0.024217939
77	0xbcae0665	-0.021243284
78	0xbcf112d9	-0.029427933
79	0x3d98937a	0.07450004
80	0x3d2f8e7f	0.042860504
81	0x3d6e7db2	0.05822534
82	0x3c6e5de8	0.014548756
83	0x3d50f82c	0.051017925
84	0x3da04052	0.07824768
85	0x3d69e6ac	0.05710475
86	0x3d378bc2	0.044811018
87	0xbcde99de	-0.027172979
88	0xbc97c297	-0.018525405
89	0xbd3bb493	-0.045826506
90	0x3d43b14b	0.0477765
91	0x3c137e06	0.009002214
92	0x3d624a65	0.05524673
93	0x3d189bc6	0.037257932
94	0x3cd57457	0.026056452
95	0x3c957816	0.018245738
96	0x3d25c9e8	0.040475756
97	0xbd27e86d	-0.040993143
98	0xbdafd624	-0.08585766
99	0xbcf03f14	-0.029326953
100	0x3d1020da	0.03518758
101	0x3ce34922	0.027744833
102	0xbd90979e	-0.07060169
103	0xbdbffc37	-0.09374278
104	0x3d943ec5	0.07238535
105	0x3be3b8b6	0.0069495095
106	0xbd85d606	-0.06534962
107	0x3d1a67ea	0.037696756
108	0xbd8b6b1e	-0.0680754
109	0xbd5bdab2	-0.05367536
110	0xbd8e15af	-0.069377296
111	0xbd839bfe	-0.064262375
112	0x39355a2b	0.00017295095
113	0x3d01b868	0.031670004
114	0x3d98ddc6	0.07464175
115	0xbc843f90	-0.01614359
116	0xbda68420	-0.081306696
117	0xbd730a2a	-0.059335865
118	0x3d250144	0.04028441
119	0xbca1cccb	-0.019750973
120	0xbd16eee4	-0.036848918
121	0xbd3fe5df	-0.04685008
122	0x3af72085	0.0018854296
123	0x3c4b56c6	0.012410825
124	0xbc810549	-0.01574959
125	0xb9bdc267	-0.0003619373
126	0xbc85736e	-0.016290393
127	0xbd39ca16	-0.04535874
128	0x3d87de2a	0.06634171
129	0x3d8fea91	0.07027162
130	0x3d57a02d	0.05264299
131	0x3bcc3508	0.0062319078
132	0x3cffe73c	0.03123819
133	0x3e10adee	0.14128849
134	0x3db82551	0.089914925
135	0x3cbe1804	0.02320481
136	0x3da15f49	0.07879502
137	0x3dade0c9	0.0849014
138	0xbbd66cab	-0.006543716
139	0x3d9a2e89	0.07528407
140	0x3ae3263f	0.0017330124
141	0x3c715dd2	0.014731841
142	0x3e1dfef2	0.15429285
143	0x3d9a0ab2	0.07521571
144	0xbd9991a4	-0.07498482
145	0xbd10cb56	-0.035350166
146	0xbb5db71a	-0.003383106
147	0x3ded6873	0.11592188
148	0xbd03b2b6	-0.032152854
149	0xbd369b9f	-0.044582006
150	0xbd842969	-0.06453211
151	0x3b3d77fb	0.0028910625
152	0x3dca90f0	0.09890926
153	0x3bb260b7	0.005443658
154	0x3cf7b22d	0.030236328
155	0x3c630e7e	0.013858436
156	0xbd4e7a3a	-0.050409533
157	0x3d2c1f9e	0.04202234
158	0x3d2105a3	0.039312016
159	0xbd80cc74	-0.06288996
160	0x3d2642a1	0.040590886
161	0x3d27bb8c	0.040950343
162	0xbd6af1c6	-0.05735948
163	0x3ccae4d0	0.02476731
164	0x3cd96eee	0.026542153
165	0x3d0792d4	0.03309901
166	0x3d001c77	0.031277146
167	0x3d527e0c	0.05138974
168	0xbdc4c4ba	-0.09607835
169	0xbd902f0e	-0.07040225
170	0xbd132b47	-0.035929944
171	0x3d9b9ac0	0.075978756
172	0xbd585ef6	-0.052824937
173	0xbc7a5c0a	-0.015280733
174	0xbd347ab9	-0.04406235
175	0xbdb658a4	-0.089036256
176	0x3d4634ac	0.048390076
177	0x3d78ebc1	0.060771707
178	0xbc3bb902	-0.0114576835
179	0x3d6965d1	0.056981865
180	0xbd06482c	-0.032783672
181	0x3d09fda8	0.03368917
182	0x3ce814cc	0.02833023
183	0x3d772c6d	0.060345102
184	0xbdb64c5c	-0.08901283
185	0x3ca206a0	0.01977855
186	0xbb9cf365	-0.004789757
187	0xbd640be1	-0.05567539
188	0xbd13266e	-0.03592532
189	0x3b8c83d8	0.004288178
190	0xbd59dd6c	-0.05318968
191	0xbc2bcde7	-0.010486103
192	0x3c9a157f	0.018809078
193	0x3ccb43f4	0.024812676
194	0x3c0a1d04	0.008429769
195	0x3d5c8f61	0.053847674
196	0xbcb6fd59	-0.022337602
197	0x3c9075a8	0.017634228
198	0xba94a83b	-0.001134164
199	0xbcff67d8	-0.031177446
200	0xbd5f4079	-0.054504845
201	0xbd568210	-0.05237013
202	0x3d073a20	0.033014417
203	0x3adb7c4a	0.0016745415
204	0x3da12648	0.0786863
205	0xbb9d4486	-0.0047994284
206	0xbd46689e	-0.048439614
207	0x3b21cae1	0.0024687576
208	0x3d87b62a	0.06626542
209	0x3c324316	0.010880252
210	0xbd6bae70	-0.057539403
211	0x3d385f1f	0.04501259
212	0xbc4d806f	-0.012542828
213	0xbdacfdca	-0.08446844
214	0x3c1794d7	0.009251795
215	0xbd1234b4	-0.035694793
216	0xbb5e8909	-0.003395619
217	0x3d714b4d	0.058909703
218	0xbb920d8b	-0.004457181
219	0x3c7cc4d0	0.015427783
220	0xbd339bda	-0.043849804
221	0xbcb02d25	-0.021505902
222	0xbc13c496	-0.009019038
223	0xbcd7d7e4	-0.026348062
224	0xbc85fdb5	-0.016356329
225	0xbcd51070	-0.026008815
226	0x3d43c6ff	0.0477972
227	0x3c786b1c	0.015162256
228	0x3d953ef3	0.07287397
229	0xbd7ba5a3	-0.06143726
230	0xbd75a9ff	-0.059976574
231	0xbca55f35	-0.020187
232	0x3b0337f2	0.002002236
233	0x3d170c01	0.036876682
234	0x3bcfa715	0.0063370564
235	0xbd36091b	-0.044442277
236	0x39e8f908	0.0004443603
237	0x3ce31135	0.027718166
238	0xbadcc205	-0.001684249
239	0xbd8b75ce	-0.06809579
240	0xbda2b9e2	-0.079456106
241	0xbc6fa621	-0.014627011
242	0xbd050f8b	-0.032485526
243	0x3c5eb993	0.013594049
244	0x3c74f436	0.014950803
245	0xbcddcde4	-0.027075715
246	0x3c6e7f45	0.014556711
247	0xbcfae413	-0.030626332
248	0x3d39eb5b	0.045390468
249	0xbca1c9c4	-0.01974953
250	0x3cd9d85f	0.026592432
251	0x3d159eda	0.036528446
252	0xbd113390	-0.035449564
253	0x3c4ae390	0.012383357
254	0xbd3dda7e	-0.04635095
255	0xbda22227	-0.0791667

conv2.bias f4 [32]
0	0x3cbdb595	0.023157874
1	0x3e0791e7	0.13239251
2	0xbc608584	-0.013703708
3	0xbeba23f3	-0.36355552
4	0x3d7812cd	0.060564805
5	0xbe8bf02e	-0.2733168
6	0x3d973898	0.07383841
7	0xbf1b17d3	-0.6058323
8	0xbe86d838	-0.26336837
9	0xbccdb1cb	-0.025109192
10	0x3d9c4dcf	0.07632028
11	0x3de00bb3	0.109397314
12	0xbd659136	-0.056046687
13	0xbeaceafd	-0.33773032
14	0x3da309d4	0.07960859
15	0x3d9872e3	0.07443788
16	0x3d2861d1	0.04110891
17	0xbdb3cc16	-0.08779161
18	0x3da6fa37	0.081531934
19	0x3d01864a	0.03162221
20	0xbef1f673	-0.47258338
21	0xbeb37520	-0.35050297
22	0xbf0a3e97	-0.54001755
23	0xbc598a2c	-0.013277572
24	0xbd1676f7	-0.036734547
25	0xbd6bda84	-0.05758144
26	0xbeb50691	-0.35356572
27	0xbefb529e	-0.4908647
28	0xbefe1170	-0.4962268
29	0xbf11e1a5	-0.5698493
30	0x3c13d19a	0.009022141
31	0x3da071f8	0.07834238

conv3.weight f4 [64, 32, 3, 3]
0	0xbc2fa0b5	-0.010719468
1	0x3d3ed085	0.04658558
2	0xbbc9e217	-0.006160985
3	0xbcbf047e	-0.023317572
4	0x3ca20f5f	0.01978272
5	0xbcf1890b	-0.029484292
6	0xba695bc0	-0.00089019164
7	0xbd46edac	-0.048566505
8	0xbd04f61a	-0.032461263
9	0x3c554167	0.013016081
10	0x3c4b9a49	0.012426921
11	0x3c66d198	0.014088057
12	0x3d3d1bab	0.046168964
13	0xbc841737	-0.016124351
14	0x3c8ca6df	0.017169414
15	0x3d297326	0.04136958
16	0x3d9516e5	0.072797574
17	0xbd5c4094	-0.053772524
18	0x3c3e38c2	0.011610212
19	0x3b22669f	0.0024780405
20	0xbcb7417f	-0.022370098
21	0xbbe6230f	-0.0070232223
22	0x3cbae12c	0.022812448
23	0xbccd0167	-0.025025083
24	0xbd326bb0	-0.04355973
25	0x3b0f5971	0.002187338
26	0xbc249499	-0.010045194
27	0x3bfbdf8d	0.0076865614
28	0xbcd7901d	-0.026313836
29	0xbbf03563	-0.007330583
30	0x3d37e731	0.044898216
31	0x3bc02b8d	0.0058645667
32	0xbbe2b355	-0.0069183507
33	0xbb07a357	-0.0020696723
34	0xbd3a6057	-0.045502033
35	0x3c829137	0.015938384
36	0xbb91b70f	-0.004446871
37	0xbc4a7180	-0.012356162
38	0x3bff3799	0.00778861
39	0xbcd8e016	-0.02647404
40	0x3b4c519a	0.0031176568
41	0x3cdec845	0.027195105
42	0x3b3f3b00	0.0029179454
43	0xbc14257e	-0.009042142
44	0x3c3c8c93	0.011508125
45	0x3caa59a1	0.020794692
46	0xbc4f3bed	-0.012648565
47	0xbd040f4f	-0.032241162
48	0xbcb39f2e	-0.021926489
49	0x3af6903b	0.0018811295
50	0xbcf6d883	-0.030132538
51	0xbd504f58	-0.050856918
52	0xbd2cf77b	-0.042228203
53	0xbd3eddea	-0.046598352
54	0xbcbf6059	-0.023361372
55	0xbc449a12	-0.011999624
56	0xbb062c1f	-0.0020473076
57	0xbd635229	-0.055498276
58	0xbd4591c9	-0.048234735
59	0xbb0b96fb	-0.0021299708
60	0xbc578311	-0.013153807
61	0xbcb2e9f6	-0.021840077
62	0x3bb605c1	0.005554885
63	0xbc598586	-0.013276463
64	0xbce8758e	-0.028376367
65	0x3c172594	0.009225268
66	0x3cc93431	0.02456102
67	0x3d1b8eb9	0.037977908
68	0x3c6708bf	0.014101206
69	0x3d060593	0.03272016
70	0x3ba9870c	0.0051735695
71	0x3d0ce2c5	0.03439595
72	0x3c6ca569	0.014443734
73	0x3c0e3126	0.00867871
74	0x3ae9a3eb	0.0017825341
75	0xbd1a11e7	-0.03761473
76	0xbc996066	-0.018722724
77	0xbcf07619	-0.029353188
78	0x3c5f9c45	0.013648097
79	0x3d43b6d3	0.047781777
80	0x3c65940f	0.014012351
81	0xba7b6984	-0.0009590613
82	0x3c386bb6	0.011256149
83	0xbc9ae7ff	-0.018909452
84	0xbcab3628	-0.020899847
85	0xbd51ce0d	-0.051221896
86	0x3d37b873	0.04485364
87	0xbb39a469	-0.0028326756
88	0xbbde9246	-0.0067923395
89	0xbbd18e45	-0.0063951337
90	0x3d1069ad	0.03525703
91	0xbcc649c7	-0.024205102
92	0x3d1eb72c	0.038748905
93	0x3ae9d359	0.0017839476
94	0x3d46e386	0.048556827
95	0xbdbb7081	-0.09152318
96	0xbce1ef92	-0.027580056
97	0xbd42db73	-0.047572564
98	0x3d22d9b0	0.039758384
99	0x3bfdac6c	0.0077415016
100	0x3c92aad2	0.01790372
101	0x398b54ef	0.00026575426
102	0x3cd40cb1	0.025884958
103	0x3b94db84	0.00454277
104	0x3c97637f	0.01848006
105	0x3d4a56c4	0.049399152
106	0x3d7ee4a8	0.062229782
107	0x3c91222d	0.017716492
108	0xbd6dd3be	-0.05806326
109	0x3c313b6e	0.010817392
110	0x3c794d40	0.015216172
111	0x3c92d563	0.017924016
112	0x3c597eab	0.013274829
113	0xbd2c47be	-0.042060606
114	0x3d143971	0.036187593
115	0xbbdfb085	-0.0068264627
116	0x3d7bb565	0.06145229
117	0xbe097cd0	-0.13426518
118	0xbd08b260	-0.033373237
119	0x3a4cd3bf	0.0007813535
120	0x3cc9bb78	0.024625525
121	0xbddc6a03	-0.10762408
122	0xbd7f6313	-0.062350344
123	0xbca7ddd6	-0.020491522
124	0xbca8f498	-0.020624444
125	0xbd161f18	-0.036650747
126	0x3d9dec70	0.077111125
127	0xbc2599db	-0.010107483
128	0xbd39f17c	-0.045396313
129	0xbdeedc23	-0.116630815
130	0xbdd6819c	-0.1047394
131	0x3cc3a6c9	0.02388324
132	0xbbd7e2fd	-0.0065883384
133	0xbd416c3a	-0.047222354
134	0x3d6ea40e	0.058261923
135	0x3cc6b835	0.024257759
136	0x3d475866	0.048668288
137	0x3cf325b8	0.029681072
138	0xbd0698c0	-0.032860518
139	0xbcb873bb	-0.022516122
140	0xbc8b7d75	-0.017027596
141	0xbd0853ff	-0.03328323
142	0xbd13de54	-0.0361007
143	0xbc20df68	-0.009818889
144	0xba46cfd8	-0.0007584072
145	0xbcf37d96	-0.02972297
146	0x3b3941b7	0.002826793
147	0x3c94f654	0.018183865
148	0x3d770909	0.06031135
149	0xbaca05ca	-0.0015413102
150	0x3b90b947	0.004416618
151	0xbc5e078b	-0.013551603
152	0xbd726fb5	-0.059188563
153	0x3cb6db68	0.022321418
154	0xbcc07abf	-0.02349603
155	0x3d70074a	0.0586007
156	0xbc11722b	-0.008877317
157	0xbca6c80a	-0.020359058
158	0xbda9acb7	-0.08284896
159	0xbc079c2a	-0.0082769785
160	0x3cf8d2a5	0.03037388
161	0x3c347adb	0.011015619
162	0x3cbb3756	0.022853535
163	0x3d2189d2	0.039438076
164	0x3bc08fd0	0.005876519
165	0xbce986d7	-0.02850668
166	0x3d24d0fb	0.04023836
167	0xbb17cbb1	-0.002316218
168	0xbcaafdf5	-0.02087305
169	0x390f415e	0.00013661894
170	0xbca317a8	-0.019908741
171	0x3830df38	4.216956e-05
172	0xbccba1a3	-0.024857348
173	0x3c3afbd6	0.011412581
174	0xbc9964dd	-0.018724853
175	0x3d340eed	0.043959547
176	0x3d3570be	0.044296972
177	0x3d02ee61	0.031965617
178	0x3cf230cd	0.029564286
179	0x3cf01cb5	0.029310564
180	0x3c95a2ff	0.0182662
181	0xbd1b647a	-0.03793762
182	0x3b1ee034	0.0024242522
183	0x3c53ed43	0.012934986
184	0xbc7d93ab	-0.015477101
185	0xbd8003af	-0.062507026
186	0xbcdb0b05	-0.026738653
187	0x3bc5d986	0.0060378937
188	0xbb9ff4de	-0.0048814854
189	0xbd1957ea	-0.037437357
190	0xbc90c67c	-0.01767277
191	0x3cb942e6	0.022614907
192	0x3cf56824	0.029956885
193	0x3cf42e1c	0.029807143
194	0x3d63bb51	0.05559856
195	0xbcc180a5	-0.023620913
196	0x3d6cfd5f	0.05785882
197	0x3d220b6d	0.039561678
198	0xbba0495c	-0.0048915576
199	0xbcd7e8c5	-0.02635611
200	0x3c626eb1	0.013820336
201	0x3caed41b	0.021341374
202	0x3bbf9c7d	0.0058475123
203	0x3b8e2994	0.0043384526
204	0x3c2746ec	0.01020978
205	0xbd2eb921	-0.04265702
206	0xbd5f3579	-0.054494355
207	0xbcae8632	-0.021304224
208	0x3d466416	0.048435293
209	0xbbb928d0	-0.005650617
210	0xbc804a58	-0.01566045
211	0x3ce26171	0.027634354
212	0xbba99fba	-0.0051765116
213	0xbc777226	-0.015102899
214	0xbdefa555	-0.117014565
215	0xbdc2e3e4	-0.09516123
216	0x3cb0b3cb	0.021570107
217	0x3bb61e55	0.005557815
218	0xbd041b86	-0.03225281
219	0xbd34dcfe	-0.044156067
220	0xbd2fcdfd	-0.042921055
221	0xbccdbe8f	-0.02511528
222	0x3ca297f9	0.019847857
223	0xbd89f012	-0.06735243
224	0xbd02bad8	-0.03191647
225	0x3b17124b	0.0023051675
226	0x3c415167	0.011799193
227	0xbd3c5b6d	-0.045985628
228	0x3d1b32ce	0.037890248
229	0xbc261146	-0.010135954
230	0x3cc38bab	0.02387031
231	0x3b67502f	0.0035295596
232	0x3d1161e1	0.035493735
233	0x3c4c725f	0.01247844
234	0xbb504246	-0.0031777783
235	0x3cec7a12	0.028866801
236	0xbce7bfc7	-0.028289689
237	0xbbb8a23b	-0.0056345738
238	0xbd005bbf	-0.031337496
239	0xbcc47a36	-0.023984056
240	0x3ce954f8	0.0284829
241	0xbc69d846	-0.014272755
242	0x3d1b54ab	0.037922543
243	0xbba49a5d	-0.0050232843
244	0xbdb40d10	-0.08791554
245	0x3afa3316	0.0019088711
246	0xbd62b126	-0.055344723
247	0xbdf6cc3d	-0.12050674
248	0x3d6c33e9	0.057666693
249	0x3b128a43	0.0022360242
250	0xb997422e	-0.00028850272
251	0xbb9fb01c	-0.004873289
252	0x3ca4ab78	0.020101294
253	0x3b8def98	0.0043315403
254	0xbc98b89a	-0.018642712
255	0xbba0df28	-0.004909415

conv3.bias f4 [64]
0	0xbddc297a	-0.107500985
1	0x3dbc6544	0.091990024
2	0xbe2ab0de	-0.16669032
3	0x3de8cbed	0.11367021
4	0x3d843b89	0.06456668
5	0x3dfbeacc	0.12300643
6	0xbefbe44e	-0.4919762
7	0xbf3c7bfb	-0.7362668
8	0x3d5b3954	0.05352147
9	0x3df2994d	0.11845646
10	0xbd59dd88	-0.053189784
11	0xbeb5a769	-0.35479286
12	0xbee06a91	-0.43831304
13	0xbf0a3a46	-0.5399517
14	0x3d9d92c9	0.07694013
15	0x3dd12ccb	0.10213622
16	0x3df6ee1e	0.12057136
17	0x3d35f18d	0.044419814
18	0xbeab5547	-0.334635
19	0x3dc33b67	0.095328145
20	0x3dc4ca78	0.0960893
21	0x3ca892ab	0.02057775
22	0x3dda15ef	0.10648715
23	0xbd870357	-0.06592434
24	0x3d9ff395	0.078101315
25	0xbe665a68	-0.22495425
26	0xbe867878	-0.26263785
27	0xbe0962e6	-0.13416633
28	0x3d45c3ca	0.048282422
29	0x3da5208c	0.080628484
30	0xbf12fe55	-0.5741933
31	0x3daa35b3	0.083110236
32	0x3dda7deb	0.10668548
33	0x3d954f9b	0.07290574
34	0xbeb1de2d	-0.3473982
35	0xbe8dcd61	-0.27695754
36	0x3cfe0994	0.031010427
37	0xbec34942	-0.3814183
38	0xbf317d74	-0.6933205
39	0xbeae1c72	-0.34006077
40	0xbe59a312	-0.21253613
41	0x3d82d8e8	0.06389028
42	0xbf19a60b	-0.60018986
43	0x3de54fe9	0.11196882
44	0xbf067755	-0.52525836
45	0xbf1bb35f	-0.60820574
46	0xbd69129e	-0.05690252
47	0xbe83e76b	-0.25762495
48	0xbdd4d968	-0.103930295
49	0xbcc42222	-0.023942057
50	0xbed53f63	-0.41649923
51	0xbe64de33	-0.22350387
52	0x3a71e3a1	0.000922734
53	0xbf1bd111	-0.60865885
54	0xbe849c09	-0.25900295
55	0x3e0bc5d4	0.13649684
56	0xbe36d4bd	-0.1785459
57	0xbf1ccf23	-0.61253566
58	0xbf0b7258	-0.5447135
59	0x3dfb9ce1	0.12285782
60	0xbe6ed688	-0.23324025
61	0xbe6bac56	-0.2301496
62	0x3da788c4	0.08180383
63	0xbee548eb	-0.44782194

conv4.weight f4 [128, 64, 3, 3]
0	0xbb2ad91e	-0.0026069353
1	0xbc438f2e	-0.011935992
2	0xbb98a4a2	-0.0046582976
3	0x3cf6110a	0.030037422
4	0xbca7ebc2	-0.02049816
5	0x3bbdd232	0.0057928795
6	0xbc008589	-0.007844337
7	0x3c989744	0.018626817
8	0x3c07e7dc	0.008295026
9	0x3cec559a	0.028849412
10	0x3ceabfc7	0.0286559
11	0xbde047cb	-0.109511934
12	0x3bc44b5b	0.0059904284
13	0xbcf39731	-0.02973518
14	0xbc9feebe	-0.01952302
15	0x3d00c357	0.03143629
16	0x3c061621	0.008183987
17	0xbc81fef3	-0.01586864
18	0x3d780e95	0.06056078
19	0x3d2a428c	0.04156737
20	0x3d8cbb6c	0.068716854
21	0x3c921e88	0.017836824
22	0x3ce43344	0.027856477
23	0x3c876d44	0.016531594
24	0xbca362eb	-0.019944629
25	0xbd0a4679	-0.033758614
26	0xbd4db0e6	-0.05021753
27	0x3cc75f3d	0.024337405
28	0xbd56dd34	-0.05245705
29	0xbce67781	-0.028133156
30	0xbce2bb4b	-0.027677199
31	0x3ca1c278	0.01974605
32	0x39bbd432	0.00035825517
33	0x3d1623eb	0.036655348
34	0x3d3bf62d	0.04588907
35	0xbc91c318	-0.017793223
36	0x3c1fad39	0.009745889
37	0x3d472d8d	0.048627425
38	0xbdcf71a0	-0.10129094
39	0xbd16b5c1	-0.036794428
40	0xbd79d2d6	-0.060992084
41	0x3b05d853	0.0020423129
42	0xbd0d404e	-0.034485154
43	0x3c4833c9	0.012219378
44	0xbb878178	-0.004135307
45	0xbda8b296	-0.082371876
46	0x3d4f9c00	0.050685883
47	0xbc8e434c	-0.017366074
48	0xbbd7b4d9	-0.006582838
49	0x3b6a518c	0.0035754172
50	0xbd828af7	-0.06374162
51	0xbc60509c	-0.013691094
52	0xbd492256	-0.04910501
53	0x3bd29509	0.006426458
54	0x3cf687c9	0.030094044
55	0x3cf40d5b	0.029791525
56	0x3c6230c3	0.013805571
57	0x3c8aabdc	0.016927652
58	0xbd8dd1d4	-0.06924787
59	0x3cee3cad	0.029081667
60	0xb8b88446	-8.7984416e-05
61	0x3d6d568f	0.057943877
62	0x3bd2a7a7	0.006428677
63	0x3cbe6de2	0.023245756
64	0xbc33f01b	-0.010982539
65	0xbd066f71	-0.032821123
66	0x39d07497	0.00039759718
67	0xbc1e0d3a	-0.009646708
68	0x3d3cf3b5	0.046130855
69	0x3c857bb1	0.016294332
70	0xba0e90a7	-0.0005438425
71	0xbd0d767a	-0.034536816
72	0xbca444ed	-0.020052398
73	0xbcc8f3ec	-0.024530374
74	0xbc3b2b1d	-0.011423853
75	0x3c2e83ed	0.010651571
76	0xbd0c3bc9	-0.034236703
77	0x3c333eab	0.010940234
78	0x3d0fd1a2	0.03511203
79	0x3c5bf5cd	0.013425303
80	0x3c70de95	0.014701505
81	0xbd22368a	-0.039602794
82	0xbca9cb1e	-0.020726737
83	0x3c8462bd	0.016160363
84	0x3bfd60c1	0.007732481
85	0x3cb42f71	0.021995278
86	0x3cce4905	0.025181303
87	0xbd48b9ba	-0.049005248
88	0xbc0bccb3	-0.008532691
89	0x3c82871a	0.015933562
90	0x3d87cb22	0.066305414
91	0xbc899cf5	-0.016798476
92	0xbdfe1cd3	-0.124078415
93	0xbb9474e3	-0.0045305355
94	0x3b1713b5	0.0023052518
95	0x3becc28b	0.0072253398
96	0x3bb713eb	0.005587091
97	0x3bc3eade	0.005978926
98	0x3c64c814	0.013963718
99	0xbce9dc78	-0.02854751
100	0x3d12fc24	0.03588499
101	0xbcf15509	-0.029459493
102	0x3b156a5f	0.0022798998
103	0xbb51ad4e	-0.0031994167
104	0xbd035c8d	-0.032070685
105	0x3c8e028f	0.017335204
106	0xbbb43e35	-0.0055005797
107	0x387a7953	5.9717637e-05
108	0x3ce51678	0.027964815
109	0x3c47246a	0.012154678
110	0x3a5e4667	0.00084791187
111	0x3b242b55	0.0025050242
112	0x3cc7f86b	0.024410447
113	0xbd76c4bc	-0.060246214
114	0xbd2db4f1	-0.042408887
115	0xbd8a72e8	-0.06760198
116	0x3d138807	0.036018398
117	0x3c9b9aab	0.01899465
118	0x3d48173f	0.048850294
119	0x3a780e08	0.000946254
120	0x3a8d7920	0.0010793544
121	0xbc885e5a	-0.016646553
122	0x3cc8bdc3	0.024504548
123	0xbd30645c	-0.04306446
124	0x3c80af63	0.01570863
125	0xbba8dd8a	-0.0051533626
126	0xbc9fa844	-0.019489415
127	0xbd7a9443	-0.06117655
128	0xbbc53558	-0.006018322
129	0x3cb73125	0.022362301
130	0xbca98d74	-0.020697333
131	0xbd0b8cb2	-0.034069724
132	0xbc224297	-0.009903572
133	0xbbbcabed	-0.0057578
134	0xbcabccfc	-0.020971768
135	0xbd2d81bb	-0.04236005
136	0xbcbf8a0e	-0.02338126
137	0x3d18d9f5	0.037317235
138	0xbb15cc99	-0.0022857545
139	0xbd5c146f	-0.053730424
140	0x3c1e3f43	0.009658637
141	0xbbdb6d3e	-0.0066963723
142	0x3c8e5cbd	0.017378205
143	0xbc34108c	-0.010990273
144	0xbd5760ef	-0.052582677
145	0xbcb75ba8	-0.022382572
146	0xbd758beb	-0.05994789
147	0x3d160f65	0.036635775
148	0xbc199c93	-0.009375709
149	0xbd235f47	-0.039885785
150	0x3d837b20	0.064199686
151	0x3c394d9c	0.011310007
152	0x3cd80a50	0.026372105
153	0xbd87d223	-0.06631877
154	0xbcca962e	-0.024729814
155	0xbdbd8890	-0.09254563
156	0x3c12a527	0.008950508
157	0x3c08cb94	0.008349318
158	0xbcfb6c51	-0.030691298
159	0x3d4f51c7	0.0506151
160	0x3c851338	0.016244516
161	0x3b457549	0.0030129722
162	0xbcae751f	-0.021296082
163	0xbb1a78cb	-0.0023570533
164	0xbb71172c	-0.0036787493
165	0x3d5d8c0c	0.054088637
166	0xbbf680e9	-0.0075226915
167	0x3d0fd97c	0.03511952
168	0xbce7f252	-0.02831379
169	0x3b3fe44a	0.0029280358
170	0x3d25ac2c	0.0404474
171	0x3c05facc	0.00817747
172	0xbb3da319	-0.0028936325
173	0xbce60c5b	-0.028082063
174	0xbc306b94	-0.010767836
175	0x3bac93a8	0.0052666254
176	0xbd0bae3c	-0.03410171
177	0x3cdb0545	0.026735911
178	0x3c3910f6	0.011295548
179	0x3b07e9a9	0.0020738638
180	0xbb8cfb57	-0.004302423
181	0xbd44f7aa	-0.048087753
182	0xbae40997	-0.0017397878
183	0x3c86d59e	0.016459282
184	0x3bff372d	0.00778856
185	0xbc215f91	-0.009849445
186	0xbb9c89d3	-0.004777172
187	0xbc50f38b	-0.012753378
188	0xbcafcea0	-0.021460831
189	0x3d8ed4fc	0.06974217
190	0xbd516785	-0.051124115
191	0xbbd8d60a	-0.0066173123
192	0x3cb1f68d	0.02172401
193	0x3d168286	0.03674557
194	0xbd064b43	-0.03278662
195	0x3c6b1899	0.014349126
196	0x3b3f1c8e	0.0029161307
197	0xbbf7771d	-0.007552041
198	0x3d733f43	0.059386503
199	0x3c8a79bf	0.016903756
200	0x3c8ee1cd	0.017441655
201	0xbd4254a5	-0.047444005
202	0xbc0adbd2	-0.008475261
203	0x3d9a5d2d	0.07537303
204	0x3c88007e	0.016601797
205	0x3c61ef0f	0.013789906
206	0x3cbfae6d	0.023398602
207	0xbc64cae1	-0.013964386
208	0xbc707e1b	-0.014678503
209	0xbd1db181	-0.03849936
210	0x3bdd9699	0.0067623374
211	0xbd4fe49e	-0.050755136
212	0x38dc0d81	0.00010492933
213	0xbc620317	-0.013794682
214	0xba870e77	-0.0010303993
215	0x3c6d49ef	0.014482959
216	0x3d3cd153	0.046098065
217	0x3d50cc9c	0.05097638
218	0x3c7b7c6d	0.01534949
219	0xbd2a94d6	-0.041645847
220	0xbcc7c5d1	-0.024386318
221	0x3c6b38f7	0.014356843
222	0xbbdb52b2	-0.0066932077
223	0xbbd963eb	-0.0066342256
224	0x3bb4ff7f	0.0055236216
225	0xbcc41d8d	-0.023939872
226	0xbd7d1af8	-0.061793298
227	0x3c7edf1c	0.015556123
228	0xbd3c9514	-0.04604061
229	0x3c18123f	0.009281694
230	0x3c14fe76	0.009093871
231	0x3d515ca9	0.05111376
232	0xbc7796e8	-0.015111662
233	0xbc201fa3	-0.009773168
234	0x3c35506e	0.011066539
235	0xbc106926	-0.008814132
236	0xbce41cc3	-0.027845746
237	0x3b7360d7	0.0037136578
238	0x3b5adace	0.0033394578
239	0xbd0264c0	-0.031834364
240	0x3d58ecf2	0.052960344
241	0xbd25094f	-0.04029208
242	0x3d12a75f	0.03580415
243	0xba7ab428	-0.00095635885
244	0xbc1a94f4	-0.009434927
245	0xbcfbda6a	-0.030743796
246	0xbc1c0990	-0.009523764
247	0xbd2b4d77	-0.041821923
248	0xbd82f477	-0.06394284
249	0x3c75affa	0.014995569
250	0xbd35c262	-0.04437483
251	0xbcbb0c7d	-0.022833103
252	0x3da586e7	0.08082371
253	0x3cd8d58c	0.026469015
254	0x3d6624e5	0.05618753
255	0x3c8887d5	0.016666332

conv4.bias f4 [128]
0	0xbde8bcb1	-0.11364115
1	0xbd88cd37	-0.066797666
2	0x3dfb826d	0.12280736
3	0xbd5a8f4c	-0.053359315
4	0xbc8493e8	-0.016183808
5	0x3db38634	0.087658316
6	0xbe5f3926	-0.21799144
7	0xbad0ee6a	-0.0015940194
8	0x3dd68f42	0.10476543
9	0x3de817de	0.11332677
10	0xbdd8f62a	-0.10593827
11	0xbe0866c5	-0.13320453
12	0x3daa6245	0.08319525
13	0x3d086e17	0.033308115
14	0xbb6ec6d2	-0.0036434424
15	0xbe3b3a1e	-0.18283889
16	0x3def64d6	0.11689155
17	0x3d99f3ed	0.07517228
18	0x3de3d101	0.11123849
19	0x3dd7c071	0.10534752
20	0x3d84d198	0.06485289
21	0x3d8b6dfd	0.06808088
22	0x3d2d351e	0.042286985
23	0x3d3e6803	0.046485912
24	0x3d75db40	0.060023546
25	0x3df3251e	0.11872314
26	0xbe9e4a72	-0.30916172
27	0x3d98a1b2	0.07452716
28	0xbdb6fc58	-0.089348495
29	0x3daa1481	0.08304692
30	0x3da8b552	0.08237709
31	0xbc7c9b11	-0.01541783
32	0x3cf8dc76	0.030378561
33	0x3dca65c1	0.09882689
34	0x3ce384ef	0.027773349
35	0xbe1ddee1	-0.15417053
36	0x3df77c3b	0.12084242
37	0x3db9f9b6	0.09080832
38	0x3e0a4b82	0.13505366
39	0x3e0ef52e	0.13960716
40	0x3db2e689	0.08735377
41	0x3d1641d0	0.036683857
42	0x3d9d68ce	0.076860055
43	0xbe985b93	-0.29757366
44	0x3d5e65a8	0.054296166
45	0x3df220ec	0.118226856
46	0xbe12caa2	-0.14335111
47	0x3d9c42e2	0.076299444
48	0x3dae0b3c	0.084982365
49	0x3dce0cc4	0.100610286
50	0x3dba7156	0.09103648
51	0xbdffafb3	-0.12484684
52	0xbd9d0475	-0.07666866
53	0xbe9210cf	-0.2852845
54	0x3d12eb93	0.035869192
55	0xbe1bc887	-0.15213214
56	0x3d95669a	0.0729496
57	0xbd8a7014	-0.067596585
58	0x3d6f1964	0.058373824
59	0x3d929601	0.07157517
60	0x3d9e6c3a	0.07735486
61	0xbdb110e0	-0.08645797
62	0xbe2b56d5	-0.16732343
63	0xbdd7e2ba	-0.105412915
64	0x3c5e66e5	0.013574337
65	0x3daf86e0	0.08570647
66	0x3db73638	0.08945888
67	0xbdaadc38	-0.08342785
68	0x3dd47afd	0.10375021
69	0x3de723af	0.11286103
70	0xbd8d1c83	-0.06890204
71	0xbcb18787	-0.02167107
72	0xbd6024d0	-0.054722607
73	0x3d2ddacc	0.04244499
74	0x3c9c30db	0.019066265
75	0xbe21396b	-0.1574456
76	0x3d84c435	0.06482736
77	0xbb62b3d3	-0.0034592047
78	0xbe8411e2	-0.25794894
79	0x3dc6a3d6	0.09699218
80	0x3bd57051	0.0065136333
81	0x3c4c1db4	0.012458254
82	0xbdcbec9b	-0.09957238
83	0x3d3fbedd	0.04681288
84	0x3e07dcf4	0.1326788
85	0xbb4d0c8e	-0.0031288
86	0x3d484d0d	0.048901606
87	0x3d30bd31	0.043149177
88	0xbdaf25f7	-0.08552163
89	0x3dc10dbb	0.09426447
90	0x3de974f2	0.11399259
91	0xbe22c8f6	-0.15896973
92	0x3de61091	0.112336285
93	0x3e0ce7fa	0.13760367
94	0xbe063838	-0.13107383
95	0xbe15deed	-0.1463582
96	0x3dce3047	0.10067802
97	0x3db5b6c0	0.088727474
98	0xbd3f66aa	-0.046728767
99	0xbe8c3939	-0.27387407
100	0x3e08c796	0.13357386
101	0xbde23b1b	-0.1104643
102	0xbdbf559e	-0.09342502
103	0x3d91c4f0	0.07117641
104	0x3de429b2	0.11140765
105	0x3db9c867	0.09071427
106	0x3dba796c	0.09105191
107	0x3dd07647	0.101788096
108	0x3d4fd3f5	0.050739247
109	0x3dce18b2	0.10063304
110	0xbe10dca7	-0.14146672
111	0xbe5e8ddd	-0.21733804
112	0xbe6b5a5e	-0.22983691
113	0x3decc721	0.11561418
114	0xbe30b584	-0.17256743
115	0x3dcad6fd	0.09904287
116	0x3db9664e	0.09052716
117	0x3dd9efdc	0.10641453
118	0x3d9fc88a	0.07801922
119	0x3da052fc	0.07828328
120	0x3d9c8c55	0.07643954
121	0x3dd29803	0.102829
122	0xbd74d5db	-0.05977426
123	0x3d8462ad	0.064641334
124	0xbd3fce97	-0.04682788
125	0xbc998f80	-0.018745184
126	0xbe923321	-0.28554633
127	0xbd83ddba	-0.06438775

conv1T.weight f4 [128, 64, 3, 3]
0	0xbdb22e72	-0.08700265
1	0xbe6ea71c	-0.23305935
2	0x3e95f25a	0.29286462
3	0x3f88bcf2	1.0682662
4	0x3f24d7e9	0.6439195
5	0x3f08b99e	0.5340823
6	0xbecab32c	-0.39589822
7	0x3e1a2e3f	0.15056704
8	0x3f2f6718	0.68516684
9	0x3e2d257d	0.16908832
10	0xbed27f82	-0.41112906
11	0x3d68b9e8	0.05681792
12	0x3ef204e4	0.47269356
13	0xbe067cc2	-0.13133529
14	0x3ed517a7	0.41619608
15	0xbdce9058	-0.10086125
16	0x3e9acc7e	0.3023414
17	0x3f0a2428	0.5396142
18	0x3efc723e	0.4930591
19	0xbc90d3f9	-0.017679201
20	0xbd801336	-0.06253664
21	0x3e12050d	0.14259739
22	0x3d537c1e	0.05163204
23	0x3ebf0597	0.37308952
24	0xbc6d76e2	-0.014493676
25	0x3edd2f98	0.43200374
26	0x3e653d65	0.22386701
27	0x3e8f7bbe	0.28024095
28	0xbe21900f	-0.1577761
29	0x3c34d4d9	0.011037075
30	0x3eb26384	0.3484155
31	0x3dc21803	0.09477236
32	0x3c10118c	0.008793246
33	0x3f531390	0.82451725
34	0x3f658b6e	0.8966588
35	0x3e0ef467	0.1396042
36	0xbdf088c2	-0.117448345
37	0x3d89c574	0.06727114
38	0x3ea27453	0.31729373
39	0x3e4a35e6	0.19747123
40	0x3e84cb77	0.2593648
41	0xbe0f96e9	-0.14022411
42	0x3f6f6876	0.9351877
43	0x3f872930	1.0559444
44	0x3e8a414c	0.27002943
45	0xbea7e040	-0.32788277
46	0xbcb2476d	-0.021762574
47	0xbf1dc7e4	-0.61633134
48	0x3e8fb5bc	0.2806834
49	0x3eeca673	0.4622074
50	0xbde4bd07	-0.111688666
51	0x3ed91aeb	0.4240335
52	0xbd326b1a	-0.04355917
53	0xbdd71aef	-0.10503184
54	0xbd4f006b	-0.050537508
55	0xbebe5acf	-0.37178656
56	0x3e9cf29f	0.30653855
57	0x3f6a12ea	0.9143511
58	0x3ed56ef3	0.4168621
59	0xbc124f03	-0.008929971
60	0x3f1f210a	0.6215979
61	0x3f8a8262	1.082104
62	0xbe49b83d	-0.19699188
63	0xbe7a7da3	-0.24461989
64	0xbd63c204	-0.05560495
65	0x3dd75210	0.10513699
66	0x3e8e7fd0	0.27831888
67	0x3e98120e	0.29701275
68	0x3e4d0fb4	0.20025522
69	0x3ec9f773	0.394466
70	0x3f142463	0.5786802
71	0x3ec38957	0.3819072
72	0xbe8b4080	-0.27197647
73	0x3d4a6a86	0.049417995
74	0xbd1fac9f	-0.038982984
75	0x3f759db8	0.95943785
76	0x3f35b5b3	0.70980376
77	0x3e67da90	0.22641969
78	0x3eacafff	0.33728024
79	0x3e4c9e81	0.1998234
80	0xbf146338	-0.57963896
81	0x3f02c572	0.5108253
82	0x3f131595	0.57454807
83	0x3e6e01b3	0.23242836
84	0x3eb09228	0.34486508
85	0x3e749f56	0.23888907
86	0x3f284525	0.65730506
87	0xbf268e77	-0.65061134
88	0xbf394036	-0.72363603
89	0xbddd84e7	-0.10816365
90	0xbf2e02b2	-0.6797286
91	0x3dcb42ab	0.09924825
92	0xbe8e7ae0	-0.2782812
93	0x3f3003a1	0.6875554
94	0x3f03dcb9	0.5150867
95	0x3e1c9cc4	0.15294176
96	0x3e1dde4a	0.15416828
97	0x3f1db481	0.6160355
98	0xbe633829	-0.22189392
99	0xbdb93c84	-0.090447456
100	0x3cfad22f	0.030617801
101	0xbe6a5ffd	-0.22888179
102	0x3f0b903f	0.5451698
103	0x3f5951a1	0.8489018
104	0x3e6ecf27	0.2332121
105	0xbe497bf8	-0.19676197
106	0x3d89f196	0.06735532
107	0x3eabbab0	0.3354087
108	0x3f83b39e	1.028919
109	0x3f7fe834	0.9996369
110	0x3e2875ba	0.16451159
111	0x3e8116e5	0.2521278
112	0x3ec56b6f	0.38558528
113	0x3e881ca6	0.26584357
114	0xbfb5d67b	-1.4206079
115	0xbe98ec63	-0.2986785
116	0x3f1d5261	0.61453825
117	0xbeb4a4d9	-0.3528202
118	0x3df4d65c	0.11954948
119	0x3d83b88c	0.06431684
120	0x3f3c848b	0.73639745
121	0x3f411917	0.7542891
122	0x3e662d0f	0.22478126
123	0x3e042ca3	0.12907653
124	0x3e69d722	0.22835973
125	0x3ebf0c2a	0.37313968
126	0xbecca12e	-0.3996672
127	0xbe689c63	-0.22715907
128	0xbb742d1d	-0.0037258335
129	0x3eea1ce7	0.45725176
130	0x3f18cab6	0.5968431
131	0x3cd5bc30	0.026090711
132	0x3e822c32	0.25424343
133	0x3f1a7441	0.6033364
134	0x3e494251	0.19654204
135	0x3d8f4624	0.069958
136	0xbf0f9fe9	-0.5610338
137	0xbe2c04b0	-0.16798663
138	0xbcf7e40d	-0.03026011
139	0x3f0a8578	0.5410991
140	0x3f01ccad	0.50702935
141	0x3e2069ca	0.15665355
142	0x3e1af54b	0.15132634
143	0x3e3282ab	0.17432658
144	0x3b9f3802	0.0048589716
145	0x3e97ffa7	0.29687235
146	0xbe94869f	-0.29008958
147	0xbdb10e87	-0.08645349
148	0x3e27843f	0.16359042
149	0x3e098646	0.13430128
150	0xbe673e88	-0.22582448
151	0x3f0218a3	0.5081884
152	0x3ee40766	0.44536895
153	0xbea29738	-0.31755996
154	0xbc489bb6	-0.012244156
155	0x3e8624d2	0.26199967
156	0x3ef64609	0.48100308
157	0xbdbd0f0e	-0.09231387
158	0x3db550f9	0.08853335
159	0x3e3b04ab	0.182635
160	0x3dae121c	0.08499548
161	0x3e3de8e0	0.18545866
162	0x3ebde2c8	0.37087083
163	0x3ec7297f	0.38898847
164	0x3d041004	0.032241836
165	0x3ef51251	0.47865537
166	0x3ce416b6	0.02784286
167	0x3e67c5a3	0.22633986
168	0x3dfd2882	0.12361242
169	0x3ea42c86	0.3206522
170	0x3f188033	0.59570616
171	0x3e79ecdd	0.24406762
172	0x3e834f3a	0.25646383
173	0xbeb33e2e	-0.35008377
174	0x3f00fbeb	0.50384396
175	0x3f80dbb8	1.0067053
176	0x3ec36167	0.3816025
177	0xbd0c95e6	-0.03432264
178	0x3d08fbc5	0.03344323
179	0x3f142698	0.5787139
180	0xbf3c095c	-0.7345178
181	0x3d26f9cd	0.040765572
182	0xbd96df70	-0.07366836
183	0x3e75aa73	0.23990802
184	0x3d83284e	0.06404172
185	0x3b9e6ff0	0.0048351213
186	0x3e8a2548	0.26981568
187	0x3e9cab6d	0.30599537
188	0xbe2afe72	-0.16698626
189	0x3f0195a6	0.5061897
190	0xbf117654	-0.5682118
191	0x3ed786a5	0.42094913
192	0x3e23f587	0.1601163
193	0x3dfa2404	0.12213901
194	0x3e15029d	0.14551778
195	0xbf012fb0	-0.5046339
196	0x3e89340a	0.26797515
197	0x3ea07dca	0.3134597
198	0xbe55d5e9	-0.20882381
199	0xbe38aea7	-0.18035375
200	0xbe8d2fac	-0.27575433
201	0xbe0d7651	-0.13814665
202	0xbd5b302e	-0.053512745
203	0xbd2d4071	-0.042297784
204	0x3e6863df	0.22694348
205	0x3f230815	0.6368421
206	0x3d048aba	0.032358862
207	0x3e8f30c3	0.2796689
208	0x3f03d06f	0.5148992
209	0xbf1a5ad7	-0.6029486
210	0x3eede47b	0.4646338
211	0x3eba60fa	0.36402112
212	0xbd9c784a	-0.07640131
213	0x3ea6319b	0.3245972
214	0x3ed7324e	0.42030567
215	0x3eb666be	0.3562526
216	0x3ece4990	0.402905
217	0x3f1aba0b	0.6044013
218	0xbe4861ef	-0.19568609
219	0x3e96c813	0.2944952
220	0x3f192e4f	0.59836286
221	0x3ea05111	0.3131185
222	0x3f3a3c73	0.7274849
223	0x3f810de7	1.0082368
224	0x3eab82de	0.3349828
225	0xbef3d98f	-0.47626922
226	0xbcfe9a2b	-0.031079372
227	0xbdac5ffc	-0.08416745
228	0x3f33c5f7	0.70223945
229	0x3f1d7419	0.61505276
230	0x3e6d7131	0.2318771
231	0x3f09f14a	0.538838
232	0x3e9172f5	0.28408018
233	0x3e16fbe8	0.14744532
234	0xbe2447e1	-0.16043045
235	0x3e1c27f9	0.15249623
236	0x3cc3c04c	0.023895405
237	0x3e9c6f6c	0.30553758
238	0xbd9b9a54	-0.07597795
239	0x3d931fc3	0.071837924
240	0xbdc74587	-0.09730058
241	0x3ef48c3a	0.47763234
242	0xbddfac5f	-0.10921549
243	0xbde2a4ff	-0.11066627
244	0x3e097c5c	0.13426346
245	0x3e8ccfcc	0.27502286
246	0x3ec8b75c	0.39202392
247	0x3e8ca438	0.2746904
248	0x3d1079f9	0.035272572
249	0xbe6b2305	-0.22962578
250	0x3f03a7a3	0.5142767
251	0xbe91d48c	-0.28482473
252	0xbe44316e	-0.19159481
253	0xbe09724d	-0.13422509
254	0xbee00507	-0.43753836
255	0x3dbeff00	0.09325981

conv1T.bias f4 [64]
0	0xbd10b6a3	-0.035330426
1	0x3d812f74	0.06307879
2	0xbd895129	-0.06704933
3	0xbc067f8f	-0.008209123
4	0xbe018fa6	-0.12652454
5	0x3db488fc	0.0881519
6	0xbc6490b8	-0.013950519
7	0xba906af0	-0.0011018198
8	0xbe2ed144	-0.17072016
9	0xbe3a399e	-0.18186042
10	0x3e4ea84d	0.20181389
11	0x3d51f7f5	0.05126186
12	0xbe8b3c68	-0.27194524
13	0xbd36b1a5	-0.04460301
14	0x3e4b0c28	0.19828856
15	0x3da50a61	0.0805862
16	0x3cbd3abd	0.023099298
17	0xbd1d9532	-0.038472362
18	0x3dc36a19	0.09541721
19	0x3dd23db3	0.102656744
20	0xbb7d72cc	-0.003867316
21	0xbcba4d57	-0.022741957
22	0x3d2fad96	0.042890154
23	0x3d097755	0.03356107
24	0x3d09f5a8	0.03368154
25	0x3d909816	0.07060258
26	0xbd441f44	-0.04788138
27	0x3d1f09aa	0.038827576
28	0xbd67b103	-0.056565296
29	0x3e01bdac	0.1267001
30	0x3d894f90	0.067046285
31	0x3e577407	0.21040355
32	0x3db30d98	0.08742827
33	0x3e1dbdf4	0.15404493
34	0x3dc69156	0.096956894
35	0x3d1cff3e	0.038329355
36	0x3cb011e1	0.0214929
37	0x3d959d88	0.07305437
38	0x3d0100b6	0.03149482
39	0x3da251ba	0.07925744
40	0xbd73ea5d	-0.059549678
41	0x3e12d672	0.14339617
42	0x3d5a7120	0.05333054
43	0xbd2067eb	-0.039161604
44	0x3cb1ad96	0.021689218
45	0xbaf3445c	-0.0018559801
46	0xbbd50470	-0.006500773
47	0xbc78e45d	-0.015191165
48	0x3e336632	0.17519453
49	0x3cdce954	0.026966728
50	0x3cd4e298	0.025986955
51	0x3d3a236a	0.04544393
52	0x3dcd8f63	0.100371145
53	0x3d787b3c	0.0606644
54	0xbdb810bf	-0.08987569
55	0xbcd35a73	-0.025799965
56	0xbe740032	-0.238282
57	0x3d949ddc	0.07256672
58	0x3ba2b76e	0.004965714
59	0x3e081b3e	0.13291642
60	0x3dc00646	0.093761966
61	0x3d8ad00b	0.06777962
62	0xbdc6d7de	-0.09709142
63	0x3d6241d4	0.05523856

conv2T.weight f4 [64, 32, 3, 3]
0	0xbe1a7fed	-0.15087862
1	0xbda0cf21	-0.07852007
2	0x3d9af322	0.07565905
3	0xbf1d7f1b	-0.6152207
4	0xbee05dd5	-0.43821588
5	0xbe1eb3a0	-0.15498209
6	0xbf8be035	-1.0927798
7	0xbe3e9d74	-0.18614751
8	0xbf61cc77	-0.88202614
9	0x3e85bb88	0.26119637
10	0x3f1a618d	0.603051
11	0x3f0fb174	0.56130147
12	0xbd123db3	-0.035703372
13	0xbcf7eee7	-0.030265285
14	0x3eaf27a5	0.34209934
15	0x3ea13eb5	0.31493154
16	0x3ed12380	0.40847397
17	0x3e11d151	0.14240004
18	0xbdf94b12	-0.12172522
19	0xbecb7dbe	-0.3974437
20	0xbecde78a	-0.40215713
21	0xbf05b7ec	-0.5223377
22	0xbf65346a	-0.895331
23	0xbf311306	-0.6916965
24	0x3f1b06b3	0.605571
25	0x3eded064	0.43518364
26	0x3ef2e67e	0.47441477
27	0x3ea07358	0.31338
28	0xbed98390	-0.42483187
29	0xbed09dcd	-0.40745392
30	0x3e9d3133	0.307016
31	0x3ec4542d	0.3834547
32	0xbd98c6e0	-0.074598074
33	0x3d2b73c8	0.041858464
34	0x3e77f4e7	0.24214517
35	0x3def2375	0.11676685
36	0xbe739bf4	-0.2378996
37	0xbed8074c	-0.42193067
38	0x3eb0aed6	0.3450839
39	0xbf1127da	-0.56701434
40	0xbf6f3cfc	-0.9345243
41	0xbf227bdb	-0.6347024
42	0x3e446e78	0.19182765
43	0x3e94c718	0.29058146
44	0x3e8bd9c5	0.27314582
45	0x3e8b773f	0.27239415
46	0xbd8717cd	-0.065963365
47	0xbeb48563	-0.35258016
48	0xbe77ad82	-0.24187282
49	0xbe684c83	-0.22685437
50	0xbe9ea4d8	-0.3098514
51	0xbf24bfc9	-0.6435514
52	0xbf07bb2b	-0.5301997
53	0xbe98c6e4	-0.29839242
54	0xbf0609f7	-0.52358955
55	0xbf2c3105	-0.672623
56	0x3e45becf	0.19311069
57	0xbed61331	-0.41811517
58	0xbde5dc38	-0.11223644
59	0x3d8816d1	0.06644977
60	0x3d3fcd76	0.046826802
61	0x3dcf43f7	0.10120385
62	0x3e888e9d	0.26671305
63	0x3f217d5a	0.63081896
64	0xbe3f3d3e	-0.18675706
65	0xbd0ece4c	-0.03486471
66	0x3f235bac	0.63811755
67	0x3fadff1a	1.3593476
68	0x3f1d3fa6	0.61425245
69	0x3f4852a5	0.78251106
70	0x3f5ffdbb	0.87496537
71	0x3f21b591	0.63167673
72	0x3d315ee2	0.043303378
73	0xbe0687fb	-0.1313781
74	0xbed7193d	-0.42011443
75	0xbef26b40	-0.4734745
76	0xbf19c844	-0.60071206
77	0xbf36650f	-0.71247953
78	0x3d282585	0.041051406
79	0x3e481de0	0.19542646
80	0x3d415aef	0.04720586
81	0x3df20ea8	0.11819202
82	0x3eb49ccd	0.3527588
83	0xbb982156	-0.004642646
84	0xbe22e939	-0.1590928
85	0xbeb85374	-0.3600117
86	0xbeec473b	-0.46148095
87	0xbdf37ec4	-0.11889413
88	0xbcba8cf3	-0.022772288
89	0xbd3bf34c	-0.045886323
90	0x3d96cd27	0.073633485
91	0xbec93308	-0.39296746
92	0x3ec9dcf9	0.394264
93	0xbecfc9b5	-0.40583578
94	0xbe07ec0a	-0.13273636
95	0xbf338bab	-0.7013499
96	0x3e1a9b6b	0.1509835
97	0xbd52111e	-0.051285855
98	0xbd9413cd	-0.07230339
99	0xbea66482	-0.32498556
100	0x3d36978e	0.044578128
101	0x3bede8fb	0.0072604395
102	0x3d7d3cef	0.06182569
103	0x3e67a508	0.22621548
104	0x3d45ca97	0.048288908
105	0x3f05ec3d	0.52313596
106	0x3ee3971a	0.4445122
107	0xbe9a1cbb	-0.30100045
108	0xbda71759	-0.0815875
109	0x3d4fb679	0.05071113
110	0xbf5acf2f	-0.8547239
111	0xbe2c9a72	-0.16855791
112	0x3f421e2b	0.7582728
113	0xbec1bc3f	-0.37838933
114	0x3f12f016	0.5739759
115	0x3f12d609	0.5735784
116	0x3f377bb3	0.71673125
117	0xbeac3301	-0.33632663
118	0xbea2ad37	-0.31772777
119	0xbe37e982	-0.1796017
120	0x3d770ac5	0.060313005
121	0xbe942a0b	-0.28938326
122	0xbf63e7f2	-0.89025795
123	0xbe053b85	-0.13010986
124	0x3d8c9238	0.068638265
125	0xbd1f755a	-0.038930275
126	0xbe7a254e	-0.24428293
127	0xbec1d2e3	-0.37856206
128	0xbe9b22a8	-0.30299878
129	0xbf46f989	-0.7772451
130	0x3d95d236	0.07315485
131	0x3e13d059	0.14434947
132	0x3d863903	0.06553843
133	0x3e740797	0.2383102
134	0x3eb0ed1f	0.3455591
135	0x3d8b0be1	0.06789375
136	0x3e2b71d9	0.16742648
137	0x3dccb927	0.099962525
138	0x3f1563d3	0.58355445
139	0x3dd9521a	0.10611363
140	0x3ed8fca0	0.42380238
141	0x3f11477b	0.56749696
142	0x3e84298d	0.2581295
143	0x3e1beb75	0.15226538
144	0x3e8c104f	0.27356192
145	0x3e3fa56d	0.18715449
146	0x3e0eb9ae	0.13938019
147	0xbf1cb14e	-0.61208045
148	0xbf2a4b1c	-0.6652086
149	0xbe9a6821	-0.3015757
150	0xbebe7784	-0.37200558
151	0xbeedbf09	-0.4643481
152	0xbe522dc0	-0.20525265
153	0xbee9422e	-0.45558304
154	0xbed73495	-0.42032304
155	0xbf3f3354	-0.74687696
156	0xbeb74c63	-0.35800466
157	0x3e3e8560	0.18605566
158	0xbe68ccdf	-0.22734402
159	0x3f8435c6	1.032891
160	0x3fa37808	1.2771006
161	0x3f993ce8	1.1971712
162	0x3f27ff5b	0.65624017
163	0x3f29b50f	0.662919
164	0xbf1ac614	-0.60458493
165	0xbcf7b332	-0.030236814
166	0x3ea32a11	0.31868032
167	0xbe0fe532	-0.14052275
168	0xbe279aea	-0.16367689
169	0xbdcce194	-0.10003963
170	0xbe1e6f77	-0.15472208
171	0x3f178d02	0.59199536
172	0x3e11cefd	0.14239116
173	0x3ea82be6	0.32845992
174	0xbdfecbae	-0.124411926
175	0x3eda8123	0.42676648
176	0x3ee8dd4d	0.4548134
177	0xbed98aba	-0.42488652
178	0xbd8eb10b	-0.06967362
179	0xbf852d7a	-1.0404503
180	0x3f0c9caf	0.5492658
181	0xbe08a863	-0.13345484
182	0xbc84e375	-0.016221741
183	0x3ef44c2e	0.4771437
184	0x3e6c9062	0.23101953
185	0xbd0bcc4c	-0.03413038
186	0xbe8e92e5	-0.27846447
187	0xbcf7bf5f	-0.03024262
188	0xbe8faee4	-0.28063118
189	0x3ee6ad09	0.4505389
190	0x3e195d31	0.14976956
191	0xbf5946de	-0.8487376
192	0x3dcb3ed3	0.09924092
193	0x3edf1a91	0.43574956
194	0xbd53dfe6	-0.051727198
195	0x3f377736	0.71666276
196	0x3f168ad5	0.5880559
197	0x3db42e7e	0.0879793
198	0x3e096c78	0.13420284
199	0x3d624e35	0.055250365
200	0x3f4be9fa	0.79653895
201	0x3ae5ff54	0.0017547407
202	0xbd5a4d13	-0.05329616
203	0xbe952648	-0.2913077
204	0xbec47dea	-0.38377315
205	0xbf0f530a	-0.5598608
206	0xbeab716a	-0.33484966
207	0x3e10eda1	0.14153148
208	0x3df11b22	0.11772753
209	0xbe15e67f	-0.14638709
210	0xbf6d3501	-0.92659
211	0xbf82565e	-1.0182607
212	0xbf413324	-0.7546866
213	0x3f5d18ec	0.8636615
214	0x3f67e55e	0.9058436
215	0x3f372773	0.7154457
216	0x3df751c5	0.12076143
217	0xbe41a22e	-0.18909523
218	0xbf594255	-0.8486684
219	0xbd054db0	-0.03254479
220	0x3e5ae228	0.21375334
221	0xbe606d53	-0.21916704
222	0xbf4ad24e	-0.7922715
223	0xbf6e88aa	-0.9317728
224	0xbf312d97	-0.6921019
225	0x3e4cc7b0	0.1999805
226	0xbe6bc3d4	-0.23023921
227	0xbea94f93	-0.33068523
228	0xbeb32571	-0.34989503
229	0xbf5ada08	-0.8548894
230	0xbefa826b	-0.48927626
231	0xbe339d5b	-0.17540495
232	0x3f169186	0.588158
233	0x3c2ed369	0.010670521
234	0x3ed47d93	0.41502056
235	0x3f2b3996	0.66884744
236	0x3e4ac6ed	0.19802447
237	0x3d543fd0	0.05181867
238	0xbd4d9126	-0.050187252
239	0xbc5f7fd6	-0.013641318
240	0xbe88cd68	-0.26719213
241	0xbf397743	-0.72447604
242	0x3e1fed20	0.156178
243	0xbd9df27d	-0.077122666
244	0xbed2e124	-0.41187394
245	0x3cabade9	0.02095695
246	0xbeea4fec	-0.457641
247	0xbf635c5d	-0.8881281
248	0xbf0cb5ce	-0.5496491
249	0x3e97206f	0.29516932
250	0x3e93aaf6	0.2884137
251	0x3e56b21b	0.2096638
252	0x3ed1834c	0.40920484
253	0x3ee4f65c	0.44719207
254	0x3ee36b4c	0.444178
255	0x3cb1ede4	0.02171988

conv2T.bias f4 [32]
0	0x3df82ba7	0.12117701
1	0xbe9e8357	-0.3095958
2	0xbcc92f24	-0.024558611
3	0xbe885f31	-0.26635125
4	0xbe6ca0e5	-0.23108251
5	0x3e14f994	0.14548331
6	0x3eb8c9c6	0.3609144
7	0x3e94e4cb	0.29080805
8	0x3ea64a9e	0.32478803
9	0x3e3f0253	0.1865323
10	0xbe4e7af0	-0.20164084
11	0xbcd78e6c	-0.02631303
12	0x3ec2eaa5	0.38069645
13	0x3df74e74	0.120755106
14	0xbcb33de8	-0.021880105
15	0xbf9a60b0	-1.2060757
16	0xbca5ae4f	-0.020224718
17	0x3ea37174	0.31922495
18	0x3e6f49d7	0.23368011
19	0xbebf3628	-0.37346005
20	0x3e852f9d	0.2601289
21	0xbe01f0c3	-0.126895
22	0x3f1285ba	0.572353
23	0xbd969cb7	-0.0735411
24	0xbd204d0e	-0.039135985
25	0xbd8cb9fc	-0.06871411
26	0xbefec06c	-0.4975618
27	0xbe78622b	-0.24256198
28	0xbd8df04b	-0.06930598
29	0x3ea37f33	0.31932983
30	0x3e401dbf	0.18761347
31	0xbf05f6eb	-0.5232989
