theta_run_birds_unet/exp_dim10_files6/conv_autoencoder.pth (torch, 997545 bytes, 19 tensors)

conv1.weight f4 [16, 1, 3, 3]
0	0xbe66d82e	-0.22543404
1	0x3d75c2d0	0.06000024
2	0x3e073173	0.13202457
3	0x3e55bdfd	0.20873256
4	0xbe3c72e9	-0.1840321
5	0x3dad3ad0	0.08458483
6	0xbe4e24d7	-0.20131241
7	0x3c0bc87a	0.008531684
8	0x3e099241	0.13434698
9	0x3e6ba057	0.23010384
10	0xbe14656c	-0.14491814
11	0x3e1cafb7	0.15301405
12	0x3d82756d	0.063700534
13	0x3d2c6e90	0.042097628
14	0xbd44860b	-0.047979396
15	0x3e84ca18	0.25935435
16	0xbe94c6e5	-0.29057994
17	0x3e231ab7	0.1592816
18	0xbe524b09	-0.20536436
19	0x3e5ed576	0.21761116
20	0xbd073939	-0.033013556
21	0x3d68623a	0.0567343
22	0x3e13367a	0.1437625
23	0x3d7ac273	0.061220597
24	0xbd982c9b	-0.07430383
25	0x3deca0d4	0.11554113
26	0xbba3b44e	-0.004995859
27	0xbe56ff5e	-0.20995852
28	0x3e1b888f	0.15188812
29	0xbea54b4b	-0.32284006
30	0xbe0b6465	-0.13612516
31	0xbe2b6a78	-0.16739833
32	0x3dc0db28	0.09416801
33	0x3e6d27a4	0.23159653
34	0x3de20d07	0.11037641
35	0x3d274a3f	0.04084229
36	0xbe49c067	-0.19702302
37	0xbd9e94dd	-0.07743237
38	0xbe614c73	-0.2200182
39	0x3d9a62a2	0.07538344
40	0x3e4327ec	0.19058198
41	0x3d8ebd6d	0.06969724
42	0xbd5c864d	-0.053839017
43	0x3c93b3b0	0.018030018
44	0xbde6d10d	-0.11270342
45	0xbea1627f	-0.3152046
46	0xbdbb5cc7	-0.09148555
47	0x3e05c63c	0.13063902
48	0x3cbf5f8a	0.023360986
49	0xbeb3b833	-0.3510147
50	0xbe94741f	-0.28994843
51	0x3e3cec15	0.18449433
52	0xbe26de88	-0.16295826
53	0xbe46c4e9	-0.19411053
54	0x3e24994b	0.16074102
55	0xbe66a087	-0.22522174
56	0x3d986e14	0.07442871
57	0x3dc1d853	0.09465089
58	0xbe174909	-0.14773954
59	0xbcd9e448	-0.02659811
60	0x3dbeb779	0.093123384
61	0xbc769aa6	-0.0150515195
62	0x3d99b4fa	0.07505222
63	0xbdebf0b4	-0.1152052
64	0x3e5e78b8	0.21725738
65	0xbe342632	-0.17592695
66	0xbd96d9d1	-0.07365764
67	0x3b75929e	0.0037471424
68	0xbe05ab87	-0.13053714
69	0x3e55680f	0.20840476
70	0xbe95a756	-0.2922923
71	0x3d9d16e6	0.07670383
72	0x3e7398a8	0.23788702
73	0xbea58cc9	-0.32333973
74	0xbd3f0397	-0.046634283
75	0xbd9b66ba	-0.07587953
76	0x3def4d1d	0.1168463
77	0x3ca90780	0.02063346
78	0x3e471fbe	0.19445702
79	0xbe9a4660	-0.30131817
80	0x3e676158	0.22595727
81	0x3e2cfed3	0.16894083
82	0xbe40b41d	-0.18818708
83	0xbd7a97ea	-0.061180033
84	0x3bbe769c	0.005812479
85	0x3d2ae447	0.04172161
86	0x3e77d6dd	0.24203058
87	0x3e5dc66b	0.21657722
88	0x3e044bea	0.12919584
89	0x3db07acf	0.08617174
90	0x3db8eeca	0.090299204
91	0xbda8b54d	-0.082377054
92	0x3e07dbac	0.13267392
93	0x3d4f93cd	0.050678063
94	0xbe87548b	-0.2643169
95	0xbc99b59f	-0.018763361
96	0xbc8da6a0	-0.017291367
97	0x3e0c7887	0.13717853
98	0x3e547186	0.20746431
99	0xbe886f46	-0.26647395
100	0xbea89cef	-0.3293223
101	0xbe7526bf	-0.23940562
102	0x3d9bdea4	0.07610825
103	0x3e64b648	0.2233516
104	0x3e096416	0.13417086
105	0x3e06a7e7	0.13149987
106	0xbe4a61ab	-0.1976382
107	0xbda3e18c	-0.08002004
108	0xbe0df125	-0.1386152
109	0xbe58377c	-0.21114916
110	0x3e73d13b	0.23810284
111	0xbd0386a6	-0.032110833
112	0x3c59a54e	0.013284041
113	0x3db5290b	0.08845719
114	0x3d03d0e4	0.032181635
115	0xbe30c556	-0.17262778
116	0x3d35addf	0.04435527
117	0x3d274382	0.040835865
118	0xbe8227cb	-0.25420985
119	0xbdf534fb	-0.11972996
120	0x3c1c9849	0.009557792
121	0xbd5d0dbe	-0.053968184
122	0x3e4102e7	0.18848763
123	0x3d93b852	0.07212891
124	0xbbf4b4e2	-0.007467852
125	0x3de99720	0.11405778
126	0x3e29a7bf	0.16567896
127	0xbe617e9e	-0.22020957
128	0x3d5f0c65	0.05445518
129	0x3d136fe7	0.03599539
130	0xbcdc9440	-0.02692616
131	0x3d99bd2f	0.07506787
132	0x3e5700b0	0.20996356
133	0x3e11491f	0.1418805
134	0xbe30e603	-0.17275243
135	0xbd7c9ec1	-0.061674837
136	0x3e2b251a	0.16713372
137	0x3d6a58ec	0.05721371
138	0xbd5b3866	-0.053520583
139	0xbe4ba92a	-0.1988875
140	0x3d5796ee	0.052634172
141	0x3df84f12	0.121244565
142	0x3e2375ec	0.15962952
143	0xbd99252b	-0.07477792

conv1.bias f4 [16]
0	0xbd383bf3	-0.044979047
1	0x3e9f131c	0.31069267
2	0xbcabdd5a	-0.020979572
3	0xbed14a29	-0.40876892
4	0x3e85e315	0.26149812
5	0xbe7b90d1	-0.24566962
6	0x3ed1a0c2	0.4094296
7	0x3ec0e588	0.37675118
8	0x3eba53ee	0.36392158
9	0xbd9e4b21	-0.077291735
10	0x3ed67a50	0.41890192
11	0x3edcb9f2	0.43110615
12	0x3e703cd7	0.23460709
13	0x3eda3e75	0.42625776
14	0xbeb6deea	-0.35716945
15	0xbe63282b	-0.22183292

conv2.weight f4 [32, 16, 3, 3]
0	0xbd0915a1	-0.033467893
1	0xbcb62c5e	-0.022237953
2	0x3cb5fd3d	0.02221548
3	0x3d0972c6	0.033556722
4	0x3c63e05b	0.013908471
5	0x3d338977	0.04383227
6	0xba8cdac0	-0.0010746345
7	0xbd93a525	-0.07209233
8	0xbdb1da8c	-0.08684263
9	0x3d84823d	0.064701535
10	0xbd5c53df	-0.053790923
11	0xbc206c06	-0.00979138
12	0x3cf51140	0.029915452
13	0x3c121727	0.008916653
14	0x3cb5f1d9	0.022210049
15	0x3cbb079f	0.022830782
16	0xbc9504e6	-0.018190812
17	0xba973381	-0.0011535735
18	0x3d249e10	0.040189803
19	0x3cb43f12	0.02200273
20	0x3b9f5c53	0.004863301
21	0xbc2892ed	-0.010288936
22	0xbce2bb10	-0.027677089
23	0x3bdf8da9	0.006822307
24	0xbc14e19c	-0.009086993
25	0xbcc251e7	-0.023720695
26	0x3d61f700	0.0551672
27	0x3d27518c	0.040849254
28	0xbab63bc3	-0.0013903308
29	0xbd7a7e6f	-0.061155733
30	0xbc71700b	-0.014736186
31	0xbdb39ebe	-0.08770512
32	0xbc2f9a01	-0.01071787
33	0xbbc5d229	-0.006037016
34	0x3d154ec8	0.036452085
35	0xbc3dba1c	-0.011580016
36	0xbc9dd6cb	-0.01926746
37	0xbd253e87	-0.040342834
38	0xbd8f1110	-0.06985676
39	0xbcea172e	-0.028575506
40	0xb832292d	-4.2476855e-05
41	0xbc7a82ad	-0.015289945
42	0xbd9bc488	-0.07605845
43	0x3cd95fe9	0.026534991
44	0xbd5871a3	-0.052842747
45	0xbcc052d5	-0.023476997
46	0xbd27f3e1	-0.041004065
47	0xbcc9ee0f	-0.024649648
48	0x3c5a1dc0	0.013312757
49	0xbddd481f	-0.10804772
50	0x3cef8766	0.029239368
51	0x3c59b33e	0.013287364
52	0x3dec9c81	0.11553288
53	0x3d9458d6	0.072435066
54	0x3c4d3328	0.012524404
55	0xbc9fa2c9	-0.019486802
56	0xbc977813	-0.018489873
57	0x3d4a5781	0.049399856
58	0xbc500572	-0.012696611
59	0xbc2ed477	-0.010670773
60	0xbd06b0b2	-0.032883354
61	0xbd0dc851	-0.034614865
62	0x3c6684c7	0.0140697425
63	0xbbaeec63	-0.005338238
64	0x3d5590d1	0.05214006
65	0x3d6d1ec3	0.057890665
66	0xbb858308	-0.004074458
67	0x3daf94f4	0.085733324
68	0x3d06d036	0.03291341
69	0x3d1d49a3	0.038400304
70	0x3d36a5aa	0.044591583
71	0xbc0c50e0	-0.008564204
72	0xbd909603	-0.070598625
73	0xbd1cc21f	-0.038271066
74	0xbc818fd9	-0.015815662
75	0xbd94c83c	-0.07264754
76	0xbd38c8e3	-0.045113456
77	0xbd25cfad	-0.04048126
78	0xbd3ef942	-0.04662443
79	0x3d1a93af	0.0377385
80	0xbc8d212a	-0.017227728
81	0xbcd06387	-0.025438083
82	0x3bd85dc2	0.0066029737
83	0x3d226398	0.03964576
84	0x3d624bf6	0.055248223
85	0xbc1782c5	-0.0092474865
86	0xbc2bda33	-0.0104890345
87	0xbd105989	-0.035241637
88	0xbdb04faf	-0.086089484
89	0xbd985c37	-0.074394636
90	0x3d7e141e	0.062030904
91	0x3ae34b42	0.0017341154
92	0x3b6ccd05	0.0036132943
93	0x3cd3bfd1	0.025848301
94	0xbd7f5fad	-0.062347103
95	0xbd39f8eb	-0.045403402
96	0x3d0aa197	0.03384551
97	0x3d345fbc	0.044036612
98	0xbd50c95c	-0.05097328
99	0xbbf54a32	-0.0074856514
100	0x3c4ed6b7	0.012624434
101	0x3d079592	0.033101626
102	0x3d83c6c4	0.06434396
103	0xbc837a09	-0.016049402
104	0x3d175519	0.03694639
105	0xbda83774	-0.08213702
106	0xbda0a9fd	-0.07844923
107	0xbda00129	-0.07812721
108	0x3a2216a5	0.0006183184
109	0x3b81f884	0.003966393
110	0x3bc411d9	0.005983573
111	0x3ce6de93	0.028182304
112	0x3d157c3e	0.03649544
113	0xbd16baad	-0.03679912
114	0x3d324d14	0.04353054
115	0x3d5f8a09	0.054575
116	0x3cfdaa5d	0.030965025
117	0x3c90f628	0.017695501
118	0x3d373703	0.044730198
119	0x3c6be715	0.014398356
120	0x3cc40e45	0.023932585
121	0x3d7d47c3	0.061836015
122	0x3d4df476	0.050281964
123	0xbdd0ea83	-0.102009796
124	0xbd82d230	-0.06387746
125	0xbd9b6331	-0.07587279
126	0x3b4914ae	0.0030682492
127	0x3d479e8e	0.048735194
128	0x3c4a4d94	0.012347598
129	0xbd354c0f	-0.04426199
130	0x3da25ac1	0.07927466
131	0xbd251446	-0.040302537
132	0x3d55b87e	0.0521779
133	0xbdae4074	-0.08508387
134	0xbc6831f8	-0.01417207
135	0xbd3a6a2c	-0.04551141
136	0xbd4f9f98	-0.05068931
137	0xbd552c20	-0.052044034
138	0xbcfd8017	-0.030944867
139	0x3c9d4a00	0.019200325
140	0x3d4fd528	0.05074039
141	0xbd7f651b	-0.06235228
142	0xbd6998b7	-0.057030406
143	0xbdb17ebb	-0.0866675
144	0xbd22b120	-0.0397197
145	0xbdd22f29	-0.10262901
146	0xbd1d2eac	-0.038374588
147	0x3d66a672	0.05631108
148	0xbd810583	-0.062998794
149	0xbdbd6e78	-0.09249586
150	0xbdb6dda7	-0.089289956
151	0x3ba3a049	0.0049934727
152	0xbcb146b2	-0.021640155
153	0xbd8fe60f	-0.07026302
154	0xbd16460c	-0.036687896
155	0xbdf38fad	-0.11892638
156	0xbd7f71a7	-0.062364247
157	0x3c3ba35a	0.01145252
158	0xbdb3278c	-0.08747777
159	0xbde6fd00	-0.11278725
160	0xbcc2dc2e	-0.02378663
161	0xbd407c46	-0.046993516
162	0x3c1e37aa	0.009656826
163	0x3d81a8ea	0.06331046
164	0xbd940589	-0.07227618
165	0x3c38614d	0.011253667
166	0xbd055341	-0.0325501
167	0xbbc4233a	-0.0059856446
168	0xbd9c7b2a	-0.07640679
169	0xbdb38c7a	-0.08767028
170	0xbdf26f09	-0.118375845
171	0xbd1290cb	-0.035782617
172	0x3d294791	0.041328017
173	0xbd1be5f9	-0.038061116
174	0x3da8ec6d	0.0824822
175	0xbdc48aa0	-0.09596753
176	0xbd43f6c6	-0.047842763
177	0xbbee4ab1	-0.0072720875
178	0xbd2a5812	-0.041587897
179	0xbb54ff86	-0.0032500937
180	0x3d377b8e	0.044795565
181	0xbdac64d9	-0.08417673
182	0x3d226607	0.039648082
183	0x3da6bfb2	0.08142032
184	0xbdb0cd2c	-0.086328834
185	0x3cf76634	0.030200101
186	0x3dd39f85	0.1033316
187	0xbd5b0e97	-0.05348071
188	0x3bfe0d91	0.007753082
189	0x3d915186	0.070956275
190	0x3d4fbeaa	0.05071894
191	0xbc64f262	-0.013973804
192	0xbd8598b7	-0.06523269
193	0xbd397e54	-0.04528649
194	0xbd91b0af	-0.07113778
195	0xbcf1a3b0	-0.029496998
196	0x3d7498fc	0.05971621
197	0xbdbbe3c8	-0.09174305
198	0x3dafe4a3	0.08588531
199	0xbd4f5ba0	-0.05062449
200	0xbe112d83	-0.14177518
201	0xbd7a798c	-0.061151072
202	0xbd804736	-0.062635824
203	0xbd65ca65	-0.05610122
204	0xbd8c70bb	-0.06857439
205	0xbd5346ae	-0.051581077
206	0x3ab30c07	0.0013660201
207	0x3d75613c	0.059907183
208	0xbbea46ba	-0.0071495445
209	0xbd3cbe4c	-0.04607992
210	0xbcbfee37	-0.02342902
211	0xbbac0125	-0.00524916
212	0xbcf6fc32	-0.030149553
213	0xbd4f587b	-0.05062149
214	0xbbda6749	-0.0066651446
215	0xbdb18dcd	-0.086696245
216	0xbcb227cc	-0.021747492
217	0x3a8e0a5d	0.0010836829
218	0xbdf35551	-0.11881507
219	0xbd3d734d	-0.046252538
220	0xbce44f8c	-0.027869962
221	0xbdfdfb4f	-0.12401449
222	0xbc9f9f49	-0.019485133
223	0xbdab3c57	-0.08361118
224	0xbc25687d	-0.010095713
225	0x3c965589	0.018351333
226	0x3d452215	0.048128206
227	0xbcb2a6a7	-0.021807982
228	0xbd8bb703	-0.06822016
229	0x3c30b89b	0.010786201
230	0xbc5675c3	-0.0130896
231	0x3c37fc4d	0.011229587
232	0xbc418882	-0.011812331
233	0xbd5a13fa	-0.053241707
234	0xbd7c9273	-0.061663102
235	0x3d370617	0.044683542
236	0xbd9b2b53	-0.07576623
237	0x3d0c81d3	0.034303498
238	0xbdd6d787	-0.10490327
239	0xbdae3070	-0.085053325
240	0xbdbba88e	-0.09163009
241	0xbbbe9bb6	-0.005816902
242	0xbe19b133	-0.15009002
243	0xbd3a7980	-0.045526028
244	0xbdf8e4ab	-0.1215299
245	0x3d4e7f9f	0.050414678
246	0x3dea9d47	0.114557795
247	0x3d8a71db	0.067599975
248	0xbdc33c70	-0.09533012
249	0xbd73d6e7	-0.05953112
250	0xbdb0fee5	-0.08642367
251	0xba626f92	-0.0008637841
252	0x3d452a54	0.04813607
253	0x3d9b8fc5	0.07595781
254	0xb98bd2b9	-0.00026669147
255	0x3d016442	0.031589754

conv2.bias f4 [32]
0	0x3d918e57	0.07107227
1	0x3b79265a	0.0038017244
2	0xbda40e01	-0.080104835
3	0x3e269d7b	0.16271012
4	0xbd97f9d5	-0.074206986
5	0x3d0cf93e	0.034417383
6	0xbe544927	-0.2073103
7	0xbe0107fd	-0.12600704
8	0x3e692e0c	0.22771472
9	0x3e259351	0.16169478
10	0xbd27189a	-0.040794946
11	0xbdacf10e	-0.08444415
12	0xbd75d24d	-0.06001501
13	0xbdcfe7e3	-0.10151651
14	0x3db5902d	0.0886539
15	0xbdaec336	-0.08533327
16	0x3e00ca20	0.12577105
17	0x3e896162	0.2683211
18	0xbe7371ae	-0.23773834
19	0x3da39056	0.07986514
20	0x3e0e9fa0	0.1392808
21	0x3e61a94b	0.22037236
22	0x3df325df	0.11872458
23	0xbec8b223	-0.39198408
24	0xbe608d23	-0.2192884
25	0x3e8354fe	0.2565078
26	0x3e312b6f	0.17301725
27	0x3e4065a9	0.1878878
28	0x3e931c5e	0.2873258
29	0x3d9ff369	0.07810099
30	0xbd422f1d	-0.047408212
31	0x3e68a1a2	0.22717908

conv3.weight f4 [64, 32, 3, 3]
0	0xbd3c5a9b	-0.045984846
1	0x3bcf27f1	0.0063219
2	0x3d294b03	0.041331302
3	0xbb476d27	-0.003043005
4	0xbb3ed63d	-0.0029119395
5	0xbd1b61c6	-0.03793504
6	0x3c75846b	0.014985184
7	0xbd5f7fd0	-0.05456525
8	0xbc8b34e6	-0.016992997
9	0x3c4cc7d0	0.012498811
10	0xbd7856b6	-0.06062957
11	0x3c90728f	0.01763275
12	0x3d14405a	0.036194183
13	0x3dcea387	0.10089784
14	0x3ca2bbbd	0.019864911
15	0x3d2e0b3a	0.042491175
16	0x3dc8ad2d	0.09798656
17	0xbd391cc4	-0.04519345
18	0xbd922d28	-0.07137519
19	0xbd0b2549	-0.033971105
20	0x3c6c8d8f	0.014438047
21	0xbd8c3b60	-0.068472624
22	0x3d344f26	0.044020794
23	0x3d5c494a	0.05378083
24	0x3c119b2c	0.0088870935
25	0xbd83d14b	-0.06436404
26	0xbd5fa749	-0.054602895
27	0xbd844eaa	-0.064603165
28	0xbdbc6143	-0.09198239
29	0xbc930882	-0.017948393
30	0xbd120df7	-0.03565785
31	0x3ca6aad6	0.020345133
32	0xbd19ef8d	-0.03758197
33	0x3cfc6a75	0.030812481
34	0x3d7a42c4	0.06109883
35	0xbdb3142b	-0.08744081
36	0x3cd64728	0.026156977
37	0x3c301ecc	0.01074953
38	0xbd71fb1f	-0.05907738
39	0xbd1421d0	-0.03616506
40	0xbd163b98	-0.036677927
41	0xbd2ad66c	-0.041708395
42	0x3b8b0f55	0.004243771
43	0x3beb1db5	0.007175172
44	0x3c203309	0.009777793
45	0xbd192ecf	-0.037398156
46	0x3c81b047	0.015831126
47	0xbc854aee	-0.01627108
48	0x3c8c695c	0.017140083
49	0xbb17e9d4	-0.0023180144
50	0xbaa98b0e	-0.0012935118
51	0xbba879b0	-0.0051414594
52	0x3bef59c7	0.0073044035
53	0x3d1f1aba	0.038843848
54	0xbdbf60bf	-0.09344625
55	0xbcfe3367	-0.03103037
56	0xbd70e322	-0.05881036
57	0xbcb47d0d	-0.022032285
58	0xbd32ca01	-0.043649677
59	0xbd02b9a7	-0.031915333
60	0x3c3ad070	0.011402234
61	0xbcffaff1	-0.031211825
62	0xbda9e2fa	-0.082952455
63	0xbbb80694	-0.0056160185
64	0xbc7aaf84	-0.015300635
65	0x3d2227ab	0.03958861
66	0x3c94e017	0.01817326
67	0xbbe65d56	-0.0070301695
68	0xbdb4935b	-0.08817168
69	0xbcd74514	-0.026278056
70	0xbbbf60f3	-0.0058404147
71	0xbd0fb9d4	-0.03508933
72	0xbd0faa0d	-0.035074282
73	0x3b99d777	0.004694875
74	0x3d31a7ab	0.04337279
75	0xbda279d6	-0.079333946
76	0xbdba12eb	-0.090856396
77	0xbd6090d8	-0.054825634
78	0x3c7d7d05	0.0154717015
79	0x3bad3372	0.005285674
80	0x3dc2cd15	0.095117725
81	0x3d36401c	0.044494733
82	0xbb34574b	-0.002751785
83	0x3ca23874	0.01980231
84	0x3c951b0b	0.018201372
85	0xbd94705f	-0.072479956
86	0x3c7473a6	0.014920151
87	0x3cafca10	0.021458656
88	0xbd64f227	-0.055894997
89	0x3d966a5f	0.073445074
90	0xbc2326a5	-0.009957944
91	0x3d87dfd1	0.066344865
92	0xbc8361f9	-0.016037928
93	0x3cec2dee	0.028830495
94	0x3cb9be16	0.022673648
95	0xbbc5f15c	-0.006040735
96	0x3ce26529	0.027636128
97	0x3d64eb0d	0.055888224
98	0xbd65b0fd	-0.056076992
99	0x3c4931f1	0.012279973
100	0xbce5dd77	-0.028059704
101	0xbd4d3ae8	-0.050105006
102	0x3cf97a22	0.030453745
103	0x3c30d013	0.010791796
104	0xbc21268f	-0.009835853
105	0xbcd93c77	-0.02651809
106	0xbd16a9c6	-0.036783002
107	0xba7dc981	-0.00096812105
108	0x3c9e9aa9	0.019360857
109	0x3d55b187	0.052171256
110	0x3d3c04a6	0.04590287
111	0x3a21879e	0.0006161871
112	0x3cd5d6ca	0.026103396
113	0x3d541267	0.051775362
114	0xbbf4a48f	-0.007465906
115	0x3d12b034	0.03581257
116	0x3c63e0c2	0.013908567
117	0x3c9fc201	0.019501688
118	0xbd0d6909	-0.034523997
119	0xbbbb15ee	-0.0057094013
120	0xbc3e6af6	-0.011622181
121	0xba4574d9	-0.0007532365
122	0x3cb9f1a3	0.02269823
123	0xba802b35	-0.0009778502
124	0xbb220317	-0.002472108
125	0xbd246608	-0.040136367
126	0xbc075491	-0.008259908
127	0x3cbd90d1	0.023140343
128	0xb9a15ecc	-0.00030778942
129	0xbc2abbd0	-0.010420755
130	0x3c879023	0.016548222
131	0xbbf5bf2f	-0.0074995975
132	0x3c5e742e	0.013577504
133	0xbd2cef01	-0.04222012
134	0xbd986336	-0.07440798
135	0x3d56b277	0.05241629
136	0x3c139a12	0.009008901
137	0xb61960c5	-2.2855104e-06
138	0xbd27bfb2	-0.0409543
139	0xbc8a967f	-0.016917465
140	0xb5021e0c	-4.84725e-07
141	0xbd86c4f5	-0.06580535
142	0xbce221bd	-0.027603978
143	0xbd1a781f	-0.037712213
144	0xbca96109	-0.020676153
145	0xbbcbf70a	-0.0062245177
146	0xbd410218	-0.047121137
147	0xbccde3ec	-0.025133096
148	0x3bc3ec95	0.0059791305
149	0xbdac7c58	-0.08422154
150	0x3d350d77	0.044202294
151	0xbcd521a0	-0.02601701
152	0xbbe4dbce	-0.0069842106
153	0x3d81d1bb	0.06338831
154	0x3c4b3f52	0.012405233
155	0xbc9df9c6	-0.01928414
156	0x3bd5897f	0.006516635
157	0xbccfad6d	-0.02535125
158	0xbd9bc184	-0.076052696
159	0xbd02b12e	-0.031907253
160	0x3be2f902	0.0069266567
161	0x3d16625d	0.0367149
162	0xbd334f4d	-0.0437768
163	0x3d89b3a7	0.06723719
164	0xbd49b3fc	-0.049243912
165	0xbdacde70	-0.08440864
166	0x3c8440c1	0.016144158
167	0xbd1e833e	-0.03869938
168	0xbb6d159d	-0.0036176213
169	0xbd21d723	-0.03951181
170	0x3c4ad8b4	0.012380768
171	0xbd47fdcd	-0.048826028
172	0xbd3693d0	-0.04457456
173	0x3d3ba88b	0.045815032
174	0xbc69d5aa	-0.014272133
175	0xbca4a40e	-0.020097759
176	0xbbd2cb26	-0.0064329086
177	0xbc033f60	-0.008010715
178	0x3d6cd41f	0.057819482
179	0x3d66550c	0.05623345
180	0xbc58ebab	-0.013239781
181	0xb943b711	-0.00018664847
182	0xbdc327b8	-0.0952906
183	0x3a195a8a	0.0005849978
184	0x3d737558	0.05943808
185	0xbc2f3475	-0.010693659
186	0x3c9f881d	0.019474084
187	0x3cdfe840	0.027332425
188	0x3d72c289	0.059267554
189	0xbd405f51	-0.0469659
190	0xbd393b2e	-0.045222454
191	0x3cad7be9	0.021177249
192	0x3ca9770b	0.020686647
193	0xbb1f28e1	-0.002428584
194	0x3d4c1291	0.049822394
195	0x3d3e59eb	0.04647247
196	0x3d952b0a	0.072836
197	0x3dcb18df	0.09916853
198	0x3c7eced7	0.015552244
199	0xbd8b8658	-0.068127334
200	0xbdce9966	-0.10087852
201	0xbcd68f47	-0.026191367
202	0xbd918d3d	-0.07107017
203	0xbd10e43b	-0.035373908
204	0x3c67956b	0.014134745
205	0xbdf0dbb6	-0.117606565
206	0x3da68e36	0.08132593
207	0x3c178262	0.009247394
208	0xbc09ee07	-0.008418567
209	0xbd14b434	-0.036304668
210	0x3be71925	0.007052558
211	0xbd23b798	-0.03997001
212	0xbd942dac	-0.07235274
213	0x3c37bd84	0.011214618
214	0xbd909b24	-0.07060841
215	0x3b92a13c	0.004474787
216	0xbc551cb9	-0.013007336
217	0x3c367a80	0.011137605
218	0xbc4cb1b0	-0.012493536
219	0x3ca28a4a	0.019841332
220	0x3b315ff6	0.0027065254
221	0xbddcfd5b	-0.10790511
222	0x3cc39249	0.023873465
223	0xbbf59186	-0.0074941544
224	0xbd8d2a31	-0.06892813
225	0xbc226eac	-0.009914082
226	0xbcd2a72b	-0.025714478
227	0xbd816cdd	-0.06319592
228	0x3cfcc74a	0.030856747
229	0xbd4c1ba1	-0.049831036
230	0xbd3a296f	-0.04544967
231	0xbbb17314	-0.0054153297
232	0xbcb8aef9	-0.022544371
233	0xbcfd32ae	-0.030907955
234	0xbc1d749f	-0.009610324
235	0xbc542064	-0.012947176
236	0x3d2d1767	0.042258646
237	0xbbfa20c9	-0.007633303
238	0x3da6f8ce	0.081529245
239	0x3d7ccc7c	0.06171845
240	0xb63b7c4f	-2.7937529e-06
241	0x3ceed500	0.0291543
242	0x3d522a3e	0.051309817
243	0xbd216b6c	-0.039409086
244	0xbb0cf261	-0.0021506774
245	0xbc9c9fbc	-0.019119136
246	0xbcdfc6cf	-0.027316479
247	0x3d0b47ca	0.03400401
248	0xbd43d75d	-0.04781281
249	0x3cb80ae7	0.022466136
250	0x3d70c6a3	0.058783185
251	0x3d46feee	0.048582964
252	0x3d3cb6bc	0.046072707
253	0xbd9a8e74	-0.07546702
254	0xbd57dc11	-0.052700106
255	0xbc05e8a3	-0.008173141

conv3.bias f4 [64]
0	0x3cc77fc7	0.024352921
1	0xbd096fa5	-0.03355374
2	0xbcb37d7e	-0.021910425
3	0x3e34ee4c	0.17669028
4	0xbece61ac	-0.40308893
5	0xbe0729b3	-0.131995
6	0xbe251fa5	-0.16125353
7	0xbe776290	-0.24158692
8	0xbe827b10	-0.25484514
9	0xbe1664b1	-0.14686848
10	0xbeaccaff	-0.33748624
11	0xbdf29bd3	-0.11846127
12	0xbe7fb492	-0.24971226
13	0x3989fa77	0.00026317287
14	0x3e31989f	0.17343377
15	0x3e40be99	0.18822707
16	0xbd9bf804	-0.076156646
17	0xbe059f07	-0.13048945
18	0x3d75b563	0.059987437
19	0xbc24895e	-0.0100425165
20	0x3e1daa34	0.15396959
21	0x3e47ef89	0.19524969
22	0xbe1a8f6c	-0.15093774
23	0xbd55b6da	-0.052176334
24	0x3e0b29d5	0.13590176
25	0xbe658e5f	-0.22417592
26	0x3dd40321	0.10352159
27	0x3e2453e5	0.16047628
28	0x3e01ac2a	0.12663332
29	0xbe1dccbc	-0.15410131
30	0xbeb0ef1f	-0.34557435
31	0x3e435648	0.19075882
32	0x3e0c0561	0.13673927
33	0xbde2b436	-0.11069529
34	0xbddebdc2	-0.10876037
35	0x39b326c9	0.00034170438
36	0xbe80222c	-0.2502607
37	0xbe8bd987	-0.27314398
38	0xbd991e7d	-0.07476518
39	0xbe2376a6	-0.1596323
40	0xbe8786f3	-0.26470146
41	0xbe97f92f	-0.296823
42	0xbd4f79ce	-0.05065327
43	0x3e2af3c1	0.16694547
44	0xbeb971fb	-0.36219773
45	0xbe25e226	-0.1619955
46	0xbe8384a0	-0.25687122
47	0xbf03cf31	-0.51488024
48	0x3d970385	0.07373718
49	0xbe91e318	-0.2849357
50	0xbe57a1e0	-0.21057844
51	0x3e1856f8	0.14876926
52	0xbd189571	-0.037251893
53	0xbe13f168	-0.14447558
54	0x3e22681b	0.15860026
55	0xbe3661ec	-0.17810792
56	0x3e19f7ae	0.15035889
57	0xbdeff824	-0.11717251
58	0x3c9a711d	0.018852765
59	0xbda8bb78	-0.08238882
60	0x3e73582a	0.237641
61	0x3ce9316a	0.028465945
62	0xbe24e253	-0.16101961
63	0xbb91fde7	-0.0044553163

conv4.weight f4 [128, 64, 3, 3]
0	0xbd52c335	-0.051455695
1	0xbc8f3991	-0.017483504
2	0x3b9133a5	0.0044312053
3	0x3ba5e8e6	0.005063164
4	0xbc7f6ed9	-0.015590393
5	0x3c0538d8	0.008131228
6	0xbc47c827	-0.012193716
7	0x3c6c13d1	0.0144090215
8	0xbbbe9b1f	-0.0058168317
9	0xbd23613c	-0.03988765
10	0xbcffb76c	-0.031215392
11	0x3c00b967	0.007856703
12	0xbd3eb535	-0.04655953
13	0x3bd4e229	0.006496687
14	0xbc9b7916	-0.018978637
15	0x3d3bf64b	0.04588918
16	0x3c5ef217	0.013607523
17	0x3c66b503	0.0140812425
18	0xbbdc1ba3	-0.0067171617
19	0xbcc094af	-0.023508398
20	0x3c52242d	0.012826008
21	0x3c1bbfd8	0.009506188
22	0x3c14d7c4	0.009084646
23	0x3cc1538a	0.023599405
24	0x3cd8eca9	0.026480036
25	0x3d65b1f7	0.056077924
26	0xbd4a8acf	-0.049448784
27	0x3d163859	0.03667483
28	0x3c062f95	0.008190055
29	0xbc7338e0	-0.014845103
30	0xbc28eca5	-0.010310327
31	0x3ca2fc4f	0.0198957
32	0xbd844ac4	-0.06459573
33	0xbd498889	-0.049202476
34	0xbd76442d	-0.06012361
35	0xbca580cb	-0.020203015
36	0x3b92b9ad	0.0044777007
37	0xbdaaa64b	-0.08332499
38	0xbd3bfe24	-0.045896664
39	0x3c065a4f	0.008200242
40	0x3d20eab3	0.039286327
41	0x3c2d0b9d	0.010561851
42	0x3accbf98	0.0015621064
43	0xbca9adb0	-0.020712703
44	0xbd22d83d	-0.039757002
45	0x3d326012	0.04354865
46	0xbd0730c0	-0.033005476
47	0xbd6199e1	-0.05507839
48	0x3c99af90	0.018760473
49	0x3d537420	0.051624417
50	0x3d218779	0.039435837
51	0x3cdff513	0.02733854
52	0x3c57cf2a	0.01317195
53	0x3d05a41a	0.032627203
54	0x3cc49987	0.023998989
55	0xbc9993a1	-0.018747153
56	0xbcd12dc1	-0.025534512
57	0xbb961765	-0.0045804256
58	0x3ca23e2f	0.019805042
59	0x3cdb18aa	0.02674516
60	0x3d1b20ee	0.0378732
61	0xbd4a875e	-0.049445502
62	0xbd371e1f	-0.04470646
63	0xbc69afa4	-0.014263067
64	0xbc6d8541	-0.014497102
65	0x3c576969	0.01314769
66	0x3c34dc0a	0.0110387895
67	0xbd72e06c	-0.059296057
68	0x3c3e2f90	0.0116080195
69	0x3b22043f	0.002472177
70	0xbc4160a4	-0.011802826
71	0xb9efb023	-0.00045716864
72	0x3cfd4754	0.030917801
73	0x3cfe36c0	0.031031966
74	0x3d28886b	0.041145723
75	0xbd41035f	-0.047122356
76	0xbca012d9	-0.019540237
77	0xbc45bdfe	-0.012069223
78	0x3bdb1783	0.0066861524
79	0xbb281cd7	-0.0025651956
80	0xba1e73b0	-0.00060444605
81	0xbd027136	-0.031846248
82	0xbd3246d1	-0.043524567
83	0x3d253cd3	0.04034121
84	0x3cb0ae12	0.021567378
85	0xbd3c4778	-0.045966595
86	0xbd33c099	-0.043884847
87	0xbcaabcea	-0.020842034
88	0xbc76561f	-0.015035181
89	0x3cb28ac9	0.021794694
90	0x3a60c9da	0.0008575
91	0xbcd6eeea	-0.02623697
92	0xbc0c9e40	-0.008582652
93	0xbceeaabb	-0.029134145
94	0x3d4e193d	0.050317038
95	0x3d3b2f6f	0.045699533
96	0xbd76a012	-0.06021125
97	0x3bb1f941	0.0054313247
98	0x3c27de7f	0.010245918
99	0xbd060b47	-0.0327256
100	0xbb4d7dea	-0.0031355568
101	0xbcbff43c	-0.02343189
102	0xbc9ae297	-0.018906875
103	0x3d04ba7e	0.032404415
104	0xbd0ac5a6	-0.0338799
105	0xbbfed8eb	-0.0077773235
106	0xbcec2958	-0.028828308
107	0x3c556279	0.013023966
108	0x3c2f4712	0.010698097
109	0x3c92e77e	0.01793265
110	0xbbbc52d8	-0.0057471804
111	0xbcfc4549	-0.030794756
112	0x3c060a37	0.008181146
113	0x3c529a48	0.012854166
114	0xbcf24990	-0.029576093
115	0x3d327138	0.043565005
116	0xbd0f4b3a	-0.03498385
117	0xbce9cdee	-0.028540578
118	0x3acd9f1b	0.0015687676
119	0x3d05e24e	0.032686524
120	0xbd05f108	-0.03270057
121	0x3b350fda	0.0027627856
122	0x3c134b69	0.008990147
123	0xbbe4e145	-0.006984862
124	0x3cee65bd	0.029101247
125	0xbd824f0d	-0.06362734
126	0xbc77f29c	-0.015133526
127	0xbc8cd913	-0.017193353
128	0xbd21d641	-0.03951097
129	0x3db7d0fb	0.08975407
130	0x3bd1fb33	0.006408119
131	0x3d71828c	0.05896239
132	0xbd1051c2	-0.03523422
133	0xbce0a44b	-0.027422091
134	0xbdab4c43	-0.08364155
135	0xbc6ffe44	-0.014648024
136	0x3d2fb702	0.04289914
137	0xbc6c663f	-0.014428674
138	0x3ca64ddc	0.020300798
139	0x3d5eec35	0.054424483
140	0x3d0374f4	0.032093957
141	0xbc7623e9	-0.01502321
142	0x3cbab95e	0.022793468
143	0xbd1244da	-0.035710193
144	0x3baea45c	0.0053296518
145	0x3befb453	0.0073151975
146	0xbd3aba0a	-0.045587577
147	0xbd0e3689	-0.034719978
148	0xbb949354	-0.0045341644
149	0x3d59e5a5	0.05319752
150	0x3b2765d1	0.0025542865
151	0xbcbdacf0	-0.023153752
152	0xbccea005	-0.025222788
153	0xbd68e5e5	-0.05685987
154	0xbd9f460d	-0.07777033
155	0xbccf9b8a	-0.025342721
156	0xbd11a675	-0.035559136
157	0x3d26f2aa	0.040758766
158	0xbcab2d85	-0.020895729
159	0x3cb60d4d	0.02222314
160	0x3c1cb196	0.009563824
161	0xbbb1896c	-0.0054179933
162	0x3ac41273	0.0014959112
163	0x3c7fa5ca	0.015603492
164	0xbd536aeb	-0.051615637
165	0x3c2ae87f	0.010431408
166	0xbb1cec9d	-0.0023944743
167	0xbd024f8a	-0.031814136
168	0xbd1885ea	-0.037237085
169	0xbcc67b36	-0.024228673
170	0x3c72f833	0.014829683
171	0xbc079e22	-0.008277448
172	0xbafacae3	-0.0019133951
173	0x3c9ad6d6	0.01890127
174	0x3d313b98	0.043269724
175	0xbd29df64	-0.041472808
176	0x3b0b1f73	0.0021228462
177	0x3d028f90	0.031875193
178	0x3c1d1456	0.009587368
179	0x3ba628ed	0.0050707967
180	0x3bd48a00	0.0064861774
181	0xba14ca21	-0.00056758715
182	0x3cc6f99c	0.024288945
183	0x3d39ff2e	0.045409374
184	0xbd13312a	-0.03593556
185	0x3bfdc58c	0.0077444967
186	0xbd379ec4	-0.044829145
187	0x3bc9c2ef	0.006157271
188	0xbd86dba9	-0.065848656
189	0xbcc5e328	-0.024156168
190	0x3cef7587	0.029230846
191	0xbb9c249a	-0.0047651054
192	0x3cb725ad	0.022356832
193	0xbcf64ca0	-0.030065835
194	0xbd6e2db3	-0.05814905
195	0xbc613781	-0.013746143
196	0xbb9a3974	-0.004706556
197	0x3ce4c99e	0.02792817
198	0xbd1e3675	-0.038626153
199	0x3d49b40c	0.04924397
200	0xbc2a86ed	-0.010408145
201	0x3cf4fa45	0.029904494
202	0x3d30d0af	0.043167766
203	0x3c8c3273	0.0171139
204	0x3d53f5b5	0.051747996
205	0xbcf5d53c	-0.030008905
206	0xbd506c49	-0.05088452
207	0xba9ff15c	-0.0012202668
208	0xbc1e0b0f	-0.009646191
209	0x3ce6c857	0.028171701
210	0xbc8d925c	-0.017281704
211	0x3c9cf5c0	0.019160151
212	0xbd09c0c0	-0.033631086
213	0xbb4a0892	-0.0030827862
214	0x3b271208	0.0025492925
215	0x3c3fbd22	0.011702808
216	0xbdbf3f3f	-0.09338235
217	0x3c52205b	0.012825097
218	0xbdb2fe80	-0.08739948
219	0x3c504d54	0.012713749
220	0x3c9dfcb1	0.019285532
221	0x3a84b944	0.0010126014
222	0x3bc47e34	0.00599649
223	0xbd759baa	-0.059962906
224	0xbd41de41	-0.0473311
225	0xbc0fc3c4	-0.0087747015
226	0xbd54cf6c	-0.051955625
227	0x3c08659c	0.008325007
228	0xbcdaa7a0	-0.026691258
229	0xbc39023b	-0.011292036
230	0xbcc76cfe	-0.024343964
231	0xbbefc9a6	-0.0073177395
232	0xbc2fbbfe	-0.010725973
233	0x3cf80c13	0.030279195
234	0x3ca597a7	0.020213915
235	0xbd14bdc4	-0.036313787
236	0x3c37d80b	0.011220942
237	0xbcbd7992	-0.023129258
238	0xbcc48115	-0.023987332
239	0xbcc1114b	-0.023567816
240	0x3d1141d8	0.035463184
241	0xbd2a76aa	-0.041617073
242	0xbcba607e	-0.02275109
243	0x3d137ade	0.036005847
244	0xbcaf990a	-0.02143528
245	0xbd93f9e7	-0.072253995
246	0x3b81c93a	0.0039607557
247	0xbc99e07f	-0.018783806
248	0x3d1e7263	0.038683306
249	0xbaf28e38	-0.0018505519
250	0xbc965e8c	-0.01835563
251	0xbdade656	-0.08491199
252	0xbb125349	-0.0022327474
253	0x3cf1c7e0	0.029514253
254	0xbd78c043	-0.06073023
255	0xbd95009b	-0.07275506

conv4.bias f4 [128]
0	0xbe00c4fc	-0.12575144
1	0xbd8120fa	-0.06305118
2	0x3c9ff719	0.019527005
3	0xbe1d2db3	-0.15349464
4	0x3e8ecc1a	0.27890092
5	0xbc933d81	-0.017973663
6	0xbd167c41	-0.03673959
7	0x3e5454e4	0.20735508
8	0xbe12048e	-0.1425955
9	0x3e264d69	0.16240467
10	0xbe033da6	-0.12816486
11	0xbe33af0e	-0.17547247
12	0xbd4ffb45	-0.05077674
13	0xbe327460	-0.17427206
14	0x3ccf7bcf	0.025327591
15	0x3dd7b678	0.1053285
16	0x3e65ed5e	0.2245383
17	0xbe251237	-0.1612023
18	0x3e3c7504	0.18404013
19	0xbdae6156	-0.08514659
20	0x3ce98d42	0.02850974
21	0xbe06577e	-0.13119313
22	0x3e14ccdf	0.14531277
23	0x3da3bf5e	0.07995485
24	0xbcace5a3	-0.021105593
25	0x3e20d5bc	0.15706533
26	0x3e0db15f	0.13837193
27	0x3e088949	0.1333362
28	0xbe338bbe	-0.17533776
29	0x3e1d0c62	0.15336755
30	0xbc209c9d	-0.0098029645
31	0x3d9ae44b	0.07563075
32	0xbdcf418f	-0.10119926
33	0x3e5137aa	0.2043139
34	0x3d8e58f4	0.0695056
35	0xbe2c89cd	-0.16849442
36	0xbe406526	-0.18788585
37	0xbabbebb6	-0.0014337215
38	0x3d7f58b1	0.062340442
39	0x3deb3259	0.114842124
40	0xbe3c41fe	-0.18384549
41	0x3e83abdb	0.25717053
42	0xbd9151ba	-0.07095666
43	0x3d9052a1	0.0704701
44	0x3e048c34	0.12944108
45	0x3e1acdb0	0.15117526
46	0x3dcde41f	0.10053276
47	0x3dc3b06d	0.09555135
48	0x3e55cba9	0.20878471
49	0x3da26f5b	0.079313956
50	0xbdc10c53	-0.09426179
51	0x3dcc6f10	0.09982121
52	0xbe151514	-0.14558822
53	0x3e01c7c7	0.12673865
54	0x3dd97b06	0.10619168
55	0x3ddb8da1	0.10720373
56	0x3dd64514	0.10462394
57	0xbd9e697e	-0.07734965
58	0x3e46466f	0.19362806
59	0xbe0e48af	-0.13894914
60	0xbdea8d8f	-0.114527814
61	0x3e14600e	0.14489767
62	0xbd05386b	-0.032524507
63	0xbe809bff	-0.25119016
64	0x3e347c53	0.17625551
65	0xbdb529ef	-0.08845889
66	0x3decea70	0.11568153
67	0x3d644496	0.05572947
68	0x3e33ab2b	0.17545764
69	0xbd84fe8e	-0.06493865
70	0x3e0c09ea	0.13675657
71	0x3c78d851	0.015188293
72	0x3d5d444a	0.054020204
73	0x3e0b0cae	0.13579056
74	0x3e2ae5aa	0.16689172
75	0xbdb7d413	-0.08975997
76	0x3e6fb597	0.23409115
77	0x3e29bb02	0.16575244
78	0xbddf213d	-0.108950116
79	0xbdaa0b16	-0.08302896
80	0x3e30d289	0.17267813
81	0xbdb08e71	-0.086209185
82	0xbd913968	-0.070910275
83	0x3e44e19f	0.19226693
84	0xbe06ab51	-0.1315129
85	0xbc4db40f	-0.012555136
86	0x3d8fd412	0.07022871
87	0x3e0ea19b	0.13928835
88	0x3d9de7ad	0.07710204
89	0xbe06c3a2	-0.13160565
90	0x3e34b77d	0.1764812
91	0x3e446015	0.19177277
92	0xbd18b1a1	-0.037278775
93	0xbe13205e	-0.14367816
94	0xbd893c09	-0.06700904
95	0x3e2da2b0	0.16956592
96	0xbc9bb10d	-0.019005323
97	0x3d8043fd	0.06262968
98	0x3dcb5908	0.09929091
99	0x3e06d25d	0.13166185
100	0x3d374382	0.044742115
101	0x3dfe13c9	0.124061175
102	0x3d378bcd	0.04481106
103	0x3de39551	0.11112464
104	0x3dc0128e	0.09378539
105	0x3d7d3dca	0.061826505
106	0x3c51a206	0.012794977
107	0x3e6d0084	0.23144728
108	0x3e30c14e	0.1726124
109	0xbe2693d1	-0.16267325
110	0x3e29415b	0.16528837
111	0x3d7b2c65	0.061321635
112	0xbe490367	-0.19630204
113	0xbe0aa78f	-0.13540481
114	0x3e57f544	0.21089655
115	0x3d4e4085	0.0503545
116	0x3dd18a22	0.10231425
117	0xbe6bb913	-0.23019819
118	0x3e8b0458	0.27151752
119	0x3e05fd76	0.13084969
120	0xbe064807	-0.13113414
121	0x3d90b991	0.07066644
122	0xbcf7d15e	-0.030251201
123	0xbe4e20c4	-0.20129687
124	0x3e4d781e	0.20065352
125	0xbe04c148	-0.12964356
126	0x3ac0a431	0.001469737
127	0xbe10d3f3	-0.14143352

conv1T.weight f4 [128, 64, 3, 3]
0	0xbe799a39	-0.24375238
1	0xbd54adf4	-0.051923707
2	0x3d95c89a	0.07313652
3	0xbe80fc0b	-0.25192294
4	0xbe5c43ac	-0.2151019
5	0xbdc66dba	-0.096888974
6	0x3e112639	0.14174737
7	0x3e8701cc	0.26368558
8	0x3e72e32d	0.23719473
9	0xbd69045e	-0.05688893
10	0xbe007f10	-0.1254847
11	0xbe8da314	-0.2766348
12	0x3dcb59a1	0.09929205
13	0x3d241065	0.040054698
14	0x3e9a14ae	0.30093902
15	0xbe8bcb77	-0.2730367
16	0xbe90fe22	-0.28318888
17	0xbe9ff361	-0.3124037
18	0xbe7373ae	-0.23774597
19	0xbda1f6ba	-0.079083875
20	0xbe6320d0	-0.22180486
21	0xbe943511	-0.28946736
22	0xbe897d62	-0.26853472
23	0x3e688240	0.22705936
24	0xbde5001d	-0.11181662
25	0xbdda288e	-0.106522664
26	0xbcc80e54	-0.024420895
27	0xbd90ecd3	-0.07076421
28	0xbdbd837c	-0.09253594
29	0x3e808b80	0.2510643
30	0xbe8aa8f1	-0.27082017
31	0xbe443c41	-0.1916361
32	0xbe73b3d5	-0.23799069
33	0x3ecaf487	0.39639685
34	0x3efa4348	0.48879457
35	0x3e979ac0	0.29610252
36	0x3e2a16e0	0.16610289
37	0xbdac1fe5	-0.08404521
38	0xbe618ddf	-0.22026776
39	0x3e0bc033	0.13647537
40	0xbc5195fe	-0.012792109
41	0x3e6298eb	0.22128646
42	0xbdaa34e6	-0.08310871
43	0x3dafe74b	0.085890375
44	0x3ea4825b	0.32130703
45	0xbe02e96e	-0.12784359
46	0xbea1c529	-0.31595734
47	0xbec98fb8	-0.3936746
48	0xbd308105	-0.043091793
49	0xbe331b7d	-0.17490955
50	0x3e34b8d6	0.17648634
51	0xbd27d37c	-0.04097317
52	0xbe6fb0c9	-0.23407282
53	0xbe572ede	-0.21013972
54	0x3de60a49	0.112324305
55	0x3b37b9a8	0.0028034244
56	0x3e03b148	0.12860596
57	0x3d7e9f3d	0.06216358
58	0x3d177b7a	0.03698299
59	0x3e0a06c0	0.13479137
60	0x3d206ada	0.0391644
61	0x3c5778e6	0.013151383
62	0xbe228c40	-0.15873814
63	0xbd08f0b2	-0.03343267
64	0xbe8447a2	-0.25835901
65	0xbd7b3b6d	-0.06133597
66	0xbe24f52f	-0.16109155
67	0xbe472384	-0.19447142
68	0x3e0f5175	0.13995917
69	0xbcb9cfec	-0.022682153
70	0xbda2aa86	-0.07942681
71	0x3cbabd58	0.022795364
72	0x3d4637a9	0.048392925
73	0xbe35750a	-0.17720428
74	0xbe9ca4d8	-0.30594516
75	0x3d75fadc	0.06005369
76	0x3d85c6b0	0.06532037
77	0x3e320901	0.17386247
78	0xbe2008ae	-0.15628311
79	0xbe7ccaea	-0.2468678
80	0xbe833eab	-0.2563375
81	0xbe3969fb	-0.18106835
82	0xbeb196d4	-0.34685385
83	0xbef0388c	-0.46918142
84	0xbd84ef1a	-0.064909175
85	0xbde4c1bb	-0.11169764
86	0x3e7c7273	0.24653034
87	0xbdd01547	-0.10160308
88	0xbdf87a7a	-0.121327356
89	0xbe353e18	-0.17699468
90	0xbdb2dd53	-0.087336205
91	0x3db09c08	0.086235106
92	0x3d2d565f	0.042318698
93	0xbe858164	-0.2607528
94	0xbe1b0949	-0.15140261
95	0x3e658d11	0.22417094
96	0xbe131ee6	-0.14367256
97	0x3d628674	0.055304006
98	0xbde6d748	-0.112715304
99	0xbab8d5a5	-0.0014101757
100	0xbd90fff4	-0.07080069
101	0x3cc4912f	0.02399501
102	0x3e0eee09	0.1395799
103	0x3e311be3	0.17295794
104	0x3e8c131b	0.27358326
105	0xbe8e3910	-0.2777791
106	0xbe52de8c	-0.20592707
107	0xbe9a0e08	-0.3008883
108	0xbd20c7ff	-0.03925323
109	0xbad4d8d6	-0.0016238939
110	0xbd6afdf7	-0.057371106
111	0x3a7db222	0.0009677728
112	0x3e9533bc	0.29141033
113	0x3f11e9bb	0.5699727
114	0xbded6926	-0.11592321
115	0xbe5d4700	-0.21609116
116	0xbd0f6980	-0.035012722
117	0xbe3dcd2e	-0.18535301
118	0xbe6cf477	-0.23140131
119	0x3d92f27b	0.07175156
120	0xbe6b8032	-0.22998121
121	0xbdbe5e15	-0.092952885
122	0x3d8db2d5	0.06918875
123	0x3e2bfb8f	0.1679518
124	0x3e041940	0.12900257
125	0x3df973e3	0.12180307
126	0xbe44694a	-0.1918079
127	0xbedb1f0d	-0.42797127
128	0xbee7edcd	-0.45298615
129	0xbd77d731	-0.060507957
130	0xbe08fd48	-0.13377869
131	0x3e87a2cb	0.2649139
132	0xbde7dea7	-0.113217644
133	0xbe46ea26	-0.19425258
134	0xbe5f99d2	-0.21836022
135	0xbb03a99f	-0.0020090116
136	0xbd9b8ed9	-0.075956054
137	0x3daa9fee	0.083312854
138	0xbe953173	-0.2913929
139	0xbe81e23b	-0.25367913
140	0x3b432e7b	0.0029782343
141	0x3e6ba09b	0.23010485
142	0x3ea08b75	0.31356397
143	0x3e760293	0.2402442
144	0x3b89ee25	0.0042092972
145	0xbe71c0d0	-0.23608708
146	0xbc14a4c0	-0.009072483
147	0xbe6376bf	-0.22213267
148	0xbe741221	-0.2383504
149	0x3edb1852	0.42791992
150	0xbd422fa7	-0.047408726
151	0x3ce732ed	0.028222525
152	0x3e84ba50	0.25923395
153	0xbd2a91c8	-0.041642934
154	0xbe1facc4	-0.15593249
155	0xbc824480	-0.015901804
156	0x3ae66ad3	0.0017579444
157	0xbd8c98d0	-0.06865084
158	0x3e668873	0.22512989
159	0x3d1215c5	0.035665292
160	0xbc8b1117	-0.016975923
161	0xbdaeba42	-0.085316196
162	0xbe2bdab5	-0.16782649
163	0xbecee4cb	-0.4040893
164	0xbeebf0a2	-0.46082026
165	0xbc87c36b	-0.016572675
166	0xbb6bf6a8	-0.0036005173
167	0x3e702565	0.23451765
168	0xbe070708	-0.13186276
169	0xbe603bac	-0.21897763
170	0xbe878c0a	-0.2647403
171	0x3e2c3993	0.16818838
172	0x3df69cb2	0.12041606
173	0xbcad9adc	-0.021192007
174	0xbd68d5f1	-0.056844655
175	0xbb752397	-0.0037405246
176	0x3e75cea6	0.24004611
177	0xbdcf02ec	-0.10107979
178	0xbd8e414b	-0.069460474
179	0xbe0fe771	-0.14053132
180	0xbe30b05e	-0.17254779
181	0xbed46e84	-0.41490567
182	0xbef9a9fb	-0.48762497
183	0xbc8e6a18	-0.017384574
184	0xbd2871cd	-0.041124154
185	0x3e8e31a0	0.27772236
186	0xbe1272cf	-0.14301609
187	0xbe880589	-0.26566723
188	0xbebc4d10	-0.36777544
189	0xbe022264	-0.12708431
190	0xbead471a	-0.3384331
191	0xbed9195b	-0.42402157
192	0xbd9965b7	-0.07490104
193	0xbd54b79c	-0.051932916
194	0x3e94b2d1	0.29042676
195	0xbdb3f29e	-0.0878651
196	0xbe296465	-0.16542204
197	0xbe51c8f3	-0.20486812
198	0xbe1ca31f	-0.15296601
199	0xbe29950b	-0.16560762
200	0x3d2a971a	0.041648008
201	0xbea6aab6	-0.32552117
202	0xbea0eaf9	-0.3142927
203	0xbd525038	-0.051346034
204	0x3e1475fb	0.14498131
205	0x3ebe53e4	0.37173378
206	0x3ea203ca	0.31643516
207	0xbe295972	-0.16538027
208	0xbea4f061	-0.32214645
209	0xbeaa55c5	-0.33268562
210	0xbe435480	-0.19075203
211	0xbe4f9ac6	-0.20273885
212	0x3e8ea94f	0.27863547
213	0xbd96662e	-0.07343708
214	0xbd6ff99b	-0.05858765
215	0xbe048d85	-0.1294461
216	0xbe00d68a	-0.1258184
217	0xbdfce19f	-0.12347721
218	0x3db590a3	0.08865478
219	0xbedbe8e6	-0.42951125
220	0xbeb2a16c	-0.3488878
221	0xbccc840c	-0.024965309
222	0x3e919678	0.2843511
223	0x3ef53e34	0.4789902
224	0x3f00b392	0.50274
225	0x3d0543ff	0.03253555
226	0xbd3285d3	-0.043584656
227	0x3d900adc	0.07033321
228	0x3db942cb	0.09045943
229	0x3e59afbd	0.21258445
230	0x3e99553e	0.29947847
231	0xbe9cc2df	-0.30617425
232	0xbe6e83f0	-0.23292518
233	0xbe9f3c6c	-0.31100786
234	0xbe00bcd5	-0.12572034
235	0xbe57a9ac	-0.21060818
236	0xbe5bf0fc	-0.21478647
237	0xbdaae781	-0.08344937
238	0x3db4ee9a	0.08834572
239	0x3e9ca81e	0.30597013
240	0xbd92a6dc	-0.07160732
241	0xbdbe66f9	-0.09296984
242	0xbe17ed19	-0.1483654
243	0x3c067308	0.0082061365
244	0xbc94a24b	-0.018143794
245	0x3d30d250	0.04316932
246	0xbdd99721	-0.10624529
247	0xbdcd1556	-0.10013835
248	0x3ec044d8	0.37552524
249	0xbe2b4b5c	-0.16727966
250	0xbd353d7b	-0.044248085
251	0xbdcc9bec	-0.09990677
252	0xbe809ca6	-0.25119513
253	0xbe56c664	-0.20974118
254	0xbe5a4cbc	-0.21318334
255	0xbea9192a	-0.3302701

conv1T.bias f4 [64]
0	0xbdca0913	-0.09865012
1	0x3d6afa15	0.057367403
2	0xbe03f65c	-0.12886947
3	0x3d891f03	0.06695368
4	0x3da9e3dd	0.082954146
5	0x3c6db3c1	0.014508189
6	0x3d09e81a	0.033668615
7	0xbd8d0c5c	-0.06887123
8	0x3d32de81	0.043669228
9	0x3ab7325c	0.00139768
10	0xbde7c4a8	-0.11316806
11	0x3b9eae05	0.004842522
12	0x3dffbf70	0.12487686
13	0xbd4c820f	-0.04992872
14	0x3caec341	0.021333339
15	0x3ca84bda	0.020543981
16	0xbcdf4f42	-0.027259473
17	0x3ce4c47d	0.027925724
18	0x3c7cc137	0.015426925
19	0x3e38f0ef	0.18060659
20	0x3da8d6fd	0.08244131
21	0x3cecc541	0.028902652
22	0xbda1253f	-0.07868432
23	0xbda53348	-0.08066422
24	0xbdacc236	-0.0843548
25	0x3c549b67	0.012976504
26	0xbbc4e7d6	-0.0060090823
27	0x3d01c09f	0.03167784
28	0xbd809ed7	-0.06280296
29	0xbd8cc5ab	-0.0687364
30	0x3e1e286f	0.15445112
31	0x3d5f0bd7	0.05445465
32	0x3da4c8b6	0.08046095
33	0x3e880f12	0.26573998
34	0xbcb6d155	-0.022316614
35	0xbdd1b3c2	-0.10239364
36	0xbcc033b5	-0.023462156
37	0x3d8f40ec	0.06994805
38	0xbe77e62f	-0.24208902
39	0xbc8ba084	-0.017044313
40	0xbc846ba7	-0.016164614
41	0xb8b95629	-8.837536e-05
42	0xbcf7769e	-0.030207928
43	0xbd066b5e	-0.032817237
44	0xbde16adb	-0.11006709
45	0x3c84cfb2	0.016212318
46	0xb92df8c6	-0.00016591241
47	0xbd858743	-0.0651994
48	0xbe1f3b70	-0.15550017
49	0x3b9451f9	0.0045263735
50	0xbd6b3493	-0.057423186
51	0xbcdbc752	-0.026828442
52	0x3d2a42d6	0.041567646
53	0x3e3f4ee4	0.18682438
54	0x3d88aa31	0.066730864
55	0x3da7386b	0.08165058
56	0x3d0b0862	0.03394354
57	0xbcd82b45	-0.02638782
58	0x3e14caa7	0.1453043
59	0x3d4c76fd	0.049918164
60	0xbd87e377	-0.06635182
61	0x3cb3a0e9	0.021927314
62	0x3cbcbb99	0.023038672
63	0xbdac8e3e	-0.08425568

conv2T.weight f4 [64, 32, 3, 3]
0	0x3b8d3a79	0.004309949
1	0x3e8b1e64	0.27171624
2	0xbd0fdbec	-0.035121843
3	0x3ed91344	0.4239751
4	0x3f53f3dc	0.82793975
5	0x3ed36c24	0.41293442
6	0x3e161475	0.14656241
7	0x3e8c5c50	0.2741418
8	0x3e9a5cbe	0.30148882
9	0xbdc7edac	-0.09762129
10	0xbdc1b9d2	-0.094592705
11	0xbec40339	-0.3828371
12	0x3eca6a3a	0.3953417
13	0x3e8b5318	0.27211833
14	0x3e962ce5	0.29331127
15	0x3d8a557a	0.067545846
16	0x3e8f62bb	0.28005013
17	0x3de2eef2	0.110807315
18	0xbe87e18a	-0.2653926
19	0xbe866862	-0.26251513
20	0xbc8e0751	-0.017337473
21	0xbda56ecd	-0.08077774
22	0x3e8615f7	0.26188633
23	0x3dccae3d	0.09994171
24	0x3bc227a8	0.0059251375
25	0x3cdbb8e7	0.026821567
26	0x3d916008	0.07098395
27	0x3d99542e	0.07486759
28	0x3d8e6b36	0.069540426
29	0x3dfa94e5	0.12235431
30	0x3eaa0df0	0.33213758
31	0x3f1173f5	0.5681756
32	0x3ea28ad2	0.31746536
33	0x3e87ac82	0.264988
34	0x3e2506eb	0.1611592
35	0x3e0435fa	0.12911215
36	0xbcf9a9cf	-0.030476479
37	0x3d4c6a43	0.049906027
38	0x3de08161	0.10962177
39	0x3e22b608	0.15889752
40	0x3ee06aa0	0.43831348
41	0x3ede23ef	0.4338679
42	0x3e8d3c5a	0.27585107
43	0x3f275985	0.6537097
44	0x3ebeb02b	0.3724378
45	0xbe5fee08	-0.21868145
46	0xbe869839	-0.26288012
47	0xbeb6a0ed	-0.35669652
48	0x3d1532b6	0.036425315
49	0xbe0f46da	-0.13991871
50	0x3b50d604	0.0031865845
51	0x3dec9c0c	0.11553201
52	0x3e8488f9	0.25885752
53	0x3da10134	0.078615576
54	0xbeb8f4ae	-0.36124176
55	0xbe743c8e	-0.23851225
56	0xbedfd328	-0.43715787
57	0x3ea17e7e	0.31541818
58	0x3ebf3271	0.3734317
59	0x3e14e2e1	0.14539672
60	0x3e2348d7	0.15945755
61	0x3e57e4d2	0.21083382
62	0x3dae88f5	0.08522216
63	0x3d978188	0.07397753
64	0x3e029ae3	0.12754397
65	0x3e095d56	0.13414511
66	0x3d6f6d1f	0.058453675
67	0x3dcb6ffd	0.099334694
68	0x3da976f4	0.08274642
69	0x3eaa1cab	0.33224997
70	0x3f10365a	0.56332934
71	0x3f05a332	0.5220214
72	0xbc608447	-0.013703412
73	0xbe5c2973	-0.21500187
74	0xbedf32a8	-0.43593335
75	0x3e0c7be8	0.13719141
76	0x3e36f090	0.17865205
77	0x3e3a94e3	0.18220858
78	0x3e1c3cf6	0.1525763
79	0x3e7f5af5	0.24937041
80	0x3e1ce438	0.15321434
81	0x3dfa4ba4	0.122214586
82	0xbcaa676b	-0.020801267
83	0xbe87780c	-0.26458776
84	0xbd16212c	-0.03665273
85	0x3d77f99b	0.060540777
86	0x3e395a5f	0.1810088
87	0x3dc03945	0.09385923
88	0x3eaa8048	0.33300996
89	0x3e6ea2fb	0.2330436
90	0x3d089920	0.033349156
91	0xbdb18902	-0.0866871
92	0xbe72150d	-0.23640843
93	0x3d60ca96	0.0548807
94	0x3e0e277c	0.1388225
95	0x3e5552cf	0.2083237
96	0x3dc5affe	0.096527085
97	0x3e90a150	0.28248072
98	0x3e423d50	0.18968701
99	0x3db9dbbb	0.090751134
100	0xbcba6dc3	-0.022757417
101	0x3d57641b	0.052585702
102	0x3e4f960d	0.20272084
103	0x3e4ce1b3	0.20007972
104	0x3e7ce054	0.2469495
105	0x3e667378	0.22504985
106	0x3eb87ae5	0.3603126
107	0x3e744f25	0.23858316
108	0x3d631d0d	0.055447627
109	0x3cff681a	0.03117757
110	0x3e126b6d	0.14298792
111	0x3eb60167	0.35547945
112	0x3e7b5efd	0.24547954
113	0x3e7a52a4	0.24445587
114	0x3e820cde	0.25400442
115	0x3ec8b7e6	0.39202803
116	0x3e822d28	0.25425076
117	0x3dcd59e9	0.100269146
118	0x3e4cf81f	0.20016526
119	0x3e816f53	0.25280246
120	0x3e9e261d	0.30888453
121	0x3ef297a4	0.47381318
122	0x3ed1548a	0.4088481
123	0x3e99b043	0.3001729
124	0x3f14b26d	0.58084756
125	0x3eca6a73	0.3953434
126	0xbdbcc8b2	-0.09217967
127	0x3dae5db0	0.08513963
128	0x3e45bed5	0.19311078
129	0x3e92b3b2	0.28652722
130	0x3ee88ef0	0.45421553
131	0x3e9a3762	0.3012038
132	0x3e74cc70	0.23906112
133	0x3ea27c36	0.3173539
134	0x3e8c522f	0.2740645
135	0xbe2d56af	-0.16927598
136	0xbe9ad47f	-0.30240247
137	0xbef81e47	-0.484606
138	0xbcf11cad	-0.029432619
139	0x3d6f4350	0.058413804
140	0x3e1621cb	0.14661328
141	0x3e14be5f	0.14525746
142	0x3e5e8018	0.21728551
143	0x3e0a53f8	0.13508594
144	0xbe6a78ec	-0.2289769
145	0x3da5c0f3	0.08093443
146	0x3e51a33c	0.20472425
147	0x3eda5dab	0.42649588
148	0x3f0b9c45	0.54535323
149	0x3e36e651	0.17861296
150	0x3ebd60dd	0.36987963
151	0x3f0668f8	0.5250392
152	0x3eb597f7	0.35467502
153	0x3dc56b07	0.096395545
154	0xbe010b69	-0.12602009
155	0x3d851c42	0.064995304
156	0x3e985f34	0.29760134
157	0x3e8265f9	0.25468424
158	0x3e957de5	0.29197612
159	0x3e798e8d	0.24370785
160	0x3ea5490c	0.32282293
161	0x3e365075	0.1780413
162	0x3c1f2a10	0.009714618
163	0x3d9cfe15	0.0766565
164	0xbb82d87c	-0.003993092
165	0x3ee68d50	0.45029688
166	0x3e98a5fc	0.29814136
167	0x3ec01868	0.3751862
168	0x3e7e7948	0.24850953
169	0x3ed6f3ac	0.41982782
170	0x3e8dd0c1	0.2769833
171	0xbd97a19d	-0.07403872
172	0x3ca02a7d	0.01955151
173	0x3d883bb3	0.06652012
174	0x3d90c925	0.07069615
175	0x3e80a1b2	0.25123364
176	0x3ea035d4	0.31291068
177	0x3df1c89b	0.118058406
178	0x3f1cded9	0.6127754
179	0x3ecf5e1d	0.4050149
180	0xbd59f711	-0.053214137
181	0x3d01c6d8	0.031683773
182	0x3defcbe7	0.11708813
183	0x3cfdf4d4	0.031000532
184	0x3e5f5d45	0.21812923
185	0x3e891739	0.2677553
186	0x3e3998ed	0.18124743
187	0x3eebd9bd	0.4606456
188	0x3e95a9d2	0.29231125
189	0xbc8b6792	-0.01701716
190	0xbbd1be6d	-0.0064008744
191	0xbe92cb88	-0.28670907
192	0x3e839858	0.25702167
193	0x3e8207a5	0.25396457
194	0x3ea0cc9c	0.31406105
195	0x3d05d3f4	0.032672837
196	0x3e80506b	0.25061354
197	0x3e215736	0.15755925
198	0x3e8acab5	0.27107778
199	0x3ed944c0	0.42435265
200	0x3e725f41	0.23669149
201	0x3e3425a3	0.17592482
202	0x3e8c37aa	0.27386218
203	0x3c6e7212	0.014553564
204	0x3e11bfab	0.14233272
205	0x3e6a481c	0.2287907
206	0x3e02f4b5	0.12788661
207	0xbda8d038	-0.082428396
208	0x3df65404	0.120277435
209	0x3e4f4991	0.20242907
210	0x3e85c4ab	0.26126608
211	0x3eca9621	0.39567664
212	0x3e86a845	0.26300254
213	0x3eda3204	0.42616284
214	0x3f0762f7	0.52885383
215	0x3ed89f3d	0.4230899
216	0x3e918fc1	0.28429988
217	0x3ef69fc5	0.4816877
218	0x3ee67cc2	0.45017058
219	0x3e8efcdb	0.27927288
220	0x3ed4c67b	0.4155768
221	0x3d8a7674	0.067608744
222	0x3ea1bb19	0.31588057
223	0x3e5d2729	0.2159697
224	0x3e3d7b4a	0.18504062
225	0xbdb7ad9b	-0.089686595
226	0x3bcbe90d	0.00622285
227	0x3e3226a6	0.17397556
228	0x3ee626f1	0.44951585
229	0x3f1b622f	0.6069669
230	0x3e95e0d2	0.29273087
231	0x3ea1378c	0.3148769
232	0x3edb65c2	0.42851073
233	0x3eabac58	0.33529925
234	0xbe5bb323	-0.21455054
235	0xbda830fa	-0.082124665
236	0xbeba72ac	-0.36415613
237	0xbe83cb89	-0.25741223
238	0xbe4d49a9	-0.2004763
239	0xbcaaeaf1	-0.020863982
240	0x3da7513f	0.08169793
241	0x3d0c55b3	0.034261417
242	0x3d4435ff	0.047903057
243	0xbe80dda0	-0.25169086
244	0xbee14849	-0.44000462
245	0xbedaa3e0	-0.42703152
246	0xbdea4ffe	-0.114410385
247	0xbd49f89e	-0.049309365
248	0xbd5a4922	-0.0532924
249	0x3dd20377	0.10254567
250	0x3cd7a288	0.026322618
251	0x3d40af6c	0.047042295
252	0x3de208ad	0.11036811
253	0x3e636619	0.22206916
254	0x3d9915a4	0.07474831
255	0x3e84af78	0.25915122

conv2T.bias f4 [32]
0	0xbe7917ab	-0.24325435
1	0xbf52b622	-0.8230916
2	0xbf01fdf1	-0.5077811
3	0x3e8c338f	0.27383086
4	0xbd21efa0	-0.039535165
5	0xbf65c5d3	-0.8975498
6	0x3e74f211	0.23920466
7	0xbee5b5f8	-0.44865394
8	0xbec603ac	-0.38674676
9	0x3dfdd3c3	0.12393906
10	0xbed25cba	-0.4108637
11	0xbe847ab7	-0.25874874
12	0xbf603bd1	-0.8759127
13	0xbe6ee51c	-0.23329586
14	0xbf922c04	-1.1419683
15	0x3e7b8df2	0.24565867
16	0x3d52bee8	0.051451594
17	0xbed4d12a	-0.4156583
18	0xbf0c4e48	-0.5480695
19	0xbe469665	-0.19393308
20	0xbf401bbd	-0.75042325
21	0xbf257da9	-0.6464487
22	0xbebeaeec	-0.3724283
23	0xbefee949	-0.49787357
24	0x3f43ca0e	0.76480186
25	0xbddcce22	-0.10781504
26	0xbf34c1a6	-0.70607984
27	0xbf6f8097	-0.9355559
28	0xbedcd3fd	-0.43130484
29	0xbe922f16	-0.2855155
30	0xbed06d40	-0.4070835
31	0xbf749f48	-0.95555544
