theta_run_birds_unet/exp_files15_prune_epochs2000/conv_autoencoder.pth (torch, 997865 bytes, 19 tensors)

module.conv1.weight f4 [16, 1, 3, 3]
0.15096678 -0.17615114 -0.15452594 0.019948317 -0.032665834 0.17668839 0.10124214 0.101463795
0.13083136 0.15616551 -0.08014408 0.08744245 0.07049016 -0.010591652 -0.0806974 0.07584978
0.17208485 -0.13420384 0.09792892 -0.22470258 -0.05967051 -0.036430907 -0.02756253 -0.21259934
-0.18026368 -0.08316914 0.22768663 0.18320753 -0.04661283 -0.20636213 -0.13538754 0.027696751
0.11516329 0.17576054 -0.13397036 -0.089744546 0.035217702 0.06624135 -0.0109956395 0.15903714
0.13896887 0.050783772 -0.20423351 -0.35776407 -0.015385432 -0.2298729 0.13461928 0.1765573
-0.15163632 0.002954739 -0.16817982 0.19795753 -0.043971207 -0.02587234 -0.08070768 -0.06347268
-0.057493538 0.09354313 -0.08702485 0.10802972 -0.027118804 -0.030548032 0.02080863 -0.11317372
-0.17446181 0.16348346 0.03008936 0.057197616 -0.2894406 0.08830288 -0.14745621 -0.37612432
-0.113984 0.18591015 -0.19403963 -0.21874888 -0.20465748 -0.2883282 -0.119240776 0.15137774
0.18760374 0.03528403 0.10062303 0.013329535 0.064659745 0.07695948 0.20659508 0.11199303
0.10436312 0.013409765 0.2432625 0.08610677 -0.022391347 -0.16634688 0.20448782 0.1566984
-0.07656404 -0.011613569 0.03812554 -0.06364157 0.15664998 0.031781856 0.07559316 0.08787545
-0.12738329 0.17167993 0.02411535 0.18765785 -0.0989234 0.117053956 0.12184676 -0.016945243
-0.21672449 -0.17253126 0.035750825 -0.08066491 -0.28915244 -0.035867445 -0.08074863 0.18339159
0.09509475 -0.05275687 0.07422834 -0.14053424 0.13186595 0.13553786 0.059708614 0.0135290995
0.082433276 0.03173657 0.03874561 -0.0393785 0.18795079 0.04394284 -0.024815938 0.04305611
-0.096535906 0.049261134 0.045590103 -0.28580394 0.06006104 0.10909539 -0.106204 -0.071323074
00000000: 0997 1a3e f760 34be 0c3c 1ebe a76a a33c
00000010: 9ccc 05bd cded 343e 0a58 cf3d 40cc cf3d
00000020: a8f8 053e dae9 1f3e 9422 a4bd 0715 b33d
00000030: 255d 903d 9c88 2dbc ae44 a5bd 2157 9b3d
00000040: 0337 303e bb6c 09be f58e c83d 6f18 66be
00000050: 1169 74bd 9338 15bd d1ca e1bc a4b3 59be
00000060: 0b97 38be 9554 aabd af26 693e c19a 3b3e
00000070: 18ed 3ebd 9850 53be 08a3 0abe 4ce4 e23c
00000080: bbda eb3d 92fa 333e 872f 09be fdcb b7bd
00000090: 7040 103d 8ba9 873d 0e27 34bc a2da 223e
000000a0: db4d 0e3e a502 503d 9722 51be da2c b7be
000000b0: 2e13 7cbc cd63 6bbe a3d9 093e 70cb 343e
000000c0: 8d46 1bbe 4ba4 413b 5537 2cbe 61b5 4a3e
000000d0: 271b 34bd 3bf2 d3bc 114a a5bd f7fd 81bd
000000e0: 587e 6bbd 8a93 bf3d 163a b2bd b03e dd3d
000000f0: 4128 debc de3f fabc dc76 aa3c a0c7 e7bd
00000100: 1ea6 32be 3568 273e f67d f63c 0c48 6a3d
00000110: 8f31 94be 24d8 b43d c3fe 16be 5e93 c0be
00000120: 7270 e9bd 3b5f 3e3e 53b2 46be b5ff 5fbe
00000130: bb91 51be c19f 93be 8234 f4bd c402 1b3e
00000140: 321b 403e fd85 103d 7213 ce3d 1f64 5a3c
00000150: 546c 843d ef9c 9d3d a98d 533e 9a5c e53d
00000160: 55bc d53d a2b4 5b3c ce19 793e bf58 b03d
00000170: 0f6e b7bc d656 2abe 4165 513e 8c75 203e
00000180: 9bcd 9cbd d746 3ebc 8729 1c3d 8356 82bd
00000190: da68 203e b12d 023d 96d0 9a3d 0bf8 b33d
000001a0: c470 02be ddcc 2f3e 8e8d c53c 6129 403e
000001b0: 5a98 cabd fcb9 ef3d cb8a f93d c0d0 8abc
000001c0: 06ed 5dbe 09ac 30be 756f 123d a533 a5bd
000001d0: ca0b 94be bee9 12bd 8a5f a5bd 01cb 3b3e
000001e0: 09c1 c23d 9617 58bd 0705 983d 35e8 0fbe
000001f0: de07 073e 70ca 0a3e 0591 743d 28a9 5d3c
00000200: c7d2 a83d 35fe 013d b7b3 1e3d 5a4b 21bd
00000210: 2c76 403e 68fd 333d cb4a cbbc 9b5b 303d
00000220: 9eb4 c5bd 0bc6 493d b0bc 3a3d e554 92be
00000230: 9102 763d 676d df3d 7c81 d9bd d511 92bd

module.conv1.bias f4 [16]
-0.03746044 -0.34606534 0.114822805 -0.40014794 -0.30487794 0.2704657 -0.14467478 -0.60273916
-0.46609637 0.39771777 -0.36571077 -0.015504114 0.3807725 0.14610556 0.3334986 0.10725138
00000000: 1e70 19bd 7a2f b1be 3828 eb3d 31e0 ccbe
00000010: f618 9cbe 7b7a 8a3e a025 14be 1d4d 1abf
00000020: 2fa4 eebe aaa1 cb3e 713e bbbe f804 7ebc
00000030: 9df4 c23e b29c 153e 54c0 aa3e 9da6 db3d

module.conv2.weight f4 [32, 16, 3, 3]
-0.04569106 -0.018037109 0.0046925256 -0.023268336 0.027917372 -0.028913917 0.05766691 -0.04595397
-0.04707432 -0.007844508 -0.0042703673 0.010112344 0.023351884 0.035114273 0.05833246 0.0733196
-0.025779193 -0.04432234 0.008386302 0.09382088 -0.009058914 -0.081530154 -0.015040573 -0.036310345
-0.02378789 0.12774837 0.09995712 -0.00032279256 0.026877351 0.017875431 0.0022958326 -0.0144467475
0.008179194 -0.07064444 0.038025234 -0.03728967 -0.011793328 0.042537116 0.022102574 -0.02911019
0.09479095 -0.007473553 -0.033146393 -0.0033482353 -0.02402008 -0.0056440914 0.017661791 0.031729918
-0.03782084 0.054509025 -0.034597103 -0.010820035 -0.021875054 -0.1342881 -0.02244942 -0.024461372
-0.046925806 -0.004125236 0.018308345 0.059749782 0.0029492134 0.0017643779 0.17745768 0.050018504
-0.03199841 -0.04754115 0.022189336 -0.07356584 0.065139875 -0.008716404 -0.00069035945 -0.071233355
-0.048341963 -0.018040715 0.06400501 0.008673644 -0.03764908 0.0664025 0.0388339 0.008217657
0.121421054 0.014397148 -0.061486807 -0.04976064 0.0320918 0.0254758 -0.016099993 0.008795096
0.09778069 0.03879245 0.019371396 0.026249235 0.02182376 0.033434022 0.011876725 0.016973687
0.0025745314 -0.037581827 -0.06570334 -0.013788301 -0.020664485 0.02042231 0.017304545 0.019735996
0.0052416194 -0.023851722 0.0064178337 -0.07935073 0.023429003 0.05995513 0.02185056 0.08016462
-0.04668287 0.08669316 -0.0074137547 0.030914893 0.06250606 0.026963644 0.02501484 0.05258376
0.02351157 0.050837487 0.04829015 -0.06677784 0.004795027 -0.14950325 0.016134048 -0.0076669804
0.0069946097 -0.037483115 -0.019105664 -0.096024804 -0.05201282 0.0012137626 -0.048607808 0.074043654
0.061618786 0.0045028324 0.05465278 0.0685754 0.014312991 0.02992191 0.054182902 -0.14636308
0.12621728 0.0689833 -0.10702772 -0.1257947 -0.10961897 -0.05396829 -0.04821601 -0.14260872
-0.015002019 0.06702562 -0.037444748 -0.055166315 -0.09581809 -0.014974078 -0.067075275 -0.16634855
0.01611966 0.16840021 -0.060280178 -0.023067737 0.040789437 -0.0774659 -0.10168431 0.057227153
-0.008886786 -0.01601704 0.031677086 0.020065097 -0.054898735 0.014720577 -0.03604231 -0.067982405
-0.0485162 0.24041706 -0.5196037 -0.3517466 -0.016554542 -0.079290226 0.020055372 0.069131516
-0.053747933 -0.008021146 -0.026806945 -0.04687814 -0.013187863 -0.08441704 0.075651124 0.04438172
-0.0219938 -0.08570506 -0.0094458265 -0.046296295 -0.0737923 0.052122284 -0.042649057 -0.002252435
0.03044656 -0.32887515 0.26867875 -0.5277789 0.050946206 -0.5676965 0.005638339 -0.0072648237
-0.041392956 -0.11640016 -0.026439205 0.15873757 -0.13242504 -0.42869008 -0.27872524 -0.007549792
0.046321515 -0.088200524 0.08639579 0.21538617 -0.11954827 0.036465608 0.36647102 -0.64064217
-0.003334605 -0.0052608405 0.073936775 -0.08087202 -0.049482305 0.036613587 -0.0068068984 0.021228842
-0.04790467 -0.05870161 0.07189265 -0.02824388 0.04727137 -0.020043552 -0.024418455 -0.08476034
-0.14265493 -0.30776054 -0.031122863 -0.052452788 0.059077024 -0.035045814 0.012516663 0.004813982
-0.006593676 -0.11152699 -0.19371256 0.04097426 0.11690278 0.08706114 0.041226342 0.018326227
00000000: 8d26 3bbd 8fc2 93bc c2c3 993b 3d9d bebc
00000010: f9b2 e43c e1dc ecbc 2334 6c3d 3b3a 3cbd
00000020: 01d1 40bd 4086 00bc 70ee 8bbb 3fae 253c
00000030: 734c bf3c fcd3 0f3d 04ee 6e3d 9628 963d
00000040: e32e d3bc 588b 35bd b366 093c 2925 c03d
00000050: d76b 14bc 48f9 a6bd bc6c 76bc 28ba 14bd
00000060: d2de c2bc 78d0 023e 52b6 cc3d 7c3c a9b9
00000070: e42d dc3c 7f6f 923c ae75 163b 0db2 6cbc
00000080: 0702 063c 08ae 90bd 59c0 1b3d 0ebd 18bd
00000090: ce38 41bc 663b 2e3d 7510 b53c 7e78 eebc
000000a0: c221 c23d b5e4 f4bb 83c4 07bd 116e 5bbb
000000b0: c2c5 c4bc 12f2 b8bb 76af 903c 3bf7 013d
000000c0: 06ea 1abd db44 5f3d b1b5 0dbd 8446 31bc
000000d0: 5033 b3bc d282 09be d9e7 b7bc 3763 c8bc
000000e0: 4635 40bd fd2c 87bb 62fb 953c 30bc 743d
000000f0: 9747 413b b342 e73a 77b7 353e 34e0 4c3d
00000100: c410 03bd 82ba 42bd 69c6 b53c b0a9 96bd
00000110: 0e68 853d 40cf 0ebc 3df9 34ba cbe2 91bd
00000120: 3902 46bd 1fca 93bc 0f15 833d e61b 0e3c
00000130: ec35 1abd 09fe 873d 4c10 1f3d 5aa3 063c
00000140: 9aab f83d 04e2 6b3c 97d9 7bbd d0d1 4bbd
00000150: b172 033d a0b2 d03c 22e4 83bc 4e19 103c
00000160: 3e41 c83d d5e4 1e3d c3b0 9e3c a308 d73c
00000170: bec7 b23c 1df2 083d 9896 423c 670c 8b3c
00000180: 78b9 283b 67ef 19bd 798f 86bd 53e8 61bc
00000190: 9148 a9bc b04c a73c 43c2 8d3c 62ad a13c
000001a0: e4c1 ab3b b064 c3bc b14c d23b a382 a2bd
000001b0: 2eee bf3c 8393 753d f2ff b23c 592d a43d
000001c0: 8936 3fbd 2f8c b13d 15ef f2bb 3b41 fd3c
000001d0: 2d03 803d dce2 dc3c eceb cc3c 1262 573d
000001e0: 569b c03c f83a 503d e4cb 453d d2c2 88bd
000001f0: 9a1f 9d3b 6117 19be 8d2b 843c 4b3b fbbb
00000200: 0a33 e53b e587 19bd 7b83 9cbc a7a8 c4bd
00000210: 650b 55bd 1d17 9f3a fb18 47bd 33a4 973d
00000220: fb63 7c3d 7f8c 933b 98db 5f3d 4271 8c3d
00000230: 0981 6a3c cb1e f53c e4ee 5d3d 34e0 15be
00000240: 1a3f 013e 1e47 8d3d 5931 dbbd 53d0 00be
00000250: e97f e0bd db0d 5dbd 277e 45bd 0508 12be
00000260: 07cb 75bc ba44 893d aa5f 19bd 13f6 61bd
00000270: 463c c4bd d655 75bc c35e 89bd 4657 2abe
00000280: 610d 843c 1b71 2c3e 59e8 76bd 8df8 bcbc
00000290: d312 273d 71a6 9ebd dd3f d0bd 0567 6a3d
000002a0: e299 11bc 2b36 83bc d5bf 013d 8f5f a43c
000002b0: 7fdd 60bd 932e 713c 1aa1 13bd 5c3a 8bbd
000002c0: ecb8 46bd e42f 763e c004 05bf 2118 b4be
000002d0: 649d 87bc ea62 a2bd 2a4b a43c d394 8d3d
000002e0: cb26 5cbd 206b 03bc 3d9a dbbc 4b03 40bd
000002f0: e811 58bc d7e2 acbd faee 9a3d 9bc9 353d
00000300: 572c b4bc 2286 afbd abc2 1abc 2fa1 3dbd
00000310: 6b20 97bd 2d7e 553d c7b0 2ebd 979d 13bb
00000320: 106b f93c 5362 a8be 4390 893e 851c 07bf
00000330: f8ac 503d 8f54 11bf d1c1 b83b c20d eebb
00000340: a98b 29bd 3563 eebd 0897 d8bc 1a8c 223e
00000350: 6e9a 07be 447d dbbe 13b5 8ebe 3f64 f7bb
00000360: a1bb 3d3d 7aa2 b4bd 47f0 b03d 318e 5c3e
00000370: b9d5 f4bd f65c 153d 17a2 bb3e 2001 24bf
00000380: 6389 5abb 2163 acbb 2a6c 973d 3ba0 a5bd
00000390: f5ad 4abd 21f8 153d 670c dfbb 1ce8 ad3c
000003a0: b037 44bd 1971 70bd 743c 933d b65f e7bc
000003b0: a09f 413d 6032 a4bc 3609 c8bc d496 adbd
000003c0: 2214 12be ca92 9dbe 60f5 febc bcd8 56bd
000003d0: c0fa 713d 338c 0fbd b112 4d3c 9cbe 9d3b
000003e0: c30f d8bb 4368 e4bd 965c 46be a0d4 273d
000003f0: ba6a ef3d 1c4d b23d f4dc 283d e220 963c

module.conv2.bias f4 [32]
-0.08918806 0.17183387 -0.108850725 -0.12397386 0.1970143 0.031916086 -0.09393327 -0.21178591
-0.10436754 -0.15314926 0.14568628 0.17432502 0.08148702 -0.013683896 -0.29300055 -0.018241651
-0.41131645 0.12109702 -0.0796927 0.032804463 0.10645224 -0.16994186 0.014952831 -0.085315116
-0.11256944 0.1574029 -0.015197628 0.023194626 0.0071578547 -0.16987494 -0.17130081 -0.30115283
00000000: 3ba8 b6bd 38f5 2f3e 21ed debd 02e6 fdbd
00000010: 1ebe 493e 71ba 023d 1660 c0bd 68de 58be
00000020: a6be d5bd 29d3 1cbe c92e 153e 4282 323e
00000030: abe2 a63d 6b32 60bc 2b04 96be 846f 95bc
00000040: 1298 d2be b701 f83d ed35 a3bd f95d 063d
00000050: a203 da3d 3d05 2ebe b8fc 743c b1b9 aebd
00000060: ce8a e6bd 3a2e 213e 79ff 78bc a802 be3c
00000070: 708c ea3b b2f3 2dbe 7b69 2fbe b430 9abe

module.conv3.weight f4 [64, 32, 3, 3]
0.012066615 -0.0034310154 0.0039239754 0.024396794 0.025330214 0.037449684 -0.04357872 0.031275038
-0.06674628 0.0686656 0.029952906 0.0025637632 -0.033309363 -0.06985758 -0.016118117 -0.12482246
-0.080291286 0.038096134 0.025033182 -0.04013643 0.02288526 -0.013389005 0.008340028 0.032672804
-0.03637536 0.010353643 -0.036470022 0.0402074 -0.0563941 -0.016316898 0.0016937361 -0.005656221
0.0329774 0.02009727 -0.00660827 0.010358576 0.022439484 -0.024596846 0.05365616 0.017246626
0.013585147 -0.027545739 0.006218655 0.012774367 0.006032983 -0.023008918 0.059449736 0.016798606
-0.082467906 -0.078403525 -0.0023487313 -0.053784005 -0.033865534 0.0003980815 0.021635668 -0.05117977
-0.009084506 0.036434475 0.020637602 0.0032027648 0.009912356 0.007852536 0.03387932 -0.11546643
0.1174935 -0.08971374 0.026290333 0.11435393 0.039085615 -0.0032073413 0.048185974 0.0050466424
-0.005553163 -0.047272798 -0.028089175 -0.050241545 -0.019258032 -0.040876493 -0.007936071 0.036379248
0.043998033 0.06875467 -0.044457722 0.016174322 -0.079269394 -0.011654879 0.014654909 -0.021893872
-0.007132759 -0.07010995 -0.020272437 -0.015702035 0.06605772 -0.08043458 -0.002441545 -0.058916893
-0.08254828 -0.08096848 -0.0067167245 0.0063557886 0.00024040941 0.057238836 -0.0010297496 0.03474563
-0.022544917 -0.0024395837 0.0067442227 -0.045788992 -0.00456711 -0.014258695 0.021040823 -0.041987546
-0.03589149 0.020263469 -0.017987013 -0.015164781 0.00025650152 -0.0036376484 0.108381234 -0.09527008
-0.04311909 -0.041768704 -0.0053701703 -0.025065845 -0.037894152 -0.025607495 -0.054175228 0.054147825
-0.022182055 0.00048410884 -0.0109050125 0.03470513 -0.011392625 -0.027901476 -0.009790869 0.019199703
-0.009493113 -0.04295107 -0.012035121 0.06288153 0.015916578 -0.047987737 -0.050698932 -0.04926343
0.03829839 -0.008835506 0.0073662875 -0.008626167 0.00592193 0.0019304535 0.009994311 -0.022186428
-0.0053847698 0.024000216 -0.08537241 0.030548103 -0.03266785 0.023037806 -0.016663805 -0.0071681603
0.0738935 0.012506554 -0.027802633 0.0020324143 0.0034056096 -0.0131193735 0.01857905 0.00041805662
-0.0029129128 0.009049614 0.008543613 -0.070931785 0.016921243 0.0048615066 0.0027469448 -0.021382784
0.011838319 0.03372828 0.04940247 0.038917705 0.016615108 -0.008334652 0.009591609 0.036525417
-0.0061541186 0.018723784 0.032669395 -0.016394097 0.008070996 -0.019137738 -0.0043479335 0.09524311
0.04617071 0.04420197 0.074117206 0.010300149 -0.010149048 0.04006477 0.076226525 -0.049186554
-9.092269e-05 -0.0011797983 0.019571884 0.010043495 -0.036371212 -0.057372753 -0.039795835 -0.032932
-0.011743804 -0.022189522 0.00787726 0.03778747 0.0012853188 0.021228723 0.038555775 -0.008789337
0.018370107 0.022705812 -0.014626482 0.06207836 0.024233112 -0.04852312 0.031282503 0.023083344
-0.019502716 0.009542211 -0.018404504 -0.023817476 -0.013429275 -0.01692621 -0.017204562 -0.0009038204
0.016631106 0.003469828 0.0062908507 -0.019302553 0.008600606 -0.03236969 -0.013638622 -0.018163834
-0.0068410514 0.0013532616 -0.0015884286 0.036101967 -0.022184972 0.005559957 -0.0013846903 0.037253518
-0.01430284 -0.025478479 -0.042177368 0.022218391 -0.021927465 0.00036597176 -0.01479099 -0.050557528
00000000: 0db3 453c e3da 60bb b194 803b c9db c73c
00000010: 4f81 cf3c d764 193d 9a7f 32bd 411a 003d
00000020: 46b2 88bd 8da0 8c3d cc5f f53c cf04 283b
00000030: 666f 08bd 7e11 8fbd 240a 84bc eba2 ffbd
00000040: c26f a4bd b10a 1c3d 6312 cd3c 1966 24bd
00000050: de79 bb3c 8f5d 5bbc 9da4 083c ebd3 053d
00000060: 54fe 14bd 54a2 293c 9761 15bd 84b0 243d
00000070: 80fd 66bd 04ab 85bc 5a00 de3a d257 b9bb
00000080: 4f13 073d 08a3 a43c 308a d8bb 04b7 293c
00000090: 02d3 b73c 537f c9bc 90c6 5b3d cc48 8d3c
000000a0: 3d94 5e3c 9aa7 e1bc dcc5 cb3b 944b 513c
000000b0: 54b0 c53b 337d bcbc 9181 733d 3b9d 893c
000000c0: efe4 a8bd 0792 a0bd 2ced 19bb 9e4c 5cbd
000000d0: 96b6 0abd 98b5 d039 493d b13c e1a1 51bd
000000e0: 2ed7 14bc 513c 153d 3010 a93c 7ae5 513b
000000f0: 6f67 223c eca7 003c 0bc5 0a3d aa79 ecbd
00000100: 6fa0 f03d d6bb b7bd d35e d73c 6532 ea3d
00000110: 3d18 203d 4232 52bb a85e 453d 4e5e a53b
00000120: 4ff7 b5bb 1fa1 41bd 451b e6bc 14ca 4dbd
00000130: 05c3 9dbc 1c6e 27bd 4b06 02bc 6802 153d
00000140: 4837 343d 40cf 8c3d 4d19 36bd 0380 843c
00000150: fe57 a2bd 1bf4 3ebc 251b 703c c75a b3bc
00000160: ebb9 e9bb ce95 8fbd 6212 a6bc 8ea1 80bc
00000170: 4549 873d e3ba a4bd 5402 20bb d752 71bd
00000180: 130f a9bd cdd2 a5bd f817 dcbb 3844 d03b
00000190: 6916 7c39 4573 6a3d aaf8 86ba 6f51 0e3d
000001a0: 1eb0 b8bc 6ce1 1fbb a4fe dc3b 3d8d 3bbd
000001b0: b2a7 95bb 4d9d 69bc ce5d ac3c 22fb 2bbd
000001c0: f402 13bd 93ff a53c 8059 93bc b475 78bc
000001d0: 0d7b 8639 9d65 6ebb fbf6 dd3d f61c c3bd
000001e0: a59d 30bd a915 2bbd 41f8 afbb e356 cdbc
000001f0: e636 1bbd cfc6 d1bc d8e6 5dbd 1cca 5d3d
00000200: 24b7 b5bc fdcf fd39 f0aa 32bc f726 0e3d
00000210: 22a8 3abc a391 e4bc e269 20bc b248 9d3c
00000220: 0089 1bbc 76ed 2fbd f52e 45bc 08c8 803d
00000230: 7c63 823c ca8e 44bd afa9 4fbd 73c8 49bd
00000240: c6de 1c3d ccc2 10bc e660 f13b c454 0dbc
00000250: c00c c23b 4507 fd3a 2ebf 233c 50c0 b5bc
00000260: b972 b0bb 1a9c c43c bbd7 aebd 0440 fa3c
00000270: b9ce 05bd c8b9 bc3c 8882 88bc e3e2 eabb
00000280: 7a55 973d 4ae8 4c3c 59c2 e3bc 4132 053b
00000290: a630 5f3b a4f2 56bc 1833 983c 9c2e db39
000002a0: 91e6 3ebb d544 143c 83fa 0b3c af44 91bd
000002b0: 6b9e 8a3c 464d 9f3b 1606 343b f32a afbc
000002c0: 82f5 413c aa26 0a3d 3f5a 4a3d 2c68 1f3d
000002d0: 681c 883c 108e 08bc 2026 1d3c ad9b 153d
000002e0: 7da8 c9bb 9f62 993c 58d0 053d ea4c 86bc
000002f0: 363c 043c bfc6 9cbc 1c79 8ebb d20e c33d
00000300: 801d 3d3d 200d 353d c3ca 973d f5c1 283c
00000310: 3148 26bc f51a 243d a71c 9c3d d777 49bd
00000320: bfad beb8 76a3 9aba 3755 a03c 798d 243c
00000330: fbf9 14bd b1ff 6abd f500 23bd b4e3 06bd
00000340: 1669 40bc cdc6 b5bc a00f 013c 09c7 1a3d
00000350: 2478 a83a dce7 ad3c a9ec 1d3d 2701 10bc
00000360: e87c 963c 8a01 ba3c e9a3 6fbc e145 7e3d
00000370: 8584 c63c 2ec0 46bd 1522 003d 4819 bd3c
00000380: 29c4 9fbc ef56 1c3c 0bc5 96bc de1c c3bc
00000390: 7606 5cbc d6a8 8abc 95f0 8cbc 5cee 6cba
000003a0: f53d 883c 0e66 633b 7b23 ce3b 6320 9ebc
000003b0: 8ee9 0c3c 1496 04bd 8774 5fbc 52cc 94bc
000003c0: e62a e0bb ed5f b13a d232 d0ba a8df 133d
000003d0: 42bd b5bc 4d30 b63b 7f7e b5ba 2597 183d
000003e0: 7656 6abc 3eb8 d0bc 2dc2 2cbd 5803 b63c
000003f0: 3aa1 b3bc e6df bf39 e955 72bc 6915 4fbd

module.conv3.bias f4 [64]
-0.17275965 -0.004261774 -0.06295758 -0.053816423 -0.07273246 0.1810504 -0.13155448 -0.025624897
-0.03556609 0.18710215 0.17006238 -0.087702855 -0.41897315 0.17968716 0.09661257 0.016630046
-0.044653513 0.0666389 0.15514214 -0.08812895 0.15431137 0.27045113 0.20422012 -0.12291009
-0.11238422 -0.32211262 -0.23381807 -0.05543921 0.11465716 0.057039734 0.010439452 -0.28120735
-0.033372674 -0.16986042 0.14584306 0.106116995 -0.19201897 0.053153004 0.062520385 0.12613912
-0.094220586 0.17811246 -0.103472814 -0.17040968 0.11322157 0.042168584 -0.045846775 -0.064647764
-0.28950787 -0.1271629 -0.2047843 -0.18321714 -0.3085029 0.126358 -0.19253494 -0.16694543
0.10130428 0.12817727 -0.19563264 -0.124991186 -0.13532162 0.13917053 -0.24909574 -0.023420893
00000000: e8e7 30be 5aa6 8bbb e7ef 80bd 9c6e 5cbd
00000010: c2f4 94bd 4765 393e 38b6 06be 4eeb d1bc
00000020: c0ad 11bd b597 3f3e d524 2e3e 8e9d b3bd
00000030: a683 d6be e9ff 373e d0dc c53d bc3b 883c
00000040: 9ae6 36bd fa79 883d 95dd 1e3e f37c b4bd
00000050: cd03 1e3e 9278 8a3e 141f 513e 49b8 fbbd
00000060: b329 e6bd f2eb a4be 016e 6fbe 3a14 63bd
00000070: 60d1 ea3d 7fa2 693d 3c0a 2b3c 69fa 8fbe
00000080: c9b1 08bd e4ef 2dbe e257 153e de53 d93d
00000090: 9fa0 44be f7b6 593d b00a 803d 9d2a 013e
000000a0: b9f6 c0bd 1d63 363e 8ee9 d3bd e07f 2ebe
000000b0: b6e0 e73d f7b8 2c3d d4c9 3bbd 0c66 84bd
000000c0: 603a 94be fe36 02be fab2 51be 469d 3bbe
000000d0: 18f4 9dbe fe63 013e e127 45be bef3 2abe
000000e0: 9e78 cf3d e740 033e ec53 48be 61fb ffbd
000000f0: c091 0abe b882 0e3e f412 7fbe 2cdd bfbc

module.conv4.weight f4 [128, 64, 3, 3]
-0.01227182 0.108085096 0.06937443 0.07058622 -0.086899035 0.030943982 0.018635917 -0.001121284
-0.03846655 0.044532824 0.09856138 -0.0118473265 -0.038953777 -0.05305714 0.0173891 -0.058619253
-0.016230213 0.09366733 0.020811928 -0.13943474 -0.10813819 -0.042888917 -0.14197113 -0.116587885
0.037596766 0.03349448 -0.0067843897 0.105325 0.07107626 0.3773154 -0.004307486 -0.039676573
0.083767354 -0.002011645 -0.052525688 0.0035544115 -0.02705317 -0.12004133 0.10657528 0.01795309
-0.0115912715 -0.03246356 -0.12493937 -0.05232677 -0.022397038 -0.03997653 -0.058494125 -0.03308673
0.10271988 -0.02562499 -0.030245578 -0.002772395 -0.026488382 0.028977986 -0.056755852 -0.30320042
-0.025526384 0.018799195 -0.021331377 0.010126491 -0.020258537 0.044777315 0.015542032 -0.35621223
-0.073566556 0.051723488 0.02465097 0.055625103 -0.02784057 -0.045966264 0.020767743 -0.05352243
0.08195339 0.015061591 0.018770512 0.069099486 -0.012799441 -0.0037037292 0.07676079 -0.012744136
0.020590397 -0.019268947 0.12858087 0.040690813 -0.026121926 -0.100127175 0.06559595 -0.039665252
0.016528847 0.04742207 0.18832287 0.063771866 0.018628145 -0.03564497 -0.121709414 0.0046066605
0.0109958835 -0.05899868 0.011718726 -0.055234864 0.009348661 -0.03649229 -0.036563717 -0.025392834
-0.035542034 0.016013572 -0.009737454 -0.016253177 0.044432383 0.005030873 0.01905017 -0.014048715
-0.0016789265 0.08992937 -0.059676625 -0.018106066 -0.049300745 -0.05052419 -0.16243401 0.0054542017
0.15594324 -0.08557632 -0.01195413 0.006193878 -0.010122724 0.0010379615 -0.065836094 -0.035491
-0.18566911 -0.059439305 -0.008534451 0.0013883454 -0.032791704 -0.0072114808 0.033093043 0.012249559
0.122430764 -0.0035220706 -0.046009216 -0.05147564 -0.036455777 0.024429832 -0.0078163855 -0.037891805
-0.058424946 -0.08545334 -0.10258677 -0.23480976 -0.009169325 0.04822962 -0.01725012 -0.049158633
-0.023771107 -0.047141146 -0.018736977 -0.12642048 -0.064011954 0.1132315 -0.032773625 0.012332015
-0.0022993654 0.00084258406 0.12058821 -0.08212569 -0.15292294 0.009628043 0.073631175 0.037572585
-0.0025273482 -0.026990442 -0.014000659 0.12213191 -0.06305591 -0.004818315 0.14145665 0.16937873
-0.030633131 -0.105104074 -0.06964415 -0.04093153 -0.085398614 0.03867148 -0.074045435 -0.09327493
-0.11574214 0.009387823 0.056910574 0.0268416 0.022171365 -0.038857237 0.032626458 0.02593657
-0.048533812 0.008353791 0.0061915102 0.06061947 -0.09471955 -0.09115302 -0.24368304 0.06401005
-0.042749684 -0.15607606 0.002927593 -0.0058866674 0.005576744 0.028435301 0.0072633633 -0.15000345
-0.008018143 -0.035591915 0.033989362 0.011736887 0.05968375 0.0005825155 -0.046827633 -0.018290589
0.13111274 -0.061620504 0.025184186 -0.09062142 0.057473335 0.029006802 -0.03207642 -0.052271847
-0.016261136 -0.028443556 0.072298534 0.00037185446 0.014989335 -0.00016342981 0.01591425 -0.034324564
0.010081144 0.031566713 0.085569486 0.060738504 0.088540725 -0.059025507 0.013878632 -0.16995773
-0.060006537 0.055130642 0.039622247 0.017105069 -0.15679479 -0.047882136 0.1367646 -0.020932887
-0.026034515 -0.008281689 -0.03163203 -0.009647329 -0.05304603 -0.07757326 0.045722656 -0.009405384
00000000: be0f 49bc b85b dd3d 2e14 8e3d 828f 903d
00000010: 1ff8 b1bd 3c7e fd3c 5aaa 983c 0cf8 92ba
00000020: 1a8f 1dbd 0d68 363d 8cda c93d 4a1b 42bc
00000030: ff8d 1fbd 7252 59bd 9673 8e3c be1a 70bd
00000040: 39f5 84bc a8d4 bf3d c77d aa3c fbc7 0ebe
00000050: 8e77 ddbd 4aac 2fbd e160 11be a1c5 eebd
00000060: 11ff 193d 8231 093d 964f debb a2b4 d73d
00000070: 6e90 913d 7c2f c13e d025 8dbb e783 22bd
00000080: 388e ab3d cdd5 03bb 2d25 57bd 21f1 683b
00000090: 9c9e ddbc 3bd8 f5bd 2444 da3d 5c12 933c
000000a0: 51e9 3dbc 83f8 04bd 36e0 ffbd 9854 56bd
000000b0: fe79 b7bc 6ebe 23bd 8997 6fbd f385 07bd
000000c0: cd5e d23d 80eb d1bc 93c5 f7bc 12b1 35bb
000000d0: 2afe d8bc 3e63 ed3c d378 68bd 163d 9bbe
000000e0: b51c d1bc c500 9a3c 24bf aebc 95e9 253c
000000f0: 3bf5 a5bc 6b68 373d 02a4 7e3c 7361 b6be
00000100: 10aa 96bd 02dc 533d d5f0 c93c 26d7 633d
00000110: e811 e4bc 1f47 3cbd 1d21 aa3c 563a 5bbd
00000120: 2ed7 a73d e4c4 763c 9ec4 993c 0884 8d3d
00000130: bfb4 51bc 44ba 72bb c334 9d3d c8cc 50bc
00000140: 31ad a83c e9d9 9dbc b4aa 033e 69ab 263d
00000150: a6fd d5bc 7a0f cdbd 2b57 863d 0878 22bd
00000160: 8167 873c a53d 423d b6d7 403e d39a 823d
00000170: 0d9a 983c 7600 12bd c942 f9bd 78f3 963b
00000180: 1428 343c 9aa8 71bd e6ff 3f3c f43d 62bd
00000190: 202b 193c f178 15bd d6c3 15bd a204 d0bc
000001a0: 8694 11bd e52e 833c d889 1fbc 6225 85bc
000001b0: bbfe 353d 06da a43b 1a0f 9c3c 952c 66bc
000001c0: 6d0f dcba e42c b83d 7a6f 74bd 2c53 94bc
000001d0: 94ef 49bd 74f2 4ebd 1a55 26be 29b9 b23b
000001e0: 96af 1f3e a342 afbd 41db 43bc 04f6 ca3b
000001f0: c8d9 25bc 350c 883a 13d5 86bd 035f 11bd
00000200: 0b20 3ebe a176 73bd 15d4 0bbc 24f9 b53a
00000210: 9850 06bd 494e ecbb 928c 073d 60b2 483c
00000220: fbbc fa3d 8ad2 66bb 2974 3cbd 1fd8 52bd
00000230: a752 15bd 1221 c83c 4c10 00bc 7034 1bbd
00000240: ff4e 6fbd 2902 afbd 0319 d2bd f871 70be
00000250: f03a 16bc 6c8c 453d 2050 8dbc 905a 49bd
00000260: a0bb c2bc 1317 41bd 4a7e 99bc 5f74 01be
00000270: b318 83bd ebe5 e73d a33d 06bd 380c 4a3c
00000280: f3b0 16bb dce0 5c3a f4f6 f63d 8431 a8bd
00000290: d597 1cbe f0be 1d3c f1cb 963d b6e5 193d
000002a0: dea1 25bb 0f1b ddbc 0563 65bc 4b20 fa3d
000002b0: 7523 81bd f5e2 9dbb 03da 103e 9e71 2d3e
000002c0: 55f2 fabc ce40 d7bd 98a1 8ebd d2a7 27bd
000002d0: 78e5 aebd fc65 1e3d 22a5 97bd ed06 bfbd
000002e0: 370a edbd 62cf 193c 101b 693d eae2 db3c
000002f0: b9a0 b53c c428 1fbd 52a3 053d ee78 d43c
00000300: 64cb 46bd 57de 083c 27e2 ca3b 1f4c 783d
00000310: 53fc c1bd 6fae babd 0c88 79be b317 833d
00000320: 4b1a 2fbd 67d2 1fbe dcdc 3f3b f2e4 c0bb
00000330: 1fbd b63b 26f1 e83c 8201 ee3b 819a 19be
00000340: 875e 03bc d4c8 11bd 6e38 0b3d 124c 403c
00000350: f376 743d f4b3 183a 55ce 3fbd 25d6 95bc
00000360: 6b42 063e c865 7cbd 114f ce3c b997 b9bd
00000370: 2969 6b3d ac9f ed3c 9062 03bd 011b 56bd
00000380: 1336 85bc 7602 e9bc 4111 943d 76f5 c239
00000390: d495 753c 5b5e 2bb9 9a5e 823c ea97 0cbd
000003a0: 622b 253c 194c 013d 0e3f af3d f0c8 783d
000003b0: d754 b53d bbc4 71bd 3463 633c 6609 2ebe
000003c0: 6ac9 75bd abd0 613d f04a 223d ee1f 8c3c
000003d0: d08e 20be 0f20 44bd 050c 0c3e 727b abbc
000003e0: 5646 d5bc ecaf 07bc 9690 01bd d50f 1ebc
000003f0: cb46 59bd bbde 9ebd ae47 3b3d 0a19 1abc

module.conv4.bias f4 [128]
-0.07395589 0.04918516 -0.1484868 0.0016008236 0.08735372 0.034769945 0.0808037 -0.038849864
0.013674549 -0.09907032 0.1756747 0.1541633 -0.04204269 -0.08881609 -0.036435194 0.103942275
-0.1313255 -0.15094663 0.09808026 0.08727169 0.08708572 -0.12435025 -0.13369712 -0.1017123
-0.11238507 -0.10751727 0.11913036 0.13888979 0.030690866 0.11844365 -0.042140696 -0.092463985
-0.09413382 -0.09079735 -0.14145617 0.13379994 0.16217509 0.020020863 0.101494215 0.17109737
-0.023990547 -0.063889034 -0.08687412 -0.10665685 -0.07387137 -0.09876171 -0.039237954 -0.060977962
-0.121417604 -0.097107604 -0.10506936 0.14448713 0.11287505 0.005707855 0.14253566 -0.113353334
0.0024430915 0.16486928 -0.06681608 -0.16000964 -0.110219434 -0.13259089 -0.14104842 0.08195303
-0.041299887 0.03451146 0.15610369 -0.07097642 -0.10260703 -0.12871031 -0.179249 3.125165e-05
0.13560128 -0.07992811 -0.061304573 -0.0445868 0.0090587195 -0.08119894 -0.11827711 -0.016093204
-0.12466742 0.156709 0.16917485 0.12373765 -0.12342877 0.13339385 -0.03333631 -0.030936403
0.08774927 -0.11435689 0.098951824 -0.10626934 -0.1871294 0.13909435 -0.078124315 0.09865119
-0.067327976 -0.11238268 -0.10766382 -0.10288323 0.120199546 0.119177885 -0.063629575 -0.012542914
-0.008894236 -0.040166885 -0.14648053 0.1373769 -0.014860219 0.14223948 -0.18448563 -0.094250046
0.01577851 -0.12229315 -0.08218312 -0.08081596 -0.112927064 0.14794333 -0.23513131 -0.15592496
0.03864657 0.14957026 -0.122635245 0.05133903 0.1208559 0.13720894 -0.11778066 -0.14080703
00000000: 3076 97bd 6176 493d ec0c 18be bad2 d13a
00000010: 82e6 b23d ee6a 0e3d 697c a53d 0921 1fbd
00000020: 370b 603c 61e5 cabd 12e4 333e fcdc 1d3e
00000030: f534 2cbd 36e5 b5bd 123d 15bd b0df d43d
00000040: 317a 06be c191 1abe 4ede c83d 80bb b23d
00000050: ff59 b23d 58ab febd e6e7 08be 8a4e d0bd
00000060: 252a e6bd 0432 dcbd 9efa f33d 2039 0e3e
00000070: 696b fb3c 9692 f23d b99b 2cbd c25d bdbd
00000080: 3bc9 c0bd f6f3 b9bd e3d9 10be da02 093e
00000090: 3a11 263e cb02 a43c 33dc cf3d 2634 2f3e
000000a0: d387 c4bc 41d8 82bd 0feb b1bd e86e dabd
000000b0: df49 97bd 9443 cabd fab7 20bd 07c4 79bd
000000c0: cba9 f8bd 5ae0 c6bd 9b2e d7bd 6ff4 133e
000000d0: 092b e73d f508 bb3b def4 113e cb25 e8bd
000000e0: 461c 203b 7ed3 283e ded6 88bd 91d9 23be
000000f0: baba e1bd e8c5 07be ff6e 10be fdd6 a73d
00000100: 122a 29bd e45b 0d3d a5d9 1f3e 165c 91bd
00000110: a223 d2bd a3cc 03be 0d8d 37be 3414 0338
00000120: 10db 0a3e 59b1 a3bd 811a 7bbd a6a0 36bd
00000130: 066b 143c a14b a6bd 453b f2bd e5d5 83bc
00000140: a251 ffbd 5378 203e 2c3c 2d3e 2a6a fd3d
00000150: 39c8 fcbd 6698 083e a88b 08bd 576e fdbc
00000160: e4b5 b33d f233 eabd 41a7 ca3d bda3 d9bd
00000170: d99e 3fbe c06e 0e3e a4ff 9fbd a309 ca3d
00000180: 40e3 89bd e428 e6bd d97e dcbd 71b4 d2bd
00000190: 2e2b f63d 8913 f43d 3950 82bd cb80 4dbc
000001a0: 21b9 11bc 0886 24bd fefe 15be 88ac 0c3e
000001b0: 4778 73bc 3aa7 113e cde9 3cbe 2b06 c1bd
000001c0: ef41 813c d574 fabd a04f a8bd d782 a5bd
000001d0: 4e46 e7bd 757e 173e 43c6 70be cbaa 1fbe
000001e0: de4b 1e3d f228 193e 3028 fbbd e048 523d
000001f0: 4c83 f73d 8080 0c3e fd36 f1bd b82f 10be

module.conv1T.weight f4 [128, 64, 3, 3]
0.09721276 -0.02654768 -0.0036471435 0.0394512 -0.18831375 -0.07163468 0.119311735 -0.13365225
-0.3200296 -0.40121424 -0.3184315 -0.14497592 -0.54297507 0.1712623 0.1304274 0.042281557
0.067233644 -0.00066789467 -0.009345117 0.18616919 -0.28453484 0.219601 0.35514438 -0.076553985
0.021761203 0.034185734 -0.08330793 -0.24115269 -0.025939034 0.51433855 -0.1537182 0.16328818
0.08332133 0.37530693 -0.50015956 0.17194793 0.02596877 -0.15073116 -0.014664857 -0.2946462
-0.2432551 -0.29021376 -0.38395625 -0.13396195 0.048816584 0.3084533 -0.29331768 -0.07225156
-0.3342968 -0.041325573 0.014569123 -0.75193924 -0.580974 -0.75073874 -0.5637113 -0.3323905
-0.14924434 0.06731735 0.27773347 0.14649126 -0.17364024 0.30234072 0.18862899 0.5320112
-0.063926205 -0.2133327 -0.2579905 0.065343834 -0.020116612 0.007940202 0.4002384 -0.36722726
0.081519336 -0.09204727 0.23312967 -0.070817865 -0.30891833 0.07854392 0.3551865 0.049086757
0.23784062 0.35847005 -0.790998 0.031127572 -0.17449178 -0.3208743 -0.5732827 -0.06868971
0.1699682 -0.075713225 -0.19066824 -0.31433892 -0.30915582 -0.58277863 -0.033947017 0.3572908
0.13448147 0.10052137 0.037213985 -0.17855401 0.2788675 -0.23188429 -0.15067665 -0.0032979231
-0.10448301 0.14521548 -0.034878906 0.13912773 -0.5519049 -0.21354908 -0.24281889 -0.064145416
-0.13270193 0.10934562 -0.21989478 0.3738489 -0.120730154 -0.55620235 -0.65336174 0.09210465
-0.96361345 -0.43025234 -0.09098573 -0.23925549 -0.35876063 0.13571951 -0.36719495 -0.41319072
0.12543319 -0.18374681 -0.29478264 -0.060309306 0.15912959 0.03379038 0.10643862 -0.5782695
-0.17745769 -0.27163112 -0.13204336 -0.15197533 -0.23014918 0.08463544 0.07375954 -0.029296316
0.6758562 -0.2809844 -0.72016895 0.10459699 -0.7224329 0.024210203 -0.023594165 -0.8754808
-0.48949036 -0.9736039 0.13049243 -0.18192114 -0.37355176 -0.27312887 -0.10142284 -0.54031354
0.47874036 0.09086129 -0.094476566 -0.3502061 0.029199107 -0.16141692 -0.09728999 -0.043870386
-0.071726985 -0.10263989 0.07293393 -0.51556194 -1.6754274 -0.06835938 -0.5481617 -0.7932941
-1.3006746 -1.227473 -0.012219446 -1.0176836 0.029771758 -0.034065004 -0.33445898 -0.27817607
-0.11545383 -0.11677615 0.046758417 -0.018348591 -0.005359074 0.32087612 0.3588011 0.09247372
0.18066823 -0.15176475 0.10561976 0.32492936 0.091383144 -0.07090815 0.37187058 -0.65124166
-0.16914809 0.94896954 0.57629544 0.5513007 -0.41752443 0.008050857 0.047892176 0.11223238
0.79414606 0.4349541 -0.16630526 0.045131646 0.19834174 -0.09604318 -0.13783114 0.08051578
-0.18181844 -0.24757369 -0.3025006 -0.79261905 -0.4262808 -0.3175284 -0.09729378 -0.187356
-0.11210952 -0.24850415 -0.2652353 0.08792456 -0.32025707 0.29581743 -0.3173952 -0.03280127
0.069658384 -0.11188193 -0.024134755 0.31944722 -0.26905328 -0.13003506 0.43311787 -0.20146221
-0.08664789 0.73299223 0.5209264 0.005607599 0.37934768 -0.09241721 -0.30418736 -0.17818886
-0.2319562 -0.024713196 -0.13541853 -0.20570642 -0.24657644 -0.11993997 -0.0013353659 -0.051572584
00000000: 7c17 c73d 857a d9bc ea04 6fbb 9597 213d
00000010: 52d5 40be 34b5 92bd b659 f43d 23dc 08be
00000020: ebda a3be f46b cdbe 7409 a3be 9174 14be
00000030: 6a00 0bbf 625f 2f3e c38e 053e 6d2f 2d3d
00000040: cbb1 893d a715 2fba 431c 19bc 23a3 3e3e
00000050: 8dae 91be 16df 603e 7cd5 b53e 56c8 9cbd
00000060: 8d44 b23c 5706 0c3d 599d aabd bbf0 76be
00000070: 197e d4bc b1ab 033f 4e68 1dbe 0435 273e
00000080: 60a4 aa3d 3b28 c03e 750a 00bf 1e13 303e
00000090: 75bc d43c 4559 1abe de44 70bc dedb 96be
000000a0: dd17 79be e696 94be ea95 c4be 522d 09be
000000b0: e6f3 473d 97ed 9d3e bc2d 96be a0f8 93bd
000000c0: f328 abbe 0145 29bd 55b3 6e3c 177f 40bf
000000d0: b6ba 14bf 6a30 40bf 624f 10bf 162f aabe
000000e0: 82d3 18be aedd 893d 1533 8e3e ce01 163e
000000f0: bfce 31be 67cc 9a3e f527 413e e331 083f
00000100: beeb 82bd e373 5abe 5517 84be fdd2 853d
00000110: 98cb a4bc 9f17 023c 0cec cc3e 3605 bcbe
00000120: 9cf3 a63d 4783 bcbd 8bb9 6e3e f508 91bd
00000130: 8b2a 9ebe a2db a03d 01db b53e 320f 493d
00000140: 7e8c 733e 6389 b73e d87e 4abf 40ff fe3c
00000150: f9ad 32be a349 a4be a8c2 12bf 31ad 8cbd
00000160: 250c 2e3e 890f 9bbd 893e 43be 08f1 a0be
00000170: ac49 9ebe fb30 15bf 070c 0bbd d2ee b63e
00000180: 83b5 093e 26de cd3d b16d 183d ddd6 36be
00000190: b9c7 8e3e 1373 6dbe fb4a 1abe f821 58bb
000001a0: 30fb d5bd 5eb3 143e 2fdd 0ebd 8077 0e3e
000001b0: a449 0dbf 9cac 5abe 84a5 78be ac5e 83bd
000001c0: 04e3 07be 99f0 df3d 192c 61be 1f69 bf3e
000001d0: 5f41 f7bd 4763 0ebf b742 27bf 5da1 bc3d
000001e0: 5faf 76bf 094a dcbe ba56 babd 64ff 74be
000001f0: 79af b7be 0efa 0a3e fa00 bcbe bc8d d3be
00000200: 8f71 003e 2028 3cbe c0ed 96be e406 77bd
00000210: def2 223e c867 0a3d 7efc d93d 7809 14bf
00000220: 78b7 35be 3c13 8bbe 6036 07be 6c9f 1bbe
00000230: 3aac 6bbe 5855 ad3d 3e0f 973d d4fe efbc
00000240: e904 2d3f 30dd 8fbe fe5c 38bf f236 d63d
00000250: 5df1 38bf 7a54 c63c 8d48 c1bc 821f 60bf
00000260: 7b9e fabe 1b3e 79bf cf9f 053e 8949 3abe
00000270: 2d42 bfbe 8cd7 8bbe c7b6 cfbd fd51 0abf
00000280: 751d f53e 7c15 ba3d ee7c c1bd 374e b3be
00000290: f732 ef3c 7a4a 25be f93f c7bd 6fb1 33bd
000002a0: 99e5 92bd dd34 d2bd 625e 953d defb 03bf
000002b0: 6874 d6bf 0100 8cbd 5354 0cbf 5215 4bbf
000002c0: 817c a6bf d61d 9dbf 1234 48bc 7543 82bf
000002d0: e7e3 f33c bf87 0bbd 353e abbe 186d 8ebe
000002e0: 0f73 ecbd 5628 efbd c185 3f3d c94f 96bc
000002f0: 2c9b afbb e049 a43e c7b4 b73e dd62 bd3d
00000300: 1801 393e 3868 1bbe 2c4f d83d 245d a63e
00000310: 1627 bb3d 4b38 91bd d265 be3e c6b7 26bf
00000320: 2835 2dbe abef 723f 1988 133f 0b22 0d3f
00000330: c3c5 d5be bee7 033c 962a 443d 17da e53d
00000340: 284d 4b3f 4eb2 de3e ed4b 2abe f6db 383d
00000350: 191a 4b3e 49b2 c4bd 9b23 0dbe 75e5 a43d
00000360: 9d2e 3abe f583 7dbe 5ce1 9abe 15e9 4abf
00000370: 7a41 dabe 1593 a2be f641 c7bd 40da 3fbe
00000380: ad99 e5bd df77 7ebe eccc 87be cb11 b43d
00000390: bcf8 a3be 6275 973e a081 a2be a05a 06bd
000003a0: 0ea9 8e3d 5a22 e5bd 40b6 c5bc 968e a33e
000003b0: 5ac1 89be e927 05be a0c1 dd3e 1c4c 4ebe
000003c0: 7374 b1bd 61a5 3b3f 6f5b 053f f3bf b73b
000003d0: dc39 c23e 3c45 bdbd 72be 9bbe 2477 36be
000003e0: ed85 6dbe 5473 cabc 28ab 0abe b4a4 52be
000003f0: 897e 7cbe 16a3 f5bd 7207 afba c63d 53bd

module.conv1T.bias f4 [64]
-0.024120072 0.018021626 -0.08963353 -0.02782023 -0.006511688 -0.13525394 0.046866275 0.01363875
-0.016803253 -0.008713521 -0.008635108 -0.015255384 -0.008077486 0.011871552 -0.0035330632 0.022220159
-0.30333653 -0.1094144 0.011160885 -0.07287657 -0.018474443 0.009846643 -0.02830955 0.015816692
-0.028222889 0.037293512 -0.11118351 -0.04743205 0.00096672453 0.034109175 0.0068882164 0.019788662
0.004143464 -0.00263461 0.0223497 -0.004441831 0.004667604 -0.044872202 -0.07824358 -0.027417626
-0.018315505 -0.0070115607 -0.02657884 -0.012347637 0.001079207 -0.02570576 0.01894475 -0.014928475
0.008427262 0.00584828 -0.03655142 -0.012218294 0.002236868 0.031500988 0.074007414 -0.008853594
-0.071122885 -0.026112445 0.015044754 -0.010083929 0.025436526 -0.11251487 -0.04438775 -0.002043026
00000000: 7597 c5bc 17a2 933c c991 b7bd 40e7 e3bc
00000010: 0060 d5bb 0280 0abe daf6 3f3d 1075 5f3c
00000020: faa6 89bc 28c3 0ebc 457a 0dbc b8f1 79bc
00000030: 6f57 04bc e680 423c f78a 67bb 0d07 b63c
00000040: ed4e 9bbe a814 e0bd 25dc 363c 5040 95bd
00000050: b757 97bc d053 213c 6ee9 e7bc 0292 813c
00000060: b033 e7bc 15c1 183d 2eb4 e3bd 1c48 42bd
00000070: c96b 7d3a 10b6 0b3d 8cb6 e13b d51b a23c
00000080: e5c5 873b 6ca9 2cbb b816 b73c c78c 91bb
00000090: b3f2 983b eacb 37bd 2c3e a0bd ee9a e0bc
000000a0: 660a 96bc 3cc1 e5bb debb d9bc be4d 4abc
000000b0: 2e74 8d3a e394 d2bc 0532 9b3c 9096 74bc
000000c0: 8012 0a3c eea2 bf3b f1b6 15bd 3d2f 48bc
000000d0: 6b98 123b 2e07 013d 3391 973d aa0e 11bc
000000e0: e0a8 91bd c4e9 d5bc 467e 763c 1037 25bc
000000f0: 4360 d03c 326e e6bd eecf 35bd 4ae4 05bb

module.conv2T.weight f4 [64, 32, 3, 3]
0.027580468 -0.060653552 0.013784589 -0.10131852 0.3379494 0.35384944 -0.25697723 0.13125475
-0.11501783 0.05683603 0.009555593 0.060726047 0.22323017 0.2723163 0.2703551 0.24918595
0.38524044 0.5420243 0.009351736 -0.19618963 0.052056067 -0.070944145 -0.090521686 0.00827883
-0.21394263 0.14039263 -0.21007915 -0.04303657 -0.25237024 -0.25313267 0.07813436 0.20078188
0.32725874 -0.004575223 -0.10036447 -0.0033785067 0.066489056 0.16109416 0.43693438 -0.10430393
0.019096054 0.026001679 -0.0773699 0.09363228 0.26127273 0.026862064 -0.17311874 -0.043059416
0.039347906 0.21037246 0.1531371 -0.40204918 0.0362617 0.28789613 0.051585127 -0.28461614
-0.2175992 0.19782446 0.18520992 0.046849202 0.17657116 0.37290084 0.5311611 0.091790184
0.484287 0.30206963 -0.00893719 0.36097306 0.48302463 -0.34234577 -0.7927545 -0.46038967
-0.08065831 -0.12905575 -0.0454973 -0.22598027 0.10638766 -0.06632061 0.015208291 0.55123186
0.5637066 -0.17738092 -0.020026667 0.08877402 -0.67798334 -0.052298017 0.18133046 -0.17561692
0.21742035 0.2679434 0.10649124 0.062926725 0.19788153 -0.19619435 0.21413113 -0.018429048
-0.19497426 0.09129313 0.11797054 0.11539641 0.06218738 0.077739805 -0.18009071 0.08226924
0.04773557 -0.035890095 -0.1014482 -0.31808922 -0.15742838 -0.08500196 0.15763375 -0.2904032
-0.029108984 0.16358277 -0.016137522 -0.049676936 0.2355918 -0.014746754 -0.025733706 -0.072131775
0.1004684 0.32520905 0.41415006 -0.117870055 -0.2957429 -0.12401517 -0.26094347 0.21076207
-0.0529653 -0.048348125 0.016372068 0.121214226 -0.06555992 -0.18308358 0.29721716 -0.22510125
-0.36188945 -0.34376338 -0.38989678 -0.08088233 -0.20803611 -0.087201394 -0.25636467 0.04989072
0.08575499 -0.021253375 0.04553518 0.051472507 0.4039741 0.25495937 0.06344709 0.13341829
0.052175302 -0.20064828 -0.2151451 -0.1829499 -0.5296057 -0.2353731 -0.32689765 -0.14447294
0.13780242 0.03584567 0.050768577 0.18235801 0.21020134 -0.012845096 0.19523013 0.21434045
0.18283105 0.3346173 0.50576055 -0.016301464 0.12972623 -0.10355963 0.11304694 0.25647908
0.2593845 0.4012136 0.6656229 0.6460468 0.09844937 0.0037795648 -0.23510413 -0.0664474
-0.14168796 0.12499973 0.0657262 -0.21800095 -0.08999716 -0.005115076 -0.30288842 -0.06320796
0.010060459 0.36220273 0.19539274 -0.17057826 -0.26286733 -0.28504223 -0.16001484 -1.693863
-0.0066597247 -0.42065254 -0.3705867 -0.0500493 -0.0055004903 -0.517133 -0.43874034 0.15648864
0.13440003 0.07705497 0.45145684 0.84182143 0.3438857 0.11717779 0.65767586 0.2614637
0.12859622 -0.03714513 0.0076840087 -0.19751334 0.095709495 0.32468003 -0.40564147 -0.019752609
0.011331913 -0.15345685 -0.1055274 -0.058513705 -0.207183 0.020624828 -0.03249736 -0.30147317
0.12612125 0.1836841 -0.17182964 -0.14955568 0.10854334 -0.07487679 0.35194844 0.08703226
-0.037458878 0.12699729 0.17138395 0.005430468 -0.10633942 -0.121585466 -0.38624978 -0.004609168
-0.08287452 -0.24357697 -0.25407586 0.046832763 -0.088528596 -0.085541055 -0.17954746 0.02195355
00000000: 6ff0 e13c dc6f 78bd c2d8 613c 1680 cfbd
00000010: b407 ad3e c12b b53e 8592 83be a567 063e
00000020: 788e ebbd e6cc 683d 108f 1c3c e0bb 783d
00000030: 7396 643e 0b6d 8b3e fc6b 8a3e 9a2a 7f3e
00000040: 3c3e c53e 1bc2 0a3f 0638 193c efe5 48be
00000050: be38 553d 2a4b 91bd 6f63 b9bd eea3 073c
00000060: c713 5bbe 16c3 0f3e fd1e 57be 1d47 30bd
00000070: ac36 81be 9b9a 81be e804 a03d c499 4d3e
00000080: 758e a73e c1eb 95bb e38b cdbd f069 5dbb
00000090: 6a2b 883d def5 243e ddb5 df3e 4d9d d5bd
000000a0: 546f 9c3c 7901 d53c 1c74 9ebd 48c2 bf3d
000000b0: 8ac5 853e d50d dc3c 0a46 31be 125f 30bd
000000c0: 452b 213d e16b 573e f9cf 1c3e 64d9 cdbe
000000d0: 2687 143d 1f67 933e ed4a 533d 35b9 91be
000000e0: 53d2 5ebe 7f92 4a3e aba7 3d3e f3e4 3f3d
000000f0: 12cf 343e dcec be3e 2dfa 073f 7efc bb3d
00000100: 77f4 f73e dfa8 9a3e 4b6d 12bc 76d1 b83e
00000110: 014f f73e f247 afbe f5f1 4abf 32b8 ebbe
00000120: 2f30 a5bd 3127 04be 605b 3abd 5f67 67be
00000130: c6e1 d93d 1ad3 87bd 322c 793c 881d 0d3f
00000140: 134f 103f 58a3 35be f70e a4bc 27cf b53d
00000150: 5190 2dbf 7236 56bd b1ae 393e ecd4 33be
00000160: 71a3 5e3e e12f 893e 1418 da3d badf 803d
00000170: 75a1 4a3e 2ce7 48be 3145 5b3e 84f8 96bc
00000180: 55a7 47be e4f7 ba3d 8a9a f13d f454 ec3d
00000190: 32b8 7e3d 0c36 9f3d b369 38be c67c a83d
000001a0: 6086 433d 7e01 13bd 13c4 cfbd 97dc a2be
000001b0: e834 21be 8215 aebd be6a 213e baaf 94be
000001c0: f775 eebc 3e82 273e d632 84bc 0b7a 4bbd
000001d0: fa3e 713e 5f9c 71bc 7ecf d2bc d3b9 93bd
000001e0: 60c2 cd3d cd81 a63e 7a0b d43e db65 f1bd
000001f0: 9d6b 97be aafb fdbd 629a 85be 03d2 573e
00000200: 24f2 58bd af08 46bd b71e 863c 2a3f f83d
00000210: 4844 86bd 437a 3bbe d92c 983e f180 66be
00000220: 9349 b9be c101 b0be 8da0 c7be a3a5 a5bd
00000230: 6b07 55be a596 b2bd 3b42 83be 365a 4c3d
00000240: 50a0 af3d 8f1b aebc 1983 3a3d d6d4 523d
00000250: b1d5 ce3e 098a 823e 8cf0 813d ce9e 083e
00000260: c5b5 553d be76 4dbe ff4e 5cbe 3857 3bbe
00000270: 3d94 07bf a505 71be 215f a7be b7f0 13be
00000280: 141c 0d3e e9d2 123d b6f2 4f3d 0fbc 3a3e
00000290: 053f 573e 3d74 52bc 68ea 473e 107c 5b3e
000002a0: 1038 3b3e f552 ab3e 8679 013f a68a 85bc
000002b0: f4d6 043e 1217 d4bd 2785 e73d 3a51 833e
000002c0: 0cce 843e de6b cd3e 4366 2a3f 5363 253f
000002d0: d39f c93d 93b2 773b 23bf 70be 9315 88bd
000002e0: a616 11be dcff ff3d 759b 863d a43b 5fbe
000002f0: 6e50 b8bd 5e9c a7bb 3114 9bbe 2d73 81bd
00000300: a0d4 243c a372 b93e 0915 483e 11ac 2ebe
00000310: 8c96 86be 0ef1 91be eeda 23be 81d0 d8bf
00000320: d239 dabb c55f d7be 8abd bdbe 7f00 4dbd
00000330: 753d b4bb d462 04bf 93a2 e0be 8f3e 203e
00000340: 29a0 093e ffce 9d3d 5a25 e73e 9c81 573f
00000350: c911 b03e e9fa ef3d 725d 283f 92de 853e
00000360: baae 033e 7e25 18bd 23ca fb3b f040 4abe
00000370: 5703 c43d 763c a63e 3db0 cfbe 39d0 a1bc
00000380: 7da9 393c cb23 1dbe c01e d8bd 11ac 6fbd
00000390: c827 54be 66f5 a83c f41b 05bd b15a 9abe
000003a0: ee25 013e af17 3c3e 1cf4 2fbe 2025 19be
000003b0: f84b de3d 0159 99bd 9632 b43e f83d b23d
000003c0: 7b6e 19bd 940b 023e 467f 2f3e 11f2 b13b
000003d0: 7bc8 d9bd cd01 f9bd 88c2 c5be 8108 97bb
000003e0: 1eba a9bd 3e6c 79be 3b16 82be b6d3 3f3d
000003f0: 7b4e b5bd 2630 afbd 4adb 37be eed7 b33c

module.conv2T.bias f4 [32]
0.021384692 -0.079799704 0.1308222 0.026550394 0.097509176 0.016086983 0.062865436 -0.060456377
0.08375109 0.051034022 0.061927408 0.09006411 0.09198737 0.08448843 0.113695905 0.025211437
0.013660345 0.058523253 0.09236725 0.059818204 0.088542596 0.18542732 0.0021613324 -0.011310518
0.22548974 0.07126887 0.07916079 0.102952585 0.09126214 0.03481145 -0.05127053 0.046605367
00000000: f32e af3c 076e a3bd 41f6 053e 3680 d93c
00000010: e4b2 c73d d9c8 833c 98bf 803d 1ba1 77bd
00000020: b185 ab3d 0d09 513d 98a7 7d3d 8873 b83d
00000030: e063 bc3d 4508 ad3d 66d9 e83d 3788 ce3c
00000040: a4cf 5f3c 14b6 6f3d 0a2b bd3d ef03 753d
00000050: d255 b53d a9e0 3d3e 24a5 0d3b c04f 39bc
00000060: c8e6 663e 6af5 913d 0d1f a23d ced8 d23d
00000070: a5e7 ba3d 7396 0e3d 0c01 52bd 45e5 3e3d

module.conv3T.weight f4 [32, 16, 3, 3]
-0.10600063 0.036067177 0.179066 -0.0019814298 0.14726095 -0.089298576 0.39341605 -0.4092156
-0.23037475 0.010791402 0.15277688 0.31892753 0.15862787 0.3525545 0.39596793 0.20062141
0.018073943 -0.3349995 -0.062103946 0.6067197 0.15494996 -0.16633499 -0.061374847 -0.28147942
0.31568414 0.0030790563 0.2898481 0.049206205 0.30288893 0.218216 0.18235035 0.31126636
0.18808074 -0.3029005 0.23316547 -0.18662572 0.077718705 0.30431116 0.30688256 0.025453333
0.59645045 0.09323038 -0.107545204 0.14417613 -0.18190804 0.064908594 0.14661655 0.4164855
-0.07356458 0.55758363 0.18511501 -0.012545698 -0.047373995 -0.37919703 0.08216683 0.1272185
0.247854 -0.10981445 -0.062336154 -0.38811976 -0.057482626 -0.8365477 -0.35005698 -0.075106114
0.13258496 -0.1015131 -0.104975045 -0.20020121 0.20520121 0.08195253 -0.028550798 -0.39113304
0.04076911 -0.069976576 -0.018433884 0.08557669 -0.17464921 0.06824914 -0.10931141 -0.42890498
-0.07085289 0.33008444 -0.35010448 -0.23260099 0.43297634 0.22949754 -0.0073049725 -0.061278414
0.0018032637 -0.25787258 0.35706964 0.27550915 0.1980185 0.29163054 0.19589634 0.19921668
-0.138748 -0.097629786 -0.5882235 0.08016607 0.07464017 0.37454274 0.23875853 0.31348786
0.22346202 -0.18649721 0.31000105 -0.29274368 0.10892673 0.25305358 0.23795913 0.2943618
0.16852525 0.17721328 -0.03601335 0.03964 -0.20369682 0.31087995 0.19705969 0.40005332
0.2335755 0.16298507 0.2321724 -0.26033333 -0.1734374 -0.70774823 0.16772597 -0.013124906
0.25952056 0.0153945675 0.058788843 -0.43287343 -0.107898794 0.2894773 -0.6800475 0.6102219
0.39801878 0.22714977 0.7044034 0.80571306 0.38300875 0.06918081 0.3422063 -0.69555104
-0.4109885 -0.27840358 -0.36050227 -0.26191184 -0.45241183 -0.24563119 -0.25246835 -0.40724578
-0.086718135 -0.24644044 -0.29940492 -0.3069944 -0.43527448 -0.5714422 -0.34037867 0.04405308
-0.22321321 -0.095579036 -0.12922943 -0.59336877 -0.22462274 -0.9298931 -0.86926013 -0.33806235
-0.2500602 -0.23897062 -0.12656893 -0.1408298 -0.3822417 -0.13869746 -0.8715951 -0.41583806
-0.33613792 -0.092561536 -0.31452292 0.010086651 -0.41446587 -0.70632917 -0.31093663 -0.43168345
-0.9404072 -0.8183217 -0.049413085 -0.5588354 -0.3595896 -0.5573446 -0.5760183 -0.25551927
-0.6594904 -0.8018186 -0.13520047 0.17190893 -0.0025141267 -0.20233604 -0.54497623 -0.5095972
-0.5162585 -0.29513875 -0.85962147 -0.630074 -0.09730348 -0.11040694 -0.32205632 -0.17576802
-0.54269385 -0.19971812 -0.9582811 -1.3933077 -1.5670786 -0.56827074 -1.790504 -1.3977592
-0.46594456 -0.29902467 -0.15481639 -0.33233485 -0.64236635 -0.16353345 -0.035604462 0.041191027
0.019765332 -0.10374206 0.17907146 -0.2994168 -0.09714793 -0.64718586 -0.3569631 -0.07419183
-0.35026205 -0.40855962 -0.2554118 -0.3627474 -0.23238657 -0.4426579 -0.67498326 -0.6410993
0.042378888 -0.3854533 -0.22753637 -0.22528422 -0.207615 -0.20342188 -0.20598313 -0.19114886
-0.19152646 -0.07381336 -0.5358342 -0.20491877 -0.09338187 -0.24436879 -0.26847425 0.006321869
00000000: dc16 d9bd 2dbb 133d 145d 373e e0da 01bb
00000010: 93cb 163e 2ce2 b6bd d46d c93e b584 d1be
00000020: 5ce7 6bbe 6cce 303c 8b71 1c3e 784a a33e
00000030: 586f 223e 0682 b43e 4fbc ca3e b36f 4d3e
00000040: ce0f 943c 0e85 abbe b560 7ebd fb51 1b3f
00000050: 34ab 1e3e b853 2abe 3164 7bbd 121e 90be
00000060: 5aa1 a13e fec9 493b f866 943e 728c 493d
00000070: 4214 9b3e 0474 5f3e 0dba 3a3e 4e5e 9f3e
00000080: 3d98 403e c615 9bbe eec2 6e3e d01a 3fbe
00000090: fc2a 9f3d acce 9b3e b61f 9d3e 8283 d03c
000000a0: fab0 183f 92ef be3d a940 dcbd e8a2 133e
000000b0: 1a46 3abe ccee 843d a622 163e 963d d53e
000000c0: 07a9 96bd cdbd 0e3f ca8e 3d3e 798c 4dbc
000000d0: 3c0b 42bd 1d26 c2be 1547 a83d 9145 023e
000000e0: 70cd 7d3e 66e6 e0bd 3254 7fbd a2b7 c6be
000000f0: e772 6bbd fd27 56bf ab3a b3be 3cd1 99bd
00000100: 5ac4 073e 1ae6 cfbd 28fd d6bd 8c01 4dbe
00000110: 4420 523e bad6 a73d 5de3 e9bc 9742 c8be
00000120: 83fd 263d e14f 8fbd a802 97bc d542 af3d
00000130: 3ed7 32be 35c6 8b3d a9de dfbd 6f99 dbbe
00000140: 521b 91bd d400 a93e e540 b3be f42e 6ebe
00000150: 13af dd3e 6701 6b3e 8d5e efbb 13ff 7abd
00000160: 7d5b ec3a e007 84be d5d1 b63e 890f 8d3e
00000170: 5dc5 4a3e 9950 953e 0d99 483e 75ff 4b3e
00000180: f513 0ebe 20f2 c7bd d195 16bf 1c2e a43d
00000190: f2dc 983d 11c4 bf3e 1e7d 743e 7b81 a03e
000001a0: 3ad3 643e 20f9 3ebe 75b8 9e3e 80e2 95be
000001b0: fa14 df3d 3d90 813e 8fab 733e 97b6 963e
000001c0: e291 2c3e 6677 353e bc82 13bd 8d5d 223d
000001d0: e695 50be a82b 9f3e 04ca 493e cad3 cc3e
000001e0: 6a2e 6f3e 8fe5 263e 9abe 6d3e 694a 85be
000001f0: 9399 31be fd2e 35bf 5bc0 2b3e d909 57bc
00000200: e1df 843e 7f39 7c3c 92cc 703d 96a1 ddbe
00000210: 0bfa dcbd 5e36 943e 9817 2ebf 8137 1c3f
00000220: 1ec9 cb3e f399 683e c853 343f 3643 4e3f
00000230: b919 c43e abae 8d3d aa35 af3e a20f 32bf
00000240: 166d d2be ea8a 8ebe c193 b8be 4f19 86be
00000250: 86a2 e7be be86 7bbe 8843 81be 8582 d0be
00000260: 4799 b1bd e25a 7cbe 9a4b 99be 5f2e 9dbe
00000270: 4cdc debe 094a 12bf 1d46 aebe 0171 343d
00000280: 0192 64be f1be c3bd b854 04be 04e7 17bf
00000290: 8103 66be 790d 6ebf d587 5ebf 8216 adbe
000002a0: e407 80be b7b4 74be 499b 01be b035 10be
000002b0: 2fb5 c3be b506 0ebe db20 5fbf bae8 d4be
000002c0: 451a acbe e790 bdbd 2609 a1be 7b42 253c
000002d0: df34 d4be fdd1 34bf 1633 9fbe 9d05 ddbe
000002e0: 87be 70bf 887d 51bf 6065 4abd d60f 0fbf
000002f0: 211c b8be 23ae 0ebf ef75 13bf 6cd3 82be
00000300: 5dd4 28bf fc43 4dbf fe71 0abe e508 303e
00000310: 0cc4 24bb 2e31 4fbe 9083 0bbf f674 02bf
00000320: 8429 04bf 6d1c 97be 2710 5cbf 884c 21bf
00000330: 0c47 c7bd 091d e2bd 91e4 a4be 88fc 33be
00000340: fced 0abf e882 4cbe e951 75bf e857 b2bf
00000350: 0896 c8bf 317a 11bf 3c2f e5bf c6e9 b2bf
00000360: 4990 eebe c319 99be 3088 1ebe cb27 aabe
00000370: 1f72 24bf 5075 27be fcd5 11bd ecb7 283d
00000380: e8ea a13c b876 d4bd 825e 373e 294d 99be
00000390: 7ef5 c6bd f9ad 25bf dec3 b6be e3f1 97bd
000003a0: 8c55 b3be ba2e d1be 56c5 82be 07ba b9be
000003b0: bff6 6dbe 0ea4 e2be b4cb 2cbf 151f 24bf
000003c0: 7c95 2d3d 235a c5be 4bff 68be e8b0 66be
000003d0: 0799 54be d34d 50be 3eed 52be 87bc 43be
000003e0: 831f 44be 752b 97bd 6e2c 09bf 3ad6 51be
000003f0: fe3e bfbd d03b 7abe 7575 89be ae27 cf3b

module.conv3T.bias f4 [16]
0.2508161 0.21945103 -0.14814618 0.023588095 0.14740102 0.09537057 -0.09124263 -0.061254587
0.031175599 0.4211335 0.32590026 0.28725326 0.13867785 0.23785126 0.12655705 0.28690934
00000000: f86a 803e c5b7 603e a2b3 17be d23b c13c
00000010: 4bf0 163e a551 c33d 6add babd 17e6 7abd
00000020: f863 ff3c cf9e d73e 66dc a63e dc12 933e
00000030: 9101 0e3e 488f 733e 2c98 013e c8e5 923e
