theta_run_noise/exp/conv_autoencoder.pth (torch, 833705 bytes, 19 tensors)

conv1.weight f4 [16, 1, 3, 3]
0.033480164 0.30235747 0.2270204 -0.11318507 0.09243729 -0.246531 -0.075427614 0.21245131
-0.28305915 -0.18017541 -0.17908984 -0.24122559 -0.2633107 1.5881567e-05 -0.21062332 -0.2686622
0.26918468 0.114432655 0.17853418 0.073933214 0.13960703 -0.30789652 0.14800103 -0.13576476
0.051176764 -0.002619512 0.019594485 0.14454792 -0.22262216 -0.17354783 0.116785586 0.21692048
0.15659156 -0.27249566 0.14359362 -0.28003472 0.19892593 0.28267828 0.14751035 -0.26393285
0.106656164 -0.23011568 0.12680544 -0.029133197 -0.28460103 -0.18116441 -0.3166697 0.1201668
-0.027626844 -0.0013790206 0.13958539 0.0019300771 -0.24974301 -0.18854143 -0.03511969 0.214638
0.21346702 -0.011529361 0.04342288 -0.2689008 -0.30922183 0.22139475 0.2073252 -0.03708226
-0.16845109 -0.35453647 0.060811356 -0.16381095 0.04501632 0.032129906 0.06694724 0.20586094
0.06182475 0.10410546 0.06939316 -0.1630822 -0.06401381 -0.28093734 0.07798183 -0.07848109
-0.28920025 -0.07643815 0.1162911 0.070790924 -0.053236846 -0.07202469 0.08526357 0.09396485
0.05507722 -0.20336571 0.2500741 -0.11068845 0.22727852 -0.0647758 -0.25194085 -0.32608667
-0.22049539 -0.3083966 0.19012712 0.19984508 0.19430806 0.1390862 -0.22271194 0.12759826
0.13552661 0.22698501 0.037643403 0.30925113 0.1272042 0.020918794 -0.2511396 0.099621296
-0.105463766 -0.19780162 0.02744069 -0.12783085 -0.085056365 0.23924807 0.095518194 -0.3024815
0.23369278 -0.20427123 -0.054461382 -0.14985372 -0.017751332 0.21292537 0.17089018 0.074158534
-0.026801128 0.12702148 -0.096335486 -0.26184523 0.03723461 -0.031376466 -0.27683705 -0.1292924
0.102158666 0.072543025 0.19427669 0.093763165 -0.32130745 -0.25265646 -0.28508672 -0.082924545
00000000: 7f22 093d 99ce 9a3e 0978 683e 93cd e7bd
00000010: c34f bd3d 9f72 7cbe cb79 9abd d68c 593e
00000020: 21ed 90be e77f 38be 5463 37be d703 77be
00000030: a9d0 86be 6839 8537 a4ad 57be 188e 89be
00000040: 93d2 893e ab5b ea3d aad1 363e 4c6a 973d
00000050: 25f5 0e3e 9da4 9dbe 958d 173e eb05 0bbe
00000060: ba9e 513d 1eac 2bbb 9d84 a03c 5f04 143e
00000070: 10f7 63be 86b6 31be 482d ef3d 6720 5e3e
00000080: 8a59 203e 8d84 8bbe 350a 133e b660 8fbe
00000090: 3db3 4b3e 35bb 903e f40c 173e 3522 87be
000000a0: 8c6e da3d 72a3 6bbe 49d9 013e bea8 eebc
000000b0: 3ab7 91be 2a83 39be 8822 a2be 031a f63d
000000c0: b151 e2bc 41c0 b4ba 79ef 0e3e a4fa fc3a
000000d0: a2bc 7fbe 0111 41be aad9 0fbd 10ca 5b3e
000000e0: 1997 5a3e a5e5 3cbc 31dc 313d 5ead 89be
000000f0: 5352 9ebe 4eb5 623e 0f4d 543e 91e3 17bd
00000100: 717e 2cbe ce85 b5be 5415 793d 0fbe 27be
00000110: 0863 383d a69a 033d a21b 893d 36cd 523e
00000120: f33b 7d3d 3e35 d53d 001e 8e3d 05ff 26be
00000130: ac19 83bd 05d7 8fbe f0b4 9f3d b2ba a0bd
00000140: 0e12 94be 9b8b 9cbd 072a ee3d d5fa 903d
00000150: e10e 5abd ae81 93bd ab9e ae3d a570 c03d
00000160: a798 613d 1a3f 50be b609 803e a0b0 e2bd
00000170: b3bb 683e 2da9 84bd 64fe 80be d5f4 a6be
00000180: 8bc9 61be 29e6 9dbe afb0 423e 30a4 4c3e
00000190: b1f8 463e 9d6c 0e3e 990e 64be 1ea9 023e
000001a0: 7dc7 0a3e c26e 683e f82f 1a3d 2a56 9e3e
000001b0: d141 023e e45d ab3c 5f95 80be 4006 cc3d
000001c0: 63fd d7bd 828c 4abe 4ccb e03c 17e6 02be
000001d0: 0832 aebd 72fd 743e 0b9f c33d dbde 9abe
000001e0: 294d 6f3e 7a2c 51be e612 5fbd 4173 19be
000001f0: 3e6b 91bc 1c09 5a3e d6fd 2e3e 6ee0 973d
00000200: 0a8e dbbc eb11 023e 8a4b c5bd 9410 86be
00000210: 5283 183d 9c84 00bd 96bd 8dbe 3a65 04be
00000220: 9038 d13d 7091 943d 78f0 463e e706 c03d
00000230: 6982 a4be 305c 81be e3f6 91be 58d4 a9bd

conv1.bias f4 [16]
0.032728232 0.1772001 -0.3217857 -0.02582518 0.23741144 -0.21955559 0.21822639 0.051405836
-0.08941428 0.06723596 0.29064122 0.04527093 0.21595933 -0.22177096 0.13676757 -0.15069103
00000000: 0a0e 063d f173 353e 18c1 a4be 548f d3bc
00000010: fc1b 733e 2ed3 60be bd76 5f3e ed8e 523d
00000020: d61e b7bd 02b3 893d edce 943e 036e 393d
00000030: 7124 5d3e ed17 63be cc0c 0c3e c04e 1abe

conv2.weight f4 [32, 16, 3, 3]
0.06649141 -0.056855306 0.048005257 -0.008930511 0.00020142349 0.06119099 0.015631974 0.03337533
-0.053435385 -0.002533258 -0.09963747 -0.030571649 -0.07786069 0.02307677 -0.07200078 -0.09226393
-0.085363775 -0.04908505 -0.07606151 0.012971322 0.054259825 0.070327215 -0.057942986 -0.006874074
0.07169601 0.013695818 0.052243803 -4.8694274e-05 -0.0031961245 -0.0076468503 -0.005025191 0.013220998
-0.07040493 -0.01951254 0.06564341 -0.039755844 -0.021041542 0.057535622 0.04180021 0.004548163
-0.09601309 -0.027448632 0.0144481985 -0.048548702 0.036973063 0.10331847 -0.05372116 0.056313485
0.026606523 -0.057796445 -0.014449088 -0.014689552 -0.032544862 0.029047405 0.01657983 -0.059483677
-0.02576829 0.0035454435 -0.027546225 -0.07758067 -0.052554317 -0.07191262 0.020974474 -0.020589527
0.009024823 0.032379344 0.010276827 -0.05846591 0.078701116 -0.04881159 -0.061617553 0.035434403
0.04372869 -0.07727397 0.0021645036 0.044112973 -0.024078822 0.07477803 0.03313773 -0.04984748
-0.022254428 -0.052373122 0.04985666 -0.051963903 0.014533551 -0.0020378432 0.0012837276 0.022017285
0.00097136135 0.08542646 0.050154723 -0.01973319 0.0171527 -0.10556907 -0.052544393 -0.03958181
-0.065605305 0.03176776 -0.10007332 0.05348652 -0.065794826 0.075564966 0.06192098 -0.07254562
-0.06978458 0.03147695 -0.066938356 -0.0822235 -0.084234744 -0.07195792 -0.099493176 -0.07931072
-0.025556985 -0.074883685 -0.06605686 0.017491417 0.019735983 0.013174865 -0.034367267 -0.09000024
0.078704774 0.009295726 -0.047571946 0.019807147 0.005150973 -0.041465644 -0.0632975 -0.018457463
-0.079482935 -0.052487563 -0.08306912 0.0649018 -0.040740877 -0.06275116 -0.07955852 -0.06263829
-0.06589974 0.05200778 -0.05434275 0.006044146 0.05648846 -0.0516334 -0.026038935 -0.010840797
0.008111492 -0.036138725 0.043084618 0.015556268 -0.008374384 -0.06402711 -0.061886646 -0.03893066
0.059958752 0.01121701 -0.07744038 -0.04132235 0.030216914 -0.026052337 -0.0905885 0.041674055
-0.031195018 -0.030165551 0.05673224 0.037007786 0.0069397064 -0.05579394 -0.050970133 -0.053679004
0.05038483 0.05722334 0.08449209 -0.05678604 -0.03281075 -0.06292979 -0.015496057 -0.0032324025
-0.077416934 -0.069633804 0.06121594 0.071655765 -0.07709647 0.012215324 -0.047758732 0.044074375
0.054515615 0.04916518 0.0049661165 0.00054144155 0.06728389 -0.07273874 -0.053676557 0.047431238
0.07711286 0.07921228 0.019103806 -0.066503376 0.04929062 -0.04437902 -0.090514496 0.040887464
-0.078461185 -0.07543653 0.0054965653 0.0077115875 -0.07582842 0.0430127 -0.07597986 0.048070733
0.053410985 0.034722444 0.018643897 -0.07687242 0.024836762 0.0029968843 0.011765996 -0.104119934
-0.033964388 -7.66577e-05 0.00884979 0.013701665 -0.07742944 0.01163668 0.048805684 -0.032817293
-0.027341705 -0.06980156 -0.041871928 0.029750705 0.06754413 -0.0904582 0.027980963 -0.07839201
-0.04617997 -0.09238737 -0.076199405 0.034674585 -0.0059631076 0.029189836 0.015563783 -0.047285147
0.073269606 0.0019217066 0.037951864 0.0028226115 -0.008266127 0.05637675 -0.015073061 -0.043194328
0.057503063 -0.03785755 -0.010416999 -0.08525721 -0.059278287 -0.044703018 0.03561166 -0.058131948
00000000: a62c 883d 1ce1 68bd 29a1 443d 4751 12bc
00000010: 3535 5339 67a3 7a3d a00e 803c 92b4 083d
00000020: 10df 5abd 0405 26bb bb0e ccbd 6571 fabc
00000030: 6d75 9fbd 7f0b bd3c 2575 93bd dff4 bcbd
00000040: 34d3 aebd 680d 49bd 23c6 9bbd ab85 543c
00000050: 8d3f 5e3d b707 903d a055 6dbd ea3f e1bb
00000060: 5cd5 923d 6d64 603c 99fd 553d 143d 4cb8
00000070: 1276 51bb 6e92 fabb 5caa a4bb e39c 583c
00000080: 7630 90bd c3d8 9fbc 0d70 863d 06d7 22bd
00000090: 505f acbc 79aa 6b3d b236 2b3d c208 953b
000000a0: 83a2 c4bd f4db e0bc 23b8 6c3c 01db 46bd
000000b0: 1171 173d a298 d33d b80a 5cbd f8a8 663d
000000c0: ecf5 d93c f7bb 6cbd debb 6cbc 72ac 70bc
000000d0: c34d 05bd d3f4 ed3c 6cd2 873c 28a5 73bd
000000e0: 0518 d3bc ac5a 683b 9fa8 e1bc 9de2 9ebd
000000f0: 3243 57bd ec46 93bd a9d2 ab3c 5eab a8bc
00000100: dadc 133c 34a0 043d 2360 283c f379 6fbd
00000110: 0d2e a13d a9ee 47bd b062 7cbd aa23 113d
00000120: db1c 333d d141 9ebd 58da 0d3b ceaf 343d
00000130: f340 c5bc 3925 993d 6ebb 073d df2c 4cbd
00000140: eb4e b6bc 3385 56bd 7f36 4c3d 1ad8 54bd
00000150: 221e 6e3c 568d 05bb c042 a83a 985d b43c
00000160: f5a2 7e3a 11f4 ae3d 0a6f 4d3d 80a7 a1bc
00000170: d283 8c3c 9934 d8bd ca38 57bd 8920 22bd
00000180: 135c 86bd e91e 023d 3ef3 ccbd ae14 5b3d
00000190: 70bf 86bd cec1 9a3d dba0 7d3d cc92 94bd
000001a0: 38eb 8ebd f9ed 003d fa16 89bd cb64 a8bd
000001b0: 4483 acbd ad5e 93bd 14c3 cbbd a96d a2bd
000001c0: e25c d1bc 9e5c 99bd d248 87bd 294a 8f3c
000001d0: 5bad a13c 64db 573c b1c4 0cbd 0c52 b8bd
000001e0: f82f a13d 1a4d 183c cdda 42bd 9942 a23c
000001f0: 7ec9 a83b e1d7 29bd 1fa2 81bd 1b34 97bc
00000200: f3c7 a2bd 33fd 56bd 2520 aabd 3ceb 843d
00000210: e8df 26bd ae83 80bd 94ef a2bd 8148 80bd
00000220: 71f6 86bd 1c06 553d 8196 5ebd f90d c63b
00000230: 7260 673d 8b7d 53bd 9b4f d5bc 999d 31bc
00000240: 10e6 043c 3306 14bd 7f79 303d b8df 7e3c
00000250: b634 09bc a520 83bd da7c 7dbd c175 1fbd
00000260: 4f97 753d 8dc7 373c 1099 9ebd a041 29bd
00000270: 7689 f73c b66b d5bc 7786 b9bd 6ab2 2a3d
00000280: b28c ffbc bf1d f7bc 1160 683d 7a95 173d
00000290: 7a66 e33b 3088 64bd 0fc6 50bd 84de 5bbd
000002a0: 5360 4e3d 0563 6a3d 300a ad3d 7b98 68bd
000002b0: 9164 06bd 55e1 80bd 2de3 7dbc b7d6 53bb
000002c0: c58c 9ebd 2b9c 8ebd 91bd 7a3d 42c0 923d
000002d0: c1e4 9dbd c822 483c a99e 43bd 5587 343d
000002e0: c44b 5f3d 6e61 493d ceba a23b 87ef 0d3a
000002f0: 23cc 893d 0cf8 94bd f3db 5bbd 4247 423d
00000300: 59ed 9d3d 0c3a a23d 967f 9c3c ec32 88bd
00000310: f6e4 493d c6c6 35bd aa5f b9bd 9d79 273d
00000320: 42b0 a0bd 787e 9abd 881c b43b 7cb1 fc3b
00000330: ee4b 9bbd 162e 303d 549b 9bbd d1e5 443d
00000340: 7ac5 5a3d 1f39 0e3d 16bb 983c 4a6f 9dbd
00000350: 7776 cb3c 6067 443b 2ac6 403c d53c d5bd
00000360: 3e1e 0bbd 4ac3 a0b8 b6fe 103c f37c 603c
00000370: 5493 9ebd c6a7 3e3c 78e8 473d 6d6b 06bd
00000380: b6fb dfbc 1ff4 8ebd e681 2bbd c0b7 f33c
00000390: 9454 8a3d 2642 b9bd 5538 e53c fd8b a0bd
000003a0: 3527 3dbd 9735 bdbd 6f0e 9cbd f006 0e3d
000003b0: 2c66 c3bb 861f ef3c 3dff 7e3c 12ae 41bd
000003c0: 600e 963d c6e1 fb3a 6a73 1b3d 90fb 383b
000003d0: a66e 07bc 4feb 663d 00f5 76bc 89ec 30bd
000003e0: 5588 6b3d 8510 1bbd 10ac 2abc 559b aebd
000003f0: cacd 72bd 831a 37bd 88dd 113d c41b 6ebd

conv2.bias f4 [32]
-0.005746853 -0.110527515 -0.06592022 0.07263757 0.10470392 0.054347537 -0.07931021 -0.0019100774
-0.06827914 -0.09505245 0.07994578 -0.04716229 -0.13670112 0.097827144 0.027419588 -0.120461755
0.08140336 0.061578233 -0.10873435 -0.11688984 0.021006048 0.027276885 0.065657705 -0.014111126
-0.064366564 0.08000556 0.049453624 -0.031058867 0.058470797 0.013629022 -0.14797889 -0.044781145
00000000: 1950 bcbb 405c e2bd 2e01 87bd 02c3 943d
00000010: 026f d63d 869b 5e3d 646d a2bd 905b faba
00000020: efd5 8bbd dcaa c2bd 9dba a33d 3f2d 41bd
00000030: 61fb 0bbe 9959 c83d 0b9f e03c a7b4 f6bd
00000040: ceb6 a63d 7539 7c3d 1db0 debd f163 efbd
00000050: e014 ac3c c673 df3c 8c77 863d 5a32 67bc
00000060: 9ed2 83bd f4d9 a33d e28f 4a3d 2a6f febc
00000070: 137f 6f3d 434c 5f3c c787 17be 6f6c 37bd

conv3.weight f4 [64, 32, 3, 3]
-0.06661954 -0.015102512 -0.048529517 -0.0035774175 0.006613247 -0.008399959 0.057483487 0.015983036
-0.038174275 -0.065482326 -0.018671414 0.012258819 0.005620751 0.020151079 -0.04927769 -0.020811869
-0.037630036 0.045149192 -0.03399536 -0.056083955 0.041683447 -0.045441408 -0.00905662 0.018522922
-0.06262369 0.035263915 -0.07999166 -0.05747977 -0.037669055 0.05743023 0.009788778 0.04291789
-0.04640178 -0.06368145 0.026506605 -0.040917076 -0.03641308 0.007510474 0.0017973416 -0.034975808
-0.0762059 0.051968683 0.04125002 -0.0070775426 0.028581439 -0.0019485177 0.03316574 0.0059355167
-0.011320102 -0.05061151 0.020334043 0.0137226675 -0.057941914 0.0013799443 0.0087550515 -0.05125078
0.029564064 0.020350035 -0.003481979 -0.016676052 0.03617051 0.0008691759 -0.04224127 0.061015323
-0.0010795674 -0.06113391 -0.015706856 0.019499304 -0.010830191 0.0016961113 -0.018791104 -0.022937125
-0.06582988 -0.068477735 0.010038049 -0.0065663895 0.017116558 -0.045013465 0.025683511 0.0008335396
-0.033103723 0.037918862 -0.032992948 -0.013460023 -0.01966489 -0.041663934 0.05123925 0.049403626
0.04112743 0.030208569 0.027369898 -0.06562523 0.028574925 -0.00769335 -0.050727364 0.010568663
-0.0036055718 -0.04163566 0.008342653 0.048688702 -0.049313776 -0.041643277 0.021794267 -0.054837212
-0.009517986 -0.01909796 0.009235594 -0.061262384 -0.028641274 -0.033595275 0.044068318 0.04425843
-0.044105962 -0.056756366 0.0014714375 0.027676687 -0.015312849 -0.059698854 -0.003010521 -0.06645059
-0.060927894 -0.015378964 -0.019348484 -0.0050133034 -0.03804739 -0.014885066 -0.010854806 0.024905415
-0.023408422 0.0073790555 -0.03852413 0.014081354 -0.010313112 -0.03189511 0.030977113 0.021358125
-0.06765412 -0.0451802 -0.03621767 -0.027092885 -0.018785534 0.019079905 0.023385134 -0.06532034
-0.03632747 -0.08726346 0.014666396 -0.04678113 0.046607498 -0.022406451 -0.026671072 0.021668434
-0.008114911 -0.0044794283 -0.039497808 -0.042549305 -0.07672262 -0.050231744 -0.045788735 -0.02288608
-0.04841149 -0.04450928 -0.0562198 0.022941435 0.024389816 -0.054055065 -0.046684366 -0.0048024724
0.027299438 0.0014525648 -0.0734482 -0.0341086 -0.03509905 -0.06402783 -0.015778927 -0.042163804
-0.05455445 -0.005206531 0.03353331 0.032985426 -0.04587551 -0.034271758 -0.00052703085 0.004159642
0.033917364 -0.0044886745 -0.023856787 -0.041047636 -0.0075710793 0.024514355 -0.11991927 0.017666064
-0.00962368 0.0057496177 -0.034672894 -0.03418358 -0.047360666 -0.05027715 -0.042168695 -0.052166227
0.015393914 -0.036554497 0.024262533 -0.022289293 -0.052614074 -0.041818183 -0.047536876 -0.016077815
-0.01496854 -0.015651822 -0.065714516 -0.07054803 -0.016354578 0.03662917 -0.060710914 -0.011527905
-0.047828343 -0.015869962 -0.010696631 0.0161756 -0.07755911 -0.010961283 -0.006342333 0.020784209
0.016952021 -0.06390258 -0.007681159 0.027850255 -0.0540797 0.066926025 -0.0037090017 -0.060983684
0.022788048 -0.018034494 0.026890634 0.028140234 -0.07133951 -0.013740829 -0.012505465 -0.040683813
-0.0021785954 0.010806724 -0.02756964 0.015062077 0.011215869 -0.0123876035 -0.01176487 0.0061464706
-0.057117477 -0.016488792 0.011517497 0.019916663 0.04307708 0.007123844 -0.003976212 -0.026686758
00000000: d36f 88bd 8770 77bc e3c6 46bd 1b73 6abb
00000010: f0b3 d83b fb9f 09bc ce73 6b3d dbee 823c
00000020: a15c 1cbd 991b 86bd cbf4 98bc 37d9 483c
00000030: 472e b83b e013 a53c 67d7 49bd a77d aabc
00000040: f421 1abd 5cee 383d b83e 0bbd 4ab8 65bd
00000050: 43bc 2a3d c520 3abd 3862 14bc 62bd 973c
00000060: d940 80bd e570 103d abd2 a3bd e86f 6bbd
00000070: de4a 1abd f63b 6b3d 1c61 203c abca 2f3d
00000080: cb0f 3ebd 6c6b 82bd 6124 d93c aa98 27bd
00000090: e225 15bd 6c1a f63b c794 eb3a cb42 0fbd
000000a0: d711 9cbd 1ddd 543d c8f5 283d bbea e7bb
000000b0: 9f23 ea3c 6865 ffba cdd8 073d b97e c23b
000000c0: f377 39bc 044e 4fbd 9493 a63c 0ad5 603c
000000d0: 8054 6dbd 3fdf b43a 5971 0f3c 56ec 51bd
000000e0: 5630 f23c 1eb5 a63c ea31 64bb 379c 88bc
000000f0: 8727 143d 68d9 633a 2f05 2dbd 34eb 793d
00000100: 4580 8dba 8d67 7abd aaab 80bc 01bd 9f3c
00000110: 1d71 31bc 0d50 de3a cdef 99bc a3e6 bbbc
00000120: d1d1 86bd 0e3e 8cbd a176 243c de2a d7bb
00000130: 0638 8c3c 0a60 38bd 3a66 d23c e581 5a3a
00000140: c597 07bd cf50 1b3d 9d23 07bd 6e87 5cbc
00000150: 4318 a1bc cda7 2abd 3fe0 513d 755b 4a3d
00000160: 3c75 283d f677 f73c d636 e03c 8566 86bd
00000170: f615 ea3c 7f18 fcbb 7fc7 4fbd 2f28 2d3c
00000180: 754b 6cbb 278a 2abd 9faf 083c ce6d 473d
00000190: 3efd 49bd 2492 2abd e489 b23c fc9c 60bd
000001a0: 54f1 1bbc 5373 9cbc e450 173c 44ee 7abd
000001b0: 1ba1 eabc 339b 09bd fb80 343d 5448 353d
000001c0: 74a8 34bd 5d79 68bd 40dd c03a 38ba e23c
000001d0: bee2 7abc c986 74bd 294c 45bb 3f17 88bd
000001e0: 878f 79bd 0df8 7bbc b680 9ebc a346 a4bb
000001f0: 94d7 1bbd 7ee0 73bc 5bd8 31bc 7106 cc3c
00000200: 05c3 bfbc 01cc f13b 7acb 1dbd 7bb5 663c
00000210: 54f8 28bc 72a4 02bd b7c3 fd3c 3cf7 ae3c
00000220: 3e8e 8abd e00e 39bd fb58 14bd e6f1 ddbc
00000230: 1fe4 99bc 764d 9c3c 2e92 bf3c acc6 85bd
00000240: 1dcc 14bd 2fb7 b2bd 534b 703c 929d 3fbd
00000250: 81e7 3e3d bc8d b7bc 4b7d dabc 0082 b13c
00000260: 67f4 04bc 2bc8 92bb 74c8 21bd 2e48 2ebd
00000270: c020 9dbd cdbf 4dbd f88c 3bbd 977b bbbc
00000280: 204b 46bd 5d4f 36bd bc46 66bd adef bb3c
00000290: 27cd c73c d868 5dbd 1b38 3fbd 0f5e 9dbb
000002a0: 12a3 df3c fd63 be3a 036c 96bd 76b5 0bbd
000002b0: 05c4 0fbd 0621 83bd cf42 81bc f4b3 2cbd
000002c0: 7d74 5fbd 8c9b aabb 395a 093d ba1b 073d
000002d0: f5e7 3bbd 8b60 0cbd 7128 0aba 9b4d 883b
000002e0: efec 0a3d bb15 93bb 4f6f c3bc 9121 28bd
000002f0: d116 f8bb 54d2 c83c 3c98 f5bd 6cb8 903c
00000300: a4ac 1dbc 4a67 bc3b 2a05 0ebd 1504 0cbd
00000310: 42fd 41bd 6aef 4dbd 15b9 2cbd 41ac 55bd
00000320: c136 7c3c 2bba 15bd 38c2 c63c 0998 b6bc
00000330: db81 57bd 8b49 2bbd 07b6 42bd 9fb5 83bc
00000340: 9b3e 75bc 4038 80bc 5595 86bd 7c7b 90bd
00000350: 09fa 85bc 7808 163d 02ac 78bd 8adf 3cbc
00000360: a7e7 43bd b901 82bc ec40 2fbc b182 843c
00000370: 50d7 9ebd f496 33bc 58d3 cfbb a543 aa3c
00000380: f7de 8a3c 5bdf 82bd 3bb2 fbbb 3826 e43c
00000390: ad82 5dbd 8310 893d b912 73bb 07ca 79bd
000003a0: 00ae ba3c 13bd 93bc bf49 dc3c 5986 e63c
000003b0: 731a 92bd 3721 61bc b9e3 4cbc 12a4 26bd
000003c0: c4c6 0ebb b00e 313c bad9 e1bc eec6 763c
000003d0: c4c2 373c 60f5 4abc 71c1 40bc 5568 c93b
000003e0: 04f4 69bd 8113 87bc e2b3 3c3c 4528 a33c
000003f0: 9871 303d 236f e93b e24a 82bb 309e dabc

conv3.bias f4 [64]
-0.033184767 -0.08949689 0.034937005 -0.10580871 0.02249414 -0.06255457 0.061833944 -0.041669253
-0.11502898 -0.0031628448 -0.093273066 0.013312982 0.02095455 -0.09963334 -0.099175796 -0.09712832
-0.088728204 -0.06826385 0.035551812 0.048754726 -0.022397114 -0.010203193 0.03993865 0.016616259
-0.09682296 -0.09498921 -0.10258804 -0.05092812 0.058860037 -0.08213463 0.01470548 -0.059868038
0.07580699 -0.083923176 -0.13857739 0.0038528931 -0.027199933 -0.05456375 -0.10670747 -0.037204858
0.004328003 -0.0021379446 0.025309267 0.022784978 -0.094281346 0.03762244 -0.057758536 0.057567455
-0.062451646 -0.090287454 -0.044618577 -0.08981658 -0.052971255 0.061638046 0.04291961 0.058814667
-0.111018494 0.022017151 0.025169572 -0.110400036 -0.0824493 0.027927788 -0.10595947 -0.087579824
00000000: c0ec 07bd 254a b7bd 1b1a 0f3d 3db2 d8bd
00000010: a145 b83c 9c1c 80bd 9745 7d3d 61ad 2abd
00000020: 5094 ebbd bb47 4fbb f305 bfbd b21e 5a3c
00000030: e0a8 ab3c 910c ccbd ae1c cbbd 36eb c6bd
00000040: 22b7 b5bd ebcd 8bbd c79e 113d 09b3 473d
00000050: 277a b7bc 4b2b 27bc b696 233d d21e 883c
00000060: 1e4b c6bd b489 c2bd ae19 d2bd 019a 50bd
00000070: 3917 713d 3336 a8bd 41ef 703c 3038 75bd
00000080: b240 9b3d eadf abbd 3be7 0dbe d280 7c3b
00000090: 65d2 debc 3d7e 5fbd 7289 dabd 1f64 18bd
000000a0: ecd1 8d3b c21c 0cbb 6155 cf3c 90a7 ba3c
000000b0: 9416 c1bd fd19 1a3d 3794 6cbd dacb 6b3d
000000c0: 4ccd 7fbd a1e8 b8bd f8c1 36bd c1f1 b7bd
000000d0: 63f8 58bd 2d78 7c3d 79cc 2f3d a6e7 703d
000000e0: aa5d e3bd 505d b43c 6b30 ce3c 6a19 e2bd
000000f0: 2edb a8bd d1c8 e43c 4701 d9bd 0d5d b3bd

conv4.weight f4 [128, 64, 3, 3]
0.032706395 -0.01558916 -0.002414844 -0.03981931 -0.02970056 0.0061246585 -0.013088323 0.04692736
-0.032640617 -0.08043305 -0.04987628 -0.08701458 0.008520803 -0.02095294 -0.007696581 -0.0058044028
-0.05388283 0.026795184 0.0012657857 -0.034393232 0.00037300022 0.027122097 0.0071586487 -0.00019543056
-0.01410523 -0.013498999 0.025322903 -0.047101993 -0.048341848 0.0320692 0.05086779 0.027426992
-0.006716042 0.014450636 -0.054676637 -0.0010464226 -0.06289844 -0.038729217 0.03609414 0.04048741
0.034393176 0.013481701 0.037485126 0.005461551 -0.04768834 0.009163688 -0.061751883 -0.062442113
-0.030177739 0.0005155366 -0.037778504 0.016295593 0.032493234 0.038732257 0.03713883 0.003786411
0.031314217 -0.04173044 -0.0019173891 0.021156741 -0.008863707 0.015457467 0.02611871 -0.022537442
-0.020658895 0.022514835 -0.023627643 -0.0024937387 0.017824262 -0.03770277 -0.038458463 -0.06251904
0.034645643 -0.041644778 -0.02711684 0.0077545433 -0.05797932 -0.021010192 -0.01841832 0.006622253
-0.025003059 0.0009637562 0.0045169615 0.006886977 -0.000506322 -0.030717785 0.049384322 -0.010228718
-0.027462145 0.03242505 0.013332574 -0.06502683 -0.050499678 -0.0068795257 0.019049577 0.012169936
-0.046031326 -0.030722942 0.03204375 0.010680692 -0.0232789 0.0071558566 -0.0017928805 0.0073238416
-0.013438118 0.041340783 -0.02922124 -0.0022025178 -0.01500256 0.007237854 -0.005780518 -0.03799832
-0.0037029493 -0.03259061 0.0031873276 -0.0038786132 0.013926942 0.002880228 -0.051941548 0.0068024946
0.01626488 0.027194045 -0.041320592 -0.0334826 0.0030579483 -0.0026062843 0.026599783 -0.027222136
-0.03617394 -0.033838823 -0.03677128 -0.027559906 -0.011600186 0.0149585735 -0.0026562787 0.032278348
-0.019515326 -0.019036608 0.019364653 -0.021668913 -0.0120712835 -0.0018986512 -0.060109816 -0.04551825
-0.030900965 -0.097755626 0.012014787 0.0030413743 -0.04980349 0.013069835 -0.027133979 0.03557669
-0.009013562 0.009901549 0.0003190517 -0.021465896 -0.02907466 -0.012463964 -0.055002406 0.014166283
0.0050535505 0.017407933 -0.0006741684 0.041629672 -0.039974693 -0.013662292 -0.008041851 -0.019446228
0.0188113 0.018578153 0.024961842 0.0009545143 -0.0021491891 0.03212395 0.028701242 0.003096763
0.033067264 -0.033103906 0.006558776 -0.014964447 -0.051649608 -0.022698212 -0.0095030395 -0.032548074
0.04318506 0.03918478 -0.022047648 -0.050255973 0.020379916 0.014781751 -0.012618481 0.04268879
-0.018130522 0.034989864 0.02539664 0.020300778 -0.022252573 0.012721851 -0.021028863 0.0037665942
-0.018287461 0.017591672 -0.022389488 0.018837089 -0.03752801 -0.03961231 -0.01190009 0.04940914
-0.0074094506 -0.032834176 -0.001973744 -0.05072302 -0.011473548 0.0040469854 0.0035732826 0.0047960402
0.0044104313 0.01462417 0.008224911 0.019793453 0.03522561 -0.016007472 -0.035730407 -0.037125386
0.029035691 0.0012031756 -0.005579131 -0.041307516 -0.039215457 -0.03123959 -0.03580602 0.02525854
-0.015954595 0.042094376 0.020112948 -0.039651163 -0.07143644 -0.033458594 -0.0031015668 -0.011474387
-0.055299334 -0.0526029 -0.025288958 -0.024183191 -0.025906447 -0.049061667 -0.02533956 0.014980081
-0.02076304 0.0019518614 0.028063554 0.050335754 0.018514836 0.0437925 -0.018134147 -0.034415524
00000000: 24f7 053d ad69 7fbc 5c42 1ebb 9319 23bd
00000010: 974e f3bc 5cb1 c83b 6870 56bc e736 403d
00000020: 2bb2 05bd 15ba a4bd 124b 4cbd b334 b2bd
00000030: d79a 0b3c 80a5 abbc 9a33 fcbb dc32 bebb
00000040: 3eb4 5cbd 9381 db3c b8e8 a53a ebdf 0cbd
00000050: 3e8f c339 292f de3c 1993 ea3b 7eec 4cb9
00000060: 9f19 67bc e82a 5dbc fa71 cf3c 05ee 40bd
00000070: 1a02 46bd fe5a 033d be5a 503d 92ae e03c
00000080: 3e12 dcbb 5cc2 6c3c 9cf4 5fbd 1e28 89ba
00000090: e6d0 80bd 87a2 1ebd 73d7 133d 20d6 253d
000000a0: dcdf 0c3d 5ae2 5c3c 018a 193d cff6 b23b
000000b0: d954 43bd 4b23 163c 8bef 7cbd 4dc3 7fbd
000000c0: 4e37 f7bc 1325 073a a2bd 1abd 567e 853c
000000d0: a017 053d b7a5 1e3d e31e 183d 6f25 783b
000000e0: 5643 003d 8aed 2abd e750 fbba e750 ad3c
000000f0: 1539 11bc 5141 7d3c e8f6 d53c 71a0 b8bc
00000100: d83c a9bc 0871 b83c c28e c1bc fe6d 23bb
00000110: 3004 923c 386e 1abd 9f86 1dbd fc09 80bd
00000120: 97e8 0d3d b793 2abd 2324 debc d319 fe3b
00000130: b97b 6dbd 911d acbc 04e2 96bc 7cff d83b
00000140: 37d3 ccbc 95a4 7c3a 0503 943b 26ac e13b
00000150: b2ba 04ba dda3 fbbc 3747 4a3d 5a96 27bc
00000160: 4bf8 e0bc 21d0 043d de70 5a3c c92c 85bd
00000170: c0d8 4ebd a56d e1bb dc0d 9c3c 6964 473c
00000180: 588b 3cbd aeae fbbc 4f40 033d 12fe 2e3c
00000190: 64b3 bebc ad7b ea3b 16ff eaba d6fc ef3b
000001a0: 8d2b 5cbc f454 293d 6261 efbc 1e58 10bb
000001b0: 4ccd 75bc 852b ed3b 806a bdbb 20a4 1bbd
000001c0: 2ead 72bb bb7d 05bd 7ce2 503b 5530 7ebb
000001d0: d42d 643c 35c2 3c3b a9c0 54bd 76e7 de3b
000001e0: ed3d 853c 0cc6 de3c c83f 29bd 0d25 09bd
000001f0: dc67 483b 32ce 2abb cae7 d93c f500 dfbc
00000200: 202b 14bd 949a 0abd 7b9d 16bd 50c5 e1bc
00000210: b50e 3ebc ce14 753c f614 2ebb 4d36 043d
00000220: 9bde 9fbc a9f2 9bbc 9fa2 9e3c 0183 b1bc
00000230: a2c6 45bc 2adc f8ba b635 76bd 5871 3abd
00000240: 0524 fdbc 1a34 c8bd abd9 443c cb51 473b
00000250: bffe 4bbd dc22 563c 1448 debc ddb8 113d
00000260: 9fad 13bc 1b3a 223c 6546 a739 3fd9 afbc
00000270: fb2d eebc a735 4cbc 344a 61bd b319 683c
00000280: 4198 a53b 159b 8e3c adba 30ba e083 2a3d
00000290: 81bc 23bd ced7 5fbc f8c1 03bc b24d 9fbc
000002a0: 281a 9a3c 3631 983c c77c cc3c 5f38 7a3a
000002b0: 69d9 0cbb 6794 033d de1e eb3c 10f3 4a3b
000002c0: 8a71 073d f697 07bd 00eb d63b 712d 75bc
000002d0: 8a8e 53bd 9af1 b9bc a3b2 1bbc 2151 05bd
000002e0: d1e2 303d 3880 203d 459d b4bc 35d9 4dbd
000002f0: c8f3 a63c 282f 723c bfbd 4ebc 71da 2e3d
00000300: 7686 94bc 8851 0f3d 9d0c d03c d14d a63c
00000310: 074b b6bc 4f6f 503c b944 acbc f7d8 763b
00000320: 96cf 95bc 691c 903c 296a b7bc 3d50 9a3c
00000330: f8b6 19bd 8440 22bd 98f8 42bc 3d61 4a3d
00000340: faca f2bb 217d 06bd ee59 01bb f1c2 4fbd
00000350: 8cfb 3bbc 939c 843b bc2d 6a3b 1a28 9d3b
00000360: 6185 903b 379a 6f3c c7c1 063c e125 a23c
00000370: bb48 103d 1a22 83bc 0c5a 12bd ca10 18bd
00000380: 42dc ed3c e0b3 9d3a 25d1 b6bb 1232 29bd
00000390: 63a0 20bd 2bea ffbc 55a9 12bd ffea ce3c
000003a0: 36b3 82bc 276b 2c3d e9c3 a43c 4269 22bd
000003b0: 454d 92bd e10b 09bd a843 4bbb 11ff 3bbc
000003c0: 8e81 62bd 2376 57bd ca2a cfbc d41b c6bc
000003d0: c239 d4bc e3f4 48bd e994 cfbc 036f 753c
000003e0: 4017 aabc 9ad5 ff3a 8ae5 e53c dd2c 4e3d
000003f0: 6dac 973c c45f 333d 108e 94bc 4bf7 0cbd

conv4.bias f4 [128]
0.05130292 0.039734125 -0.01320014 0.026431683 -0.0303818 -0.0049935 0.0019031942 0.042033285
0.065861806 -0.043628935 0.02761363 -0.014892818 0.06330727 -0.050135784 0.045795105 -0.040270746
0.06383955 -0.028793387 0.031124048 -0.014842094 0.05865857 -0.019834876 -0.060251016 0.026232606
-0.04212661 -0.007939561 -0.054430615 0.023566982 -0.04005713 0.0305147 -0.05852768 -0.031805594
-0.035582535 0.048661083 -0.063472494 0.006951443 -0.043096047 0.06882604 -0.06375246 -0.0095018735
-0.014692745 -0.015550963 -0.020619696 -0.018790212 -0.051165942 -0.07392901 -0.05477068 0.034370445
0.033314794 -0.059752606 -0.032062255 -0.03607932 0.029592842 -0.021042062 0.04065597 -0.044880535
0.042071037 0.07616029 0.07907412 0.00890662 0.00944079 -0.050413564 -0.057495862 -0.043796465
-0.03566434 -0.024145357 -0.06259995 0.047706753 0.068825155 0.036886886 -0.0683956 -0.07363817
-0.057064705 0.04204979 -0.042167474 -0.07084892 -0.055609215 -0.033670496 0.0002881171 0.037728425
0.02855423 0.003413612 -0.06441353 -0.030753694 -0.006802803 -0.061714254 0.006371679 0.018055832
0.049017932 -0.056789063 -0.035457294 0.03775311 -0.034783512 0.012968189 0.018433332 -0.05856492
-0.06911298 0.015833404 0.03713041 -0.030664524 0.015445933 0.019724602 0.036198735 0.027690604
-0.034514517 0.086607106 0.071882956 -0.020094179 -0.06285392 -0.038442794 0.015292474 -0.060022447
0.07251575 0.038246736 9.763243e-06 0.027479496 -0.0115989065 0.017447263 -0.059590112 0.048452735
-0.0152008105 0.01420008 0.015754243 0.018251328 0.11502425 -0.03250044 -0.03512465 -0.015099814
00000000: 0323 523d 40c0 223d 6645 58bc 4287 d83c
00000010: 41e3 f8bc 84a0 a3bb 9a74 f93a 182b 2c3d
00000020: 8ee2 863d 41b4 32bd fb35 e23c 0201 74bc
00000030: 3ea7 813d 2e5b 4dbd a693 3b3d f0f2 24bd
00000040: 4fbe 823d 1ce0 ebbc dcf7 fe3c 412c 73bc
00000050: f843 703d c07c a2bc c5c9 76bd c3e5 d63c
00000060: f48c 2cbd ef14 02bc a3f2 5ebd 8b0f c13c
00000070: f212 24bd f7f9 f93c b8ba 6fbd 9546 02bd
00000080: febe 11bd d850 473d defd 81bd eec8 e33b
00000090: 7b85 30bd abf4 8c3d a690 82bd bfad 1bbc
000000a0: d7b9 70bc 77c9 7ebc a3ea a8bc eeed 99bc
000000b0: 6193 51bd 1868 97bd 3857 60bd 06c8 0c3d
000000c0: 1875 083d 26bf 74bd b653 03bd e9c7 13bd
000000d0: b06c f23c 6760 acbc e086 263d a7d4 37bd
000000e0: ae52 2c3d edf9 9b3d 9df1 a13d 12ed 113c
000000f0: 8bad 1a3c 747e 4ebd c880 6bbd ec63 33bd
00000100: c514 12bd 7ccc c5bc 6734 80bd 2868 433d
00000110: 34f4 8c3d b416 173d fe12 8cbd 9ccf 96bd
00000120: aebc 69bd 673c 2c3d cdb7 2cbd 3d19 91bd
00000130: 7dc6 63bd 13ea 09bd 6c0e 9739 1f89 1a3d
00000140: 90ea e93c e8b6 5f3b 3eeb 83bd 2cef fbbc
00000150: 0cea debb 16c8 7cbd 84c9 d03b d3e9 933c
00000160: 07c7 483d a69b 68bd ab3b 11bd 01a3 1a3d
00000170: 2879 0ebd 8778 543c 8001 973c c5e1 6fbd
00000180: 1b8b 8dbd 0eb5 813c 0f16 183d 2b34 fbbc
00000190: f010 7d3c 7d95 a13c 2045 143d 68d7 e23c
000001a0: 185f 0dbd 115f b13d 5f37 933d 8c9c a4bc
000001b0: 8eb9 80bd 3176 1dbd 498d 7a3c 19da 75bd
000001c0: 2383 943d 9ca8 1c3d cfcc 2337 ae1c e13c
000001d0: 5709 3ebc 90ed 8e3c c314 74bd 6076 463d
000001e0: d20c 79bc 74a7 683c 0b0f 813c cf83 953c
000001f0: d591 eb3d 2e1f 05bd ddde 0fbd 3665 77bc

conv1T.weight f4 [128, 64, 3, 3]
-0.012916218 0.032090176 0.09170411 0.03392702 0.15496592 0.17297411 0.053174786 0.06457388
0.089560494 0.032674033 0.11442704 0.13229318 0.044429835 0.11539594 0.06405762 0.0759955
0.0950146 0.1297513 0.09394622 0.08612968 0.020626854 0.06149091 0.118514344 0.14965251
0.020736111 0.10214492 0.09683981 0.08256042 0.07973485 0.10733766 0.06427749 0.098592065
0.08871643 0.04166714 0.05925816 0.031053724 -0.08687814 0.04455849 -0.03601188 0.06628367
0.20299168 0.16028093 0.04064064 0.05793736 0.073079534 0.058424328 0.019633558 0.022909384
0.07738316 0.13296025 0.15067817 0.04640204 0.054962568 0.079459615 0.052165758 0.046978865
0.06716095 0.08705576 0.1136477 0.13235657 0.022605421 0.10944155 0.08328436 0.14195153
0.15751806 0.22683164 0.06810353 0.027966503 0.039005544 0.18525387 0.133694 0.16127281
0.06086975 0.080235876 0.08541466 0.05083326 0.1313238 0.0783326 0.074467786 0.07065624
0.042127196 0.025987623 0.0991147 0.10652468 0.08044785 0.13351625 0.15079975 0.037325833
0.11846596 0.07266212 0.055484872 0.18264432 0.16283655 0.14878383 0.13549922 0.14916825
0.10541152 0.21231277 0.1352596 -0.0104432115 0.058349818 0.03887946 0.142877 0.19941635
0.1823636 0.051604725 0.08821423 0.08447892 0.10710811 0.13258308 0.09900291 0.015448971
0.06397711 0.08882709 0.082648605 0.11707607 0.120497085 0.04052503 0.0022863124 0.025414573
0.0102161635 0.047557388 0.06903148 0.017449096 0.023035856 -0.008253984 0.029601354 0.06220021
0.06314523 0.013597343 0.06501231 0.117807895 0.119817995 0.09205649 0.09490332 0.120573446
0.002805877 0.03627412 0.003946623 -0.013665658 0.017823227 -0.023335638 -0.045188714 -0.04016368
0.068439424 0.11011158 0.07134894 0.025172135 0.12310847 0.07004259 0.0664099 0.049431965
0.09851425 0.06755949 0.12056714 0.052089516 0.09960678 0.03842308 0.09586925 0.07095141
0.09800327 0.13126792 0.04513071 0.13079388 0.081588425 0.002409404 0.061396968 0.085647486
0.07397312 0.05702226 0.113487005 0.08945843 0.14094394 0.043057244 0.028497988 0.1012508
0.080075875 0.059852846 0.08599502 0.065841086 0.050194893 0.08273248 0.08351277 0.031081464
0.1365955 0.1230202 0.07620691 0.10792745 0.08498396 0.017313397 0.08964229 0.02453453
0.03515589 0.102870494 0.07256669 0.010051714 0.06847474 0.045870632 0.054755576 0.10704114
0.09776228 0.050980434 0.07956096 0.09347113 0.06524556 0.0789175 0.068910874 0.032879993
0.065196805 0.039820127 0.026056571 0.11298149 0.12924416 0.054647014 0.11666783 0.116889045
0.011088705 0.14156824 0.04926632 0.11408421 0.17803888 0.18725026 -0.008040177 0.055400047
0.02843169 0.10422054 0.12753418 0.06581674 0.06003634 0.15401313 0.06230178 0.10529243
0.119207986 0.1272192 0.011292465 0.07346228 0.084228195 0.11127079 0.18451436 0.0880875
0.027001278 0.133938 0.068445385 0.073639356 0.09393364 0.112079754 0.07065942 0.1486854
0.13944983 0.05479676 0.06792905 0.093625635 -0.021767935 0.08743794 0.1119187 0.0912343
00000000: 8b9e 53bc fd70 033d 5dcf bb3d 0ff7 0a3d
00000010: 63af 1e3e 2020 313e cecd 593d 4f3f 843d
00000020: 7e6b b73d 35d5 053d b958 ea3d dd77 073e
00000030: 0ffc 353d b554 ec3d a430 833d 87a3 9b3d
00000040: 0497 c23d 86dd 043e e066 c03d c264 b03d
00000050: a6f9 a83c e4dd 7b3d a6b7 f23d 823e 193e
00000060: c7de a93c 5b31 d13d f353 c63d 7015 a93d
00000070: 064c a33d d9d3 db3d eba3 833d a3ea c93d
00000080: f6b0 b53d 2aab 2a3d afb8 723d 6164 fe3c
00000090: 2bed b1bd f782 363d 3181 13bd bcbf 873d
000000a0: 0ddd 4f3e af20 243e cd76 263d ba4f 6d3d
000000b0: b9aa 953d 594e 6f3d 8ed6 a03c 76ac bb3c
000000c0: 107b 9e3d bb26 083e 614b 1a3e 1110 3e3d
000000d0: 6e20 613d b9bb a23d c3ab 553d e96c 403d
000000e0: ae8b 893d 4a4a b23d 20c0 e83d 7b88 073e
000000f0: 012f b93c e422 e03d fe90 aa3d be5b 113e
00000100: 6a4c 213e 8e46 683e dd79 8b3d 021a e53c
00000110: 47c4 1f3d 31b3 3d3e 14e7 083e b324 253e
00000120: 8f52 793d b552 a43d e2ed ae3d 8936 503d
00000130: bf79 063e d86c a03d 9182 983d 38b4 903d
00000140: 918d 2c3d ffe3 d43c a6fc ca3d 9d29 da3d
00000150: d8c1 a43d 7cb8 083e 406b 1a3e f9e2 183d
00000160: 489e f23d e1cf 943d 1b44 633d 1d07 3b3e
00000170: a0be 263e ca5a 183e 4fc0 0a3e 90bf 183e
00000180: ffe1 d73d 8568 593e 7e81 0a3e 011a 2bbc
00000190: 3800 6f3d 1240 1f3d 594e 123e cd33 4c3e
000001a0: 86bd 3a3e 7a5f 533d aaa9 b43d 4903 ad3d
000001b0: 7f5b db3d dcc3 073e 0ac2 ca3d ae1d 7d3c
000001c0: 6e06 833d faea b53d ac43 a93d 94c5 ef3d
000001d0: 2dc7 f63d 93fd 253d f5d5 153b 3932 d03c
000001e0: b261 273c 89cb 423d 6060 8d3d 68f1 8e3c
000001f0: b1b5 bc3c b83b 07bc 8a7e f23c a6c5 7e3d
00000200: 4952 813d 64c7 5e3c 2d25 853d 4445 f13d
00000210: 2363 f53d 1d88 bc3d ac5c c23d 36ef f63d
00000220: cee2 373b 2c94 143d ac52 813b ede5 5fbc
00000230: 0402 923c 612a bfbc cd17 39bd ac82 24bd
00000240: f829 8c3d 2e82 e13d 651f 923d cb35 ce3c
00000250: 4b20 fc3d 7d72 8f3d ea01 883d 2c79 4a3d
00000260: d7c1 c93d a15c 8a3d e8eb f63d d15b 553d
00000270: a4fe cb3d 8561 1d3d 1957 c43d f94e 913d
00000280: f0b5 c83d 196b 063e fbda 383d d5ee 053e
00000290: d517 a73d 17e7 1d3b 637b 7b3d f367 af3d
000002a0: 387f 973d 2c90 693d e06b e83d fb35 b73d
000002b0: 9c53 103e cb5c 303d 9d74 e93c 945c cf3d
000002c0: d2fe a33d 4228 753d 281e b03d b1d7 863d
000002d0: 2999 4d3d a56f a93d be08 ab3d 8e9e fe3c
000002e0: b1df 0b3e 04f2 fb3d 5e12 9c3d 1109 dd3d
000002f0: 120c ae3d d3d4 8d3c 6096 b73d a3fc c83c
00000300: 9fff 0f3d c4ad d23d d89d 943d f2af 243c
00000310: 7c3c 8c3d d8e2 3b3d 6247 603d 6338 db3d
00000320: 9737 c83d dcd0 503d dbf0 a23d cb6d bf3d
00000330: 779f 853d 809f a13d 2521 8d3d 2cad 063d
00000340: e785 853d 6e1a 233d 9774 d53c d762 e73d
00000350: 9558 043e 8cd5 5f3d 8bef ee3d 8663 ef3d
00000360: 66ad 353c 44f7 103e 7bcb 493d fba4 e93d
00000370: d34f 363e 88be 3f3e f2ba 03bc 29eb 623d
00000380: 93e9 e83c 9471 d53d 5298 023e edca 863d
00000390: aae8 753d 9eb5 1d3e 2730 7f3d 8fa3 d73d
000003a0: 5123 f43d c045 023e 0804 393c 6473 963d
000003b0: d57f ac3d f1e1 e33d 55f1 3c3e 3867 b43d
000003c0: c931 dd3c 0b27 093e 182d 8c3d 3bd0 963d
000003d0: 4860 c03d 128a e53d e3b5 903d fc40 183e
000003e0: f0cb 0e3e 9172 603d 631e 8b3d ccbe bf3d
000003f0: ab52 b2bc aa12 b33d a235 e53d 0cd9 ba3d

conv1T.bias f4 [64]
0.076303825 0.038153794 0.06028173 0.03022778 0.04520299 0.0613009 0.008712495 0.14172241
0.037291534 0.02813213 0.17838739 0.02007292 0.054624528 0.052725613 0.08090808 0.043781932
0.045236252 0.04865335 0.073301755 0.05578447 0.00082927226 -0.0074073216 0.023728058 0.01167127
0.046296082 0.057196952 0.03850319 0.011849893 0.025735326 0.10575817 0.018748978 0.066956766
0.050479103 0.09631078 0.039952666 0.021611221 0.054379806 0.16786277 0.07749547 0.043904327
0.009798248 0.05613448 0.029550198 0.05630185 0.0833057 0.0980267 0.08819776 0.07760672
0.011817775 0.082063265 0.066214226 0.14286254 0.066174194 0.06821997 0.031692598 0.08054692
0.050406348 0.0073763537 0.06132797 0.06161286 0.07440818 0.041556753 0.060540337 0.011825623
00000000: 2e45 9c3d 2747 1c3d fae9 763d 40a0 f73c
00000010: c526 393d a716 7b3d dabe 0e3c ae1f 113e
00000020: 02bf 183d 5a75 e63c 2fab 363e f76f a43c
00000030: f8bd 5f3d d0f6 573d 23b3 a53d af54 333d
00000040: a649 393d bc48 473d 3b1f 963d 427e 643d
00000050: 8563 593a 1eb9 f2bb 5861 c23c db38 3f3c
00000060: f6a0 3d3d 5a47 6a3d 85b5 1d3d 0e26 423c
00000070: e4d2 d23c bd97 d83d 7597 993c a120 893d
00000080: 2dc3 4e3d 963e c53d 68a5 233d 040a b13c
00000090: 5cbd 5e3d 38e4 2b3e f2b5 9e3d 06d5 333d
000000a0: d588 203c 45ed 653d 4213 f23c c59c 663d
000000b0: 2e9c aa3d 39c2 c83d 07a1 b43d 46f0 9e3d
000000c0: 579f 413c c910 a83d 539b 873d 8f4a 123e
000000d0: 5686 873d e9b6 8b3d 19d0 013d c9f5 a43d
000000e0: e376 4e3d 57b5 f13b 0a33 7b3d c45d 7c3d
000000f0: 5163 983d 6a37 2a3d 25f9 773d 42c0 413c

conv2T.weight f4 [64, 32, 3, 3]
0.11555583 -0.022007937 0.10813483 0.048077717 0.0010445106 0.023532666 0.05567256 0.09589517
0.0067868023 0.11643411 0.017663088 0.12144179 -0.022535522 -0.016865963 0.030134423 0.18474327
0.05737678 0.07372315 0.0030795273 0.068384595 0.038353097 0.025828272 0.056049976 0.05158454
-0.045853674 -0.03517002 0.04874481 -0.006174036 0.061269615 0.013756608 0.026669044 0.10023802
0.077267915 -0.06303371 -0.028726136 0.0688036 0.058646806 0.056084353 0.11636044 0.07769055
0.067425825 -0.03194592 0.1444442 0.11947181 0.0714849 0.028856795 0.04695742 0.11595218
0.05195494 0.03269674 0.065984674 0.13843927 0.045313597 0.053329803 0.01346979 0.030101668
0.16451998 0.02296606 -0.00326837 0.04531891 0.2223712 0.09252008 0.07673251 0.037053403
0.120087214 -0.031914607 -0.0047550015 0.06817116 0.024627024 -0.031812154 -0.033924628 0.026232313
0.040610444 0.03557953 0.0068431394 -0.022840967 0.04545094 0.013030086 -0.044856597 0.038068485
0.036936674 0.0957656 0.099808946 0.06740287 0.16246833 0.09987912 0.12882957 0.10964225
0.19848637 0.051948402 0.027141307 -0.02873754 0.10143703 0.058733087 -0.029469155 0.03470922
0.07725848 0.068269156 0.018762328 0.32390502 0.16558364 0.018865364 0.07345109 -0.019974
0.039516676 0.20712179 0.14411533 -0.024129536 0.10836288 0.08318541 0.15241593 0.2105158
0.18406682 0.13622178 0.060663976 0.10085673 0.040440764 0.10004599 -0.02251117 0.07238054
0.099490985 0.0586057 0.023480756 0.048059072 0.06750587 0.05932035 0.023291687 0.02195011
0.05148285 0.07776984 0.06874229 -0.0121605955 0.11930041 0.1051205 0.050200764 0.034856223
0.088601 -0.0016772954 -0.021041736 -0.024716886 0.03903783 -0.031567626 0.021238007 0.012932488
0.018521983 0.109867595 -0.0036862355 -0.0073844185 0.054984633 0.019302825 -0.051913664 0.023247035
0.017792303 0.08465955 0.013119797 0.11040298 0.048591994 0.07542005 0.12466089 0.15045851
0.1761494 0.026888896 0.123356566 0.14118353 0.1359773 0.1180308 0.20239191 0.15627427
0.045772493 0.15452716 -0.030305507 0.13352884 0.019376399 0.11342608 0.08953429 -0.019610908
-0.030218309 0.13029902 0.09743284 0.078275084 0.07990733 0.044563573 0.06662612 0.13679278
0.15076411 0.051113516 0.08892346 0.16784887 0.08327359 0.06030922 0.018871913 0.104724646
-0.0033099009 0.048149135 0.0072145015 0.06628784 0.07004374 0.02504436 0.079722576 0.29775518
0.3343282 0.26751602 0.25491926 0.17816398 0.044654854 -0.018132506 -0.0007067201 0.035507202
0.081380464 0.02766356 0.21456176 0.1299287 0.11474962 -0.03666456 0.1698463 0.0728476
0.15646718 0.14293475 0.13346949 0.030567259 -0.020203697 0.017059982 0.16028291 0.12351984
0.050292764 0.09803431 -0.01731527 0.02907284 0.06502644 0.055904496 0.072583236 0.10817066
0.06490429 -0.041791517 0.049728774 0.065207 0.12424098 0.1769261 0.1470771 0.083514296
0.052605182 0.103061676 0.018908978 0.102878846 -0.010278799 0.11068119 0.05584072 0.01547918
0.032086696 0.07078869 0.09093034 0.011039608 0.08644595 0.021105986 -0.005007028 0.06206346
00000000: 89a8 ec3d fd49 b4bc cb75 dd3d 24ed 443d
00000010: f6e7 883a 94c7 c03c e908 643d b064 c43d
00000020: d363 de3b 0275 ee3d 2eb2 903c 79b6 f83d
00000030: 6a9c b8bc 7d2a 8abc 77dc f63c 572d 3d3e
00000040: ea03 6b3d 2afc 963d e5d1 493b 390d 8c3d
00000050: 2318 1d3d d095 d33c a994 653d 504a 533d
00000060: 10d1 3bbd 700e 10bd a3a8 473d 914f cabb
00000070: d9f5 7a3d 6563 613c 0a79 da3c 9749 cd3d
00000080: a43e 9e3d d117 81bd 1353 ebbc e7e8 8c3d
00000090: a237 703d b5b8 653d 624e ee3d 391c 9f3d
000000a0: 8d16 8a3d bad9 02bd 2ee9 133e a3ad f43d
000000b0: ad66 923d 1665 ec3c 6c56 403d 5678 ed3d
000000c0: b4ce 543d 04ed 053d f922 873d 06c3 0d3e
000000d0: c09a 393d 5a70 5a3d 65b0 5c3c c697 f63c
000000e0: ed77 283e 5223 bc3c 2632 56bb 52a0 393d
000000f0: 47b5 633e 2b7b bd3d ef25 9d3d 4fc5 173d
00000100: 49f0 f53d e4b8 02bd d8cf 9bbb 529d 8b3d
00000110: 9dbe c93c 764d 02bd 8df4 0abd 26e5 d63c
00000120: 2357 263d d7bb 113d 6a3c e03b fb1c bbbc
00000130: c42a 3a3d 247c 553c 8dbb 37bd b3ed 1b3d
00000140: e94a 173d c120 c43d a268 cc3d 840a 8a3d
00000150: 195e 263e 6d8d cc3d e6eb 033e 1e8c e03d
00000160: 0340 4b3e d9c7 543d 7257 de3c fd6a ebbc
00000170: 38be cf3d 1b92 703d 4c69 f1bc 412b 0e3d
00000180: b239 9e3d b3d0 8b3d 74b3 993c e1d6 a53e
00000190: c28e 293e 898b 9a3c 866d 963d 84a0 a3bc
000001a0: 3ddc 213d bc17 543e f892 133e 4eab c5bc
000001b0: 5ced dd3d 1d5d aa3d ec12 1c3e 7491 573e
000001c0: 037c 3c3e b97d 0b3e ca7a 783d f98d ce3d
000001d0: 37a5 253d e9e4 cc3d 5869 b8bc 403c 943d
000001e0: eec1 cb3d 880c 703d b75a c03c 97d9 443d
000001f0: 8440 8a3d e5f9 723d 35ce be3c b8d0 b33c
00000200: aedf 523d cb45 9f3d c2c8 8c3d 3c3d 47bc
00000210: c653 f43d 6b49 d73d 519f 4d3d 66c5 0e3d
00000220: 7174 b53d b2d8 dbba b85f acbc 117b cabc
00000230: 22e6 1f3d 0e4d 01bd 54fb ad3c c9e2 533c
00000240: 6abb 973c 4302 e13d c594 71bb fef8 f1bb
00000250: 9137 613d f520 9e3c 6ca3 54bd 9170 be3c
00000260: 2ac1 913c fc61 ad3d 6bf4 563c f51a e23d
00000270: 6608 473d d475 9a3d 354e ff3d cc11 1a3e
00000280: 8260 343e 1a46 dc3c 5ea2 fc3d 6a92 103e
00000290: a23d 0b3e 22ba f13d d33f 4f3e 5d06 203e
000002a0: f07b 3b3d 5e3c 1e3e 4143 f8bc c9bb 083e
000002b0: 41bb 9e3c ef4b e83d c15d b73d 0ea7 a0bc
000002c0: 638c f7bc 1b6d 053e de8a c73d b04e a03d
000002d0: 74a6 a33d 4b88 363d 4673 883d 6813 0c3e
000002e0: e861 1a3e 685c 513d 811d b63d 93e0 2b3e
000002f0: 588b aa3d cd06 773d 4599 9a3c e079 d63d
00000300: ecea 58bb 0738 453d a067 ec3b ebc1 873d
00000310: 1873 8f3d d429 cd3c 9745 a33d 5e73 983e
00000320: 112d ab3e dcf7 883e c784 823e 9e70 363e
00000330: 02e8 363d 9f8a 94bc 2f43 39ba 0070 113d
00000340: cdaa a63d b19e e23c 14b6 5b3e 070c 053e
00000350: d901 eb3d 942d 16bd 30ec 2d3e 1f31 953d
00000360: ef38 203e 7d5d 123e 3aac 083e 3068 fa3c
00000370: 3982 a5bc 60c1 8b3c 3421 243e f8f7 fc3d
00000380: c9ff 4d3d 36c6 c83d c1d8 8dbc 2a2a ee3c
00000390: 952c 853d 1dfc 643d 85a6 943d 9488 dd3d
000003a0: 8aec 843d 952d 2bbd 66b0 4b3d 3f8b 853d
000003b0: 0e72 fe3d 1e2c 353e 619b 163e 8b09 ab3d
000003c0: 8878 573d 0012 d33d 00e7 9a3c 25b2 d23d
000003d0: 6868 28bc d2ac e23d 3db9 643d 639c 7d3c
000003e0: 576d 033d a9f9 903d b039 ba3d 79df 343c
000003f0: 930a b13d 76e6 ac3c ff11 a4bb 4136 7e3d

conv2T.bias f4 [32]
-0.029189955 0.015212556 0.069398 0.059928946 -0.004782418 0.032327566 0.065689616 0.037669644
0.0337833 0.109315306 -0.058588468 -0.08520205 0.046742912 -0.030686934 0.009195884 0.09384859
0.10062905 0.09051545 0.0997166 -0.0014603958 0.027856175 0.016121458 0.0031704493 0.0067256237
0.018902892 0.036799256 0.034214165 -0.057835177 -0.039971516 -0.028638942 0.08574695 0.0014934129
00000000: c61f efbc 163e 793c 8a20 8e3d 0e78 753d
00000010: d4b5 9cbb e969 043d 4788 863d 7c4b 1a3d
00000020: 5c60 0a3d b4e0 df3d 76fa 6fbd 6a7e aebd
00000030: 7f75 3f3d 2a63 fbbc 55aa 163c b133 c03d
00000040: 9a16 ce3d 2a60 b93d 3738 cc3d c06a bfba
00000050: a232 e43c 2611 843c 50c7 4f3b 9f62 dc3b
00000060: 3dda 9a3c d1ba 163d 2724 0c3d 94e4 6cbd
00000070: 2cb9 23bd 379c eabc 199c af3d 9fbe c33a

conv3T.weight f4 [32, 16, 3, 3]
-0.020802068 -0.0193434 0.108404055 -0.014882105 0.1416416 0.10240812 0.047589183 0.026729517
-0.037629463 -0.009337074 0.058106434 0.05533136 0.068666436 0.09509475 0.055338535 -0.005228228
0.07272818 0.028060284 0.007384011 -0.007151622 0.15106991 0.08527622 0.032169666 -0.02670152
-0.042421088 0.055799052 -0.012273664 0.04449064 -1.1811665e-07 0.08920755 -0.04052506 0.111335136
0.0137767205 0.0117910085 0.015424903 0.01806175 0.019957187 0.07934926 0.07557121 0.030694494
0.069177754 0.09053607 0.0073576686 0.133231 0.07450926 -0.018414246 0.07036374 -0.029151492
0.020823533 -0.025139555 0.09125483 -0.06259675 -0.09649718 -0.15556361 -0.06761023 -0.08089378
-0.25371608 0.0136691425 0.07770552 0.029042106 -0.20069672 -0.10995987 -0.17074634 -0.003581595
0.05795663 -0.15658447 0.064477354 0.06652159 0.12880716 -0.043719858 -0.04460333 -0.13974477
0.12686771 0.08084684 0.28055328 0.007749476 0.17104372 -0.0055550695 0.07472896 0.09284147
0.018849382 0.08925381 0.046405487 0.009237425 0.037389155 0.044104867 0.057946175 -0.100287095
-0.01578675 -0.059748355 0.036657214 0.007877562 -0.047995765 -0.025996039 0.07658851 0.07779535
-0.113292985 -0.058548618 -0.014679796 0.042088483 0.08117747 0.05229207 0.116356 0.16393344
0.0066614104 0.0033561173 -0.034409717 0.0038673128 0.09928192 0.11968467 -0.23830606 0.11878004
0.068526156 0.042977884 0.10038204 0.16103071 0.07184314 0.024778616 0.023697177 0.10645
-0.14764643 -0.06715826 -0.21459994 0.033438105 0.0035658022 0.024339132 0.16103275 0.17287557
0.10719829 0.08973987 0.1920094 -0.056509767 0.08270282 0.07098081 0.06763432 0.034660365
0.047675975 0.11940721 0.02832415 0.062626936 0.028478494 0.09339367 0.09213085 0.018275993
0.094223164 0.14711751 0.09813325 -0.00051721616 0.058431204 0.011589835 0.042834405 -0.02966465
-0.048844013 0.07570336 0.12164255 0.14797528 0.025155628 0.06664566 -0.0006287539 -0.0030830728
-0.06913814 0.008160392 0.03670019 0.052562997 0.10506628 0.07526178 0.062360533 0.11393537
-0.035610307 0.018046917 -0.024335425 -0.047632203 0.119834185 0.12765032 0.010957628 0.09284226
0.074829295 -0.035353098 -0.0128365485 -0.09974036 -0.005491929 0.112510264 0.074743725 0.106701344
0.032100435 0.082423724 -0.062558524 -0.07317791 0.0068829875 0.002754218 0.02461291 0.016754668
-0.0346579 0.085050285 -0.036295924 0.0067873383 -0.06807179 0.0041769743 0.08838241 0.17333893
0.22409226 -0.04244096 -0.08551592 -0.10352667 -0.040512264 -0.1448372 -0.2182372 -0.03767926
0.0205214 -0.0070781196 0.012884556 0.010948961 0.03513465 -0.09815653 -0.07852778 -0.10137331
-0.100841716 -0.060165595 -0.051901333 0.18147588 0.13209067 0.07631207 0.014765807 0.06289782
-0.014277245 -0.02397006 0.05332387 -0.038027734 0.03860601 0.026982881 0.001386646 0.13024116
0.013384626 -0.05866364 0.12468798 0.16678679 0.14595015 0.047326043 0.022320582 -0.045875996
-0.053990453 -0.07434111 -0.06274682 0.043592792 0.18924487 0.181688 -0.029163223 0.08524691
0.17034408 0.05389338 0.019450055 -0.026394507 0.016633965 0.1352291 0.1863777 -0.029425716
00000000: 1969 aabc 0d76 9ebc f202 de3d 13d4 73bc
00000010: 7f0a 113e 59bb d13d e0ec 423d dcf7 da3c
00000020: 5a21 1abd 87fa 18bc 0301 6e3d 23a3 623d
00000030: fda0 8c3d 09c1 c23d a9aa 623d 8e51 abbb
00000040: 83f2 943d aede e53c 93f5 f13b 2758 eabb
00000050: 12b2 1a3e 4da5 ae3d 57c4 033d 25bd dabc
00000060: bcc1 2dbd 8c8d 643d 7a17 49bc d13b 363d
00000070: 51a7 fdb3 73b2 b63d 9bfd 25bd ad03 e43d
00000080: c1b7 613c 132f 413c bbb8 7c3c 3cf6 933c
00000090: 417d a33c dd81 a23d 14c5 9a3d 0573 fb3c
000000a0: 11ad 8d3d fa6a b93d 9918 f13b b56d 083e
000000b0: 5098 983d 79d9 96bc dd1a 903d 1ccf eebc
000000c0: 1d96 aa3c 78f1 cdbc d0e3 ba3d ba32 80bd
000000d0: 50a0 c5bd 114c 1fbe 3b77 8abd a3ab a5bd
000000e0: 13e7 81be 8af4 5f3c 1224 9f3d b6e9 ed3c
000000f0: 7183 4dbe a432 e1bd 21d8 2ebe 31b9 6abb
00000100: ee63 6d3d ae57 20be b40c 843d 793c 883d
00000110: 06e6 033e 9813 33bd fbb1 36bd 4119 0fbe
00000120: 9ce9 013e 0793 a53d aea4 8f3e 51ef fd3b
00000130: 1626 2f3e 4d07 b6bb 7f0b 993d ab23 be3d
00000140: 056a 9a3c b4ca b63d ae13 3e3d 9258 173c
00000150: 5f25 193d 4ea7 343d f858 6d3d 5263 cdbd
00000160: 3753 81bc b1ba 74bd e025 163d e410 013c
00000170: 3597 44bd a5f5 d4bc 70da 9c3d 2b53 9f3d
00000180: 2706 e8bd add0 6fbd 8783 70bc f964 2c3d
00000190: 6040 a63d 3630 563d 0e4c ee3d 2bde 273e
000001a0: f647 da3b 4ef2 5b3b 34f1 0cbd be72 7d3b
000001b0: 5254 cb3d 3c1d f53d 8106 74be f342 f33d
000001c0: 7157 8c3d 9409 303d 1995 cd3d 3ce5 243e
000001d0: 7f22 933d 86fc ca3c 9520 c23c 7502 da3d
000001e0: a030 17be 458a 89bd 16c0 5bbe 65f6 083d
000001f0: 3cb0 693b dc62 c73c c5e5 243e 4b06 313e
00000200: c78a db3d 89c9 b73d 1d9e 443e c976 67bd
00000210: 1960 a93d 635e 913d dd83 8a3d 07f8 0d3d
00000220: e247 433d c48b f43d 0c08 e83c 8d42 803d
00000230: bb4b e93c 2e45 bf3d 19af bc3d 89b7 953c
00000240: 13f8 c03d f9a5 163e 16fa c83d ca95 07ba
00000250: 8f55 6f3d 4be3 3d3c 2173 2f3d 4803 f3bc
00000260: a910 48bd 5d0a 9b3d bb1f f93d d586 173e
00000270: 2d13 ce3c 857d 883d f6d2 24ba 610d 4abb
00000280: 4c98 8dbd 2ab3 053c f052 163d 4c4c 573d
00000290: fd2c d73d d922 9a3d c26d 7f3d f356 e93d
000002a0: 1ddc 11bd 21d7 933c 165b c7bc fc19 43bd
000002b0: a06b f53d c4b6 023e 9f87 333c 1524 be3d
000002c0: 1a40 993d 69ce 10bd 6350 52bc ad44 ccbd
000002d0: a4f5 b3bb c86b e63d 3d13 993d 3c86 da3d
000002e0: bf7b 033d c5cd a83d af1e 80bd 4dde 95bd
000002f0: af8a e13b 1c80 343b 03a1 c93c 1641 893c
00000300: 71f5 0dbd d82e ae3d 09ab 14bd 5268 de3b
00000310: 3969 8bbd 00df 883b d601 b53d c37f 313e
00000320: 7178 653e 92d6 2dbd f822 afbd ca05 d4bd
00000330: 30f0 25bd 3450 14be 9379 5fbe 9155 1abd
00000340: 7f1c a83c 92ef e7bb bf19 533c 4563 333c
00000350: 5ae9 0f3d 4a06 c9bd 2cd3 a0bd cf9c cfbd
00000360: 1a86 cebd 3370 76bd 7e96 54bd d0d4 393e
00000370: c742 073e 8149 9c3d 49ec 713c 92d0 803d
00000380: 1beb 69bc dc5c c4bc 216a 5a3d f8c2 1bbd
00000390: 5621 1e3d 340b dd3c 1ec0 b53a f05d 053e
000003a0: 314b 5b3c 4949 70bd 695c ff3d 28ca 2a3e
000003b0: f573 153e f4d8 413d a7d9 b63c 78e8 3bbd
000003c0: 1825 5dbd 2740 98bd 6881 80bd 5b8e 323d
000003d0: 68c9 413e 6b0c 3a3e b6e7 eebc ef95 ae3d
000003e0: ae6e 2e3e 4ebf 5c3d b955 9f3c 4b39 d8bc
000003f0: f443 883c 7f79 0a3e ccd9 3e3e 330e f1bc

conv3T.bias f4 [16]
0.043524373 0.028144298 0.07821988 -0.013320695 -0.06483909 0.30212557 -0.009984576 0.20235492
-0.068271115 0.290828 0.062175695 0.07853979 0.045181714 -0.11356205 0.1277426 -0.063165195
00000000: 9d46 323d df8e e63c bf31 a03d 0b3f 5abc
00000010: 5bca 84bd 34b0 9a3e 5996 23bc 2136 4f3e
00000020: bad1 8bbd 68e7 943e f1ab 7e3d 78d9 a03d
00000030: 7610 393d 3893 e8bd f5ce 023e c15c 81bd
