theta_run_birds/exp_dim10_files6_tight/conv_autoencoder.pth (torch, 890345 bytes, 19 tensors)

module.conv1.weight f4 [16, 1, 3, 3]
-0.09319061 0.11098923 -0.04077714 0.03132953 -0.35278207 0.16512428 -0.07440072 -0.0067761065
-0.05407126 -0.12322735 0.13729773 -0.12939191 -0.109521806 0.10813637 -0.2692266 -0.056717888
-0.25385517 0.15047245 0.01528151 -0.2432145 0.036640573 -0.22320941 0.004149189 -0.008145663
-0.01879873 0.12984113 -0.23538066 -0.18592615 -0.042244345 -0.28170565 -0.08295741 -0.08892733
-0.2581799 0.16631979 0.0027254007 -0.14178929 -0.15043272 -0.20285957 0.101280384 0.12846826
-0.09160417 -0.29138803 -0.19489755 -0.0050976626 -0.09257794 0.0879423 0.09508968 -0.12403644
-0.25158694 -0.064173326 0.0029352028 -0.20945422 -0.29249364 0.14015815 -0.059210043 0.021784369
0.050999064 0.11465024 0.13244556 0.122042 -0.076271705 0.069928505 -0.04727876 0.12621336
-0.1845112 0.19413137 -0.08203055 0.13430697 -0.1398971 0.15439087 -0.035057012 -0.16510561
0.1500776 -0.19359165 0.10906464 -0.028392592 -0.04480899 -0.20609176 -0.09871679 -0.00066393055
-0.063938156 0.11887406 0.12013509 0.04352744 0.020083802 0.004953304 0.076908104 -0.0062917243
0.012418751 0.11869747 -0.05097995 -0.26091164 -0.07077163 0.046139047 -0.040331908 0.042418994
-0.2474538 -0.29403368 0.05988815 -0.030719865 -0.35485932 -0.079955086 -0.096551195 0.13053185
-0.05414667 0.1335049 -0.035765436 0.090872996 -0.29909185 -0.1850314 -0.047493406 -0.15540904
-0.1790546 0.05187879 0.15699252 0.1650599 -0.23387927 -0.15225166 -0.12169077 -0.20496307
0.14049831 -0.12454467 -0.059998617 0.098115206 -0.14111187 0.17604086 -0.34679347 -0.25580692
0.057376094 -0.37647226 -0.28239876 0.00048312685 -0.11286134 0.089398496 0.0486125 -0.011168237
-0.0945102 -0.0054891123 0.013657437 0.086270586 -0.21911596 0.025807051 0.019593835 0.14856797
00000000: b8da bebd 524e e33d ee05 27bd 6553 003d
00000010: da9f b4be 5716 293e 685f 98bd 1a0a debb
00000020: d379 5dbd 9f5e fcbd c797 0c3e 507f 04be
00000030: f84c e0bd 9a76 dd3d 12d8 89be 0451 68bd
00000040: 4ef9 81be 7315 1a3e 4c5f 7a3c 390d 79be
00000050: 6d14 163d 0291 64be ecf5 873b 6375 05bc
00000060: cbff 99bc 13f5 043e a107 71be 6d63 3ebe
00000070: 6808 2dbd b93b 90be 93e5 a9bd 881f b6bd
00000080: 2830 84be bc4f 2a3e a39c 323b 3631 11be
00000090: 090b 1abe 6bba 4fbe 176c cf3d 2f8d 033e
000000a0: f89a bbbd d030 95be 3993 47be 4b0a a7bb
000000b0: 8199 bdbd 181b b43d 61be c23d d106 febd
000000c0: 01d0 80be 4e6d 83bd 885c 403b 2b7b 56be
000000d0: bac1 95be 9e85 0f3e 3b86 72bd 2275 b23c
000000e0: 65e4 503d bfcd ea3d cf9f 073e 28f1 f93d
000000f0: 5734 9cbd ad36 8f3d 5fa7 41bd 133e 013e
00000100: 81f0 3cbe 60ca 463e a2ff a7bd c487 093e
00000110: 2f41 0fbe a418 1e3e f197 0fbd 7211 29be
00000120: f1ad 193e e43c 46be 485d df3d 9597 e8bc
00000130: a289 37bd b809 53be 072c cabd a00b 2eba
00000140: 02f2 82bd 3e74 f33d 6309 f63d d449 323d
00000150: c986 a43c 534f a23b ff81 9d3d cf2a cebb
00000160: 0478 4b3c a917 f33d 5ad0 50bd 3696 85be
00000170: b7f0 90bd 4cfc 3c3d 1233 25bd 8abf 2d3d
00000180: 8764 7dbe 958b 96be 474d 753d 3aa8 fbbc
00000190: 1fb0 b5be 7ebf a3bd a2bc c5bd 24aa 053e
000001a0: e6c8 5dbd 82b5 083e c77e 12bd 9f1b ba3d
000001b0: 9122 99be df78 3dbe 7288 42bd 8c23 1fbe
000001c0: 175a 37be db7e 543d a6c2 203e 7605 293e
000001d0: 0c7e 6fbe dce7 1bbe 0339 f9bd d7e1 51be
000001e0: cade 0f3e 4711 ffbd 1cc1 75bd a0f0 c83d
000001f0: a17f 10be 0e44 343e ea8e b1be 20f9 82be
00000200: 3203 6b3d f9c0 c0be 9296 90be 304c fd39
00000210: d923 e7bd 8f16 b73d e71d 473d fbfa 36bc
00000220: 908e c1bd 03de b3bb 71c3 5f3c a2ae b03d
00000230: ef5f 60be 4f69 d33c 4083 a03c 3422 183e

module.conv1.bias f4 [16]
-0.4790762 -0.4336183 0.35123467 0.15791924 0.33362442 -0.2982114 0.16494372 0.30255687
-0.65362287 -0.24632739 -0.36963573 -0.49808973 -0.45695275 0.34818903 -0.417698 0.0948613
00000000: 7a49 f5be 3803 debe 08d5 b33e 95b5 213e
00000010: d2d0 aa3e 2aaf 98be 02e7 283e bce8 9a3e
00000020: d453 27bf 3f3d 7cbe e540 bdbe 9e05 ffbe
00000030: b6f5 e9be d545 b23e 83dc d5be a446 c23d

module.conv2.weight f4 [32, 16, 3, 3]
0.05030668 -0.08320193 -0.014151934 0.009972492 0.0233311 -0.06763052 0.029229915 -0.001571897
-0.024726974 -0.02497 0.023717953 0.0474326 -0.015933022 -0.008073455 -0.045048732 -0.07926541
-0.05903532 0.027088134 0.033564776 6.228843e-05 0.023182135 0.009267531 0.123791695 0.0028338865
0.00792437 0.069371596 0.028833685 -0.04653344 0.026887897 -0.0073105907 0.06303314 -0.037629765
0.03755402 -0.022097405 0.09996704 0.04032151 0.016530385 0.0858927 -0.023528561 0.02721274
0.15474623 0.026277484 0.05735215 0.08438101 0.109897256 0.06397334 -0.025576528 0.0037743952
0.008040141 -0.05285107 -0.042721465 -0.04743748 -0.00258949 -0.087142095 -0.04409219 -0.03230311
0.0060596787 0.05510288 -0.031999867 -0.022348376 0.044498555 -0.03232394 -0.13788953 -0.013583548
0.028523019 -0.04273315 0.014820259 0.023440262 0.03207997 0.0039646197 -0.0073493733 -0.021681383
-0.007940817 -0.028726099 0.052248273 -0.049937163 -0.060010713 -0.105038434 0.056014102 0.014727833
-0.087747686 0.0540809 -0.02137874 -0.08672664 0.05423823 -0.031359594 -0.0017658914 0.00361257
-0.063134655 -0.16426001 -0.044810332 -0.09226905 -0.0076177646 0.031761177 -0.0036857445 -0.04531318
-0.14073429 -0.04358072 0.044250913 0.04586024 -0.01171032 -0.008288642 0.056720536 0.036354236
-0.015165494 0.033687685 -0.046682987 0.03995305 0.030917024 0.035590097 -0.06647034 0.011444952
-0.02026574 -0.018471647 0.06903861 -0.07484908 0.04175436 -0.034519576 0.009754431 0.015327455
-0.016335737 -0.020195736 0.07078497 -0.06117015 0.056609813 0.022505077 -0.073168136 -0.010824644
-0.015846943 -0.05640166 -0.12410881 -0.09626971 -0.0022354831 0.019639267 -0.06314145 0.0010052926
0.100922145 0.001315939 0.019872172 -0.082111426 0.036015727 -0.014630734 -0.062089205 0.016026823
-0.054339863 0.03758677 -0.03083948 -0.04459846 -0.015966268 -0.06858343 -0.015440924 -0.04239505
-0.06120503 -0.11590375 -0.054174993 -0.06612746 -0.0029129556 -0.012156746 -0.011152071 -0.015087897
-0.023884235 -0.06716267 -0.06185183 0.03943291 0.010910019 0.016464122 0.061181627 0.041436233
0.016804554 0.0026222407 0.03383805 -0.029071897 -0.10908005 9.766185e-05 0.024328128 0.013011065
-0.021495612 0.006874989 -0.049196456 -0.0025608032 0.005209109 0.047075134 0.104073174 0.024322966
0.10270981 -0.058153164 -0.15191115 0.02614285 -0.049934458 -0.045717973 0.01386667 -0.03559297
-0.06679204 -0.017215038 -0.058332957 0.043071534 0.02658522 -0.06760472 0.031971604 -0.062020157
-0.06891308 -0.02739135 -0.021872189 0.006444387 -0.05335614 -0.009838775 0.006050649 0.02280226
0.0005362283 -0.007897647 0.03176916 0.030759238 -0.035488565 0.011208197 0.027540445 0.011591923
-0.014486968 0.02597837 0.074994154 -0.08361441 -0.039831538 -0.031180443 -0.06520868 0.028532391
-0.051704783 0.018435597 -0.024753451 -0.02159052 -0.025629465 0.030993802 -0.0037921246 -0.02112982
-0.0791325 0.044965427 -0.025279982 0.074687436 0.029947348 -0.04778085 -0.056446843 -0.017059604
-0.029801374 -0.016148131 0.039484102 0.0035453844 -0.00041288143 0.04058953 0.06726532 0.023565575
0.0029663977 -0.0038665484 -0.009038521 -0.04040825 0.019876143 0.02718171 -0.13553944 0.017665617
00000000: 610e 4e3d c665 aabd 83dd 67bc aa63 233c
00000010: dd20 bf3c df81 8abd 9373 ef3c 1c08 ceba
00000020: 3990 cabc e38d ccbc 274c c23c b048 423d
00000030: f885 82bc 8646 04bc 0585 38bd e755 a2bd
00000040: 05cf 71bd efe7 dd3c 387b 093d d9a0 8238
00000050: 76e8 bd3c d8d6 173c 8086 fd3d bab8 393b
00000060: 37d5 013c b212 8e3d 9f34 ec3c d999 3ebd
00000070: 0244 dc3c ae8d efbb 8517 813d ab21 1abd
00000080: 3ed2 193d 9e05 b5bc 85bb cc3d 2b28 253d
00000090: bb6a 873c 83e8 af3d f8be c0bc 41ed de3c
000000a0: cc75 1e3e e143 d73c 17ea 6a3d f3cf ac3d
000000b0: d011 e13d 7404 833d de85 d1bc d85b 773b
000000c0: ccba 033c 5d7a 58bd b4fc 2ebd ce4d 42bd
000000d0: 6fb4 29bb 8e77 b2bd 039a 34bd 4450 04bd
000000e0: 4590 c63b 8fb3 613d 4b12 03bd f113 b7bc
000000f0: 1e44 363d 1c66 04bd ea32 0dbe 888d 5ebc
00000100: 1ba9 e93c f508 2fbd acd0 723c cb05 c03c
00000110: 4966 033d a4e9 813b 03d3 f0bb 289d b1bc
00000120: 331a 02bc ff52 ebbc 4902 563d e98a 4cbd
00000130: cbcd 75bd 641e d7bd 0b6f 653d 024d 713c
00000140: 0fb5 b3bd ef83 5d3d 7822 afbc bd9d b1bd
00000150: e828 5e3d eb72 00bd 7c75 e7ba dec0 6c3b
00000160: be4c 81bd c733 28be 0a8b 37bd 8ef7 bcbd
00000170: 719e f9bb 0218 023d 888c 71bb 509a 39bd
00000180: a61c 10be b281 32bd 7240 353d f2d7 3b3d
00000190: a4dc 3fbc 16cd 07bc cb53 683d 2ee8 143d
000001a0: b178 78bc 19fc 093d a936 3fbd cfa5 233d
000001b0: b345 fd3c ecc6 113d 9a21 88bd 9c83 3b3c
000001c0: 5604 a6bc da51 97bc 1d64 8d3d 794a 99bd
000001d0: 9f06 2b3d 6664 0dbd 0dd1 1f3c 0120 7b3c
000001e0: 86d2 85bc 8771 a5bc b6f7 903d 8d8d 7abd
000001f0: b1df 673d 915c b83c 2dd9 95bd d959 31bc
00000200: 73d1 81bc 6d05 67bd c32c febd 0e29 c5bd
00000210: 2f81 12bb 87e2 a03c 4e50 81bd 06c4 833a
00000220: 45b0 ce3d 967b ac3a f7ca a23c 092a a8bd
00000230: 3a85 133d bfb5 6fbc 4051 7ebd af4a 833c
00000240: 7a93 5ebd 96f4 193d 14a3 fcbc e0ac 36bd
00000250: b1cb 82bc 7875 8cbd eefb 7cbc 6fa6 2dbd
00000260: 20b2 7abd f25e edbd 99e6 5dbd d56d 87bd
00000270: 49e7 3ebb 172d 47bc 2db7 36bc 3a33 77bc
00000280: dfa8 c3bc 958c 89bd 5858 7dbd 6784 213d
00000290: f0bf 323c c4df 863c 9699 7a3d 0ab9 293d
000002a0: b4a9 893c e6d9 2b3b c499 0a3d 3028 eebc
000002b0: 5c65 dfbd cecf cc38 c84b c73c 5d2c 553c
000002c0: 9117 b0bc 9647 e13b 3982 49bd 26d3 27bb
000002d0: 2cb1 aa3b dbd1 403d 5124 d53d f540 c73c
000002e0: 8559 d23d 0332 6ebd 998e 1bbe 8829 d63c
000002f0: 1388 4cbd c542 3bbd 0831 633c efc9 11bd
00000300: 44ca 88bd 8d06 8dbc 8aee 6ebd c76b 303d
00000310: 3fc9 d93c 5874 8abd a8f4 023d d908 7ebd
00000320: 4d22 8dbd d363 e0bc 4e2d b3bc 702b d33b
00000330: f88b 5abd d032 21bc 8644 c63b cecb ba3c
00000340: ac91 0c3a 2265 01bc 6120 023d ccfa fb3c
00000350: 755c 11bd 96a2 373c 809c e13c 0dec 3d3c
00000360: bf5a 6dbc 97d0 d43c 8996 993d 083e abbd
00000370: 6526 23bd 216e ffbc 218c 85bd c3bc e93c
00000380: 65c8 53bd 4006 973c c0c7 cabc 9ade b0bc
00000390: e2f4 d1bc b7e6 fd3c 4b85 78bb 7218 adbc
000003a0: 3810 a2bd ab2d 383d f717 cfbc baf5 983d
000003b0: 2454 f53c dab5 43bd ce34 67bd 95c0 8bbc
000003c0: 0322 f4bc 1649 84bc 15ba 213d ae59 683b
000003d0: 0278 d8b9 3541 263d 66c2 893d 980c c13c
000003e0: e567 423b eb65 7dbb 4e16 14bc 1f83 25bd
000003f0: 4bd3 a23c 2dac de3c daca 0abe 7cb7 903c

module.conv2.bias f4 [32]
0.20536894 0.15434624 -0.09166332 -0.06354729 0.11631313 -0.06469534 -0.14774287 0.15505444
0.0060810107 0.16228826 -0.26274344 -0.24999924 -0.2815255 0.16343147 -0.3576615 0.064678825
-0.49485177 0.105219156 -0.33771476 -0.43778506 0.1753073 -0.37318173 0.16554467 -0.17557521
0.11024077 -0.078297935 0.060700852 0.15432054 -0.2606244 -0.34161004 -0.27978903 0.17929004
00000000: 3c4c 523e f10c 1e3e fbb9 bbbd 1525 82bd
00000010: 9435 ee3d fe7e 84bd e849 17be 97c6 1e3e
00000020: 3743 c73b e52e 263e 4f86 86be cdff 7fbe
00000030: 1c24 90be 945a 273e 681f b7be 5576 843d
00000040: 365d fdbe 247d d73d f3e8 acbe 5d25 e0be
00000050: c283 333e ad11 bfbe 8b84 293e fdc9 33be
00000060: eac5 e13d ab5a a0bd 75a1 783d 3406 1e3e
00000070: 9070 85be 83e7 aebe 8240 8fbe cf97 373e

module.conv3.weight f4 [64, 32, 3, 3]
0.014353867 0.023674494 -0.02229587 0.06349774 -0.015012136 -0.019273499 -0.024484597 0.03267809
-0.14651394 0.0027853027 0.04213247 -0.019047517 0.0052504474 0.05476682 -0.13893715 0.041819897
0.021451823 -0.0121612 -0.042844947 -0.04276777 0.014834341 0.00203069 -0.0038863795 -0.06189069
-0.047531884 0.04959103 -0.016961172 -0.096583284 0.046429437 -0.0045446707 -0.038108762 -0.05284066
0.021271523 -0.016484775 0.027535336 -0.02695768 0.0063617313 -0.069062196 0.0031741988 0.018888285
0.047109213 -0.09297243 -0.017785935 0.0030821713 -0.020289866 -0.014239612 0.010915158 -0.08966925
0.032987572 0.07280352 -0.01869121 -0.011956214 -0.070085935 -0.08927965 -0.034328282 -0.02543154
0.016007496 0.011716919 0.012141604 -0.034671053 0.085977405 0.059764642 -0.0015067951 -0.028437464
0.0025415053 -0.03534636 0.020530362 -0.028776987 0.014995075 -0.030268906 0.00084560865 -0.04501258
-0.0057520624 -0.07749616 -0.037522413 0.047101565 -0.04496557 0.031606607 -0.040766817 -0.08352285
-0.09389565 -0.04372089 0.0988464 0.04027841 0.051934063 -0.003539595 -0.008617061 -0.037502665
0.0033942938 -0.078435935 -0.0048452364 0.013450667 -0.016004588 0.012914451 0.032276493 -0.053963922
0.03669962 0.0289849 0.031618755 0.031352136 0.03816144 0.004641479 0.028232835 0.07408163
-0.012830877 -0.025749436 0.03993041 -0.02830606 0.014549951 0.025310846 0.033176843 -0.065732054
0.022873878 -0.07706531 0.037623838 -0.03406299 -0.10839852 -0.00801193 -0.002837092 0.07988147
0.07275213 -0.000491434 -0.0338729 0.014233396 -0.08578436 -0.054956988 0.013103575 0.016303243
0.0024737646 -0.032767 0.0056262542 -0.057591245 -0.076102234 -0.01573359 -0.09137226 -0.023111142
0.020562105 -0.04751915 0.010433184 -0.0015860768 -0.07949424 -0.048864175 -0.036053613 -0.102387406
-0.025613198 -0.040627312 -0.0343541 -0.033451192 0.031417247 -0.08317805 -0.015009264 -0.03133965
-0.09723296 -0.0073148482 0.017340887 -0.07411134 -0.03744733 0.0020460535 -0.096583046 0.03515685
0.0741905 -0.100345254 -0.09139253 0.012782 0.01403862 -0.016429244 0.0138813015 -0.0132673485
0.027898038 -0.03535902 -0.0322408 0.0041258587 0.031692635 0.035881896 -0.009066516 -0.029361375
0.05768738 -0.042177446 0.027970413 -0.029026797 0.001277975 -0.044192813 -0.042712077 0.0316313
0.027296962 -0.055143125 -0.013462274 -0.0052959323 -0.14136858 0.0065191537 -0.06389485 -0.01306782
-0.011012421 0.044591215 0.096754976 0.0025559908 -0.06666266 0.032178864 0.00022268419 0.027087329
-0.11111802 -0.0009970526 0.038853608 -0.051325575 -0.03125504 0.030745018 -0.095927626 -0.061004598
0.054188464 0.015091321 -0.02950186 -0.035411086 0.093402594 -0.022698991 0.05417666 -0.06262327
0.0124008125 -0.057356413 -0.10121162 -0.01956165 0.0412046 -0.13653183 0.015936011 0.0017766913
-0.053668793 0.022938762 -0.045414526 -0.05803808 0.020447519 0.0073192767 -0.04414091 -0.0057995864
-0.027423648 -0.06141268 0.0033390597 0.0011517182 -0.10135988 -0.03949075 0.031256154 -0.03510759
-0.027181841 -0.10002977 -0.095008254 -0.015476476 0.08056518 -0.030434798 0.0015219798 -0.04199219
0.0073339297 -0.0814976 -0.044161454 -0.02115129 -0.003436848 -0.008278965 -0.014975859 0.038406048
00000000: 7b2c 6b3c 03f1 c13c d4a5 b6bc 1a0b 823d
00000010: 76f5 75bc 75e3 9dbc ec93 c8bc 76d9 053d
00000020: c007 16be a089 363b 1993 2c3d 8a09 9cbc
00000030: f20b ac3b 2c53 603d 8a45 0ebe 574b 2b3d
00000040: bcbb af3c c53f 47bc 2f7e 2fbd 422d 2fbd
00000050: bc0b 733c 5315 053b a1b2 7ebb 1881 7dbd
00000060: cbb0 42bd f71f 4b3d 28f2 8abc 75cd c5bd
00000070: cb2c 3e3d 76eb 94bb ef17 1cbd 736f 58bd
00000080: 9e41 ae3c 140b 87bc c991 e13c 5ad6 dcbc
00000090: 1276 d03b 7b70 8dbd 3806 503b 9bbb 9a3c
000000a0: 97f5 403d 5468 bebd cfb3 91bc 41fe 493b
000000b0: ef36 a6bc 434d 69bc 7ed5 323c 83a4 b7bd
000000c0: fa1d 073d 031a 953d 4f1e 99bc ffe3 43bc
000000d0: 3789 8fbd 40d8 b6bd d09b 0cbd ce55 d0bc
000000e0: 2722 833c 52f8 3f3c 94ed 463c 3c03 0ebd
000000f0: ec14 b03d c5cb 743d a77f c5ba aff5 e8bc
00000100: 628f 263b 58c7 10bd 4a2f a83c b7bd ebbc
00000110: e7ad 753c 7ff6 f7bc d6ab 5d3a 1c5f 38bd
00000120: cc7b bcbb 4fb6 9ebd 1ab1 19bd 92ed 403d
00000130: d12d 38bd ee75 013d 1bfb 26bd 070e abbd
00000140: 5d4c c0bd ad14 33bd fb6f ca3d f9fa 243d
00000150: d0b8 543d 8df8 67bb 932e 0dbc 659c 19bd
00000160: cd72 5e3b 05a3 a0bd cac4 9ebb 3060 5c3c
00000170: 0e1c 83bc 2297 533c 5b34 043d 4609 5dbd
00000180: 5752 163d be71 ed3c ab82 013d 196b 003d
00000190: 2c4f 1c3d 8c17 983b 8c48 e73c 1cb8 973d
000001a0: 9938 52bc 7bf0 d2bc 128e 233d 1ce2 e7bc
000001b0: eb62 6e3c b158 cf3c 71e4 073d 879e 86bd
000001c0: 0062 bb3c 6bd4 9dbd 741b 1a3d a285 0bbd
000001d0: 0b00 debd 7844 03bc 81ee 39bb e598 a33d
000001e0: 12ff 943d 94d3 00ba 4fbe 0abd 3133 693c
000001f0: b6af afbd 941a 61bd 61b0 563c 618e 853c
00000200: e21e 223b b136 06bd 715c b83b cce4 6bbd
00000210: 7ddb 9bbd bbe3 80bc 6121 bbbd 9453 bdbc
00000220: dc71 a83c 71a3 42bd f2ef 2a3c e8e3 cfba
00000230: e0cd a2bd cd25 48bd f4ac 13bd 7db0 d1bd
00000240: c5d2 d1bc d368 26bd e2b6 0cbd 1e04 09bd
00000250: 5faf 003d 4159 aabd 6be9 75bc 015e 00bd
00000260: 1322 c7bd 65b1 efbb 7a0e 8e3c b0c7 97bd
00000270: 5f62 19bd 1517 063b 55cd c5bd a100 103d
00000280: 30f1 973d d081 cdbd 022c bbbd 986b 513c
00000290: 3d02 663c 9f96 86bc 666e 633c 4b5f 59bc
000002a0: 6d8a e43c 9fd4 10bd ee0e 04bd 3632 873b
000002b0: 23d0 013d e5f8 123d b98b 14bc 4487 f0bc
000002c0: 9a49 6c3d 42c2 2cbd 3522 e53c 9bc9 edbc
000002d0: ba81 a73a 8603 35bd dcf2 2ebd d28f 013d
000002e0: e19d df3c c2dd 61bd df90 5cbc 8089 adbb
000002f0: edc2 10be a09e d53b 4edb 82bd 691a 56bc
00000300: 716d 34bc 47a5 363d 7927 c63d 6982 273b
00000310: 6f86 88bd fccd 033d 5580 6939 3fe6 dd3c
00000320: d891 e3bd 89af 82ba f624 1f3d c43a 52bd
00000330: 4905 00bd fadc fb3c b475 c4bd f5df 79bd
00000340: b9f4 5d3d 9741 773c e2ad f1bc 370b 11bd
00000350: dc49 bf3d 3cf3 b9bc 58e8 5d3d a140 80bd
00000360: c72c 4b3c 8fee 6abd 0a48 cfbd c13f a0bc
00000370: 28c6 283d 00cf 0bbe 3d8c 823c dedf e83a
00000380: cfd3 5bbd 12ea bb3c 9504 3abd 56b9 6dbd
00000390: 8e81 a73c 8bd6 ef3b 19cd 34bd 750a bebb
000003a0: 8fa7 e0bc dd8b 7bbd 20d4 5a3b 40f5 963a
000003b0: c595 cfbd 0dc1 21bd 7406 003d facc 0fbd
000003c0: 74ac debc 68dc ccbd b093 c2bd 0c91 7dbc
000003d0: 5bff a43d 6652 f9bc 2b7d c73a 0100 2cbd
000003e0: 7651 f03b 37e8 a6bd a4e2 34bd 7845 adbc
000003f0: be3c 61bb 7fa4 07bc 4e5d 75bc a94f 1d3d

module.conv3.bias f4 [64]
0.009293299 -0.39273766 -0.0046193125 -0.13680448 0.13970508 -0.24195917 -0.18950512 0.14899275
-0.2529554 0.21870486 0.037204713 0.14058934 -0.16489999 -0.45036924 0.19672191 0.12792556
0.24131538 -0.27499995 -0.25309986 -0.12732626 -0.070361696 -0.22069769 0.13941646 0.1705624
0.17360048 -0.39518297 0.18781245 -0.14690137 0.14776926 -0.35035637 -0.28599936 -0.41885665
-0.34649143 -0.012629001 -0.043793663 0.1964654 0.085415095 0.09349837 -0.31752157 0.14371917
-0.29278052 0.16571276 -0.26933163 -0.31719616 0.20564738 -0.25432348 0.15674265 -0.40774786
-0.30192664 -0.0024765106 0.18491217 -0.2581205 -0.14020167 0.007884194 -0.25589454 0.19663906
-0.002915195 0.0067234556 0.15360576 -0.099850625 0.16165145 -0.17647366 0.17850761 0.17970753
00000000: ec42 183c e914 c9be 9a5d 97bb 7916 0cbe
00000010: d90e 0f3e 25c4 77be a10d 42be 8e91 183e
00000020: 5f83 81be 2bf4 5f3e f863 183d a7f6 0f3e
00000030: 8bdb 28be cc96 e6be 7871 493e ebfe 023e
00000040: 611b 773e cbcc 8cbe 4e96 81be d161 02be
00000050: cb19 90bd 93fe 61be 30c3 0e3e e9a7 2e3e
00000060: 53c4 313e 6c55 cabe e851 403e 506d 16be
00000070: d350 173e e961 b3be 826e 92be 6174 d6be
00000080: 5367 b1be dfe9 4ebc fc60 33bd 3a2e 493e
00000090: 1cee ae3d 137c bf3d 3092 a2be 1e2b 133e
000000a0: 54e7 95be 9bb0 293e d6e5 89be 8967 a2be
000000b0: 3a95 523e b036 82be 2581 203e 54c4 d0be
000000c0: 2196 9abe f44c 22bb 9e59 3d3e 5f28 84be
000000d0: 0791 0fbe b52c 013c 9c04 83be c05b 493e
000000e0: db0c 3fbb 6f50 dc3b d44a 1d3e 7c7e ccbd
000000f0: f587 253e 83b5 34be b3ca 363e 4005 383e

module.conv4.weight f4 [128, 64, 3, 3]
0.0063946107 -0.0432338 -0.01683174 -0.027812855 -0.12126467 0.0386149 -0.00067740475 -0.001302111
-0.021497503 -0.01603548 -0.085891075 -0.011796753 0.0043424596 -0.022275407 0.0028511346 -0.08641287
-0.03305863 -0.08142827 -0.076936394 -0.056721114 -0.06830774 -0.021360697 0.013038834 -0.0006151073
-0.056220572 -0.07232007 -0.12032398 0.018645681 -0.026398152 -0.007189526 -0.03710857 0.046302743
-0.025478538 -0.06700547 0.0037645528 0.002387148 -0.053720385 -0.047953837 -0.05642781 -0.027294911
-0.041194413 0.06328435 0.0231268 0.025195004 -0.026571633 -0.027306912 0.021842567 0.0004423407
0.0034388816 -0.008265503 -0.020746522 -0.061191183 -0.039237052 -0.008250781 -0.009022066 -0.0070753456
-0.020745834 0.0054786094 -0.0062422827 0.012987077 0.016815122 -0.014853475 -0.034407508 -0.006112031
-0.053869985 0.023010653 0.00166492 -0.018212512 0.014235603 0.030484816 0.004455657 -0.06038011
0.002140465 0.044467583 -0.03647979 -0.05895745 -0.054429732 -0.033241652 -0.055244632 -0.041459788
-0.07205695 -0.0026562396 0.039350178 -0.004488938 -0.0009194318 -0.0032746084 -0.052405372 -0.025007097
0.059224553 0.025695227 0.01861981 0.02359037 0.015855141 -0.068107635 0.025139017 -0.033660147
-0.12780312 -0.0916311 -0.045300134 -0.005415987 -0.021185132 0.008387693 -0.015296775 -0.058565572
0.02525874 0.06257306 0.070108324 -0.0064908494 0.048627764 0.05680313 0.033249598 -0.04386998
-0.009024769 0.039239 -0.015744308 -0.06217581 0.04100729 -0.02329299 -0.0025913308 0.029157197
-0.041934386 -0.04957185 0.014686826 -0.017643305 -0.08050522 -0.13405213 -0.002448055 -0.09546706
0.043950237 -0.021712577 -0.07847499 -0.021242013 0.033738513 0.08319729 -0.007969476 0.03164789
-0.038564343 -0.022770576 0.048944194 -0.063397765 0.013147696 0.029571302 0.032330442 -0.023302443
-0.06276184 -0.009552896 0.015602276 0.020310573 0.0062089553 -0.049026337 7.3345094e-05 0.0015839081
-0.027265025 -0.04972731 -0.005166894 -0.1058435 -0.020034445 0.02419811 -0.0442749 -0.07852628
-0.034468383 -0.045082036 -0.044059817 0.009078993 -0.0712259 -0.070706435 -0.049443144 0.06587199
-0.042652316 -0.0066130036 -0.03320854 0.068322934 -0.01785903 -0.018410714 -0.014160084 0.002266684
0.009764683 -0.011784605 -0.008263994 -0.081564024 -0.046092194 0.02950733 0.013054635 0.016066143
-0.07383781 -0.012999914 -0.01961568 -0.0037237392 -0.0007167464 0.028099764 -0.055696923 0.00129909
0.11739888 0.04354017 -0.0045334953 -0.010192127 -0.09368511 -0.06398779 0.012913694 -0.030885067
-0.02189455 -0.037819337 0.010185325 -0.0058064233 0.0015508732 0.03132065 -0.013002432 0.03743228
-0.0066734804 0.0042217313 0.03183949 0.0026654613 0.00083457545 0.045261644 0.082285516 0.046526544
-0.15116689 -0.010508094 -0.028345961 -0.024835007 0.06900623 -0.00054257823 0.026441697 0.08048941
-0.027107172 -0.043414805 0.008994045 0.03546795 0.020088574 0.040957674 -0.025974141 -0.0048383195
0.02483293 -0.07617518 -0.05100765 0.031678613 -0.026821677 -0.10953809 0.030882847 0.038702138
0.09414404 0.025203064 -0.015556902 0.04194 -0.034525633 -0.008289061 -0.012245683 -0.030485682
0.0477528 -0.04395981 -0.055639032 -0.025892114 -0.035084497 -0.028914157 0.014914793 -0.00040366326
00000000: e289 d13b ed15 31bd b8e2 89bc c9d7 e3bc
00000010: 9c59 f8bd a82a 1e3d dd93 31ba 98ab aaba
00000020: 881b b0bc d75c 83bc a9e7 afbd 2b47 41bc
00000030: 314b 8e3b ea7a b6bc 1ada 3a3b 3bf9 b0bd
00000040: 7c68 07bd ddc3 a6bd d490 9dbd 6654 68bd
00000050: eee4 8bbd a1fc aebc d5a0 553c 273f 21ba
00000060: 8b47 66bd 8b1c 94bd 6b6c f6bd d4be 983c
00000070: f040 d8bc 1e96 ebbb 28ff 17bd f2a7 3d3d
00000080: 5eb8 d0bc 2a3a 89bd b7b6 763b b371 1c3b
00000090: e809 5cbd 3e6b 44bd d920 67bd 9499 dfbc
000000a0: 79bb 28bd 3a9b 813d 6a74 bd3c c165 ce3c
000000b0: c1ac d9bc bfb2 dfbc 2fef b23c f7e9 e739
000000c0: dc5e 613b 086c 07bc 9cf4 a9bc 9ba3 7abd
000000d0: 08b7 20bd 492e 07bc 4ad1 13bc 4dd8 e7bb
000000e0: 2bf3 a9bc e885 b33b 108c ccbb c0c7 543c
000000f0: debf 893c fd5b 73bc e3ee 0cbd 6f47 c8bb
00000100: c6a6 5cbd d680 bc3c 7239 da3a 6832 95bc
00000110: 723c 693c 4bbb f93c c300 923b 2251 77bd
00000120: 0b47 0c3b a423 363d d56b 15bd 5e7d 71bd
00000130: b6f1 5ebd 6628 08bd 3248 62bd bdd1 29bd
00000140: 9892 93bd 4e14 2ebb a72d 213d f117 93bb
00000150: 0606 71ba d09a 56bb 04a7 56bd afdb ccbc
00000160: 7295 723d cc7e d23c 9288 983c 9740 c13c
00000170: a4e2 813c 047c 8bbd 57f0 cd3c 39df 09bd
00000180: d2de 02be 16a9 bbbd a28c 39bd 9878 b1bb
00000190: 718c adbc 896c 093c 539f 7abc 74e2 6fbd
000001a0: 6beb ce3c 4e26 803d f494 8f3d 31b1 d4bb
000001b0: e82d 473d 66aa 683d bb30 083d 02b1 33bd
000001c0: a0dc 13bc 13b9 203d 35fa 80bc 10ac 7ebd
000001d0: 43f7 273d f1d0 bebc 51d3 29bb 13db ee3c
000001e0: 64c3 2bbd da0b 4bbd 03a1 703c b188 90bc
000001f0: ecdf a4bd f644 09be 8c6f 20bb 3c84 c3bd
00000200: 2a05 343d 93de b1bc 7fb7 a0bd bb03 aebc
00000210: 6531 0a3d 5763 aa3d 6892 02bc 38a1 013d
00000220: a5f5 1dbd 5c89 babc b579 483d b0d6 81bd
00000230: 6f69 573c 843f f23c ed6c 043d c4e4 bebc
00000240: 4889 80bd c083 1cbc b0a0 7f3c 5c62 a63c
00000250: 7e74 cb3b d7cf 48bd d9d0 9938 239b cf3a
00000260: e75a dfbc ddae 4bbd 0c4f a9bb 7ac4 d8bd
00000270: 471f a4bc 1d3b c63c 9959 35bd 63d2 a0bd
00000280: b82e 0dbd f1a7 38bd 1178 34bd 0fc0 143c
00000290: e2de 91bd 89ce 90bd e584 4abd e5e7 863d
000002a0: 32b4 2ebd e5b1 d8bb ae05 08bd e5ec 8b3d
000002b0: 1a4d 92bc 11d2 96bc b2ff 67bc a68c 143b
000002c0: 0dfc 1f3c 3714 41bc b465 07bc 0a0b a7bd
000002d0: 2bcb 3cbd 5bb9 f13c 1ce3 553c 259d 833c
000002e0: 4738 97bd 97fd 54bc 10b1 a0bc fa09 74bb
000002f0: 09e4 3bba 7a31 e63c 7522 64bd 3a46 aa3a
00000300: d36e f03d 2d57 323d b78d 94bb e1fc 26bc
00000310: fbdd bfbd 080c 83bd f593 533c ae02 fdbc
00000320: 335c b3bc 73e8 1abd 59e0 263c cf43 bebb
00000330: ab46 cb3a 154a 003d 2708 55bc 9752 193d
00000340: 36ad dabb 7356 8a3b 206a 023d 05af 2e3b
00000350: 69c7 5a3a 4664 393d 4f85 a83d 9e92 3e3d
00000360: 7ecb 1abe 242a 2cbc ca35 e8bc c972 cbbc
00000370: 2353 8d3d cf3b 0eba 429c d83c a2d7 a43d
00000380: dc0f debc b9d3 31bd c25b 133c d746 113d
00000390: cb90 a43c 3cc3 273d b9c7 d4bc c48a 9ebb
000003a0: 6e6e cb3c bc01 9cbd 66ed 50bd 6fc1 013d
000003b0: 22b9 dbbc 8255 e0bd 06fe fc3c 2286 1e3d
000003c0: 97ce c03d a876 ce3c 60e2 7ebc 47c9 2b3d
000003d0: c06a 0dbd d7ce 07bc 1ea2 48bc 1cbd f9bc
000003e0: 7198 433d 340f 34bd c1e5 63bd b31b d4bc
000003f0: c3b4 0fbd 62dd ecbc 2d5d 743c c4a2 d3b9

module.conv4.bias f4 [128]
0.2084223 0.20178074 0.20186356 0.17652828 0.13271733 -0.13063036 -0.14661963 -0.14107935
-0.15710063 0.24368629 0.16097225 0.23490797 -0.07520262 0.079507776 0.038920507 3.779978e-05
0.17111912 -0.16823259 0.087900616 -0.11329405 0.19039907 0.20789705 0.25751683 0.24201453
0.18480939 -0.22257118 -0.19496933 0.17393239 -0.26690084 -0.16742828 0.11880955 0.20197982
0.19730099 -0.20457672 0.18287414 0.13146052 -0.20950018 0.1917603 -0.2279784 -0.20220843
0.0852416 -0.24494894 -0.15785547 -0.21208984 0.19530423 -0.25288177 -0.25293174 -0.2339374
-0.017651768 0.110984586 0.14696504 0.16601267 0.1766718 0.20439388 0.23596473 -0.116650015
0.13574503 0.20861231 -0.1184571 -0.15243849 0.18880673 -0.12764245 -0.102516256 -0.22413364
-0.2508757 -0.22043012 -0.19329573 -0.22914727 0.23768245 -0.25552824 0.20248286 -0.18225783
-0.15791619 -0.15009601 0.15450859 -0.19679475 -0.20431606 -0.21112733 -0.16128545 0.18082221
-0.23683944 -0.21223086 0.2032052 0.1702694 0.17623438 -0.1665069 -0.073743686 -0.16480155
-0.0864331 0.21846215 -0.10762664 0.17354196 0.16009557 -0.18411744 -0.14770259 -0.13711935
0.1817456 0.25318426 -0.27763778 0.20780939 0.1291134 -0.21032831 -0.17856707 0.29211414
0.16163059 -0.18099341 -0.21372053 0.20098545 0.10580712 -0.18430284 -0.2098889 -0.08421771
0.17192037 0.12298757 -0.15016085 -0.26195064 0.24908172 -0.13585465 0.11325217 -0.15648256
-0.23696527 -0.092452 -0.139128 -0.04927568 0.18693292 -0.12529798 -0.18486844 0.1287164
00000000: a86c 553e 9c9f 4e3e 52b5 4e3e d4c3 343e
00000010: 0de7 073e f7c3 05be 7523 16be 1b77 10be
00000020: fdde 20be e688 793e e9d5 243e b78b 703e
00000030: d503 9abd f9d4 a23d 1c6b 1f3d 348b 1e38
00000040: da39 2f3e 2a45 2cbe 3d05 b43d b606 e8bd
00000050: f9f7 423e f7e2 543e 3fd9 833e a8d2 773e
00000060: ac3e 3d3e b3e9 63be 0aa6 47be 551b 323e
00000070: 3aa7 88be 5272 2bbe 6c52 f33d ccd3 4e3e
00000080: 4509 4a3e 8f7c 51be 5c43 3b3e 969d 063e
00000090: 3787 56be d05c 443e 2b73 69be ba0f 4fbe
000000a0: 2693 ae3d e5d3 7abe dda4 21be 142e 59be
000000b0: d5fd 473e b879 81be 4580 81be 498d 6fbe
000000c0: 719a 90bc e34b e33d 017e 163e 3aff 293e
000000d0: 74e9 343e a14c 513e bda0 713e 34e6 eebd
000000e0: bf00 0b3e 779e 553e a399 f2bd d618 1cbe
000000f0: 8d56 413e b4b4 02be 0bf4 d1bd 4a83 65be
00000100: c872 80be 6fb8 61be 51ef 45be 95a5 6abe
00000110: 0763 733e 99d4 82be ab57 4f3e cca1 3abe
00000120: c8b4 21be c5b2 19be 8037 1e3e 9084 49be
00000130: 3b38 51be c331 58be 0328 25be 7529 393e
00000140: 0a86 72be 0c53 59be 0615 503e 1a5b 2e3e
00000150: c976 343e c980 2abe ee06 97bd bdc1 28be
00000160: d603 b1bd 8bb4 5f3e 5b6b dcbd fcb4 313e
00000170: 18f0 233e 4889 3cbe 593f 17be 0469 0cbe
00000180: 851b 3a3e 5ea1 813e 8a26 8ebe fccb 543e
00000190: 4e36 043e 4e60 57be 49da 36be fc8f 953e
000001a0: 7d82 253e 5656 39be 8ed9 5abe 21cf 4d3e
000001b0: 67b1 d83d e2b9 3cbe 1eed 56be 567a acbd
000001c0: e50b 303e e8e0 fb3d c4c3 19be 651e 86be
000001d0: 470f 7f3e 7b1d 0bbe c1f0 e73d f73c 20be
000001e0: 06a7 72be 7957 bdbd 9277 0ebe 4cd5 49bd
000001f0: 586b 3f3e 1d4e 00be 274e 3dbe 3bce 033e

module.conv1T.weight f4 [128, 64, 3, 3]
0.049000975 0.09107573 0.20883682 -0.025938042 0.014688898 0.2683856 -0.39676312 -0.13047247
-0.26794368 -0.21049881 -0.044622574 0.11596103 0.13553028 -0.022793394 0.20807044 -0.15720458
0.15468337 -0.09622477 -0.072123595 -0.35410747 0.054081973 0.059142135 0.11324865 0.520892
-0.34003416 -0.077171154 -0.121477686 -0.29515728 -0.18115413 0.30489308 0.028098805 -0.16505629
0.356964 -0.013598195 -0.1923415 -0.0023685407 0.07988948 0.058215205 0.05532486 -0.03923734
0.20049503 0.13259755 -0.07039024 0.08246702 -0.26992437 0.0914958 0.07355572 0.30086523
-0.25785068 -0.02073296 0.28293136 -0.02309775 -0.19628598 0.10950451 0.15336472 -0.024146698
0.18034744 -0.04569512 0.14332117 0.26083627 -0.02035303 -0.049701463 -0.8248896 0.21916853
-0.29582936 0.23244473 -0.3190452 -0.0003823355 0.059910104 -0.084446356 0.14597581 0.33691105
-0.25746876 0.20401244 -0.2846228 -0.33105108 0.0068721063 -0.13319974 -0.08664789 -0.08820312
0.01881421 0.14457934 -0.06062037 0.48250398 0.1183314 -0.2568641 0.17406173 0.047263216
0.19633606 0.21188565 -0.19714384 -0.07225149 0.08073595 -0.28077927 0.034660395 0.035356984
-0.071647815 -0.001105429 0.116575055 -0.11341796 0.24700485 0.051104963 -0.15086949 0.12184077
-0.0048031826 -0.18316643 0.17182712 0.10273634 0.20258418 0.27905536 0.2624123 0.11975454
0.18201157 0.13259754 0.099190034 0.078102246 0.43383697 -0.17385493 -0.082088806 0.07653417
-0.17666188 0.085378155 0.04974446 -0.15066214 -0.060373165 -0.006177368 0.09582675 -0.08089261
-0.0952024 0.27159548 0.023884352 0.09957371 0.25525507 0.07790132 0.081223965 0.22551362
-0.06079943 0.38229823 -0.03259647 0.07129752 0.3074685 -0.09818688 0.22128403 -1.2903215
-0.31599808 -0.10357793 0.176029 -0.0062744003 0.09437176 0.5116657 -0.15147175 0.026750255
0.066014 -0.38135248 0.09700038 0.532267 -0.13109617 0.012306387 0.1427379 -0.15715465
-0.025019558 -0.19337554 -0.22314556 -0.119644545 0.07307857 0.07031105 -0.033838786 0.43609658
-0.0683194 -0.2649533 0.21568815 0.038769584 0.027888099 0.28726408 -0.110039055 -0.076681085
0.08113972 0.15919957 0.022769783 0.15997091 0.015767775 0.116694644 0.44920287 -0.15428492
-0.20618549 0.1329302 -0.091798395 0.043685444 -0.06725922 -0.04734178 0.10327021 -0.009026235
-0.3070368 -0.20254809 0.18215509 -0.03524375 -0.036258835 -0.168046 0.030276222 -0.23654082
-0.12903993 -0.30932522 -0.021030342 0.05653423 -0.98229057 -0.13449031 -0.15179835 -0.102291934
-0.12729244 0.013897826 -0.05412446 0.013712115 0.15189607 -0.05395273 -0.08884692 0.23460317
-0.06338002 -0.055072654 0.33287475 0.009756057 0.066691525 0.092219695 -0.054086734 -0.09906033
-0.10639321 0.073887795 -0.03373819 0.30372614 0.10404597 -0.1113316 0.062181048 0.032225553
-0.07026691 0.023488991 -0.247286 0.029435467 0.29760405 -0.11420742 -0.012421602 0.3826415
0.011542756 0.07249321 0.07001504 -0.20725271 -0.073549785 0.10559187 0.09560395 -0.20838225
0.2829087 0.23469031 0.048351455 0.03974304 0.13745312 -0.025770834 0.30519518 0.05906957
00000000: 3fb5 483d ea85 ba3d 52d9 553e 047c d4bc
00000010: b4a9 703c d669 893e 8924 cbbe 939a 05be
00000020: ea2f 89be 008d 57be 29c6 36bd fa7c ed3d
00000030: 73c8 0a3e 36b9 babc 6b10 553e 3dfa 20be
00000040: 5165 1e3e 7e11 c5bd 89b5 93bd 934d b5be
00000050: 0f85 5d3d 063f 723d e9ee e73d 2e59 053f
00000060: f518 aebe e90b 9ebd 4bc9 f8bd db1e 97be
00000070: 7880 39be f21a 9c3e 772f e63c 8404 29be
00000080: fcc3 b63e f7ca 5ebc 2cf5 44be 8539 1bbb
00000090: 189d a33d 1173 6e3d 529c 623d 55b7 20bd
000000a0: 924e 4d3e a7c7 073e c228 90bd 78e4 a83d
000000b0: 8733 8abe 2662 bb3d 62a4 963d 020b 9a3e
000000c0: 0105 84be 2bd8 a9bc 61dc 903e 7e37 bdbc
000000d0: 31ff 48be e743 e03d a40b 1d3e 4ccf c5bc
000000e0: 00ad 383e ce2a 3bbd c9c2 123e 558c 853e
000000f0: 66bb a6bc c393 4bbd f72b 53bf b76d 603e
00000100: f276 97be fe05 6e3e e459 a3be 3474 c8b9
00000110: 4c64 753d 36f2 acbd af7a 153e 9b7f ac3e
00000120: f2d2 83be a3e8 503e 14ba 91be 877f a9be
00000130: 682f e13b 8365 08be 7374 b1bd d6a3 b4bd
00000140: 4220 9a3c 9b0c 143e 114d 78bd c30a f73e
00000150: bc57 f23d b183 83be 3d3d 323e 1397 413d
00000160: 520c 493e 8df8 583e 13e0 49be 97f8 93bd
00000170: e458 a53d 4dc2 8fbe 0ff8 0d3d 7cd2 103d
00000180: 17bc 92bd 0be4 90ba e7be ee3d ad47 e8bd
00000190: d7ee 7c3e 7053 513d 887d 1abe a787 f93d
000001a0: 0464 9dbb fb8f 3bbe 73f3 2f3e 6e67 d23d
000001b0: 3a72 4f3e 58e0 8e3e e85a 863e de41 f53d
000001c0: 3e61 3a3e a6c7 073e 2524 cb3d 12f4 9f3d
000001d0: e11f de3e 0707 32be 2d1e a8bd f2bd 9c3d
000001e0: dae6 34be beda ae3d d9c0 4b3d 2d47 1abe
000001f0: da49 77bd 856b cabb d140 c43d 06ab a5bd
00000200: 7af9 c2bd 900e 8b3e 1ea9 c33c 4ded cb3d
00000210: cbb0 823e ba8a 9f3d c058 a63d 0bed 663e
00000220: d308 79bd 98bc c33e e083 05bd 6f04 923d
00000230: 836c 9d3e 3416 c9bd 4898 623e 4129 a5bf
00000240: 80ca a1be aa20 d4bd f240 343e 7c99 cdbb
00000250: fb45 c13d 86fc 023f 691b 1bbe 5a23 db3c
00000260: 5932 873d a240 c3be 23a8 c63d a642 083f
00000270: 133e 06be baa0 493c e229 123e 26ed 20be
00000280: d1f5 ccbc 3d04 46be 4580 64be 3308 f5bd
00000290: 38aa 953d 3dff 8f3d 8a9a 0abd 0d48 df3e
000002a0: 0beb 8bbd f5a7 87be 5bdd 5c3e dbcc 1e3d
000002b0: 9575 e43c 4714 933e 285c e1bd f90a 9dbd
000002c0: 952c a63d 3605 233e b287 ba3c 6acf 233e
000002d0: 6c2b 813c 9afd ee3d ebfd e53e defc 1dbe
000002e0: 4a22 53be db1e 083e cc00 bcbd 82ef 323d
000002f0: 34bf 89bd 74e9 41bd 557f d33d c6e2 13bc
00000300: ed33 9dbe c468 4fbe dd86 3a3e c05b 10bd
00000310: 2584 14bd 4014 2cbe d705 f83c c237 72be
00000320: 0b23 04be e05f 9ebe d347 acbc 7090 673d
00000330: 6577 7bbf d4b7 09be 0771 1bbe 6f7e d1bd
00000340: f358 02be b5b3 633c 9cb1 5dbd c7a8 603c
00000350: a58a 1b3e 8afd 5cbd 60f5 b5bd d03b 703e
00000360: 62cd 81bd dd93 61bd 8f6e aa3e ded7 1f3c
00000370: 9195 883d aedd bc3d 0d8a 5dbd 24e0 cabd
00000380: afe4 d9bd 7c52 973d 0e31 0abd fe81 9b3e
00000390: 0e16 d53d d201 e4bd 8eb1 7e3d f1fe 033d
000003a0: 19e8 8fbd fc6b c03c 8b38 7dbe a622 f13c
000003b0: 8f5f 983e 94e5 e9bd fa83 4bbc 96e9 c33e
000003c0: d41d 3d3c 5277 943d 0c64 8f3d 0e3a 54be
000003d0: 45a1 96bd 8d40 d83d 01cc c33d 2862 55be
000003e0: 69d9 903e a852 703e 2d0c 463d 99c9 223d
000003f0: 83c0 0c3e 5b1d d3bc 8b42 9c3e eff2 713d

module.conv1T.bias f4 [64]
0.06065654 -0.052474294 -0.027036237 -0.025687493 0.03163323 0.046121623 0.1358173 0.14246553
0.014408568 0.022646734 0.06284144 -0.12703823 -0.117055945 0.03405633 -0.20583889 0.12695839
-0.01365349 0.109158285 0.0888159 0.010309591 0.1023883 0.06704506 0.06709835 0.09155543
0.041291215 0.046523593 0.10491253 0.08239987 -0.016842648 0.027833492 0.027997429 0.03673619
-0.0021040712 0.07581068 0.086153574 -0.002735386 -0.061087243 0.03349655 0.0817873 0.020991059
0.012548761 0.057659715 0.052082974 0.07632402 0.13309735 0.11015517 0.15484789 0.056779105
-0.038241543 0.06334971 0.013876379 0.021368047 -0.004894868 0.04145346 0.016030444 0.08167424
0.02450657 0.0245134 0.09712072 0.038859844 0.044948388 0.14955723 0.080528475 0.047486868
00000000: fe72 783d 49ef 56bd 197b ddbc 946e d2bc
00000010: d991 013d 07ea 3c3d b113 0b3e 7ce2 113e
00000020: ea11 6c3c a585 b93c 03b3 803d 4f16 02be
00000030: 07bb efbd a67e 0b3d 6ec7 52be 6101 023e
00000040: e3b2 5fbc 618e df3d 1ce5 b53d 8fe9 283c
00000050: f5b0 d13d ec4e 893d dc6a 893d 6a81 bb3d
00000060: fa20 293d 868f 3e3d 61dc d63d 43c1 a83d
00000070: 98f9 89bc 1003 e43c dd5a e53c b078 163d
00000080: 75e4 09bb a142 9b3d 4971 b03d 2944 33bb
00000090: 9e36 7abd ae33 093d 1a80 a73d 71f5 ab3c
000000a0: 5299 4d3c 982c 6c3d f554 553d c54f 9c3d
000000b0: ac4a 083e 0999 e13d 7290 1e3e 3591 683d
000000c0: 2aa3 1cbd 7ebd 813d c059 633c 0b0c af3c
000000d0: 2165 a0bb 1acb 293d 4752 833c d344 a73d
000000e0: 01c2 c83c 53d0 c83c 3ae7 c63d 802b 1f3d
000000f0: cd1b 383d 8825 193e 1dec a43d 9781 423d

module.conv2T.weight f4 [64, 32, 3, 3]
0.27259755 0.42335775 0.28611094 0.26855305 0.38537192 0.5542813 0.088323385 0.15389253
0.32484564 0.0627297 0.2983675 0.32589018 0.10090516 0.5888865 0.04472149 0.3360291
0.34663025 0.22019924 0.36144894 0.20284559 -0.045201328 0.0673528 0.6218924 0.116129704
-0.20790862 0.34292406 0.22650658 -0.2016522 -0.016171526 0.41233405 0.03389163 0.41235122
0.25843155 0.48371783 0.16920328 -0.007978513 0.0378256 -0.13229522 -0.032426473 0.42340463
0.35210067 0.04970162 0.22929995 -0.0851926 0.09788388 0.031167412 -0.09991337 0.2911195
0.6914391 0.48430738 0.07342633 0.38011587 -0.13798115 -0.19463708 0.16075958 -0.1409918
0.28082567 0.39558682 0.23133004 -0.1337492 0.18727376 0.09099017 0.0844046 -0.1207706
0.018096104 0.31637025 0.22248088 0.4351845 0.099881425 0.15677679 0.24699563 0.07966823
0.18839741 0.17258045 -0.07007713 0.6622326 0.6053906 -0.16112165 0.28489813 0.177812
0.23251249 -0.093131945 0.3956902 0.27479348 0.16011545 0.43617812 -0.025229702 0.24500293
0.24037278 0.23635218 -0.030171856 -0.03294232 0.15991911 0.22361611 0.19924055 -0.055472564
0.12769306 0.11102368 0.06855895 0.48300442 0.059687715 0.088620834 0.12493011 0.25956678
-0.08468393 0.2968446 0.20020834 0.20506991 0.28515923 0.13271211 0.007027873 0.36919448
0.48083007 0.1596277 0.4525365 0.15497695 0.13056622 -0.08553944 -0.13586754 0.13036305
0.3004994 0.48562455 -0.0034157 0.30027962 -0.12220735 0.15295157 0.12083882 -0.08082571
0.42182592 0.18797286 0.1081333 0.04013812 0.20127825 0.20322397 0.013321342 -0.12819137
-0.1664906 0.12210827 0.3941342 0.2961833 -0.028779125 -0.012943952 0.09055453 -0.05704329
0.074434854 -0.013738981 0.12073358 0.16662566 0.51063377 0.037511773 0.039157003 0.1646243
0.104590505 0.10498008 0.22786844 -0.14445806 0.2638762 0.21892028 -0.008662767 -0.14370294
0.3606676 0.3249587 -0.19867311 -0.30753934 0.48946252 0.3613765 0.4700273 0.33658454
0.17469347 0.022607835 -0.0062859887 -0.25774255 0.08616039 0.35720053 0.16483444 0.2361566
0.7982482 0.2513919 0.18762365 0.1153391 -0.0051078605 0.013890204 -0.026506118 0.5666598
0.49478346 0.06374316 -0.12089741 -0.013489244 0.3083179 0.18060893 0.18292628 0.09148656
0.17088096 0.3462868 -0.012797321 0.23407759 0.34583038 0.13051243 -0.33064747 0.26295665
0.25489926 0.12586363 0.3600675 0.6637469 0.16451992 0.20906284 0.2316678 0.13663903
0.041528072 0.1845833 0.03368498 0.3769137 0.13319537 0.26417607 0.17365375 0.020526517
0.035665706 0.00026106328 0.22401908 -0.010974198 0.6270152 0.051584397 0.14525975 0.42603603
0.040427126 0.16790937 -0.023620252 0.04723627 0.060318276 0.25239536 0.10927661 0.21060458
0.040205557 0.27954695 0.20698592 -0.0725321 0.24743517 0.32758573 0.44113404 -0.08160726
0.29717672 0.022672355 0.062066104 -0.120563015 0.33715174 0.1720945 0.2788091 0.1377143
0.24837285 -0.07685398 0.2297754 0.26025057 0.094159074 0.22343619 0.10515797 0.14306687
00000000: e891 8b3e 59c2 d83e 227d 923e c97f 893e
00000010: 784f c53e 61e5 0d3f e4e2 b43d 0196 1d3e
00000020: 2b52 a63e 6e78 803d a0c3 983e 14db a63e
00000030: 5da7 ce3d 44c1 163f e22d 373d 020c ac3e
00000040: 8579 b13e e97b 613e d60f b93e c1b6 4f3e
00000050: 0725 39bd 44f0 893d 5734 1f3f 69d5 ed3d
00000060: ffe5 54be be93 af3e 57f1 673e ea7d 4ebe
00000070: 267a 84bc 731d d33e f3d1 0a3d b31f d33e
00000080: 2451 843e dda9 f73e a043 2d3e 4fb8 02bc
00000090: 04ef 1a3d 6678 07be 9fd1 04bd 7ec8 d83e
000000a0: 8a46 b43e ed93 4b3d 9bcd 6a3e 7579 aebd
000000b0: 5877 c83d cd52 ff3c 629f ccbd 9d0d 953e
000000c0: 2702 313f 23f7 f73e 8b60 963d 8c9e c23e
000000d0: ee4a 0dbe f14e 47be 299e 243e 2860 10be
000000e0: 62c8 8f3e 5b8a ca3e c8e1 6c3e 8df5 08be
000000f0: b1c4 3f3e 0e59 ba3d 52dc ac3d 9456 f7bd
00000100: 483e 943c 48fb a13e 07d2 633e 81d0 de3e
00000110: a28e cc3d 188a 203e 6cec 7c3e 1929 a33d
00000120: 40eb 403e eeb8 303e 9984 8fbd 1388 293f
00000130: e1fa 1a3f 13fd 24be 2bde 913e 5914 363e
00000140: c117 6e3e f6bb bebd e897 ca3e bbb1 8c3e
00000150: 4ef5 233e bd52 df3e 85ae cebc 0ce2 7a3e
00000160: 4824 763e 4e06 723e f82a f7bc 87ee 06bd
00000170: d6c1 233e 9ffb 643e b705 4c3e 3337 63bd
00000180: f8c1 023e 6260 e33d a368 8c3d 5b4c f73e
00000190: 1b7b 743d d77e b53d 5cdb ff3d f0e5 843e
000001a0: c56e adbd 04fc 973e 6a03 4d3e d9fd 513e
000001b0: 6400 923e afe5 073e 124a e63b 0f07 bd3e
000001c0: 5c2f f63e 7275 233e ddb2 e73e 47b2 1e3e
000001d0: 27b3 053e 4d2f afbd dc20 0bbe e47d 053e
000001e0: 0fdb 993e c8a3 f83e f0d9 5fbb 40be 993e
000001f0: d947 fabd 569f 1c3e 587a f73d f387 a5bd
00000200: 91f9 d73e f57b 403e fe74 dd3d df67 243d
00000210: e31b 4e3e f219 503e c241 5a3c 9944 03be
00000220: 837c 2abe e713 fa3d f5cb c93e 56a5 973e
00000230: 33c2 ebbc df12 54bc a774 b93d 3aa6 69bd
00000240: 4d71 983d 7719 61bc 2b43 f73d eb9f 2a3e
00000250: e5b8 023f f2a5 193d 1863 203d 4693 283e
00000260: 8c33 d63d ccff d63d 5856 693e d0ec 13be
00000270: c81a 873e a32c 603e 47ee 0dbc dd26 13be
00000280: 6ca9 b83e fd60 a63e f770 4bbe cc75 9dbe
00000290: d59a fa3e 5706 b93e 6ba7 f03e cf54 ac3e
000002a0: d8e2 323e 1134 b93c b2fa cdbb d5f6 83be
000002b0: dc74 b03d fde2 b63e 5cca 283e 09d3 713e
000002c0: fe59 4c3f 70b6 803e 6a20 403e e836 ec3d
000002d0: d75f a7bb bd93 633c 5c23 d9bc 9e10 113f
000002e0: 4254 fd3e c68b 823d 1099 f7bd fd01 5dbc
000002f0: d8db 9d3e 8cf1 383e 0751 3b3e 4e5d bb3d
00000300: 6bfb 2e3e 814c b13e dbab 51bc 09b2 6f3e
00000310: ae10 b13e 0da5 053e a04a a9be 41a2 863e
00000320: 2882 823e 65e2 003e c45a b83e 51eb 293f
00000330: e977 283e 9214 563e 533a 6d3e 1aeb 0b3e
00000340: 5719 2a3d 6803 3d3e 43f9 093d d5fa c03e
00000350: 5e64 083e 1642 873e 4ad2 313e 3a27 a83c
00000360: 3416 123d 52df 8839 4265 653e 1fcd 33bc
00000370: 1184 203f 294a 533d f9be 143e 6521 da3e
00000380: ea96 253d 6ff0 2b3e 427f c1bc d27a 413d
00000390: 4c10 773d f739 813e 6acc df3d baa8 573e
000003a0: 95ae 243d c720 8f3e 1ef4 533e b68b 94bd
000003b0: a55f 7d3e 51b9 a73e 52dc e13e b521 a7bd
000003c0: 8c27 983e 60bb b93c 0739 7e3d bee9 f6bd
000003d0: 279f ac3e 8a39 303e 11c0 8e3e fa04 0d3e
000003e0: 7455 7e3e 9f65 9dbd 3e4a 6b3e 903f 853e
000003f0: 79d6 c03d 75cc 643e 105d d73d 1f80 123e

module.conv2T.bias f4 [32]
-0.06193915 0.060101636 0.21085106 0.32886064 -0.090490356 0.2704944 0.22514552 0.12579228
0.0065320893 0.1570439 0.22632381 -0.10056087 0.2067512 0.02388779 0.060813554 0.17315556
0.15695569 0.06984337 0.029506456 -0.0027949081 0.055233438 0.034688383 -0.09264934 0.0016717922
0.17916375 -0.009085985 0.1901963 -0.019733138 0.1694493 0.32106367 -0.064604744 -0.6186087
00000000: e8b3 7dbd 222d 763d 57e9 573e 6c60 a83e
00000010: 0253 b9bd 3e7e 8a3e 8c8c 663e b1cf 003e
00000020: 230b d63b 1ed0 203e 6ec1 673e dbf2 cdbd
00000030: 96b6 533e 54b0 c33c a217 793d b14f 313e
00000040: feb8 203e 0a0a 8f3d 86b7 f13c c72a 37bb
00000050: 753c 623d 6815 0e3d f0be bdbd 0a20 db3a
00000060: b476 373e 62dd 14bc d2c2 423e 64a7 a1bc
00000070: 1e84 2d3e 7562 a43e 7e4f 84bd 245d 1ebf

module.conv3T.weight f4 [32, 16, 3, 3]
0.04478512 -0.30752465 -0.056809433 0.017029518 -0.5752238 -0.27937457 0.1153031 -0.64890975
-0.00073275005 -0.037551913 -0.22790463 -0.085369155 -0.029200083 -0.45669255 -0.46783322 -0.0082867835
-0.22325186 -0.15777929 -0.08050306 -0.10043747 -0.117228195 -0.111001424 -0.2099642 -0.33597866
-0.055348158 -0.09118553 -0.22386284 0.047550566 0.18785685 -0.37773764 0.15587506 -0.012872052
-0.89864343 -0.244305 -0.08763495 -0.26997268 -0.25377932 -0.43017423 -0.18681169 0.121451184
-0.16738646 -0.22497392 0.027368482 -0.8776832 -0.13389343 0.028453019 -0.027928848 -0.25628948
-0.112602375 -0.08671759 -0.3132598 -0.12516892 -0.19043383 -0.24029319 -0.215062 -0.18590106
-0.09849272 0.117551856 -0.2085575 -0.45503265 -0.019955322 -0.39815933 -0.339483 -0.0039107017
0.0339109 -0.17003869 -0.007950925 -0.025909716 -0.3365104 -0.03303619 -0.020290209 -0.32970098
0.05031297 -0.129874 -0.12714484 -0.04428357 0.055712324 -0.26331997 0.07513458 0.10161302
-0.39876726 0.18877713 -0.23774259 -0.14888681 0.06593642 -0.32327682 -0.2561998 -0.018752411
-0.3311019 -0.06665699 -0.16007517 0.030230656 -0.0750991 -0.068818875 -0.34343022 -0.33841613
-0.03414387 -0.2081029 -0.13736834 -0.051744156 0.015157132 -0.17669302 0.10350681 -0.15853977
-0.29579148 -0.031358875 -0.462049 -0.046256755 0.10426085 0.02266482 -0.22071806 0.009867071
-0.5152994 -0.5053661 -0.033833105 -0.6030198 -0.04677823 -0.042778194 -0.26340285 -0.08785086
0.116799146 -0.434234 -0.2657867 0.014188854 -0.403193 -0.11709821 -0.1743836 -0.3200922
-0.2524472 0.038540397 0.1096051 -0.17571731 0.019914104 0.04130751 -0.39060006 -0.0740109
0.026827166 -0.14887637 -0.0017377264 -0.30779412 -0.29808387 -0.047083817 -0.41572696 -0.13008629
-0.35343304 -0.32831687 -0.30260956 -0.23862042 -0.16441959 -0.023889221 -0.15259835 -0.0147322975
0.13703227 -0.6674332 -0.57378274 -0.47302473 -0.04476456 -0.55276155 -0.10688976 0.018281752
-0.04122731 0.06901967 -0.11138326 -0.05679543 -0.041889574 0.00024716425 -0.036609486 0.0539583
-0.019948926 -0.009583966 0.20126499 -0.25378653 -0.0654952 -0.23281671 0.08956435 0.043578424
0.030154575 0.5451808 0.34127566 0.20278183 -0.18561387 -0.43983603 -0.30158263 -0.1823689
-0.22388054 -0.10377023 -0.0032889019 -0.054797042 0.10484976 -0.13325325 -0.1643521 -0.2703885
-0.29147705 -0.14852771 0.15333058 0.074628934 0.1653175 0.33023944 -0.19944713 -0.44416463
-0.22912073 -0.399809 -0.37136778 0.09165027 0.011725117 -0.0764855 0.6359038 -0.18512733
-0.4897349 -0.30586636 -0.07275779 -0.19740556 -0.0642148 0.19313611 0.2522901 0.019333448
0.2551656 -0.15111 -0.4567942 -0.23114966 -0.2690861 0.041064493 -0.029012462 0.109913364
0.27070272 0.015750183 -0.40186673 -0.05206442 -0.2672903 -0.3794276 0.22102885 0.19126043
-0.3045295 0.7439525 -0.1797971 -0.049209267 -0.02432539 -0.08619455 -0.20127241 -0.0474199
0.12174251 -0.016979171 0.27084818 -0.29477015 -0.22348917 -0.090031974 -0.012545253 -0.1896982
0.19638497 0.15062621 0.20910546 0.47633383 -0.47970352 -0.3905724 -0.4006299 0.050691053
00000000: 9a70 373d df73 9dbe 02b1 68bd 7d81 8b3c
00000010: de41 13bf 2f0a 8fbe 0824 ec3d f31e 26bf
00000020: 0616 40ba 09d0 19bd d55f 69be 06d6 aebd
00000030: 0335 efbc 9bd3 e9be d687 efbe 4ac5 07bc
00000040: 239c 64be e590 21be cade a4bd 29b2 cdbd
00000050: 5615 f0bd b754 e3bd db00 57be 6505 acbe
00000060: c0b4 62bd 7bbf babd 4d3c 65be 62c4 423d
00000070: 8c5d 403e d466 c1be b69d 1f3e 4de5 52bc
00000080: 7f0d 66bf 172b 7abe f479 b3bd dc39 8abe
00000090: 5def 81be cc3f dcbe 904b 3fbe 66bb f83d
000000a0: 5b67 2bbe 905f 66be de33 e03c d9af 60bf
000000b0: 5c1b 09be 4e16 e93c 0acb e4bc 6038 83be
000000c0: 139c e6bd fe98 b1bd 9763 a0be 482c 00be
000000d0: 1601 43be 6b0f 76be 3739 5cbe d95c 3ebe
000000e0: 8db6 c9bd 07bf f03d 1990 55be 0afa e8be
000000f0: 5879 a3bc 8adb cbbe b7d0 adbe 5825 80bb
00000100: 28e6 0a3d 9f1e 2ebe 9944 02bc 9d40 d4bc
00000110: 174b acbe f550 07bd a737 a6bc 91ce a8be
00000120: f914 4e3d b1fd 04be 4232 02be b062 35bd
00000130: 9b32 643d e0d1 86be 29e0 993d 7d1a d03d
00000140: 392b ccbe cb4e 413e cb72 73be c975 18be
00000150: ac09 873d 8a84 a5be 9f2c 83be a89e 99bc
00000160: 3086 a9be 7683 88bd bfea 23be 48a6 f73c
00000170: 8fcd 99bd e9f0 8cbd 16d6 afbe e144 adbe
00000180: 71da 0bbd ed18 55be 49aa 0cbe aef1 53bd
00000190: 9f55 783c 04ef 34be 61fb d33d 4058 22be
000001a0: fb71 97be 2a72 00bd b091 ecbe b977 3dbd
000001b0: b686 d53d 93ab b93c ea03 62be 7fa9 213c
000001c0: a9ea 03bf ac5f 01bf 9594 0abd 815f 1abf
000001d0: 889a 3fbd 3038 2fbd bddc 86be 27eb b3bd
000001e0: 6434 ef3d eb53 debe 3215 88be 5e78 683c
000001f0: 506f cebe 30d1 efbd 9d91 32be 20e3 a3be
00000200: c240 81be 89dc 1d3d a378 e03d 3def 33be
00000210: e722 a33c 1032 293d bbfc c7be 0793 97bd
00000220: a5c4 db3c 0c73 18be 6cc4 e3ba 3197 9dbe
00000230: 739e 98be f6da 40bd 2ada d4be 5735 05be
00000240: 2df5 b4be 2619 a8be a4ef 9abe e958 74be
00000250: 9c5d 28be 54b3 c3bc be42 1cbe bc5f 71bc
00000260: 3052 0c3e e7dc 2abf 6de3 12bf 4c30 f2be
00000270: 0b5b 37bd c881 0dbf 05e9 dabd 9dc3 953c
00000280: f8dd 28bd 2f5a 8d3d e81c e4bd 53a2 68bd
00000290: 6794 2bbd d395 8139 d4f3 15bd 6103 5d3d
000002a0: ee6b a3bc 1106 1dbc 6918 4e3e 4ff0 81be
000002b0: 5922 86bd 8167 6ebe 846d b73d 4a7f 323d
000002c0: ba06 f73c f890 0b3f afbb ae3e 0aa6 4f3e
000002d0: 9011 3ebe 3032 e1be 0a69 9abe eabe 3abe
000002e0: f140 65be 7d85 d4bd 9e8a 57bb dd72 60bd
000002f0: 79bb d63d 8a73 08be eb4b 28be 5d70 8abe
00000300: 7b3c 95be a617 18be b102 1d3e 0ed7 983d
00000310: fe48 293e 2515 a93e de3b 4cbe 8c69 e3be
00000320: a09e 6abe c4b3 ccbe eb23 bebe 23b3 bb3d
00000330: b51a 403c 6ea4 9cbd 97ca 223f 0592 3dbe
00000340: 88be fabe 849a 9cbe 0902 95bd af24 4abe
00000350: 0d83 83bd 79c5 453e 2b2c 813e 2e61 9e3c
00000360: 11a5 823e 94bc 1abe eee0 e9be 7fb2 6cbe
00000370: a7c5 89be 3e33 283d 8bab edbc 421a e13d
00000380: 8c99 8a3e 8706 813c 7ac1 cdbe 8041 55bd
00000390: 46da 88be 5644 c2be 6355 623e c6d9 433e
000003a0: 4aeb 9bbe ac73 3e3f bb1c 38be a88f 49bd
000003b0: 0a46 c7bc c586 b0bd 5b1a 4ebe 5e3b 42bd
000003c0: 2354 f93d e717 8bbc 9dac 8a3e 1dec 96be
000003d0: 58da 64be af62 b8bd 9b8a 4dbc 3f40 42be
000003e0: 2419 493e c23d 1a3e be1f 563e 07e2 f33e
000003f0: b39b f5be 1bf9 c7be 5d1f cdbe 6ca1 4f3d

module.conv3T.bias f4 [16]
-0.029602066 0.2947313 -0.1864978 -0.110747345 -0.86251813 -0.016022611 0.37078542 0.4916562
0.15203317 0.31893378 -0.037666284 -0.0809762 -0.17871445 -0.044360887 0.055115044 0.40440255
00000000: 0880 f2bc 05e7 963e 47f9 3ebe 81cf e2bd
00000010: fdcd 5cbf da41 83bc 96d7 bd3e 5dba fb3e
00000020: 95ae 1b3e 4a4b a33e f647 1abd dad6 a5bd
00000030: ec00 37be c3b3 35bd 50c0 613d da0d cf3e
