theta_run_birds/exp-single-file-three-dim-full-node/conv_autoencoder.pth (torch, 854505 bytes, 19 tensors)

module.conv1.weight f4 [16, 1, 3, 3]
0	0x3a3d7094	0.0007226553
1	0x3ce2e2ba	0.027696002
2	0xbc6d9fa4	-0.014503393
3	0xbe1cf4bb	-0.15327732
4	0x3dfee113	0.12445273
5	0x3e690853	0.22757082
6	0x3e4f0fd7	0.20220886
7	0xbc59b09d	-0.013286737
8	0x3e4f6e99	0.20257033
9	0xbeac94e0	-0.33707333
10	0x3ea1edfa	0.31626874
11	0xbe7eebbb	-0.24894612
12	0xbdd901d7	-0.10596054
13	0x3e189b02	0.14902881
14	0x3e75b7be	0.23995873
15	0xbdfca10a	-0.12335403
16	0x3e57dd81	0.21080591
17	0xbd9c39df	-0.076282255
18	0x3df5a9c0	0.11995268
19	0x3de20cbf	0.110375874
20	0x3e232f91	0.15936114
21	0xbe0274e7	-0.12739907
22	0x3bbbbdd7	0.005729418
23	0xbe8fb7f9	-0.28070047
24	0x3e613d51	0.21996047
25	0xbe8715ac	-0.26383722
26	0xbe5cbd88	-0.21556675
27	0xbe2c0ad9	-0.16801013
28	0xbdf0da82	-0.11760427
29	0xbe7dea9f	-0.24796532
30	0x3ddfd8c5	0.109300174
31	0x3dc9be51	0.09850753
32	0x3e115243	0.14191537
33	0x3e6c7c9c	0.2309441
34	0xbcf0977a	-0.029369105
35	0x3d3ade35	0.04562207
36	0x3d8de779	0.069289155
37	0xbe648976	-0.22318062
38	0xbea0a5fb	-0.31376633
39	0xbe6000b2	-0.21875265
40	0x3dbf197e	0.09331034
41	0x3d8a67e3	0.06758096
42	0x3e1676c3	0.14693742
43	0xbdfcaf9b	-0.123381816
44	0x3e10eacd	0.1415207
45	0x3e8f392d	0.2797331
46	0xbdd500e8	-0.104005635
47	0xbd294dbd	-0.041333903
48	0xbeb2bb19	-0.3490837
49	0xbeac176e	-0.33611625
50	0x3e3c6efb	0.1840171
51	0xbd842f03	-0.06454279
52	0xbe838550	-0.25687647
53	0xbe880aa3	-0.26570615
54	0xbda320c4	-0.07965234
55	0xbe323824	-0.17404228
56	0x3e8156e1	0.25261596
57	0x3d34959f	0.044088002
58	0x3e2e8aab	0.17045085
59	0x3df61827	0.120163254
60	0xbe51ea2c	-0.20499486
61	0xbe11bf7e	-0.14233205
62	0xbcda648d	-0.026659274
63	0xbc29f807	-0.010374076
64	0xbe065e95	-0.13122018
65	0xbe79098f	-0.24320053
66	0xbe732230	-0.2374351
67	0x3e2cfd1e	0.16893432
68	0x3e18cdab	0.14922206
69	0xbe787f5e	-0.24267337
70	0xbe874b85	-0.26424804
71	0xbe05c022	-0.13061574
72	0x3e987760	0.29778576
73	0x3d439bb6	0.04775592
74	0xbdc26110	-0.094911695
75	0xbe9ba7e5	-0.3040153
76	0x3dbc666c	0.09199223
77	0x3e495373	0.1966074
78	0xbe117b56	-0.14207205
79	0x3e5e1168	0.21686327
80	0xbd852555	-0.06501261
81	0x3e95cfbc	0.2926005
82	0x3e810e65	0.25206295
83	0x3dbfee75	0.09371654
84	0x3e0f8737	0.14016424
85	0xbddfe318	-0.109319866
86	0x3e045fa5	0.1292711
87	0x3d888858	0.066666305
88	0x3c15b4e2	0.009137364
89	0x3dd5e6bb	0.10444399
90	0xbc6ca5eb	-0.014443855
91	0xbdc0f149	-0.094210215
92	0x3e89a5ab	0.26884207
93	0xbe369acf	-0.17832492
94	0xbe3a480a	-0.18191543
95	0xbe164284	-0.14673811
96	0xbe2e84fb	-0.17042916
97	0xbbaea307	-0.005329493
98	0x3e3148f7	0.1731299
99	0x3e20ad4f	0.15691112
100	0xbda76769	-0.08174021
101	0x3de760a2	0.11297728
102	0x3e1a0861	0.15042259
103	0xbe85b665	-0.26115718
104	0xbd69d542	-0.057088144
105	0xbe8a21b3	-0.26978835
106	0xbdbcbb2b	-0.09215387
107	0x3e4e0ed4	0.20122844
108	0x3e88c0e8	0.26709676
109	0xbeaa63f3	-0.3327938
110	0x3d9b8748	0.07594162
111	0xbb45f63b	-0.003020658
112	0x3e04198a	0.12900367
113	0x3db2837b	0.08716484
114	0x3e85e799	0.26153257
115	0x3d8ae5ad	0.067820884
116	0x3dd20338	0.1025452
117	0xbe826e38	-0.25474715
118	0x3d06d97c	0.032922253
119	0xbe7ee1a3	-0.24890761
120	0xbe46f222	-0.19428304
121	0x3e31cf06	0.1736413
122	0xbe88fd11	-0.26755574
123	0xbc8a5c1a	-0.01688962
124	0xbe682afb	-0.22672646
125	0xbd1d168d	-0.038351584
126	0xbe121b42	-0.1426821
127	0xbc81ed59	-0.015860246
128	0xbe50f445	-0.20405681
129	0xbe3d4e2e	-0.18486854
130	0xbe8cbab3	-0.2748619
131	0x3d679af3	0.056544255
132	0x3b8c9a9b	0.0042908913
133	0xbb64c659	-0.0034908263
134	0xbe4305e4	-0.19045216
135	0xbdee8c6c	-0.11647877
136	0xbe6ff0d4	-0.23431712
137	0x3ea59dfa	0.3234709
138	0xbe78be73	-0.242914
139	0x3e5b65d6	0.21425566
140	0xbd3cdd97	-0.046109762
141	0x3e4c955d	0.19978853
142	0x3dd9639d	0.10614703
143	0x3d8a7518	0.06760615

module.conv1.bias f4 [16]
0	0x3da7b74c	0.08189258
1	0xbe46f52c	-0.19429463
2	0xbe88ee82	-0.26744467
3	0x3cfc54ce	0.030802157
4	0xbe7dcff9	-0.24786367
5	0x3e8bf61a	0.27336198
6	0xbcb13529	-0.021631794
7	0x3eab6974	0.33478892
8	0xbda72888	-0.081620276
9	0x3d555793	0.05208547
10	0x3e446d3e	0.19182298
11	0x3ea06795	0.31329027
12	0x3e0f8a4e	0.14017603
13	0xbe51914b	-0.20465581
14	0x3d99e806	0.07514958
15	0xbea23235	-0.3167893

module.conv2.weight f4 [32, 16, 3, 3]
0	0x3d777559	0.060414646
1	0xbd829772	-0.06376542
2	0x3d785bd7	0.06063446
3	0x3c565e5c	0.01308402
4	0x3d925aba	0.07146211
5	0x3d40da02	0.04708291
6	0x3d8492c7	0.06473308
7	0x3d46b55f	0.048512813
8	0xbd95d3ec	-0.073158115
9	0xbda2e869	-0.07954485
10	0x3d845f9a	0.06463547
11	0xbdbacf29	-0.09121544
12	0xbd2cdf2b	-0.042205017
13	0x3c4ffab1	0.012694047
14	0x3c4de04e	0.012565685
15	0xbd7503ff	-0.059818264
16	0xbd80e094	-0.06292835
17	0xbb7f61c5	-0.0038968187
18	0xbdcb3701	-0.099226005
19	0xbce20602	-0.027590755
20	0xbdc09bbd	-0.09404705
21	0x3d128fc4	0.035781637
22	0xbcd136b1	-0.025538774
23	0xbddc08ec	-0.10743889
24	0x3ce2d176	0.02768777
25	0x3d821e80	0.06353474
26	0xbdaa7dea	-0.083247975
27	0xbc899952	-0.016796742
28	0x3d8eb43d	0.069679715
29	0x3cdbf72f	0.026851265
30	0x3d6af957	0.057366695
31	0xbc88af94	-0.016685285
32	0xbd538900	-0.051644325
33	0x3d850bc7	0.06496387
34	0xbd5e0646	-0.0542052
35	0xbd731fcf	-0.059356507
36	0xbc4de579	-0.012566918
37	0x3d071fc1	0.032989267
38	0xbd61774f	-0.055045422
39	0xbd00f7c2	-0.03148628
40	0x3afc538c	0.0019250973
41	0x3d03bb22	0.032160886
42	0xbd16d274	-0.036821797
43	0xbd694df6	-0.056959115
44	0xbdadda17	-0.08488863
45	0x3cce2029	0.02516182
46	0xbce0ac7b	-0.027425995
47	0xbd27e13f	-0.040986296
48	0x3d148cfd	0.03626727
49	0x3d509428	0.050922543
50	0xbd67ddf3	-0.05660815
51	0xbd0344a0	-0.032047868
52	0x3d11979f	0.035544988
53	0xbd3ab2c1	-0.04558063
54	0xbce82069	-0.028335767
55	0x3d151385	0.03639557
56	0xbd2468c6	-0.040138982
57	0x3d53c35a	0.051699974
58	0x3baa54be	0.0051980903
59	0xbd38be30	-0.045103252
60	0xbda0eb88	-0.07857424
61	0xbdb32833	-0.08747902
62	0xbd8fb578	-0.07017034
63	0xbd77dfa8	-0.06051603
64	0x3da7826b	0.08179172
65	0xbd442412	-0.04788596
66	0xbd60aa2e	-0.054849796
67	0x3dbcbbc9	0.09215505
68	0x3d5763d3	0.052585434
69	0x3d8b6239	0.06805844
70	0x3d24f2fb	0.040270787
71	0x3d9f7720	0.07786393
72	0xbcbd02f5	-0.0230727
73	0xbd2811ad	-0.041032482
74	0x3ca51b87	0.020154728
75	0x3cca1f52	0.024673138
76	0xbd848df5	-0.06472389
77	0xbdac3970	-0.08409393
78	0xbcf3938c	-0.029733442
79	0xbce4e264	-0.027939983
80	0x3d6769f4	0.05649753
81	0xbd85f41d	-0.065407015
82	0x3d994724	0.07484272
83	0x3d13f102	0.036118515
84	0x3d5c7863	0.053825747
85	0x3d0fde3b	0.035124045
86	0xbd80ee26	-0.06295423
87	0xbbb8f636	-0.005644585
88	0x3a7c7a95	0.0009631303
89	0xbbf8c580	-0.007591903
90	0xbc864e31	-0.016394706
91	0x3c542bbc	0.01294988
92	0xbd90f83f	-0.07078599
93	0xbc023c27	-0.007948912
94	0x3d412e37	0.047163215
95	0x3bc0148b	0.005861824
96	0x3caa4321	0.020783963
97	0xbd85d440	-0.06534624
98	0x3c6ed4da	0.014577115
99	0x3d6442dc	0.055727825
100	0x3d666d6b	0.056256693
101	0xbcf63ffc	-0.030059807
102	0xbd49197e	-0.049096577
103	0x3d80c828	0.06288177
104	0x3d7b9281	0.061419014
105	0x3d349b30	0.04409331
106	0x3d61e1ab	0.055146854
107	0xbcfa75ba	-0.030573715
108	0xbcbfd5c8	-0.023417369
109	0x3b8b4db2	0.0042512054
110	0x3cab2008	0.020889297
111	0x3cd01a69	0.025403218
112	0xbda17974	-0.078844935
113	0x3d92d282	0.071690574
114	0xbbb8d5d5	-0.005640725
115	0x3d145b79	0.036220048
116	0xbcad08a1	-0.021122279
117	0xbd93a6f3	-0.072095774
118	0x3d832717	0.0640394
119	0x3d5080c4	0.05090405
120	0xbd2a4343	-0.041568052
121	0xbdb048f5	-0.086076654
122	0xbe00a444	-0.12562662
123	0xbd19561f	-0.037435647
124	0x3c2c919b	0.010532762
125	0x3d612c5b	0.05497394
126	0xbc06c6cf	-0.008226111
127	0x3d83baf6	0.06432144
128	0x3d875bc5	0.066093005
129	0x3d230d26	0.03980746
130	0xbc0c991f	-0.008581429
131	0x3ce7bab5	0.028287271
132	0x3d7067c4	0.05869271
133	0x3cf59fda	0.02998345
134	0xbd845b89	-0.064627714
135	0xbce1b497	-0.027551932
136	0xbd84efdb	-0.06491061
137	0x3d0db8dc	0.034600124
138	0xbd755db9	-0.059903834
139	0xbc899c7d	-0.016798252
140	0x3c4c1f83	0.012458685
141	0xbd972ad9	-0.073812194
142	0x3d37e969	0.04490033
143	0xbc558c04	-0.013033871
144	0xbd42ddc5	-0.047574777
145	0xbd9c22ba	-0.07623811
146	0xbcf6ecb6	-0.03014217
147	0x3d94c09a	0.07263298
148	0xbcb95a01	-0.022625925
149	0x3d857a3f	0.06517457
150	0xbd8a258d	-0.067454435
151	0x3d760158	0.060059875
152	0xbd7ae851	-0.06125671
153	0x3c7c4a28	0.01539854
154	0xbc0dd44c	-0.008656573
155	0xbbe1c212	-0.00688959
156	0xbd7a7513	-0.061146807
157	0x3d45791e	0.04821121
158	0x3d69fb23	0.05712427
159	0xbd089f39	-0.03335497
160	0xbd84a21b	-0.06476232
161	0x3d9fc242	0.078007236
162	0xbd73b9bc	-0.059503302
163	0x3c99af85	0.018760452
164	0xbbda9921	-0.0066710864
165	0xbab7b16b	-0.0014014667
166	0xbdb14007	-0.0865479
167	0x3c3ae4b8	0.01140707
168	0xbd8d793a	-0.06907888
169	0xbd3b68b1	-0.04575414
170	0x3d12a567	0.03580227
171	0xbd1b0d82	-0.03785468
172	0xbd3b1ec9	-0.045683656
173	0x3d1e330a	0.038622893
174	0x3c712003	0.014717105
175	0x3d4c20b7	0.049835887
176	0xbd999d57	-0.07500713
177	0xbd912ab5	-0.07088224
178	0x3d8c94d1	0.06864322
179	0xbd6d7d7d	-0.057981003
180	0xbd1e50ec	-0.038651392
181	0xbd1c2784	-0.038123623
182	0x3d8c167b	0.06840225
183	0x3d102ebd	0.035200823
184	0xbcb4e2d8	-0.022080824
185	0xbd820c4a	-0.0635
186	0x3d58bdda	0.05291543
187	0x3d294283	0.041323196
188	0xbc563882	-0.013074996
189	0xbdd3517c	-0.10318276
190	0x3ccb5245	0.024819503
191	0x3d8323c8	0.06403309
192	0x3d2035a4	0.039113656
193	0xbdac4785	-0.08412079
194	0x3ba72aa1	0.0051015173
195	0x3c904fb5	0.017616132
196	0xbd710d8d	-0.058850814
197	0x3d5e9591	0.054341856
198	0x3ad06eaf	0.0015902127
199	0xbd52959b	-0.051412206
200	0x3d61bcb9	0.05511162
201	0xbd974e03	-0.073879264
202	0xbbe78492	-0.007065364
203	0xbd527b66	-0.051387213
204	0xbd9c8cd5	-0.07644049
205	0xbcec0bbc	-0.02881419
206	0x3d88c934	0.066790015
207	0xbc8aacae	-0.016928043
208	0xbca34cf6	-0.019934159
209	0x3b1f8a6b	0.0024343978
210	0xbd086be0	-0.033306003
211	0xbbf38076	-0.007431085
212	0xbd33c2bd	-0.04388689
213	0x3d120ea1	0.035658482
214	0x3d1a1772	0.037620015
215	0xbd73a2bd	-0.05948137
216	0x3d809dea	0.0628012
217	0xbd1c2db7	-0.038129535
218	0x3d847e51	0.064694054
219	0x3d06df58	0.03292784
220	0xbd4618c6	-0.04836347
221	0xbd8e0511	-0.0693456
222	0x3cd6e442	0.026231889
223	0xbda5e475	-0.08100215
224	0x3d47533a	0.048663355
225	0xbd645f05	-0.05575468
226	0xbc8114dd	-0.015757019
227	0xbc6abd60	-0.014327377
228	0x3d86b2f8	0.06577104
229	0x3c7b7521	0.01534775
230	0x3c9d609c	0.019211106
231	0xb98b68fa	-0.0002659036
232	0x3d6ba53f	0.057530638
233	0xbb70fcb2	-0.0036771712
234	0x3d666519	0.056248758
235	0x3d413331	0.04716796
236	0xbdbbaeab	-0.09164175
237	0xbd06d122	-0.03291429
238	0xbcf78237	-0.030213458
239	0x3c88aa8e	0.01668289
240	0xbd08714e	-0.03331118
241	0x3a93e491	0.0011283328
242	0xbcf536fc	-0.029933445
243	0x3d91f568	0.07126886
244	0x3d0b065d	0.033941615
245	0xbceec239	-0.029145347
246	0x3d86b9c3	0.065784
247	0x3c354c10	0.011065498
248	0xbdcfc37b	-0.10144707
249	0x3d2c0cee	0.04200452
250	0xbd5e860f	-0.054327067
251	0xbdc11b57	-0.09429043
252	0x3d25a78c	0.04044299
253	0xbcbc8274	-0.023011424
254	0x3d611901	0.054955486
255	0xbd5b0f8c	-0.053481624

module.conv2.bias f4 [32]
0	0x3d906581	0.0705061
1	0xbdbdf627	-0.092754655
2	0xbdc5cea4	-0.09658554
3	0xbddfd721	-0.109297045
4	0xbdda36f4	-0.10655013
5	0x3c8f8b36	0.017522436
6	0xbdd725bd	-0.10505245
7	0x3d4acf0a	0.049513854
8	0xbd109dba	-0.03530667
9	0xbd8c11b6	-0.068393156
10	0x3d9d523a	0.07681699
11	0x3dc448e4	0.09584215
12	0x3d9540e9	0.07287771
13	0x3c587d0c	0.013213407
14	0xbdb9e244	-0.0907636
15	0x3d4fbcb4	0.05071707
16	0xbd79c04b	-0.0609744
17	0x3d9e7df5	0.07738868
18	0xbd521fc3	-0.05129982
19	0xbd8c4441	-0.06848956
20	0xbdabe00c	-0.08392343
21	0xbd211f45	-0.03933646
22	0xbd95e3ae	-0.07318817
23	0x3d94fa6c	0.07274327
24	0xbd69f51f	-0.05711853
25	0x3cd86816	0.02641682
26	0xbb96d3eb	-0.0046028993
27	0x3d1069d4	0.035257176
28	0xbdb13400	-0.08652496
29	0xbd2ca6f4	-0.042151406
30	0x3dbf2edb	0.09335109
31	0x3d28b825	0.04119124

module.conv3.weight f4 [64, 32, 3, 3]
0	0x3bd2cc20	0.006433025
1	0xbcd3c1f0	-0.025849313
2	0xbd0709ff	-0.032968517
3	0x3c63a866	0.01389513
4	0x3d5b28fb	0.05350588
5	0x3be8df15	0.0071066716
6	0x3cb66cb0	0.022268623
7	0x3c8c64aa	0.017137844
8	0xbd29a270	-0.041414678
9	0x3bf5628e	0.0074885553
10	0x3d81ec76	0.063439295
11	0xbd0a15e7	-0.033712294
12	0xbd605053	-0.054764103
13	0xbcfbf369	-0.030755715
14	0xbd2f52e1	-0.04280365
15	0x3d76243c	0.06009315
16	0x3cc80ce4	0.02442021
17	0x3c96b2f0	0.01839587
18	0x39b69e53	0.00034831706
19	0xbb28f446	-0.0025780364
20	0x3d30b2cd	0.043139268
21	0x3d1b9e2f	0.037992653
22	0x3c8f3867	0.01748295
23	0x3d1b59eb	0.03792755
24	0x3d0826c3	0.03324009
25	0xbc8e67fc	-0.017383568
26	0x3c3c5e22	0.011497052
27	0xbcdb9d79	-0.026808487
28	0x3d1bf2bd	0.03807329
29	0x3d181fa0	0.037139535
30	0xbd791af1	-0.06081671
31	0xbd63f20c	-0.055650756
32	0xbd8d645c	-0.06903908
33	0x3c248793	0.010042089
34	0xbd0a9e9d	-0.03384267
35	0x3c2f410f	0.0106966635
36	0xbbea77e9	-0.0071554077
37	0xbd3b25a3	-0.04569019
38	0x3c1df484	0.009640817
39	0x3ca2c5aa	0.019869644
40	0x3d23aa9d	0.03995763
41	0xbd3f93c2	-0.046771772
42	0x3d0436c8	0.032278806
43	0xbd2df165	-0.04246654
44	0x3be9920b	0.0071280054
45	0x3c9b6783	0.018970257
46	0xbaa11e12	-0.0012292287
47	0xbcdb8c61	-0.026800336
48	0x3d267138	0.040635318
49	0x3cf5afb7	0.029991014
50	0xbd1575b5	-0.036489207
51	0xbc893b32	-0.01675186
52	0x3c8a4e96	0.016883176
53	0x3c3d6d0b	0.011561642
54	0xbd306456	-0.043064438
55	0x3d3e50e4	0.046463862
56	0xbc0cf4ce	-0.008603288
57	0xbced5a2b	-0.02897366
58	0xbd558edb	-0.05213819
59	0xbd1c021e	-0.038087957
60	0xbd04ef30	-0.03245467
61	0xbd614fe8	-0.055007845
62	0xbca49d07	-0.020094408
63	0x3beb3889	0.0071783704
64	0xbcf026aa	-0.029315311
65	0xbd86e55c	-0.065867156
66	0xbba509b8	-0.005036559
67	0xbd151099	-0.036392782
68	0xbc225c6e	-0.009909732
69	0xbd3cb484	-0.04607059
70	0x3c946675	0.018115262
71	0x3c80fb18	0.01574473
72	0xbd6a3225	-0.057176728
73	0xbd0da9bc	-0.0345857
74	0xbbd6db63	-0.0065569147
75	0x3c9a6ce0	0.018850744
76	0x3d1d0496	0.03833445
77	0x3c239650	0.009984568
78	0xbd4b49b2	-0.04963083
79	0xbd91290a	-0.07087906
80	0x3c5c2508	0.013436563
81	0xbd0d3516	-0.034474455
82	0xbcff34fc	-0.031153195
83	0x3c33b139	0.010967546
84	0x3d92d2ca	0.07169111
85	0xbcf9e404	-0.030504234
86	0x3d8c3b3d	0.06847236
87	0xbd59fb8d	-0.053218413
88	0x3d41c112	0.047303267
89	0xbd185e3c	-0.037199244
90	0xbc4341c7	-0.011917538
91	0x3d6f408b	0.058411162
92	0x3d652eba	0.055952765
93	0x3c623dbd	0.013808665
94	0x3cdb0c15	0.02673916
95	0x3bc8b6c5	0.0061253035
96	0x3d6afe80	0.057371616
97	0x3d55643b	0.05209754
98	0x3b92d291	0.004480668
99	0x3cd0f1e8	0.025505975
100	0xbd819eb1	-0.06329096
101	0xbcfddc49	-0.03098883
102	0xbd804da5	-0.062648095
103	0xbd6ce410	-0.057834685
104	0x3d0f2583	0.034947883
105	0xbd8cae97	-0.06869238
106	0xbd94a608	-0.072582304
107	0xbbd0caa9	-0.006371815
108	0xbc206452	-0.009789543
109	0xbc966485	-0.018358478
110	0xbd63d781	-0.055625442
111	0xbd554b14	-0.052073553
112	0x3cca044c	0.024660252
113	0xbc13a00c	-0.009010326
114	0x3d2320b3	0.039826106
115	0xbcef26d6	-0.029193323
116	0x3cf35b50	0.029706627
117	0x3b78a158	0.0037937965
118	0xbb6a930c	-0.0035793213
119	0x3d7404b1	0.059574787
120	0xbd11213f	-0.035432097
121	0x3cb9e1ab	0.022690615
122	0x3d37c9b7	0.044870105
123	0x3c9371ad	0.01799854
124	0xbc2e88f6	-0.010652771
125	0xbd66a088	-0.05630544
126	0xbd518d66	-0.05116024
127	0x3d193ef9	0.03741357
128	0x3c436203	0.011925223
129	0x3d3048dd	0.043038238
130	0x3cb52565	0.022112558
131	0x3c808bd1	0.01569167
132	0x3ad631cf	0.0016341748
133	0xbc3ac0bd	-0.011398491
134	0xbd5c5d21	-0.053799752
135	0xbc81d6cc	-0.015849493
136	0xbc9d54ae	-0.019205417
137	0xbbc094bc	-0.0058771055
138	0x3c9065d4	0.01762668
139	0x3c0aa24d	0.008461547
140	0xbcdc0b8c	-0.026860975
141	0x3d94b5ee	0.07261263
142	0x3c557b04	0.0130298175
143	0x3cbbdc16	0.022932094
144	0x3cf56b24	0.029958315
145	0xbd6fb99b	-0.058526617
146	0x3d91afee	0.07113634
147	0x3d2e870d	0.042609263
148	0x3ca3a8f7	0.01997803
149	0x3d28f778	0.04125163
150	0x3b880cc8	0.0041519143
151	0xbd7e5cfc	-0.062100396
152	0xbd765b47	-0.060145643
153	0x3c108215	0.0088200765
154	0xbd673e70	-0.05645603
155	0x3d535ec1	0.051604036
156	0x3d68d9f3	0.056848478
157	0xbd2a7ff9	-0.04162595
158	0xbd7770d2	-0.06041033
159	0xbd3a6afb	-0.04551218
160	0xbcd1d35f	-0.025613485
161	0xbc3f5ac3	-0.011679354
162	0x3c433d6a	0.011916498
163	0xbc32f2ef	-0.010922178
164	0x3ca28a2a	0.019841272
165	0x3cd3d096	0.025856297
166	0x3d4a51c7	0.049394395
167	0x3c8e749b	0.017389586
168	0x3ce54580	0.027987242
169	0x3c0e784c	0.008695673
170	0xbd9bb6d0	-0.07603228
171	0x3d04a9c3	0.03238846
172	0xbd2366a3	-0.039892804
173	0xbd8ac96b	-0.06776699
174	0x3c90dcfe	0.017683502
175	0x3a56bd49	0.0008191658
176	0xbd15c856	-0.03656801
177	0xbba203eb	-0.0049443147
178	0xbd312dcd	-0.04325657
179	0xbcaade3d	-0.020857925
180	0x3ce6df53	0.028182661
181	0xbc90d06c	-0.017677508
182	0x3d8f6cff	0.07003211
183	0x3d62bc63	0.05535544
184	0x3d4533ea	0.048145212
185	0x3b87807b	0.004135189
186	0x3d7dd333	0.061968993
187	0x3ab64f38	0.0013909107
188	0xbca5fa52	-0.020260964
189	0x3d175f1a	0.03695593
190	0xbd385526	-0.04500308
191	0xbd1edfd4	-0.038787678
192	0x3910d408	0.00013811898
193	0xbbfcc617	-0.007714044
194	0xbcd18ced	-0.025579894
195	0xbc8ecc05	-0.017431268
196	0xbd765d6c	-0.060147688
197	0xbdc032d1	-0.093846925
198	0x3c32a4a9	0.010903516
199	0x3d1cc867	0.038277056
200	0x3cc6a76a	0.024249751
201	0x3c9e2030	0.019302458
202	0xbcd6d868	-0.026226237
203	0x3d34cdce	0.044141583
204	0xbd1c7a3b	-0.038202506
205	0xbcfe2eba	-0.03102814
206	0xbccc3c49	-0.02493109
207	0xbcb7b669	-0.022425847
208	0x3d5f63ef	0.054538663
209	0x3c80fbd5	0.015745083
210	0x3b6e0f23	0.003632494
211	0xba8745e9	-0.0010320517
212	0xbc0659d7	-0.00820013
213	0x3d086610	0.03330046
214	0xbccc3512	-0.02492765
215	0xbc86ea4b	-0.016469141
216	0x3d62b60b	0.05534939
217	0xbba61998	-0.005068969
218	0xbd31a1ee	-0.04336732
219	0xbd37abe9	-0.04484168
220	0xbd2f57ee	-0.042808466
221	0xbcf5349b	-0.02993231
222	0xbd3dd170	-0.046342313
223	0x3c2ecb2e	0.010668559
224	0x3d38f3fe	0.045154564
225	0x3cd7c6c3	0.026339894
226	0xb9f24957	-0.0004621248
227	0x3a4db9ae	0.0007847798
228	0x3c4c0418	0.012452148
229	0xbd2de0ed	-0.042450834
230	0xbd35fe7b	-0.044432145
231	0x3cf7b8c0	0.030239463
232	0xbd69b9fa	-0.057062127
233	0xb99188cd	-0.0002775848
234	0xbd3771c0	-0.044786215
235	0xbd9c055f	-0.07618212
236	0x3baf4574	0.0053488556
237	0x3d04c6a0	0.032415986
238	0x3c857cd0	0.016294867
239	0xbd23446a	-0.039860167
240	0xbd662ce5	-0.05619516
241	0xbc943109	-0.018089788
242	0xbcef346b	-0.0291998
243	0xbc9eafa9	-0.01937087
244	0xbd844ed5	-0.064603485
245	0xbce2581a	-0.0276299
246	0xbcac749e	-0.021051701
247	0xbd4af84a	-0.049553193
248	0x3c0be055	0.008537372
249	0x3c3c96b4	0.01151054
250	0xbd84c795	-0.0648338
251	0xbbd0b876	-0.0063696457
252	0x3d1cb477	0.038258042
253	0x3c93d4f7	0.018045885
254	0x3d254918	0.04035291
255	0x3c0047b1	0.007829593

module.conv3.bias f4 [64]
0	0xbd1d4d9c	-0.038404092
1	0xb8848f63	-6.320958e-05
2	0xbd9b3d12	-0.075800076
3	0x3ccab2ab	0.024743399
4	0x3d4ac00a	0.04949955
5	0xbd2f0860	-0.042732596
6	0xbd3da0f9	-0.046296094
7	0x3d7a6efd	0.061141003
8	0x3c673054	0.014110643
9	0xbccb8eb2	-0.024848316
10	0xbd8eb653	-0.06968369
11	0xbd5f250b	-0.054478686
12	0xbd8dfb56	-0.06932704
13	0xbd779af5	-0.060450513
14	0x3cf91e31	0.030409904
15	0xbcde5a55	-0.027142683
16	0x3ce28a8e	0.027653959
17	0x3d73f6c5	0.05956151
18	0xbbcf12d4	-0.006319383
19	0xbd115aa7	-0.035486843
20	0x3d99744a	0.074928835
21	0xbc0ed390	-0.008717433
22	0x3cfb7e54	0.030699886
23	0xbd7a8dc2	-0.061170347
24	0x3ccdddea	0.025130231
25	0xbd840e5d	-0.06448052
26	0xbd24d842	-0.040245302
27	0x3bd6249a	0.006535125
28	0x3d76a6a2	0.060217507
29	0x3c6d4cc7	0.014483637
30	0xbd54d0f2	-0.05195708
31	0x3bde41b0	0.006782733
32	0xbc82e58a	-0.015978593
33	0xbd445db9	-0.047940943
34	0x3d0c7c56	0.034298263
35	0x3d82d115	0.063875355
36	0xbda0cd4a	-0.07851656
37	0xbbc71cd6	-0.0060764356
38	0xbc9bcfa6	-0.019019913
39	0x3d2ad0b6	0.04170295
40	0x3cb9a662	0.022662345
41	0x3da86ee2	0.08224274
42	0x3d6fc768	0.058539778
43	0xbd80d22b	-0.06290086
44	0x3cd31529	0.025766926
45	0xbd1f9b7a	-0.038966633
46	0xbd04967f	-0.032370087
47	0x3d948f75	0.07253925
48	0xbcef88ea	-0.02924009
49	0x3d37a257	0.044832554
50	0x3ca394ae	0.019968357
51	0xbd712f57	-0.058883037
52	0x3d825500	0.06363869
53	0xbca62f51	-0.020286234
54	0x3d87d609	0.06632621
55	0xbd0199e1	-0.03164089
56	0x3d9d72fa	0.07687946
57	0x3d9ee59a	0.07758637
58	0x3d6388cc	0.05555038
59	0x3c610d42	0.013736071
60	0xbc8db847	-0.017299784
61	0xbdaa46b5	-0.083142675
62	0xbd2b7f56	-0.041869484
63	0x3d58145c	0.05275379

module.conv4.weight f4 [128, 64, 3, 3]
0	0x3c43eb3e	0.011957942
1	0x3d35692b	0.04428975
2	0xbc44c9f2	-0.012011038
3	0xbbdccda6	-0.0067383824
4	0xbc5b3caa	-0.013381163
5	0xbc031b37	-0.008002094
6	0xbb5fda49	-0.0034157208
7	0x3c935022	0.017982546
8	0x3d293e21	0.041319016
9	0xbbecba9c	-0.007224394
10	0x3c03ea91	0.00805153
11	0xbd008d3b	-0.031384688
12	0xbcde2baa	-0.02712043
13	0xbcf1d2fa	-0.029519547
14	0x3c9beb72	0.019033168
15	0xbd18d165	-0.03730907
16	0x3bc37a9d	0.0059655444
17	0x3a85edf0	0.0010218006
18	0x3d20ae4b	0.03922872
19	0x3c5bcf33	0.013416099
20	0xbd26c411	-0.040714327
21	0xbc844269	-0.016144948
22	0xbd334f71	-0.043776933
23	0x3cbab4ba	0.022791255
24	0x3d341f72	0.0439753
25	0x3c90c9e9	0.017674403
26	0x3d2d9b18	0.042384237
27	0xbcc9ea15	-0.024647752
28	0xbd56621c	-0.05233966
29	0xbd8244a8	-0.063607514
30	0xbccd57f4	-0.025066353
31	0xbd3dc350	-0.046328843
32	0xbce78fc7	-0.0282668
33	0xbbbcb943	-0.0057593896
34	0x3c64294f	0.013925864
35	0x3bd8154b	0.006594335
36	0x3b201e8c	0.002443227
37	0xbc878d25	-0.016546795
38	0xb9f8a546	-0.00047425384
39	0x3cfe346a	0.031030852
40	0xbbc1f9fe	-0.005919694
41	0xbc3a998b	-0.011389147
42	0xbd154c6c	-0.036449835
43	0xbd637095	-0.05552729
44	0xbcf179f2	-0.029477093
45	0xbbf2eb96	-0.007413338
46	0x3cba5523	0.022745674
47	0xbd01a8eb	-0.031655233
48	0xbabee124	-0.0014562947
49	0x3ca44505	0.020052442
50	0x3c27aba1	0.010233791
51	0xbd125bad	-0.03573196
52	0x3c1940a3	0.0093537895
53	0x3c8cba96	0.017178815
54	0x3cdee48b	0.027208587
55	0x398dd758	0.0002705406
56	0xbd298a6a	-0.041391768
57	0xbd289545	-0.04115798
58	0xbb9dceb3	-0.0048159
59	0xbd06d42f	-0.032917198
60	0x3d078c22	0.033092625
61	0x3cd61672	0.02613375
62	0xbd3b3c1a	-0.045711614
63	0xbcecf061	-0.028923215
64	0xbd73c3a3	-0.059512746
65	0x3c187dd0	0.00930734
66	0xbcc2ab29	-0.023763256
67	0x3ca4bfb2	0.020110939
68	0x3aa73922	0.0012758116
69	0xbd5e32e3	-0.054247748
70	0xbc8ffe0d	-0.017577196
71	0x3cbe694d	0.02324357
72	0xbd349a6c	-0.04409258
73	0xbce8f7e9	-0.028438525
74	0xbc3d9747	-0.011571712
75	0x3c022348	0.007942982
76	0xbd1af90e	-0.037835173
77	0xbc80abae	-0.015706863
78	0x3c5185a5	0.012788211
79	0x3c7d955b	0.015477504
80	0x3d3dd92c	0.04634969
81	0xbd69f6d7	-0.05712017
82	0xbc9286e1	-0.01788658
83	0x3d2a3a4a	0.041559495
84	0xbd29ef34	-0.041487888
85	0x3bfc8992	0.0077068293
86	0xbc87f12f	-0.016594497
87	0xbcde14a0	-0.027109444
88	0xbcb4b71a	-0.022059966
89	0xbc5b2ade	-0.01337692
90	0xbd12afb6	-0.035812102
91	0x3b4253bf	0.0029651967
92	0x3d0e622f	0.034761604
93	0xbd4535f0	-0.048147142
94	0xbc8d09f8	-0.017216668
95	0xbc3071ad	-0.01076929
96	0xbcab6719	-0.020923184
97	0x3c5c9444	0.013463084
98	0x3c4d3a24	0.012526069
99	0x3d06204d	0.03274565
100	0xbb060c64	-0.0020454163
101	0xbd0e5351	-0.034747425
102	0xbb36c2ab	-0.0027887027
103	0x3bc2445a	0.0059285583
104	0x3bfcad4a	0.0077110874
105	0x3cd527f1	0.026020022
106	0xbc7b48ff	-0.015337228
107	0x3cf870f1	0.030327292
108	0x3be546ca	0.006996964
109	0xbd336ddd	-0.043805946
110	0x3c1ee739	0.009698682
111	0xbd0062c8	-0.031344205
112	0x3c798097	0.015228412
113	0x3c813c37	0.015775783
114	0xbcca5673	-0.024699425
115	0xbc4a74e8	-0.012356974
116	0x3cee47cd	0.029086972
117	0x3cf7884c	0.030216359
118	0xbcc0813c	-0.023499124
119	0xbd64cb8b	-0.055858176
120	0x3d1f3e8b	0.038878005
121	0xbb5a06f7	-0.0033268312
122	0xbd262320	-0.04056084
123	0xbcf5c8c1	-0.030002953
124	0xbcdea0c2	-0.027176265
125	0xbcde5260	-0.027138889
126	0xbd074dda	-0.03303323
127	0xbb169403	-0.0022976405
128	0xbd46fb94	-0.048579767
129	0x3cd93f3e	0.026519414
130	0xbd5b3b66	-0.053523444
131	0xbca5de64	-0.020247646
132	0x3ca6833f	0.020326255
133	0xbaaa571a	-0.0012995929
134	0x3cdff372	0.027337763
135	0xbd0411f8	-0.0322437
136	0x3c07896a	0.008272508
137	0x3c89213e	0.016739484
138	0xbc881bc6	-0.016614806
139	0xbbdc39bd	-0.00672075
140	0x3ca93662	0.020655815
141	0x3c0b9d85	0.008521442
142	0x3ce49e62	0.027907554
143	0x3d5d432c	0.05401914
144	0x3be3ea27	0.0069554034
145	0x3c9d85eb	0.019228896
146	0x3cca843f	0.024721263
147	0x3b6ccc72	0.00361326
148	0x3d4c7081	0.04991198
149	0x3caf6a35	0.021412948
150	0x3d2e5344	0.042559877
151	0xbd371806	-0.044700645
152	0x3c94fddc	0.018187456
153	0x3c582902	0.013193371
154	0xbd4bdf96	-0.049773775
155	0xbce56229	-0.028000908
156	0x3bfcbb1f	0.0077127363
157	0xbd2e3dbb	-0.04253934
158	0x3d13b726	0.036063336
159	0xbc52110a	-0.012821445
160	0xbd687aad	-0.056757618
161	0x3c38d9b9	0.011282378
162	0xbbbf8c09	-0.005845551
163	0x3c49c49b	0.012314941
164	0x3bc2b891	0.005942412
165	0xbd05152a	-0.032490887
166	0xbd13ed45	-0.03611495
167	0xbcc50944	-0.02405227
168	0x3cac9a81	0.021069767
169	0xbbb30157	-0.005462806
170	0xbcf01ee9	-0.029311614
171	0xbc03b279	-0.008038157
172	0xbbe9b7cc	-0.007132506
173	0x3c7987b9	0.015230113
174	0xbc8a361e	-0.016871508
175	0x3c97f06c	0.01854726
176	0xbd0ffc6c	-0.035152838
177	0x3b854955	0.0040675797
178	0x3c8c4d30	0.01712665
179	0xbd142b58	-0.03617415
180	0xbd6bfae7	-0.057612326
181	0xbd478773	-0.04871316
182	0xbd318f23	-0.043349396
183	0xbd7fd93b	-0.062463026
184	0xbcd3a943	-0.025837546
185	0x3ccfda48	0.02537264
186	0x3cda2010	0.026626617
187	0xbc9a9134	-0.018868066
188	0x398016cf	0.00024431056
189	0xbc46832e	-0.012116237
190	0x3cef1a39	0.029187309
191	0xbc9e9c67	-0.019361688
192	0x3d26dce7	0.040738013
193	0x3d30c2a2	0.043154366
194	0x3c0b57db	0.008504833
195	0x3b93f54b	0.004515325
196	0xbbd62791	-0.0065354784
197	0x3c7bd1d0	0.015369847
198	0xbd419fa8	-0.0472714
199	0xbd1b66da	-0.037939884
200	0x3d1c5919	0.038170908
201	0x3cbf8d00	0.023382664
202	0x3c9c05be	0.019045707
203	0xbb9b6bc4	-0.0047430713
204	0x3cc3cff3	0.023902869
205	0xbd0d56a6	-0.034506463
206	0x3cd4fc97	0.02599935
207	0x3cf3e66c	0.02977296
208	0xbd3983bc	-0.045291647
209	0xbc662b17	-0.014048359
210	0x3d22a1cb	0.03970508
211	0xbcb57d97	-0.022154612
212	0xbd1c04c2	-0.038090475
213	0xbd2b2330	-0.041781604
214	0x3ca32fca	0.019920249
215	0xbcab3d30	-0.0209032
216	0xbcf0d9ba	-0.029400695
217	0xbd821b81	-0.06352902
218	0xbca4220e	-0.02003577
219	0x3a1fddf6	0.00060984434
220	0xbc572daf	-0.01313345
221	0x3c6cdd0d	0.0144569995
222	0xbc500d78	-0.012698524
223	0x3d0e2900	0.03470707
224	0xbd146e0c	-0.03623776
225	0x3cd10b47	0.025518073
226	0x3c06a3cb	0.008217762
227	0xbca6568e	-0.020304944
228	0xbd1972f5	-0.037463147
229	0xbc6780ef	-0.014129861
230	0x3d1de986	0.038552783
231	0xbc0d2fff	-0.0086174
232	0xbd37f7e4	-0.04491414
233	0x3cbbe0b9	0.022934305
234	0x3c931de8	0.017958596
235	0xbba3b9b8	-0.0049965046
236	0xbd23bb32	-0.039973445
237	0x3c12ba9f	0.008955627
238	0x3bd98de9	0.0066392315
239	0xbd16c6c5	-0.036810655
240	0x3c81b077	0.015831215
241	0xbd057fe9	-0.032592688
242	0x3ce8ad2f	0.028402893
243	0xbd60906f	-0.054825243
244	0xbcbf6cac	-0.023367248
245	0xbd25d26b	-0.040483873
246	0xbb8a4a87	-0.00422031
247	0x3c9f8600	0.019473076
248	0x3ccea809	0.02522661
249	0x3b8f5d86	0.0043751625
250	0xbcd3f396	-0.025872987
251	0xbd23dd1f	-0.0400058
252	0x39d84188	0.00041247555
253	0xbd298fa6	-0.04139676
254	0xbcd6ffdf	-0.026245056
255	0xbc17570b	-0.009237061

module.conv4.bias f4 [128]
0	0xbd81b737	-0.063337736
1	0x3ce5de77	0.028060181
2	0xbd637aa4	-0.05553688
3	0xbd5b7a77	-0.05358359
4	0x3cbfef29	0.02342947
5	0x3c95a980	0.0182693
6	0x3cfd15e4	0.030894227
7	0x3cf878af	0.030330984
8	0x3cf8ff13	0.030395066
9	0xbd4682e9	-0.04846469
10	0x3c560751	0.013063268
11	0xbd56c0b0	-0.052429855
12	0xbd28d7ee	-0.04122155
13	0xbde74f5a	-0.11294432
14	0x3c0437c6	0.008069938
15	0xbd27dcf8	-0.040982217
16	0x3d14c97c	0.036324963
17	0xbbffae48	-0.0078027584
18	0x3cb74015	0.022369424
19	0x3d0600f4	0.032715753
20	0x3d59e023	0.05319227
21	0x3d53c03a	0.051696993
22	0x3bf24558	0.0073935203
23	0x3c86c3ca	0.016450781
24	0x3d1ec48c	0.03876166
25	0x3d4c18b9	0.049828265
26	0xbd872b50	-0.06600058
27	0xbd288074	-0.041138127
28	0xbc941fc4	-0.018081553
29	0x3d57f3a2	0.05272258
30	0x3c9302fc	0.017945759
31	0x3b50aefc	0.003184258
32	0xbd6565c8	-0.05600527
33	0x3c903db8	0.017607555
34	0x3c3ef0a3	0.011654052
35	0xbcbe4102	-0.023224358
36	0x3d5f034b	0.0544465
37	0xbcd2ee98	-0.025748536
38	0x3d237cd2	0.03991396
39	0x3c586457	0.013207517
40	0x3cf83d91	0.030302795
41	0xbc2b02d5	-0.010437687
42	0xbd78232e	-0.060580425
43	0xbd1d73d7	-0.03844055
44	0x3cddae7d	0.027060742
45	0xbca29ea1	-0.01985103
46	0x3d488c2f	0.048961814
47	0xbd236d9f	-0.039899465
48	0xbd62cbd3	-0.055370163
49	0xbc3f02aa	-0.01165835
50	0xbd860b83	-0.065451644
51	0xbd3c7e42	-0.046018846
52	0x3d301a98	0.04299411
53	0xbd75af6a	-0.05998174
54	0xbcb8c9d4	-0.022557177
55	0x3d626979	0.055276368
56	0x3a2d3e4e	0.00066087104
57	0xbd62067f	-0.055181976
58	0xbd2bc0e0	-0.041931987
59	0x3d0e4fe7	0.03474417
60	0xbd3b1fd6	-0.045684658
61	0xbb881fd2	-0.004154184
62	0x3cc893bc	0.024484508
63	0xbd051718	-0.032492727
64	0xbd66ce44	-0.056349054
65	0x3d0eeff6	0.034896813
66	0x3c1b0407	0.009461409
67	0xbcc456af	-0.023967115
68	0x3c94c172	0.018158648
69	0x3c72c33e	0.014817057
70	0x3d44cb1a	0.048045255
71	0xbd02751b	-0.03184996
72	0xbd85601f	-0.06512474
73	0xbd69d7f4	-0.057090715
74	0xbce85c23	-0.028364247
75	0x3c879e44	0.01655496
76	0xbceefb30	-0.02917251
77	0x3d5561db	0.052095275
78	0xbd5c5674	-0.053793386
79	0x3a88152c	0.0010382286
80	0xbb904864	-0.004403161
81	0x3d5ffcc1	0.054684404
82	0xbb726e78	-0.0036992114
83	0xbb29a03f	-0.0025882868
84	0xbcb4bda4	-0.022063084
85	0xbda482ac	-0.08032736
86	0x3c6e14f3	0.014531362
87	0xbbaa58f8	-0.005198594
88	0x3d4262e2	0.047457583
89	0xbc5ca0cf	-0.013466074
90	0x3ccb9430	0.024850935
91	0xbd2f5b1c	-0.042811498
92	0x3c020af4	0.007937182
93	0x3d11520c	0.035478637
94	0x3d11b289	0.035570655
95	0x3cf74e4c	0.030188702
96	0xbcda9e5b	-0.026686838
97	0xbd60c7b7	-0.054877963
98	0xbd0706af	-0.03296536
99	0xbb86439a	-0.004097414
100	0xbd6fb66b	-0.058523577
101	0x3d140267	0.036135104
102	0xbbce25da	-0.0062911334
103	0xbd201b63	-0.039088618
104	0xbc897237	-0.016778095
105	0xbd357efa	-0.044310547
106	0x3d1555c6	0.036458753
107	0x3ca7bdcc	0.020476244
108	0x3cbcf145	0.023064265
109	0xbc222c9c	-0.009898331
110	0x3cf48df3	0.029852843
111	0x3d3eaacc	0.046549603
112	0xbceb368c	-0.028712533
113	0xbc4fe7a4	-0.012689505
114	0x3d1115d9	0.035421226
115	0xbd45d982	-0.048303135
116	0xbd833ef2	-0.0640849
117	0xbc87226d	-0.016495908
118	0x3d0d5220	0.03450215
119	0x3c9710da	0.018440653
120	0x3d1d7b28	0.03844753
121	0xbc8452c8	-0.016152754
122	0x3c301ad2	0.010748582
123	0x3bef3270	0.007299714
124	0x3b5d1558	0.0033734646
125	0xbd25958d	-0.040425826
126	0xbd56a019	-0.052398775
127	0x3d5eb0f1	0.054367963

module.conv1T.weight f4 [128, 64, 3, 3]
0	0x3e80c864	0.25152886
1	0x3d1683a0	0.03674662
2	0xbe0a5356	-0.13508353
3	0xbd811752	-0.06303276
4	0x3e2bdf67	0.1678444
5	0x3e41d716	0.18929705
6	0x3e94215f	0.2893171
7	0x3de6bb3c	0.11266181
8	0x3df929f0	0.12166202
9	0x3dfdde84	0.12395957
10	0x3c6f5741	0.014608205
11	0x3b40cc8c	0.0029418794
12	0xbc976e8e	-0.018485334
13	0x3e836b70	0.25667906
14	0x3e403c8e	0.187731
15	0x3d3278cb	0.04357223
16	0x3dc5aa04	0.096515685
17	0x3e9e4596	0.30912465
18	0x3d8fc447	0.07019859
19	0x3c11e393	0.008904356
20	0xbe379c88	-0.17930806
21	0x3e021bd8	0.12705934
22	0x3dd2bfef	0.10290515
23	0x3cbf28e8	0.023334935
24	0x3e05a9d4	0.13053066
25	0x3e02e01e	0.12780806
26	0x3e6eddac	0.23326749
27	0xbd68863a	-0.056768633
28	0xbdcef706	-0.1010571
29	0x3d870bcf	0.06594049
30	0x3cc7a977	0.0243728
31	0x3e3869b3	0.18009071
32	0x3e336507	0.17519008
33	0x3d6c8522	0.057744153
34	0x3e85c55f	0.26127145
35	0x3ddff03d	0.10934494
36	0x3e1f5ce6	0.15562782
37	0xbe0b3e00	-0.1359787
38	0xbe087914	-0.13327438
39	0xbca4a4f2	-0.020098183
40	0xbd9ba641	-0.0760007
41	0x3dca13ae	0.09867035
42	0x3e651d33	0.2237442
43	0x3d31ed1e	0.043439023
44	0x3d5a51a2	0.053300507
45	0xbc715531	-0.014729784
46	0xbc0f65e7	-0.008752323
47	0x3a9ab0ec	0.0011801994
48	0xbd005964	-0.03133525
49	0x3c366cb2	0.011134313
50	0x3e37058e	0.17873213
51	0x3db6cef6	0.089261934
52	0x3d83514f	0.06411993
53	0x3e69717c	0.22797197
54	0x3e86b63b	0.26310906
55	0xbd30e5d7	-0.043187942
56	0x3d5ebdac	0.054380104
57	0x3e3a64ce	0.18202516
58	0x3c5611b9	0.013065749
59	0x3e228439	0.15870751
60	0x3e619f9f	0.22033547
61	0x3dc06041	0.09393359
62	0x3d9b7296	0.07590215
63	0xbd19dd64	-0.03756465
64	0x3d7f297a	0.062295415
65	0xbdaecb72	-0.08534898
66	0xbcff93d5	-0.031198421
67	0x3e1201d3	0.14258508
68	0x3de6b353	0.11264672
69	0xbd8d8627	-0.06910353
70	0x3e4f84f5	0.20265563
71	0x3e8176ea	0.25286037
72	0xbe01809e	-0.1264672
73	0x3e35583a	0.17709437
74	0xbc21d963	-0.009878489
75	0xbd13d6af	-0.03609341
76	0x3e9b93cb	0.30386195
77	0x3e0c9d07	0.13731776
78	0xbd922b34	-0.071371466
79	0x3d2e919e	0.04261934
80	0x3e8529b6	0.26008385
81	0x3e4d294d	0.20035286
82	0xbdb65471	-0.08902825
83	0xbe1f3357	-0.15546928
84	0xbc9d46a9	-0.019198732
85	0xbcb068e8	-0.021534398
86	0x3dd248d4	0.10267797
87	0x3e1dba89	0.15403189
88	0x3d4ba2dc	0.04971586
89	0x3e5c9745	0.2154208
90	0xbdb4fb10	-0.08836949
91	0xbe8b13fc	-0.27163684
92	0x39094b1d	0.0001309332
93	0x3da7f79b	0.08201524
94	0x3cbdd4ec	0.023172818
95	0x3e110524	0.14162117
96	0x3deef416	0.116676494
97	0x3e30ebbc	0.17277426
98	0x3dbb93dc	0.09159061
99	0x3e1f0163	0.15527873
100	0xbe6c7756	-0.23092398
101	0xbe260cb0	-0.16215777
102	0x3d23311b	0.039841752
103	0xbd90964a	-0.07059915
104	0x3e1cc92e	0.15311119
105	0x3e5bfe2d	0.21483679
106	0x3e559f9b	0.20861666
107	0xbcc5c922	-0.02414376
108	0x3da1fa55	0.07909075
109	0x3d343749	0.043998037
110	0x3d1763a3	0.036960255
111	0x3e9d9cd3	0.3078371
112	0x3df10f0c	0.11770448
113	0x3e262bb5	0.1622761
114	0x3eb48a39	0.35261706
115	0x3d98998c	0.07451162
116	0x3e659d50	0.22423291
117	0x3e095973	0.13413028
118	0xbdfb75e9	-0.12278349
119	0xbd84ad63	-0.064783834
120	0x3ce36001	0.02775574
121	0x3e97ede7	0.29673693
122	0x3e1ae775	0.15127356
123	0x3df8677e	0.121291146
124	0x3bb47b8c	0.005507892
125	0x3e45936c	0.19294518
126	0x3c2844fd	0.010270354
127	0xbd97c39d	-0.07410357
128	0xbde59502	-0.112100616
129	0x3cb4849f	0.022035895
130	0x3dada045	0.084778346
131	0x3d7416a9	0.059591923
132	0x3e0a8b1b	0.13529627
133	0x3e10d520	0.141438
134	0x3dc0325d	0.09384606
135	0x3e2f7bed	0.17137118
136	0x3d9a25f1	0.07526768
137	0x3d799be0	0.06093967
138	0x3e7efb2d	0.24900503
139	0xbe0f5017	-0.13995396
140	0x3e6ccf4b	0.23125951
141	0xbb6f4467	-0.0036509277
142	0x3e154ff0	0.14581275
143	0x3de45195	0.11148373
144	0xbccdeaad	-0.025136316
145	0x3d136371	0.035983507
146	0xbe0ae330	-0.13563228
147	0x3d39e861	0.04538763
148	0xbe3befb3	-0.18353157
149	0x3e242561	0.16029884
150	0x3dff045a	0.12452002
151	0x3d68055a	0.05664573
152	0x3e4c25c2	0.19936278
153	0x3d0ced57	0.034406032
154	0xbdf9c482	-0.12195684
155	0x3cbe4a7c	0.023228876
156	0xbdb2affa	-0.08724971
157	0x3e13c877	0.1443194
158	0x3eb316ca	0.34978324
159	0x3e87efbf	0.265501
160	0x3e63443f	0.22194003
161	0x3dd53248	0.10409981
162	0xbe237f0b	-0.15966432
163	0xbd1f01bd	-0.038820017
164	0xbe2f52f2	-0.17121485
165	0x3d9b1e95	0.075741924
166	0x3ea9eac2	0.33186918
167	0x3e7ec569	0.24879993
168	0xbd9bf919	-0.07615871
169	0x3e57830d	0.21046086
170	0x3e398607	0.18117534
171	0x3ca2494c	0.019810341
172	0xbcfe5106	-0.031044494
173	0x3c97b62e	0.018519487
174	0x39fd7439	0.00048342513
175	0x3ddd5e46	0.10808997
176	0x3dcc02d9	0.09961481
177	0x3df7f095	0.12106434
178	0x3e143f1b	0.14477198
179	0x3e9e3e28	0.30906796
180	0xbe2384ae	-0.15968582
181	0xbdb82ebb	-0.08993288
182	0xbd31a232	-0.043367572
183	0xbcd71c1e	-0.026258525
184	0x3e4b35b4	0.19844705
185	0x3e14e78f	0.14541458
186	0x3d9ac747	0.075575404
187	0x3e0cf839	0.13766564
188	0x3e73f972	0.23825625
189	0x3e45843b	0.19288723
190	0x3d0c7c04	0.034297958
191	0xbd8f5944	-0.06999448
192	0x3e78f9e7	0.2431408
193	0x3e0621f0	0.13098884
194	0x3e0c4e9a	0.13701859
195	0x3d83a896	0.064286396
196	0xbc2cfe37	-0.010558656
197	0x3e4b8af4	0.19877225
198	0x3d316faa	0.04331938
199	0x3e0c4b35	0.13700564
200	0x3e0cf5f4	0.13765699
201	0x3dd42482	0.10358526
202	0x3d4399b1	0.047753993
203	0xbd6723c0	-0.05643058
204	0x3b3efce9	0.0029142445
205	0x3e3fc4e8	0.18727458
206	0xbcf9d637	-0.030497653
207	0xbe0ef1af	-0.13959382
208	0xbdd59d71	-0.1043042
209	0x3c8fec43	0.017568713
210	0x3d5dc542	0.054143198
211	0x3e1642c9	0.14673914
212	0x3e1f859a	0.15578309
213	0x3dfa0c59	0.122093864
214	0x3de52032	0.111877814
215	0x3e8f4050	0.27978754
216	0xbe6271c2	-0.22113708
217	0xbdedc400	-0.1160965
218	0x3d5062b4	0.05087538
219	0xbc15ac65	-0.00913534
220	0x3d84d3b4	0.06485692
221	0x3e5eecfb	0.21770088
222	0x3e360293	0.1777442
223	0x3e2aaddc	0.16667885
224	0x3e489d12	0.19591168
225	0x3c41f69a	0.01183858
226	0xbd05a4b8	-0.03262779
227	0x3df21cbe	0.118218884
228	0x3d97be5b	0.07409354
229	0x3db60c4e	0.08889066
230	0x3e9c3b2b	0.30513892
231	0x3e214e77	0.15752588
232	0x3dda4f35	0.10659639
233	0x3e3dfdbb	0.18553822
234	0xbdab1c23	-0.08354976
235	0xbbff4c47	-0.0077910754
236	0xbe3bc689	-0.18337454
237	0xbc1cbbfe	-0.009566305
238	0x3e2037a0	0.15646219
239	0x3d68b523	0.05681337
240	0x3e3bc8b3	0.1833828
241	0x3db3d515	0.087808765
242	0x3eb2f92e	0.34955734
243	0xbb824bcc	-0.003976321
244	0xbe1a5a8f	-0.15073608
245	0xbe4d19ff	-0.20029448
246	0x3d607c80	0.054806232
247	0x3d784413	0.060611796
248	0x3eb7c2ca	0.358908
249	0x3d64cfb5	0.055862147
250	0x3e60fdb4	0.2197178
251	0x3e30637c	0.1722545
252	0x3eae4534	0.34037173
253	0xbd54a98c	-0.051919505
254	0x3e9312ec	0.28725374
255	0x3e741e40	0.23839664

module.conv1T.bias f4 [64]
0	0xbc93a0c6	-0.018020999
1	0xbdaa4579	-0.08314032
2	0xbd2a2984	-0.0415435
3	0xbd605175	-0.054765183
4	0xbc6e3ab2	-0.014540361
5	0x3d377606	0.04479029
6	0x3db8d766	0.09025459
7	0x3d198059	0.037475917
8	0xbd59afea	-0.05314628
9	0xba086376	-0.0005202809
10	0x3bea968a	0.007159059
11	0x3d640aa9	0.05567423
12	0x3dad4c3a	0.08461805
13	0xbb2ec0b7	-0.002666516
14	0x3d785224	0.06062521
15	0x3cc3a85b	0.02388399
16	0xbd9aaab5	-0.07552091
17	0xbdcf5993	-0.10124507
18	0xbc6927f5	-0.014230718
19	0xbc9fffab	-0.019531092
20	0xbda9b199	-0.08285827
21	0x3d177092	0.03697259
22	0x3d2cc89e	0.04218351
23	0x3da83f70	0.08215225
24	0xbda0d519	-0.07853145
25	0x3aebcd7d	0.0017990317
26	0x3d846fd8	0.06466645
27	0xbd6d6620	-0.057958722
28	0x3d138208	0.03601268
29	0xbbf0251c	-0.0073286425
30	0xbb3434d6	-0.0027497313
31	0x3c7da2c5	0.015480702
32	0x3cc5d395	0.024148742
33	0x3d276936	0.04087182
34	0xbd2903e1	-0.041263465
35	0x3d1c2084	0.038116947
36	0x3cf1d2bf	0.029519437
37	0xbd398529	-0.045293007
38	0x3cb919e0	0.022595346
39	0x3ca6ad50	0.020346314
40	0x3cb5ceda	0.022193361
41	0xbe04b0f8	-0.12958133
42	0x3c678fae	0.014133377
43	0x3d6516a6	0.055929802
44	0xbd2373fe	-0.03990554
45	0xbcf35782	-0.029704813
46	0x3ccca71c	0.024982028
47	0xbc634bc8	-0.013873048
48	0x3df98b0f	0.121847264
49	0x3b53f254	0.0032340484
50	0x3d901f6f	0.070372455
51	0x3d453be3	0.048152816
52	0xbd272e94	-0.040815905
53	0x3d03afb4	0.032149985
54	0xbd21a21c	-0.03946124
55	0xbd249248	-0.040178567
56	0xbdba8c23	-0.0910876
57	0xbcca61ee	-0.0247049
58	0x3d328664	0.043585196
59	0xbd023837	-0.031791892
60	0x3c5bd85c	0.013418283
61	0xbcd6ba36	-0.02621184
62	0xbc4b12a2	-0.012394579
63	0xbb5b3599	-0.0033448695

module.conv2T.weight f4 [64, 32, 3, 3]
0	0xbc1e1248	-0.009647913
1	0xbdb44af7	-0.08803361
2	0xbe7be53f	-0.24599169
3	0xbc2dbf90	-0.010604754
4	0x3e529744	0.20565516
5	0x3c81600f	0.015792875
6	0xbbb71589	-0.005587284
7	0x3e40ff22	0.18847325
8	0x3d57bab2	0.05266828
9	0x3ecc6f08	0.3992846
10	0xbcba08b1	-0.022709223
11	0xbe9de042	-0.30835158
12	0x3cb79d55	0.022413889
13	0xbdd1b06c	-0.10238728
14	0x3e301543	0.1719561
15	0x3d9ff8e2	0.078111425
16	0x3e0f54e7	0.13997231
17	0x3d4e0bd7	0.05030426
18	0xbc570000	-0.013122559
19	0x3e478d87	0.19487582
20	0x3d802b88	0.06258303
21	0x3e81e3e7	0.25369188
22	0x3e40612e	0.18787071
23	0x3c82fed3	0.01599065
24	0xbd731c26	-0.059353016
25	0x3d10f5dc	0.03539072
26	0x3e60cc69	0.21952976
27	0x3de4a1d1	0.111636765
28	0x3e8fa660	0.28056622
29	0x3dd26425	0.10273007
30	0xbdc97d1f	-0.09838318
31	0x3e783e1a	0.2424244
32	0x3dbcb494	0.0921413
33	0x3e1f46ec	0.15554398
34	0xbd0d7f66	-0.034545325
35	0xbdf59800	-0.11991882
36	0xbe5fde42	-0.21862128
37	0xbd9a007d	-0.075196244
38	0xbe68155a	-0.22664395
39	0x3e9d077c	0.30669773
40	0x3dbb3a0b	0.0914193
41	0x3dea1ae8	0.11430913
42	0x3cb566fe	0.022143837
43	0x3c472aed	0.01215623
44	0x3d5a547b	0.053303223
45	0x3dc4b694	0.096051365
46	0x3d62cab0	0.05536908
47	0x3d81b770	0.06333816
48	0x3e846f14	0.25865996
49	0x3e002be8	0.12516749
50	0x3e8957ff	0.26824948
51	0x3ccce824	0.025013037
52	0xbe2c483c	-0.1682443
53	0x3dd198b0	0.10234201
54	0xbe30059f	-0.17189644
55	0x3e95dcea	0.29270107
56	0xbe965967	-0.29365084
57	0x3e2f1a17	0.17099796
58	0x3d5f5932	0.054528423
59	0xbc154bf1	-0.009112344
60	0xbe399909	-0.18124785
61	0x3d5290d4	0.05140765
62	0x3db63ed2	0.08898701
63	0xbdc8fe6d	-0.09814153
64	0xbe6b6652	-0.22988251
65	0xbca6a817	-0.020343823
66	0x3e86300f	0.2620854
67	0x3e76e981	0.24112512
68	0x3da0bb6b	0.07848247
69	0x3c5b600d	0.0133895995
70	0x3de392dd	0.11111996
71	0xbd5a2ac9	-0.05326346
72	0xbe1a3e0a	-0.15062729
73	0xbe397969	-0.1811272
74	0xbd23bb19	-0.039973352
75	0x3e26a545	0.16273983
76	0x3dea6a2f	0.11446034
77	0x3d6e7694	0.058218554
78	0xbe64f33e	-0.22358415
79	0x3cff81fb	0.03118991
80	0x3ccefb50	0.02526632
81	0x3dd56615	0.10419861
82	0xbe128bfb	-0.14311211
83	0xbea14f99	-0.3150604
84	0x3e86d73c	0.26336086
85	0x3e57fab1	0.21091725
86	0x3d890fa3	0.066924356
87	0xbd812343	-0.06305554
88	0x3e6baacc	0.23014373
89	0x3d999174	0.07498446
90	0x3e56c7ab	0.20974605
91	0x3dc4fa75	0.096180834
92	0x3c9dbc90	0.019254953
93	0x3e953f1a	0.29149705
94	0x3da1b7a5	0.078963555
95	0x39502790	0.00019851164
96	0x3e40bb1f	0.18821381
97	0xbe0cecc1	-0.1376219
98	0x3dcac777	0.09901326
99	0xbdbc8cc7	-0.09206539
100	0x3ec2ae6e	0.38023704
101	0x3d560368	0.052249342
102	0x3d8803e4	0.06641367
103	0x3d0af035	0.033920486
104	0x3b8582cb	0.0040744296
105	0x3d2b656a	0.041844763
106	0x3e07cbb1	0.13261296
107	0x3d3ec108	0.046570808
108	0x3df792c3	0.120885395
109	0x3e7e101e	0.24810836
110	0xbe8ace08	-0.27110314
111	0x3e1662e8	0.14686167
112	0x3e3e3fcf	0.18579029
113	0x3dc184a9	0.09449131
114	0x3ebb6db2	0.36607128
115	0x3d03cec7	0.03217962
116	0x3cf45ec9	0.029830353
117	0xbe7f712e	-0.24945518
118	0xbe18418d	-0.14868756
119	0xbd6c36c8	-0.05766943
120	0x3e59ae5e	0.21257922
121	0x3dc67143	0.09689572
122	0xbda0b352	-0.07846703
123	0x3e852419	0.26004103
124	0xbce9ca73	-0.028538918
125	0x3e640f13	0.22271375
126	0x3eead1e6	0.45863265
127	0x3df07085	0.117402114
128	0xbe8837a6	-0.26604956
129	0x3e03c307	0.12867366
130	0xbe08f04b	-0.13372914
131	0x3e5fcdd8	0.21855867
132	0x3ddf9824	0.109176904
133	0x3e8d71b0	0.276258
134	0x3da77ecb	0.08178481
135	0x3e71cda6	0.23613605
136	0xbe8f6be6	-0.28012007
137	0xbe8e2759	-0.27764395
138	0x3e159663	0.14608149
139	0x3dff0c65	0.12453536
140	0x3d9639f6	0.07335274
141	0x3d7f5c16	0.06234368
142	0x3e56ac08	0.20964062
143	0x3d3eb5b7	0.046560016
144	0x3e1b3cb0	0.15159869
145	0xbdb6430c	-0.08899507
146	0xbcc41337	-0.023934944
147	0x3e87e522	0.26542002
148	0xbd9336f4	-0.07188216
149	0x3e4d6c8f	0.20060943
150	0x3e1dd6d2	0.15413979
151	0xbdeb403a	-0.114868596
152	0x3e2a8f64	0.16656262
153	0x3df5abb7	0.11995643
154	0xbe7c9712	-0.24667004
155	0xbe94d056	-0.29065198
156	0x3e9f81d2	0.31153733
157	0x3e4fa619	0.20278205
158	0xbdb37bfe	-0.08763884
159	0xbb608666	-0.0034259795
160	0xbccafe95	-0.024779597
161	0x3de178ef	0.110093944
162	0x3d84d93f	0.06486749
163	0xbddf6782	-0.109084144
164	0xbb5f54fd	-0.0034077757
165	0x3dd4795e	0.103747115
166	0x3e9eaa22	0.30989176
167	0x3e4a231a	0.19739953
168	0x3e191027	0.14947568
169	0xbd9ea0f7	-0.07745545
170	0x3de8862e	0.11353718
171	0x3e1f9703	0.1558495
172	0xbe338bcb	-0.17533796
173	0xbe78cbc3	-0.24296479
174	0x3dd83876	0.10557644
175	0x3dfb33b1	0.12265719
176	0x3def3f82	0.11682035
177	0x3e3a2f16	0.18182024
178	0x3e196951	0.14981581
179	0x3dd5c792	0.10438456
180	0x3ee3122d	0.44349805
181	0x3ece4dc1	0.40293697
182	0x3e287e48	0.16454422
183	0x3e0e22a7	0.13880406
184	0x3e047bac	0.12937802
185	0x3e495590	0.19661546
186	0x3d904cfc	0.070459336
187	0xbd27c4c0	-0.04095912
188	0xbc51a58c	-0.012795817
189	0x3e2f35d0	0.17110372
190	0xbe2e2fc5	-0.1701041
191	0x3e23b3f0	0.1598661
192	0x3e54befc	0.2077598
193	0x3e8996b4	0.2687279
194	0x3c8f5efa	0.017501343
195	0xbe2a80d7	-0.16650711
196	0x3e23eb00	0.16007614
197	0x3d232475	0.03982969
198	0x3dea800e	0.11450206
199	0xbedc933a	-0.43081075
200	0xbe0a6ff0	-0.13519263
201	0x3e8b5fdb	0.2722157
202	0x3dd8f4a3	0.10593536
203	0x3e577a3c	0.21042722
204	0xbe63df67	-0.2225319
205	0x3e0645f5	0.13112624
206	0x3ec37b31	0.38179925
207	0x3c431ec8	0.011909194
208	0xbe7b5dbc	-0.24547476
209	0xbe9ddd43	-0.30832872
210	0x3ec72979	0.3889883
211	0x3ea3f49b	0.32022557
212	0x3e0feda2	0.14055493
213	0x3cb2f90a	0.021847267
214	0x3cb1e90a	0.021717567
215	0xbcba837d	-0.022767777
216	0x3e874dc5	0.2642652
217	0xbedec08d	-0.4350628
218	0xbe2121af	-0.15735506
219	0x3e12bcf5	0.14329894
220	0x3ea1744c	0.3153404
221	0x3e1acd61	0.15117408
222	0x3db6aac8	0.08919293
223	0x3d594ca8	0.05305162
224	0x3dbee692	0.093213215
225	0x3eacdd27	0.33762476
226	0x3d6ab3c0	0.05730033
227	0xbe6ce2e1	-0.23133422
228	0x3e0bd2a7	0.13654576
229	0x3e5e5a9d	0.21714254
230	0xbd905a5e	-0.07048486
231	0x3d87bafe	0.06627463
232	0x3def5b00	0.11687279
233	0x3df02210	0.11725247
234	0x3e977f5c	0.29589355
235	0x3e9722c7	0.2951872
236	0x3e9a8382	0.30178457
237	0x3e327169	0.17426075
238	0xbcaef3a1	-0.021356406
239	0x3e1f8d1d	0.15581174
240	0xbcee79bd	-0.029110784
241	0xbe169eb8	-0.14708984
242	0xbb37480a	-0.0027966523
243	0x3e9d2ee6	0.30699843
244	0xbe401fb0	-0.18762088
245	0x3e5e4bb3	0.21708564
246	0x3f17bb42	0.5927011
247	0x3d535ee8	0.05160418
248	0x3e01f5cc	0.1269142
249	0x3dfa08f3	0.12208738
250	0xbd2cdf87	-0.04220536
251	0x3e8bae13	0.27281246
252	0xbc803f6b	-0.01565524
253	0xbea75be5	-0.32687297
254	0x3b953cdd	0.0045543746
255	0x3e961d52	0.29319245

module.conv2T.bias f4 [32]
0	0xbd956e82	-0.07296468
1	0xbcb648f5	-0.022251585
2	0xbd35950b	-0.04433159
3	0x3e216008	0.1575929
4	0x3b91d173	0.004450017
5	0x3db37a23	0.0876353
6	0x3dd611f2	0.104526415
7	0xbda9073e	-0.082533345
8	0x3e0f95f2	0.14022043
9	0x3df902d1	0.1215874
10	0xbdb5a9a3	-0.08870246
11	0xbdd3ab61	-0.10335422
12	0xbd6301de	-0.055421703
13	0x3c939be0	0.018018663
14	0x3c6f3820	0.014600784
15	0xbc63137e	-0.013859628
16	0x3df627d2	0.12019314
17	0x3dc246b5	0.094861425
18	0xbe43e9eb	-0.19132201
19	0xbe0ff7d9	-0.1405939
20	0xbe1accb8	-0.15117157
21	0xbe83f67f	-0.25774
22	0x3d8f9c2c	0.07012209
23	0x3e2123f6	0.15736374
24	0xbe389ed8	-0.18029344
25	0x3df4e582	0.11957838
26	0xbd8e213b	-0.06939932
27	0x3ce2add7	0.027670784
28	0x3eec9e6d	0.4621462
29	0xbd8ac95e	-0.06776689
30	0xbd023d92	-0.031797
31	0x3e3f7243	0.18695931
